results/models/strong/strong_audio_tcn_checkpoint.pt (torch_old, 734834 bytes, 52 tensors)

audio_TCN.0.network.0.conv.bias f4 [32]
-0.08831764 -0.053231128 -0.09191278 -0.09529213 0.07725361 -0.03595338 0.10587924 -0.038577832
-0.09507777 -0.039447572 -0.044637058 -0.081209496 -0.1079452 -0.08832865 -0.010134436 -0.103503905
-0.02964659 -0.064803086 -0.081561066 0.0863249 -0.054520536 0.053723603 -0.07133853 0.021442294
-0.054662276 -0.059864186 -0.09484226 -0.07852801 0.16217007 -0.008228516 0.18652019 -0.05952081
00000000: e1df b4bd e208 5abd c53c bcbd 8528 c3bd
00000010: 2437 9e3d da43 13bd 37d7 d83d ca03 1ebd
00000020: 22b8 c2bd c793 21bd 59d5 36bd 2a51 a6bd
00000030: 5f12 ddbd a7e5 b4bd e80a 26bc dbf9 d3bd
00000040: 68dd f2bc 7bb7 84bd 7d09 a7bd 1ccb b03d
00000050: ed50 5fbd 480d 5c3d ef19 92bd c0a7 af3c
00000060: 8de5 5fbd 2634 75bd a93c c2bd 4bd3 a0bd
00000070: e90f 263e e6d0 06bc 26ff 3e3e 18cc 73bd

audio_TCN.0.network.0.conv.weight_g f4 [32, 1, 1]
0.60772914 0.58444554 0.55399925 0.76690036 0.6994352 0.5392142 0.75646186 0.55154204
0.62549084 0.5754012 0.60178214 0.6106176 0.5312927 0.5166177 0.60201603 0.7173102
0.55954367 0.58180356 0.5721309 0.71294284 0.5316905 0.54214877 0.5844906 0.5829997
0.53734285 0.55493855 0.5566743 0.5168286 0.896264 0.8051526 1.0627693 0.578774
00000000: 2394 1b3f 399e 153f e5d2 0d3f 9553 443f
00000010: 2f0e 333f f109 0a3f 7ca7 413f dc31 0d3f
00000020: 2b20 203f 7e4d 133f 650e 1a3f 6f51 1c3f
00000030: cc02 083f 0f41 043f b91d 1a3f a4a1 373f
00000040: 413e 0f3f 14f1 143f 2c77 123f 6c83 363f
00000050: de1c 083f 43ca 0a3f 2da1 153f 783f 153f
00000060: 4d8f 093f 7410 0e3f 3582 0e3f e14e 043f
00000070: 8f71 653f 7b1e 4e3f d308 883f 882a 143f

audio_TCN.0.network.0.conv.weight_v f4 [32, 32, 3]
-0.08236326 -0.024938181 -0.07624739 -0.064460136 -0.049379878 -0.10152332 -0.037216425 0.10014629
-0.04361201 0.063285336 -0.08883143 0.090555444 0.03835714 0.009001911 -0.0916831 -0.09325393
0.039972007 -0.04826056 0.058368072 -0.036344364 0.06440762 -0.03245806 0.043657944 0.091889665
-0.05401794 -0.04530562 -0.03126809 0.00997103 0.04153362 -0.019366957 0.09240228 -0.09263456
0.009751126 0.07433815 0.0128086135 -0.02224657 0.044833124 -0.06819852 -0.10188653 -0.06173595
-0.030659594 -0.03205484 -0.09548753 -0.06771638 -0.08556648 0.016172208 0.07391064 0.07092072
-0.03632173 -0.09788974 -0.086612865 -0.059318077 -0.0029614717 -0.0105553195 -0.058247622 0.01609566
-0.095073566 0.050982744 0.078123644 -0.07917635 -0.016198747 0.03173676 0.06345908 0.052344427
0.07679173 -0.10195402 0.09235777 -0.025749706 0.01002308 0.09435299 -0.069886066 0.036501765
-0.08475433 0.07267882 -0.039603908 0.05151379 -0.064431936 0.09830567 0.10168776 0.040936828
-0.078454494 0.0059995353 0.0573612 0.059338585 0.028960273 0.009268589 -0.029347837 -0.032938212
-0.0017870367 0.014144048 0.0185785 -0.037146732 0.07691145 0.09641555 0.0529664 0.0034193173
-0.034513462 -0.016058756 -0.047053546 -0.11218296 0.051566016 -0.094454415 -0.118069276 -0.11224926
-0.12510377 0.119979545 0.10363285 -0.064757854 0.08130494 0.12110941 0.114805676 -0.109747015
-0.01555022 0.05931403 -0.10365618 0.08246687 0.07455037 -0.10496712 0.035951816 -0.105539404
-0.044047162 -0.019955052 -0.009090687 0.11525868 0.06370464 -0.12051746 0.06334258 0.10298557
0.1309115 0.124165624 -0.05685711 0.12596652 -0.093566515 -0.06897139 -0.06830425 0.101574674
0.061149668 0.10268736 0.11164808 0.0763876 0.070298545 -0.0707712 -0.08765944 -0.05090656
0.11589815 0.10658849 -0.11946764 -0.0697141 0.0862603 0.0992406 0.065112814 0.059532933
-0.11148785 0.12161997 -0.11021218 0.09899767 -0.10996012 -0.10300911 -0.056064785 -0.11793288
-0.100020245 0.08001426 0.12737694 -0.083713785 0.06775658 -0.122329645 0.083850466 -0.06951496
0.06615886 0.092364304 0.08781944 0.08834935 -0.06433612 -0.10689418 0.06516516 -0.12865056
-0.10007452 -0.077507444 -0.12084724 0.056993306 -0.07301607 0.12442875 -0.045813203 -0.067588955
0.09566709 0.04425311 -0.096538365 -0.061962605 -0.086430125 0.07184745 -0.11649315 -0.12689102
-0.032321934 -0.034673337 0.02012767 0.084602095 -0.1281548 -0.14305341 0.1152006 0.13708086
-0.00036797297 0.092156105 0.04589422 -0.12042694 0.12401025 -0.033210058 0.10622336 0.105210684
0.1075815 0.10700012 0.12141326 0.09094815 0.033084307 -0.08109393 0.05795705 0.08068463
0.10288558 0.039761152 -0.08150849 -0.06855299 -0.07021648 0.046011444 0.04764629 0.08862388
0.08244699 0.046593092 -0.013898205 0.026433703 -0.05595028 -0.117179684 -0.073993124 0.0072630616
-0.09623871 -0.07597435 -0.06325546 0.05900906 0.09049578 0.060345255 0.038616057 -0.10758887
0.09450186 -0.047524665 0.108644046 -0.09498487 -0.18024638 0.10821474 0.09344013 -0.09404286
0.076774865 0.11922201 0.10740443 -0.06962731 0.0920428 -0.12137259 -0.078445934 0.082541116
00000000: 12ae a8bd 284b ccbc 9727 9cbd ad03 84bd
00000010: 8e42 4abd 75eb cfbd 4070 18bd 8019 cd3d
00000020: 82a2 32bd be9b 813d 41ed b5bd 2275 b93d
00000030: 601c 1d3d c07c 133c 59c4 bbbd ebfb bebd
00000040: b0b9 233d ddac 45bd 5c13 6f3d d4dd 14bd
00000050: 24e8 833d bef2 04bd acd2 323d a630 bc3d
00000060: ea41 5dbd 6392 39bd f812 00bd 885d 233c
00000070: 281f 2a3d 74a7 9ebc 683d bd3d 30b7 bdbd
00000080: 30c3 1f3c 9a3e 983d 38db 513c 703e b6bc
00000090: f0a2 373d aaab 8bbd e3a9 d0bd d6de 7cbd
000000a0: d429 fbbc f04b 03bd f78e c3bd e3ae 8abd
000000b0: 7b3d afbd 947b 843c 765e 973d e23e 913d
000000c0: 18c6 14bd 6a7a c8bd 1662 b1bd 83f7 72bd
000000d0: 4015 42bb 38f0 2cbc 0f95 6ebd 0cdb 833c
000000e0: eeb5 c2bd 48d3 503d 4aff 9f3d 3627 a2bd
000000f0: 3cb3 84bc 68fe 013d d6f6 813d 1c67 563d
00000100: fc44 9d3d 45cd d0bd 1226 bd3d 0cf1 d2bc
00000110: d837 243c 243c c13d 6d20 8fbd e082 153d
00000120: ae93 adbd a2d8 943d b537 22bd 2000 533d
00000130: e4f4 83bd 7c54 c93d ac41 d03d 60ad 273d
00000140: c0ac a0bd c097 c43b 94f3 6a3d 040d 733d
00000150: 183e ed3c 48db 173c e06a f0bc 38ea 06bd
00000160: 003b eaba 70bc 673c f031 983c 2c27 18bd
00000170: c083 9d3d 8475 c53d 4cf3 583d a016 603b
00000180: fd5d 0dbd a78d 83bc 38bb 40bd 2ec0 e5bd
00000190: e336 533d 5171 c1bd 4ece f1bd f1e2 e5bd
000001a0: 341b 00be d6b7 f53d 763d d43d c49f 84bd
000001b0: 3483 a63d 3608 f83d 3d1f eb3d 0bc3 e0bd
000001c0: 5ac6 7ebc 45f3 723d b149 d4bd 64e4 a83d
000001d0: ddad 983d 00f9 d6bd 3642 133d 0b25 d8bd
000001e0: cc6a 34bd c778 a3bc 1bf1 14bc be0c ec3d
000001f0: 9477 823d dcd1 f6bd c1b9 813d 19ea d23d
00000200: aa0d 063e 8c4a fe3d 00e3 68bd 5efd 003e
00000210: cd9f bfbd df40 8dbd 19e3 8bbd 6206 d03d
00000220: 1378 7a3d c04d d23d c0a7 e43d 1a71 9c3d
00000230: aff8 8f3d 7ef0 90bd cb86 b3bd 6683 50bd
00000240: 025c ed3d 114b da3d 73ab f4bd 44c6 8ebd
00000250: 3da9 b03d a83e cb3d de59 853d ced8 733d
00000260: be53 e4bd e413 f93d ecb6 e1bd 4abf ca3d
00000270: c532 e1bd 71f6 d2bd 30a4 65bd cb86 f1bd
00000280: 6ad7 ccbd 84de a33d 1a6f 023e 2272 abbd
00000290: f6c3 8a3d f787 fabd cbb9 ab3d dc5d 8ebd
000002a0: 4c7e 873d 7f29 bd3d aeda b33d 81f0 b43d
000002b0: a8c2 83bd 56eb dabd 5075 853d f9bc 03be
000002c0: dff3 ccbd 39bc 9ebd c27e f7bd d071 693d
000002d0: 7389 95bd 80d4 fe3d a0a6 3bbd 146c 8abd
000002e0: 1bed c33d c042 353d e8b5 c5bd 80cc 7dbd
000002f0: 4702 b1bd c224 933d f693 eebd b8ef 01be
00000300: 0164 04bd a105 0ebd c9e2 a43c dd43 ad3d
00000310: 033b 03be 987c 12be 4bee eb3d ed5e 0c3e
00000320: 7fec c0b9 57bc bc3d 94fb 3b3d 66a2 f6bd
00000330: 16f9 fd3d 4507 08bd a28b d93d b378 d73d
00000340: b153 dc3d e122 db3d 84a7 f83d 0643 ba3d
00000350: 6983 073d 9314 a6bd 5f64 6d3d fc3d a53d
00000360: adb5 d23d 97dc 223d eced a6bd 8365 8cbd
00000370: a8cd 8fbd 7f76 3c3d c228 433d 7080 b53d
00000380: f8d9 a83d 66d8 3e3d 4cb5 63bc 7e8b d83c
00000390: 1f2c 65bd e7fb efbd b589 97bd fafe ed3b
000003a0: cd18 c5bd 7198 9bbd 148c 81bd 7cb3 713d
000003b0: da55 b93d 962c 773d df2b 1e3d 8e57 dcbd
000003c0: 318a c13d 39a9 42bd c580 de3d 6d87 c2bd
000003d0: 8292 38be b19f dd3d 8a5d bf3d 8b99 c0bd
000003e0: 243c 9d3d ab2a f43d dbf6 db3d c398 8ebd
000003f0: ef80 bc3d 3192 f8bd 43a8 a0bd 510b a93d

audio_TCN.0.network.0.net.0.bias f4 [32]
-0.08831764 -0.053231128 -0.09191278 -0.09529213 0.07725361 -0.03595338 0.10587924 -0.038577832
-0.09507777 -0.039447572 -0.044637058 -0.081209496 -0.1079452 -0.08832865 -0.010134436 -0.103503905
-0.02964659 -0.064803086 -0.081561066 0.0863249 -0.054520536 0.053723603 -0.07133853 0.021442294
-0.054662276 -0.059864186 -0.09484226 -0.07852801 0.16217007 -0.008228516 0.18652019 -0.05952081
00000000: e1df b4bd e208 5abd c53c bcbd 8528 c3bd
00000010: 2437 9e3d da43 13bd 37d7 d83d ca03 1ebd
00000020: 22b8 c2bd c793 21bd 59d5 36bd 2a51 a6bd
00000030: 5f12 ddbd a7e5 b4bd e80a 26bc dbf9 d3bd
00000040: 68dd f2bc 7bb7 84bd 7d09 a7bd 1ccb b03d
00000050: ed50 5fbd 480d 5c3d ef19 92bd c0a7 af3c
00000060: 8de5 5fbd 2634 75bd a93c c2bd 4bd3 a0bd
00000070: e90f 263e e6d0 06bc 26ff 3e3e 18cc 73bd

audio_TCN.0.network.0.net.0.weight_g f4 [32, 1, 1]
0.60772914 0.58444554 0.55399925 0.76690036 0.6994352 0.5392142 0.75646186 0.55154204
0.62549084 0.5754012 0.60178214 0.6106176 0.5312927 0.5166177 0.60201603 0.7173102
0.55954367 0.58180356 0.5721309 0.71294284 0.5316905 0.54214877 0.5844906 0.5829997
0.53734285 0.55493855 0.5566743 0.5168286 0.896264 0.8051526 1.0627693 0.578774
00000000: 2394 1b3f 399e 153f e5d2 0d3f 9553 443f
00000010: 2f0e 333f f109 0a3f 7ca7 413f dc31 0d3f
00000020: 2b20 203f 7e4d 133f 650e 1a3f 6f51 1c3f
00000030: cc02 083f 0f41 043f b91d 1a3f a4a1 373f
00000040: 413e 0f3f 14f1 143f 2c77 123f 6c83 363f
00000050: de1c 083f 43ca 0a3f 2da1 153f 783f 153f
00000060: 4d8f 093f 7410 0e3f 3582 0e3f e14e 043f
00000070: 8f71 653f 7b1e 4e3f d308 883f 882a 143f

audio_TCN.0.network.0.net.0.weight_v f4 [32, 32, 3]
-0.08236326 -0.024938181 -0.07624739 -0.064460136 -0.049379878 -0.10152332 -0.037216425 0.10014629
-0.04361201 0.063285336 -0.08883143 0.090555444 0.03835714 0.009001911 -0.0916831 -0.09325393
0.039972007 -0.04826056 0.058368072 -0.036344364 0.06440762 -0.03245806 0.043657944 0.091889665
-0.05401794 -0.04530562 -0.03126809 0.00997103 0.04153362 -0.019366957 0.09240228 -0.09263456
0.009751126 0.07433815 0.0128086135 -0.02224657 0.044833124 -0.06819852 -0.10188653 -0.06173595
-0.030659594 -0.03205484 -0.09548753 -0.06771638 -0.08556648 0.016172208 0.07391064 0.07092072
-0.03632173 -0.09788974 -0.086612865 -0.059318077 -0.0029614717 -0.0105553195 -0.058247622 0.01609566
-0.095073566 0.050982744 0.078123644 -0.07917635 -0.016198747 0.03173676 0.06345908 0.052344427
0.07679173 -0.10195402 0.09235777 -0.025749706 0.01002308 0.09435299 -0.069886066 0.036501765
-0.08475433 0.07267882 -0.039603908 0.05151379 -0.064431936 0.09830567 0.10168776 0.040936828
-0.078454494 0.0059995353 0.0573612 0.059338585 0.028960273 0.009268589 -0.029347837 -0.032938212
-0.0017870367 0.014144048 0.0185785 -0.037146732 0.07691145 0.09641555 0.0529664 0.0034193173
-0.034513462 -0.016058756 -0.047053546 -0.11218296 0.051566016 -0.094454415 -0.118069276 -0.11224926
-0.12510377 0.119979545 0.10363285 -0.064757854 0.08130494 0.12110941 0.114805676 -0.109747015
-0.01555022 0.05931403 -0.10365618 0.08246687 0.07455037 -0.10496712 0.035951816 -0.105539404
-0.044047162 -0.019955052 -0.009090687 0.11525868 0.06370464 -0.12051746 0.06334258 0.10298557
0.1309115 0.124165624 -0.05685711 0.12596652 -0.093566515 -0.06897139 -0.06830425 0.101574674
0.061149668 0.10268736 0.11164808 0.0763876 0.070298545 -0.0707712 -0.08765944 -0.05090656
0.11589815 0.10658849 -0.11946764 -0.0697141 0.0862603 0.0992406 0.065112814 0.059532933
-0.11148785 0.12161997 -0.11021218 0.09899767 -0.10996012 -0.10300911 -0.056064785 -0.11793288
-0.100020245 0.08001426 0.12737694 -0.083713785 0.06775658 -0.122329645 0.083850466 -0.06951496
0.06615886 0.092364304 0.08781944 0.08834935 -0.06433612 -0.10689418 0.06516516 -0.12865056
-0.10007452 -0.077507444 -0.12084724 0.056993306 -0.07301607 0.12442875 -0.045813203 -0.067588955
0.09566709 0.04425311 -0.096538365 -0.061962605 -0.086430125 0.07184745 -0.11649315 -0.12689102
-0.032321934 -0.034673337 0.02012767 0.084602095 -0.1281548 -0.14305341 0.1152006 0.13708086
-0.00036797297 0.092156105 0.04589422 -0.12042694 0.12401025 -0.033210058 0.10622336 0.105210684
0.1075815 0.10700012 0.12141326 0.09094815 0.033084307 -0.08109393 0.05795705 0.08068463
0.10288558 0.039761152 -0.08150849 -0.06855299 -0.07021648 0.046011444 0.04764629 0.08862388
0.08244699 0.046593092 -0.013898205 0.026433703 -0.05595028 -0.117179684 -0.073993124 0.0072630616
-0.09623871 -0.07597435 -0.06325546 0.05900906 0.09049578 0.060345255 0.038616057 -0.10758887
0.09450186 -0.047524665 0.108644046 -0.09498487 -0.18024638 0.10821474 0.09344013 -0.09404286
0.076774865 0.11922201 0.10740443 -0.06962731 0.0920428 -0.12137259 -0.078445934 0.082541116
00000000: 12ae a8bd 284b ccbc 9727 9cbd ad03 84bd
00000010: 8e42 4abd 75eb cfbd 4070 18bd 8019 cd3d
00000020: 82a2 32bd be9b 813d 41ed b5bd 2275 b93d
00000030: 601c 1d3d c07c 133c 59c4 bbbd ebfb bebd
00000040: b0b9 233d ddac 45bd 5c13 6f3d d4dd 14bd
00000050: 24e8 833d bef2 04bd acd2 323d a630 bc3d
00000060: ea41 5dbd 6392 39bd f812 00bd 885d 233c
00000070: 281f 2a3d 74a7 9ebc 683d bd3d 30b7 bdbd
00000080: 30c3 1f3c 9a3e 983d 38db 513c 703e b6bc
00000090: f0a2 373d aaab 8bbd e3a9 d0bd d6de 7cbd
000000a0: d429 fbbc f04b 03bd f78e c3bd e3ae 8abd
000000b0: 7b3d afbd 947b 843c 765e 973d e23e 913d
000000c0: 18c6 14bd 6a7a c8bd 1662 b1bd 83f7 72bd
000000d0: 4015 42bb 38f0 2cbc 0f95 6ebd 0cdb 833c
000000e0: eeb5 c2bd 48d3 503d 4aff 9f3d 3627 a2bd
000000f0: 3cb3 84bc 68fe 013d d6f6 813d 1c67 563d
00000100: fc44 9d3d 45cd d0bd 1226 bd3d 0cf1 d2bc
00000110: d837 243c 243c c13d 6d20 8fbd e082 153d
00000120: ae93 adbd a2d8 943d b537 22bd 2000 533d
00000130: e4f4 83bd 7c54 c93d ac41 d03d 60ad 273d
00000140: c0ac a0bd c097 c43b 94f3 6a3d 040d 733d
00000150: 183e ed3c 48db 173c e06a f0bc 38ea 06bd
00000160: 003b eaba 70bc 673c f031 983c 2c27 18bd
00000170: c083 9d3d 8475 c53d 4cf3 583d a016 603b
00000180: fd5d 0dbd a78d 83bc 38bb 40bd 2ec0 e5bd
00000190: e336 533d 5171 c1bd 4ece f1bd f1e2 e5bd
000001a0: 341b 00be d6b7 f53d 763d d43d c49f 84bd
000001b0: 3483 a63d 3608 f83d 3d1f eb3d 0bc3 e0bd
000001c0: 5ac6 7ebc 45f3 723d b149 d4bd 64e4 a83d
000001d0: ddad 983d 00f9 d6bd 3642 133d 0b25 d8bd
000001e0: cc6a 34bd c778 a3bc 1bf1 14bc be0c ec3d
000001f0: 9477 823d dcd1 f6bd c1b9 813d 19ea d23d
00000200: aa0d 063e 8c4a fe3d 00e3 68bd 5efd 003e
00000210: cd9f bfbd df40 8dbd 19e3 8bbd 6206 d03d
00000220: 1378 7a3d c04d d23d c0a7 e43d 1a71 9c3d
00000230: aff8 8f3d 7ef0 90bd cb86 b3bd 6683 50bd
00000240: 025c ed3d 114b da3d 73ab f4bd 44c6 8ebd
00000250: 3da9 b03d a83e cb3d de59 853d ced8 733d
00000260: be53 e4bd e413 f93d ecb6 e1bd 4abf ca3d
00000270: c532 e1bd 71f6 d2bd 30a4 65bd cb86 f1bd
00000280: 6ad7 ccbd 84de a33d 1a6f 023e 2272 abbd
00000290: f6c3 8a3d f787 fabd cbb9 ab3d dc5d 8ebd
000002a0: 4c7e 873d 7f29 bd3d aeda b33d 81f0 b43d
000002b0: a8c2 83bd 56eb dabd 5075 853d f9bc 03be
000002c0: dff3 ccbd 39bc 9ebd c27e f7bd d071 693d
000002d0: 7389 95bd 80d4 fe3d a0a6 3bbd 146c 8abd
000002e0: 1bed c33d c042 353d e8b5 c5bd 80cc 7dbd
000002f0: 4702 b1bd c224 933d f693 eebd b8ef 01be
00000300: 0164 04bd a105 0ebd c9e2 a43c dd43 ad3d
00000310: 033b 03be 987c 12be 4bee eb3d ed5e 0c3e
00000320: 7fec c0b9 57bc bc3d 94fb 3b3d 66a2 f6bd
00000330: 16f9 fd3d 4507 08bd a28b d93d b378 d73d
00000340: b153 dc3d e122 db3d 84a7 f83d 0643 ba3d
00000350: 6983 073d 9314 a6bd 5f64 6d3d fc3d a53d
00000360: adb5 d23d 97dc 223d eced a6bd 8365 8cbd
00000370: a8cd 8fbd 7f76 3c3d c228 433d 7080 b53d
00000380: f8d9 a83d 66d8 3e3d 4cb5 63bc 7e8b d83c
00000390: 1f2c 65bd e7fb efbd b589 97bd fafe ed3b
000003a0: cd18 c5bd 7198 9bbd 148c 81bd 7cb3 713d
000003b0: da55 b93d 962c 773d df2b 1e3d 8e57 dcbd
000003c0: 318a c13d 39a9 42bd c580 de3d 6d87 c2bd
000003d0: 8292 38be b19f dd3d 8a5d bf3d 8b99 c0bd
000003e0: 243c 9d3d ab2a f43d dbf6 db3d c398 8ebd
000003f0: ef80 bc3d 3192 f8bd 43a8 a0bd 510b a93d

audio_TCN.0.network.1.conv.bias f4 [32]
0.02160751 -0.027346864 -0.10595637 0.0059193536 0.035014685 0.0020624232 -0.07480214 -0.10150055
-0.07935894 -0.115083836 0.008535116 0.09804926 -0.006086872 0.14085713 0.0456748 -0.11115864
0.1388509 -0.055590823 0.09428395 0.05305301 0.025890255 0.05949066 -0.09069986 0.04611932
-0.13822322 -0.060550332 -0.12558632 0.044876825 -0.0054691643 -0.112265386 -0.046767473 -0.032527387
00000000: 3c02 b13c 8806 e0bc a7ff d8bd 23f7 c13b
00000010: 8f6b 0f3d b829 073b dd31 99bd 85df cfbd
00000020: f186 a2bd 13b1 ebbd dfd6 0b3c 0dce c83d
00000030: 6274 c7bb da3c 103e 8015 3b3d 24a7 e3bd
00000040: ee2e 0e3e 34b3 63bd f217 c13d 1d4e 593d
00000050: cd17 d43c 7aac 733d d9c0 b9bd 9de7 3c3d
00000060: 638a 0dbe a003 78bd b399 00be c3d0 373d
00000070: ad36 b3bb 65eb e5bd 408f 3fbd 703b 05bd

audio_TCN.0.network.1.conv.weight_g f4 [32, 1, 1]
0.5748808 0.80128825 0.57009155 0.6596034 0.62718225 0.63642865 0.5705084 0.6442792
0.50573486 0.54260105 0.55925494 0.83825976 0.5513774 0.80733556 0.533281 0.73453116
0.6545787 0.5645296 0.56623083 0.5769464 0.60185313 0.56076056 0.56043303 0.5458937
0.55414426 0.573887 0.63126415 0.57127523 0.7175371 0.5788124 0.53927404 0.5690139
00000000: 632b 133f 3a21 4d3f 85f1 113f c5db 283f
00000010: 048f 203f fdec 223f d70c 123f 7bef 243f
00000020: d777 013f e7e7 0a3f 552b 0f3f 3198 563f
00000030: 1227 0d3f 8bad 4e3f 1b85 083f 3c0a 3c3f
00000040: 7892 273f 0385 103f 81f4 103f c2b2 133f
00000050: 0c13 1a3f 018e 0f3f 8a78 0f3f b1bf 0b3f
00000060: 66dc 0d3f 42ea 123f 879a 213f 183f 123f
00000070: 83b0 373f 0d2d 143f dd0d 0a3f e5aa 113f

audio_TCN.0.network.1.conv.weight_v f4 [32, 32, 3]
-0.088436894 0.026230432 -0.042080395 -0.088667996 -0.05882577 -0.10006826 -0.03911037 0.058274716
0.008523536 -0.04043631 0.04257649 -0.08148598 -0.021079568 -0.09601667 0.040695727 -0.063495055
0.05157247 0.08671795 -0.109296806 -0.03698444 0.09474194 -0.052793715 0.035771787 -0.06797328
-0.08094515 0.017007679 0.051787768 0.033383753 -0.048526675 -0.07233008 0.01163867 -0.057983298
0.094540596 -0.08059744 0.0042227865 0.09028206 0.023443798 -0.05718883 0.083712846 0.08400437
-0.035346925 -0.10480831 0.02508829 -0.040126566 0.06683902 -0.08199966 0.11822742 -0.068444215
0.07014873 0.07363484 0.032370057 0.07483547 -0.035645887 -0.04254476 0.06652888 0.05553335
-0.07099779 -0.025675407 0.03734206 0.10563531 -0.043630473 -0.054558937 -0.08142745 0.036286637
-0.039937567 0.0086065205 0.0053399345 0.0181702 0.09698146 0.033929624 0.08696717 -0.06881745
-0.028105756 0.015479105 0.041766886 -0.07567876 -0.058816884 -0.007490627 -0.014739732 -0.0051831794
-0.022423211 -0.028798364 -0.09638073 0.066628814 0.0620478 0.013000718 0.103877485 -0.081095316
-0.042145032 0.017067142 0.06883871 -0.028309435 -0.032794587 -0.07218471 -0.067355044 -0.0834336
-9.596093e-11 -3.8929697e-13 2.3647998e-07 0.06488733 0.043260705 -0.20952319 0.03863102 0.011317375
0.07548168 0.113885514 0.031335223 0.037711293 0.051916398 0.08814289 0.085954696 -0.038587693
0.036338206 -0.0116773145 -0.024638977 -0.021064734 0.075047635 -0.058557004 0.002831671 -0.0058295988
0.085414715 0.014835138 0.042824846 0.014023982 0.022018261 0.04044216 -0.030634189 -0.04610298
0.023016434 -0.049556546 0.014505893 0.000355097 0.0115671465 0.09122042 0.00929096 -0.02004745
0.005865646 0.00883011 -0.007837436 -0.03424054 -0.00939135 0.020915328 -0.025139676 -0.002057318
-0.030984525 -0.046397973 -0.016519938 0.002341665 0.016154932 -0.04617872 -0.027426412 0.021498334
-0.004642505 -0.048851136 -0.06078417 -0.086298026 0.065342434 0.021090945 0.0045947544 0.025013799
0.02337856 -0.06704162 0.034900896 0.058778055 -0.0019198604 0.036941312 0.0107920645 -0.021513307
0.0075617647 -0.0034354308 0.024567854 0.029772377 -0.0020713545 -0.0010949615 0.07614 -0.014860803
0.01649192 -0.031181494 0.011157783 -0.02293705 -0.053949356 -0.014396904 0.023029685 -0.032731436
-0.03174852 0.011366722 -0.055400755 0.005351951 -0.030201117 0.029805187 -0.047312047 0.0059986967
0.09855926 0.015795864 -0.053976845 -0.05669462 0.019813603 0.040396955 -0.039334185 0.019391958
0.022458136 -0.0928729 0.029399455 0.045450043 0.027975742 -0.07719572 -0.07329444 -0.1055682
-0.084081374 0.031503506 -0.104239956 -0.095849805 -0.13957177 -0.10333133 0.04445588 0.091647424
-0.017216654 0.025802352 0.09031294 -0.09627463 -0.05576136 0.05767854 -0.008456885 0.07525658
-0.079515114 -0.007876419 -0.1242405 0.09182611 -0.045035224 -0.023839982 -0.06486371 -0.07258655
-0.11287486 -0.08287888 -0.06160751 -0.055419456 -0.03260116 0.06915588 -0.07036964 0.1277181
-0.057030287 -0.035797402 0.027693655 0.035137784 -0.09459997 0.008470161 -0.04661083 0.094251126
-0.07330285 0.02687914 -0.11582771 -0.050289497 0.05266098 -0.09036622 -0.057608437 -0.027082313
00000000: 671e b5bd 34e1 d63c 7e5c 2cbd 9197 b5bd
00000010: 4af3 70bd 97f0 ccbd 3232 20bd 78b1 6e3d
00000020: 4da6 0b3c 8ba0 25bd b064 2e3d 1fe2 a6bd
00000030: 0faf acbc 63a4 c4bd 90b0 263d b209 82bd
00000040: a83d 533d 2e99 b13d 01d7 dfbd ff7c 17bd
00000050: 1008 c23d 393e 58bd 7085 123d 9335 8bbd
00000060: 92c6 a5bd b053 8b3c 691f 543d 67bd 083d
00000070: e8c3 46bd cb21 94bd 1fb0 3e3c e57f 6dbd
00000080: 809e c13d 4510 a5bd 4d5f 8a3b cde5 b83d
00000090: 350d c03c d63e 6abd a471 ab3d 7c0a ac3d
000000a0: f0c7 10bd bda5 d6bd f585 cd3c c15b 24bd
000000b0: e5e2 883d 70ef a7bd 3821 f23d 7b2c 8cbd
000000c0: 23aa 8f3d ddcd 963d 7796 043d 5743 993d
000000d0: 6c01 12bd 6a43 2ebd 4b40 883d f076 633d
000000e0: 4a67 91bd 3b55 d2bc fdf3 183d 5357 d83d
000000f0: deb5 32bd 3179 5fbd 6fc3 a6bd 4ca1 143d
00000100: 9395 23bd 5d02 0d3c 9efa ae3b acd9 943c
00000110: 379e c63d caf9 0a3d d81b b23d 2af0 8cbd
00000120: 0b3e e6bc 129c 7d3c c113 2b3d 77fd 9abd
00000130: f9e9 70bd ef73 f5bb eb7e 71bc a9d7 a9bb
00000140: e2b0 b7bc 8cea ebbc 4363 c5bd b074 883d
00000150: d525 7e3d f700 553c b8bd d43d 4d15 a6bd
00000160: 45a0 2cbd 64d0 8b3c 4ffb 8c3d 30e9 e7bc
00000170: 9e53 06bd 94d5 93bd 71f1 89bd 3cdf aabd
00000180: 3305 d3ae 9b27 dbaa 1feb 7d34 a6e3 843d
00000190: 2332 313d 3f8d 56be 8f3b 1e3d 836c 393c
000001a0: 2496 9a3d cf3c e93d 5d59 003d 2877 1a3d
000001b0: 4aa6 543d 4284 b43d 0409 b03d 210e 1ebd
000001c0: 5fd7 143d 3552 3fbc aed7 c9bc f38f acbc
000001d0: 93b2 993d 78d9 6fbd 8e93 393b 3806 bfbb
000001e0: e9ed ae3d 140f 733c 1b69 2f3d d8c4 653c
000001f0: a45f b43c aea6 253d 8df4 fabc 7ad6 3cbd
00000200: f68c bc3c cefb 4abd 20aa 6d3c 502c ba39
00000210: 2184 3d3c c6d1 ba3d 1c39 183c 8d3a a4bc
00000220: 9b34 c03b 2aac 103c 9768 00bc cf3f 0cbd
00000230: 2dde 19bc 9f56 ab3c b9f1 cdbc 12d4 06bb
00000240: 42d3 fdbc cd0b 3ebd d254 87bc 9f76 193b
00000250: 5957 843c e625 3dbd 5bad e0bc 461d b03c
00000260: 2820 98bb 2118 48bd d2f8 78bd 05bd b0bd
00000270: 41d2 853d ebc6 ac3c 988f 963b bde9 cc3c
00000280: 6584 bf3c 1e4d 89bd 3ef4 0e3d 42c1 703d
00000290: d3a3 fbba c64f 173d 33d1 303c ad3c b0bc
000002a0: aec8 f73b f724 61bb 8642 c93c 33e5 f33c
000002b0: 90bf 07bb d084 8fba 4aef 9b3d ba7a 73bc
000002c0: 101a 873c 5570 ffbc 22cf 363c 7be6 bbbc
000002d0: 00fa 5cbd fee0 6bbc c0a8 bc3c 6611 06bd
000002e0: bc0a 02bd 7d3b 3a3c e7eb 62bd 6b5f af3b
000002f0: 5568 f7bc 022a f43c 47ca 41bd b790 c43b
00000300: 70d9 c93d 5466 813c d316 5dbd 9e38 68bd
00000310: 2350 a23c 4777 253d e21c 21bd e2db 9e3c
00000320: 20fa b73c 2634 bebd 20d7 f03c d329 3a3d
00000330: 622d e53c ca18 9ebd 651b 96bd 2434 d8bd
00000340: db32 acbd d209 013d c27b d5bd e74c c4bd
00000350: e7eb 0ebe 609f d3bd 5e17 363d a5b1 bb3d
00000360: f109 8dbc 745f d33c fef5 b83d a22b c5bd
00000370: 0666 64bd 5540 6c3d bf8e 0abc 1f20 9a3d
00000380: d2d8 a2bd 190c 01bc ce71 febd 540f bc3d
00000390: db76 38bd 114c c3bc 44d7 84bd 42a8 94bd
000003a0: ef2a e7bd 67bc a9bd 2858 7cbd 83ff 62bd
000003b0: cb88 05bd 99a1 8d3d f51d 90bd 89c8 023e
000003c0: 9798 69bd 4ca0 12bd cedd e23c a3ec 0f3d
000003d0: a1bd c1bd 6ec6 0a3c ffea 3ebd bc06 c13d
000003e0: ce1f 96bd a431 dc3c 1437 edbd 5cfc 4dbd
000003f0: 0ab3 573d ed11 b9bd d3f6 6bbd badb ddbc

audio_TCN.0.network.1.net.0.bias f4 [32]
0.02160751 -0.027346864 -0.10595637 0.0059193536 0.035014685 0.0020624232 -0.07480214 -0.10150055
-0.07935894 -0.115083836 0.008535116 0.09804926 -0.006086872 0.14085713 0.0456748 -0.11115864
0.1388509 -0.055590823 0.09428395 0.05305301 0.025890255 0.05949066 -0.09069986 0.04611932
-0.13822322 -0.060550332 -0.12558632 0.044876825 -0.0054691643 -0.112265386 -0.046767473 -0.032527387
00000000: 3c02 b13c 8806 e0bc a7ff d8bd 23f7 c13b
00000010: 8f6b 0f3d b829 073b dd31 99bd 85df cfbd
00000020: f186 a2bd 13b1 ebbd dfd6 0b3c 0dce c83d
00000030: 6274 c7bb da3c 103e 8015 3b3d 24a7 e3bd
00000040: ee2e 0e3e 34b3 63bd f217 c13d 1d4e 593d
00000050: cd17 d43c 7aac 733d d9c0 b9bd 9de7 3c3d
00000060: 638a 0dbe a003 78bd b399 00be c3d0 373d
00000070: ad36 b3bb 65eb e5bd 408f 3fbd 703b 05bd

audio_TCN.0.network.1.net.0.weight_g f4 [32, 1, 1]
0.5748808 0.80128825 0.57009155 0.6596034 0.62718225 0.63642865 0.5705084 0.6442792
0.50573486 0.54260105 0.55925494 0.83825976 0.5513774 0.80733556 0.533281 0.73453116
0.6545787 0.5645296 0.56623083 0.5769464 0.60185313 0.56076056 0.56043303 0.5458937
0.55414426 0.573887 0.63126415 0.57127523 0.7175371 0.5788124 0.53927404 0.5690139
00000000: 632b 133f 3a21 4d3f 85f1 113f c5db 283f
00000010: 048f 203f fdec 223f d70c 123f 7bef 243f
00000020: d777 013f e7e7 0a3f 552b 0f3f 3198 563f
00000030: 1227 0d3f 8bad 4e3f 1b85 083f 3c0a 3c3f
00000040: 7892 273f 0385 103f 81f4 103f c2b2 133f
00000050: 0c13 1a3f 018e 0f3f 8a78 0f3f b1bf 0b3f
00000060: 66dc 0d3f 42ea 123f 879a 213f 183f 123f
00000070: 83b0 373f 0d2d 143f dd0d 0a3f e5aa 113f

audio_TCN.0.network.1.net.0.weight_v f4 [32, 32, 3]
-0.088436894 0.026230432 -0.042080395 -0.088667996 -0.05882577 -0.10006826 -0.03911037 0.058274716
0.008523536 -0.04043631 0.04257649 -0.08148598 -0.021079568 -0.09601667 0.040695727 -0.063495055
0.05157247 0.08671795 -0.109296806 -0.03698444 0.09474194 -0.052793715 0.035771787 -0.06797328
-0.08094515 0.017007679 0.051787768 0.033383753 -0.048526675 -0.07233008 0.01163867 -0.057983298
0.094540596 -0.08059744 0.0042227865 0.09028206 0.023443798 -0.05718883 0.083712846 0.08400437
-0.035346925 -0.10480831 0.02508829 -0.040126566 0.06683902 -0.08199966 0.11822742 -0.068444215
0.07014873 0.07363484 0.032370057 0.07483547 -0.035645887 -0.04254476 0.06652888 0.05553335
-0.07099779 -0.025675407 0.03734206 0.10563531 -0.043630473 -0.054558937 -0.08142745 0.036286637
-0.039937567 0.0086065205 0.0053399345 0.0181702 0.09698146 0.033929624 0.08696717 -0.06881745
-0.028105756 0.015479105 0.041766886 -0.07567876 -0.058816884 -0.007490627 -0.014739732 -0.0051831794
-0.022423211 -0.028798364 -0.09638073 0.066628814 0.0620478 0.013000718 0.103877485 -0.081095316
-0.042145032 0.017067142 0.06883871 -0.028309435 -0.032794587 -0.07218471 -0.067355044 -0.0834336
-9.596093e-11 -3.8929697e-13 2.3647998e-07 0.06488733 0.043260705 -0.20952319 0.03863102 0.011317375
0.07548168 0.113885514 0.031335223 0.037711293 0.051916398 0.08814289 0.085954696 -0.038587693
0.036338206 -0.0116773145 -0.024638977 -0.021064734 0.075047635 -0.058557004 0.002831671 -0.0058295988
0.085414715 0.014835138 0.042824846 0.014023982 0.022018261 0.04044216 -0.030634189 -0.04610298
0.023016434 -0.049556546 0.014505893 0.000355097 0.0115671465 0.09122042 0.00929096 -0.02004745
0.005865646 0.00883011 -0.007837436 -0.03424054 -0.00939135 0.020915328 -0.025139676 -0.002057318
-0.030984525 -0.046397973 -0.016519938 0.002341665 0.016154932 -0.04617872 -0.027426412 0.021498334
-0.004642505 -0.048851136 -0.06078417 -0.086298026 0.065342434 0.021090945 0.0045947544 0.025013799
0.02337856 -0.06704162 0.034900896 0.058778055 -0.0019198604 0.036941312 0.0107920645 -0.021513307
0.0075617647 -0.0034354308 0.024567854 0.029772377 -0.0020713545 -0.0010949615 0.07614 -0.014860803
0.01649192 -0.031181494 0.011157783 -0.02293705 -0.053949356 -0.014396904 0.023029685 -0.032731436
-0.03174852 0.011366722 -0.055400755 0.005351951 -0.030201117 0.029805187 -0.047312047 0.0059986967
0.09855926 0.015795864 -0.053976845 -0.05669462 0.019813603 0.040396955 -0.039334185 0.019391958
0.022458136 -0.0928729 0.029399455 0.045450043 0.027975742 -0.07719572 -0.07329444 -0.1055682
-0.084081374 0.031503506 -0.104239956 -0.095849805 -0.13957177 -0.10333133 0.04445588 0.091647424
-0.017216654 0.025802352 0.09031294 -0.09627463 -0.05576136 0.05767854 -0.008456885 0.07525658
-0.079515114 -0.007876419 -0.1242405 0.09182611 -0.045035224 -0.023839982 -0.06486371 -0.07258655
-0.11287486 -0.08287888 -0.06160751 -0.055419456 -0.03260116 0.06915588 -0.07036964 0.1277181
-0.057030287 -0.035797402 0.027693655 0.035137784 -0.09459997 0.008470161 -0.04661083 0.094251126
-0.07330285 0.02687914 -0.11582771 -0.050289497 0.05266098 -0.09036622 -0.057608437 -0.027082313
00000000: 671e b5bd 34e1 d63c 7e5c 2cbd 9197 b5bd
00000010: 4af3 70bd 97f0 ccbd 3232 20bd 78b1 6e3d
00000020: 4da6 0b3c 8ba0 25bd b064 2e3d 1fe2 a6bd
00000030: 0faf acbc 63a4 c4bd 90b0 263d b209 82bd
00000040: a83d 533d 2e99 b13d 01d7 dfbd ff7c 17bd
00000050: 1008 c23d 393e 58bd 7085 123d 9335 8bbd
00000060: 92c6 a5bd b053 8b3c 691f 543d 67bd 083d
00000070: e8c3 46bd cb21 94bd 1fb0 3e3c e57f 6dbd
00000080: 809e c13d 4510 a5bd 4d5f 8a3b cde5 b83d
00000090: 350d c03c d63e 6abd a471 ab3d 7c0a ac3d
000000a0: f0c7 10bd bda5 d6bd f585 cd3c c15b 24bd
000000b0: e5e2 883d 70ef a7bd 3821 f23d 7b2c 8cbd
000000c0: 23aa 8f3d ddcd 963d 7796 043d 5743 993d
000000d0: 6c01 12bd 6a43 2ebd 4b40 883d f076 633d
000000e0: 4a67 91bd 3b55 d2bc fdf3 183d 5357 d83d
000000f0: deb5 32bd 3179 5fbd 6fc3 a6bd 4ca1 143d
00000100: 9395 23bd 5d02 0d3c 9efa ae3b acd9 943c
00000110: 379e c63d caf9 0a3d d81b b23d 2af0 8cbd
00000120: 0b3e e6bc 129c 7d3c c113 2b3d 77fd 9abd
00000130: f9e9 70bd ef73 f5bb eb7e 71bc a9d7 a9bb
00000140: e2b0 b7bc 8cea ebbc 4363 c5bd b074 883d
00000150: d525 7e3d f700 553c b8bd d43d 4d15 a6bd
00000160: 45a0 2cbd 64d0 8b3c 4ffb 8c3d 30e9 e7bc
00000170: 9e53 06bd 94d5 93bd 71f1 89bd 3cdf aabd
00000180: 3305 d3ae 9b27 dbaa 1feb 7d34 a6e3 843d
00000190: 2332 313d 3f8d 56be 8f3b 1e3d 836c 393c
000001a0: 2496 9a3d cf3c e93d 5d59 003d 2877 1a3d
000001b0: 4aa6 543d 4284 b43d 0409 b03d 210e 1ebd
000001c0: 5fd7 143d 3552 3fbc aed7 c9bc f38f acbc
000001d0: 93b2 993d 78d9 6fbd 8e93 393b 3806 bfbb
000001e0: e9ed ae3d 140f 733c 1b69 2f3d d8c4 653c
000001f0: a45f b43c aea6 253d 8df4 fabc 7ad6 3cbd
00000200: f68c bc3c cefb 4abd 20aa 6d3c 502c ba39
00000210: 2184 3d3c c6d1 ba3d 1c39 183c 8d3a a4bc
00000220: 9b34 c03b 2aac 103c 9768 00bc cf3f 0cbd
00000230: 2dde 19bc 9f56 ab3c b9f1 cdbc 12d4 06bb
00000240: 42d3 fdbc cd0b 3ebd d254 87bc 9f76 193b
00000250: 5957 843c e625 3dbd 5bad e0bc 461d b03c
00000260: 2820 98bb 2118 48bd d2f8 78bd 05bd b0bd
00000270: 41d2 853d ebc6 ac3c 988f 963b bde9 cc3c
00000280: 6584 bf3c 1e4d 89bd 3ef4 0e3d 42c1 703d
00000290: d3a3 fbba c64f 173d 33d1 303c ad3c b0bc
000002a0: aec8 f73b f724 61bb 8642 c93c 33e5 f33c
000002b0: 90bf 07bb d084 8fba 4aef 9b3d ba7a 73bc
000002c0: 101a 873c 5570 ffbc 22cf 363c 7be6 bbbc
000002d0: 00fa 5cbd fee0 6bbc c0a8 bc3c 6611 06bd
000002e0: bc0a 02bd 7d3b 3a3c e7eb 62bd 6b5f af3b
000002f0: 5568 f7bc 022a f43c 47ca 41bd b790 c43b
00000300: 70d9 c93d 5466 813c d316 5dbd 9e38 68bd
00000310: 2350 a23c 4777 253d e21c 21bd e2db 9e3c
00000320: 20fa b73c 2634 bebd 20d7 f03c d329 3a3d
00000330: 622d e53c ca18 9ebd 651b 96bd 2434 d8bd
00000340: db32 acbd d209 013d c27b d5bd e74c c4bd
00000350: e7eb 0ebe 609f d3bd 5e17 363d a5b1 bb3d
00000360: f109 8dbc 745f d33c fef5 b83d a22b c5bd
00000370: 0666 64bd 5540 6c3d bf8e 0abc 1f20 9a3d
00000380: d2d8 a2bd 190c 01bc ce71 febd 540f bc3d
00000390: db76 38bd 114c c3bc 44d7 84bd 42a8 94bd
000003a0: ef2a e7bd 67bc a9bd 2858 7cbd 83ff 62bd
000003b0: cb88 05bd 99a1 8d3d f51d 90bd 89c8 023e
000003c0: 9798 69bd 4ca0 12bd cedd e23c a3ec 0f3d
000003d0: a1bd c1bd 6ec6 0a3c ffea 3ebd bc06 c13d
000003e0: ce1f 96bd a431 dc3c 1437 edbd 5cfc 4dbd
000003f0: 0ab3 573d ed11 b9bd d3f6 6bbd badb ddbc

audio_TCN.0.network.2.conv.bias f4 [32]
-0.084371164 -0.069745764 -0.11915193 0.07296251 -0.037611153 -0.1130914 -0.033767834 -0.039921537
0.013901289 0.08489015 -0.039497543 0.0654158 -0.09083742 0.043857537 0.026646543 0.03867733
0.0026040296 -0.013245081 0.054477565 0.08472725 -0.1146219 -0.049822476 0.039649226 -0.054786354
-0.027187182 -0.069885656 -0.08061887 -0.047515307 -0.06582573 -0.054894455 0.050102606 -0.0058800406
00000000: caca acbd ded6 8ebd ed05 f4bd 5e6d 953d
00000010: 270e 1abd 779c e7bd 2450 0abd c484 23bd
00000020: 3bc2 633c e3da ad3d 2dc8 21bd b8f8 853d
00000030: f808 babd f6a3 333d da49 da3c 1f6c 1e3d
00000040: 5ea8 2a3b e501 59bc de23 5f3d 7b85 ad3d
00000050: e3be eabd a712 4cbd 3a67 223d a867 60bd
00000060: a7b7 debc 3620 8fbd 821b a5bd 699f 42bd
00000070: a4cf 86bd 02d9 60bd 6438 4d3d 5bad c0bb

audio_TCN.0.network.2.conv.weight_g f4 [32, 1, 1]
0.53912926 0.5387726 0.5358621 0.5795423 0.6625839 0.5654626 0.5476364 0.550881
0.60350007 0.53774333 0.5804667 0.511797 0.58982027 0.5394319 0.6925396 0.6522774
0.56651264 0.6426444 0.5832096 0.589993 0.568128 0.7304424 0.5392455 0.5947124
0.6024321 0.58954126 0.56449884 0.57349706 0.6458796 0.52073395 0.5562442 0.6321257
00000000: 6004 0a3f 00ed 093f 422e 093f e25c 143f
00000010: 199f 293f 28c2 103f e631 0c3f 8a06 0d3f
00000020: fb7e 1a3f 8ca9 093f 7799 143f 2105 033f
00000030: 76fe 163f 3618 0a3f 464a 313f a7fb 263f
00000040: f906 113f 5884 243f 394d 153f c809 173f
00000050: d670 113f 46fe 3a3f fe0b 0a3f 123f 183f
00000060: fd38 1a3f 2dec 163f ff82 103f b4d0 123f
00000070: 5e58 253f d24e 053f 0566 0e3f fdd2 213f

audio_TCN.0.network.2.conv.weight_v f4 [32, 32, 3]
-0.00041601097 -0.10000992 -0.048358675 0.036912035 0.011328218 0.009646003 0.08262777 0.07343616
-0.10811085 -0.033754066 -0.008245413 -0.042478282 -0.050331783 -0.09966069 -0.10316872 0.068607025
-0.054228887 0.03606923 -0.088608176 -0.0057199136 0.016637204 -0.03639499 0.031384535 -0.05428612
0.09097819 0.046097707 0.048380654 0.049593817 0.007795232 0.0154801905 -0.08967574 -0.08207676
-0.10830461 0.001367693 -0.07883084 0.04266713 0.077364 -0.011787712 -0.018061932 0.10019124
-0.09535745 -0.042247344 0.10183887 0.023318244 0.09243674 0.060427066 -0.05008404 0.051612817
0.08903932 -0.031068733 0.017737681 0.012365154 0.05598505 -0.039596915 -0.011800284 0.03719396
0.050811917 0.019733494 -0.11174533 0.016381633 -0.021715201 0.08979652 0.096997425 -0.080863014
-0.062385168 -0.04706495 0.022417136 -0.08185889 -0.016094185 0.006437786 0.016398162 -0.06458991
-0.08212377 -0.053701814 0.009600525 -0.05366458 0.00332347 -0.0458838 -0.034888703 -0.043999285
-0.110968 -0.013475782 0.07429083 0.06985623 0.02323342 -0.030228266 0.048026532 0.01832253
-0.09857003 -0.0122262975 -0.008884067 -0.026932277 -0.060372405 -0.07706061 -0.094632484 -0.04785471
0.059719723 -0.10639538 0.07132288 0.01896347 -0.00065586495 0.04661514 0.016053041 0.04578161
-0.031674404 -0.087914 0.081118606 -0.08810658 -0.038159996 -0.02174781 0.015518396 -0.04403364
-0.02323366 -0.05320978 -0.05239766 -0.03298098 -0.023976572 -0.0797514 0.07987925 0.00563429
-0.09934661 -0.08350348 -0.031137265 0.0486711 -0.0801268 -0.102243625 -0.090422556 -0.06457947
0.025964117 -0.066147424 -0.10257991 0.077634275 0.06934966 -0.0060929507 -0.09306616 0.026620476
-0.10048792 -0.105794795 0.044697452 0.031120513 -0.077469766 -0.030922519 -0.0871274 0.029192636
0.010221161 0.045267165 -0.043989133 -0.010837546 0.01654646 -0.02600733 -0.084477894 0.031357158
0.08104885 -0.07894464 -0.042257227 -0.04160772 0.054439116 -0.057406243 0.08743437 -0.011023745
0.084101066 0.01261252 -0.1155616 -0.059748776 -0.091316916 0.009054999 -0.048200916 0.07233919
0.0132162655 -0.111286946 -0.08254431 -0.0748291 0.07879763 -0.05884754 -0.10716916 0.015817191
-0.034802515 -0.014529896 -0.08552035 -0.042359732 0.015646558 -0.08498786 0.0110783335 0.00032972434
-0.0960956 -0.02347754 -0.110058315 0.030096866 -0.022787126 -0.041320205 -0.06925098 0.04846974
-0.08468137 -0.085996345 -0.09187341 0.082975395 0.03378811 0.069525756 -0.005103094 0.010925893
-0.0651308 0.013803719 -0.048855856 -0.03560697 -0.09329057 0.01632976 -0.08630424 -0.07379811
0.011705769 0.043869007 0.09394097 -0.11101113 -0.08076198 0.03969367 -0.016087387 -0.021722944
-0.02502955 0.08992257 0.08774395 0.0543157 -0.079473354 -0.09830625 -0.07720394 0.03207071
0.09159725 -0.013838015 -0.06535134 -0.09637274 0.029877754 0.023180645 -0.07569455 -0.12326664
-0.039758798 -0.038485166 -0.02338789 -0.027600124 0.012170451 -0.027508028 -0.0138212405 -0.06328956
0.035755936 -0.020596525 -0.08136614 -0.014305368 -0.09008513 -0.0372124 -0.007120387 0.05753017
0.027505301 0.032746878 -0.023923293 0.06272838 -0.099148475 -0.052019473 0.08866829 -0.038478065
00000000: 0c1c dab9 00d2 ccbd bf13 46bd 1331 173d
00000010: fd99 393c 450a 1e3c c038 a93d b365 963d
00000020: 3969 ddbd b441 0abd c517 07bc b5fd 2dbd
00000030: b328 4ebd e71a ccbd 1f4a d3bd d781 8c3d
00000040: 1c1f 5ebd 54bd 133d 3478 b5bd 1d6e bbbb
00000050: bf4a 883c ea12 15bd 128d 003d 1f5b 5ebd
00000060: c652 ba3d f3d0 3c3d cb2a 463d e322 4b3d
00000070: 256f ff3b a0a0 7d3c eaa7 b7bd dc17 a8bd
00000080: cfce ddbd 2944 b33a 1072 a1bd bac3 2e3d
00000090: 0471 9e3d 3f21 41bc 9ef6 93bc 1131 cd3d
000000a0: c44a c3bd 8d0b 2dbd e690 d03d e705 bf3c
000000b0: 794f bd3d 5f82 773d ec24 4dbd f667 533d
000000c0: 3f5a b63d db83 febc 9d4e 913c 3797 4a3c
000000d0: 9450 653d 6030 22bd fa55 41bc b258 183d
000000e0: 2820 503d 23a8 a13c bcda e4bd c632 863c
000000f0: 14e4 b1bc 3de7 b73d 96a6 c63d 829b a5bd
00000100: 9787 7fbd 2dc7 40bd 24a4 b73c a2a5 a7bd
00000110: f4d7 83bc 10f4 d23b 7055 863c b747 84bd
00000120: 8230 a8bd 6ff6 5bbd 854b 1d3c 64cf 5bbd
00000130: 93ce 593b a7f0 3bbd 75e7 0ebd 9838 34bd
00000140: 3143 e3bd 87c9 5cbc ca25 983d c810 8f3d
00000150: 0354 be3c 45a1 f7bc 78b7 443d 2119 963c
00000160: 15df c9bd cf50 48bc 7a8e 11bc 14a1 dcbc
00000170: 0e49 77bd f4d1 9dbd adce c1bd 4d03 44bd
00000180: ab9c 743d d2e5 d9bd bb11 923d 4759 9b3c
00000190: 5aee 2bba 84ef 3e3d ab81 833c 7f85 3b3d
000001a0: 05bd 01bd 410c b4bd 8321 a63d 3971 b4bd
000001b0: a84d 1cbd 7728 b2bc df40 7e3c 9e5c 34bd
000001c0: 8454 bebc 80f2 59bd ee9e 56bd 1017 07bd
000001d0: 846a c4bc b454 a3bd bb97 a33d da9f b83b
000001e0: 3c76 cbbd df03 abbd 9413 ffbc 595b 473d
000001f0: 8519 a4bd 1b65 d1bd 762f b9bd 3e42 84bd
00000200: b3b2 d43c 4d78 87bd 6a15 d2bd b8fe 9e3d
00000210: 3207 8e3d 60a7 c7bb 7999 bebd 2f13 da3c
00000220: 9ccc cdbd f1aa d8bd ad14 373d 72f0 fe3c
00000230: 78a8 9ebd 3951 fdbc da6f b2bd 6525 ef3c
00000240: a876 273c 106a 393d f32d 34bd f68f 31bc
00000250: 718c 873c 530d d5bc bf02 adbd 5d70 003d
00000260: f1fc a53d baad a1bd ea15 2dbd db6c 2abd
00000270: 8dfb 5e3d cf22 6bbd ca10 b33d f09c 34bc
00000280: 2e3d ac3d bea4 4e3c 8fab ecbd 22bb 74bd
00000290: 5d04 bbbd 6b5b 143c 536e 45bd 9226 943d
000002a0: 0989 583c 69ea e3bd fe0c a9bd 0040 99bd
000002b0: a760 a13d 1e0a 71bd 817b dbbd 0e93 813c
000002c0: 158d 0ebd cd0e 6ebc 4b25 afbd 6681 2dbd
000002d0: 362d 803c 1d0e aebd e681 353c dade ac39
000002e0: c5cd c4bd f853 c0bc 4166 e1bd b48d f63c
000002f0: 11ac babc 603f 29bd 75d3 8dbd 3588 463d
00000300: 6d6d adbd da1e b0bd 2028 bcbd 01ef a93d
00000310: 6765 0a3d 8563 8e3d db37 a7bb 8402 333c
00000320: 4c63 85bd fe28 623c 141d 48bd 9dd8 11bd
00000330: 200f bfbd fdc5 853c 47c0 b0bd 7723 97bd
00000340: 8ec9 3f3c fdaf 333d 2064 c03d ce59 e3bd
00000350: 8966 a5bd d495 223d b2c9 83bc 51f4 b1bc
00000360: c50a cdbc 5329 b83d 1ab3 b33d 247a 5e3d
00000370: edc2 a2bd ca54 c9bd 191d 9ebd 945c 033d
00000380: 5797 bb3d d7b8 62bc ecd6 85bd 125f c5bd
00000390: 31c2 f43c 56e5 bd3c bf05 9bbd 3873 fcbd
000003a0: 1fda 22bd 9fa2 1dbd f697 bfbc a819 e2bc
000003b0: 9266 473c 8458 e1bc 7c72 62bc f59d 81bd
000003c0: d174 123d 0bba a8bc 4aa3 a6bd 1061 6abc
000003d0: 8d7e b8bd 086c 18bd 2352 e9bb c1a4 6b3d
000003e0: cc52 e13c 9721 063d c8fa c3bc bd77 803d
000003f0: 5b0e cbbd 5f12 55bd b897 b53d 2d9b 1dbd

audio_TCN.0.network.2.net.0.bias f4 [32]
-0.084371164 -0.069745764 -0.11915193 0.07296251 -0.037611153 -0.1130914 -0.033767834 -0.039921537
0.013901289 0.08489015 -0.039497543 0.0654158 -0.09083742 0.043857537 0.026646543 0.03867733
0.0026040296 -0.013245081 0.054477565 0.08472725 -0.1146219 -0.049822476 0.039649226 -0.054786354
-0.027187182 -0.069885656 -0.08061887 -0.047515307 -0.06582573 -0.054894455 0.050102606 -0.0058800406
00000000: caca acbd ded6 8ebd ed05 f4bd 5e6d 953d
00000010: 270e 1abd 779c e7bd 2450 0abd c484 23bd
00000020: 3bc2 633c e3da ad3d 2dc8 21bd b8f8 853d
00000030: f808 babd f6a3 333d da49 da3c 1f6c 1e3d
00000040: 5ea8 2a3b e501 59bc de23 5f3d 7b85 ad3d
00000050: e3be eabd a712 4cbd 3a67 223d a867 60bd
00000060: a7b7 debc 3620 8fbd 821b a5bd 699f 42bd
00000070: a4cf 86bd 02d9 60bd 6438 4d3d 5bad c0bb

audio_TCN.0.network.2.net.0.weight_g f4 [32, 1, 1]
0.53912926 0.5387726 0.5358621 0.5795423 0.6625839 0.5654626 0.5476364 0.550881
0.60350007 0.53774333 0.5804667 0.511797 0.58982027 0.5394319 0.6925396 0.6522774
0.56651264 0.6426444 0.5832096 0.589993 0.568128 0.7304424 0.5392455 0.5947124
0.6024321 0.58954126 0.56449884 0.57349706 0.6458796 0.52073395 0.5562442 0.6321257
00000000: 6004 0a3f 00ed 093f 422e 093f e25c 143f
00000010: 199f 293f 28c2 103f e631 0c3f 8a06 0d3f
00000020: fb7e 1a3f 8ca9 093f 7799 143f 2105 033f
00000030: 76fe 163f 3618 0a3f 464a 313f a7fb 263f
00000040: f906 113f 5884 243f 394d 153f c809 173f
00000050: d670 113f 46fe 3a3f fe0b 0a3f 123f 183f
00000060: fd38 1a3f 2dec 163f ff82 103f b4d0 123f
00000070: 5e58 253f d24e 053f 0566 0e3f fdd2 213f

audio_TCN.0.network.2.net.0.weight_v f4 [32, 32, 3]
-0.00041601097 -0.10000992 -0.048358675 0.036912035 0.011328218 0.009646003 0.08262777 0.07343616
-0.10811085 -0.033754066 -0.008245413 -0.042478282 -0.050331783 -0.09966069 -0.10316872 0.068607025
-0.054228887 0.03606923 -0.088608176 -0.0057199136 0.016637204 -0.03639499 0.031384535 -0.05428612
0.09097819 0.046097707 0.048380654 0.049593817 0.007795232 0.0154801905 -0.08967574 -0.08207676
-0.10830461 0.001367693 -0.07883084 0.04266713 0.077364 -0.011787712 -0.018061932 0.10019124
-0.09535745 -0.042247344 0.10183887 0.023318244 0.09243674 0.060427066 -0.05008404 0.051612817
0.08903932 -0.031068733 0.017737681 0.012365154 0.05598505 -0.039596915 -0.011800284 0.03719396
0.050811917 0.019733494 -0.11174533 0.016381633 -0.021715201 0.08979652 0.096997425 -0.080863014
-0.062385168 -0.04706495 0.022417136 -0.08185889 -0.016094185 0.006437786 0.016398162 -0.06458991
-0.08212377 -0.053701814 0.009600525 -0.05366458 0.00332347 -0.0458838 -0.034888703 -0.043999285
-0.110968 -0.013475782 0.07429083 0.06985623 0.02323342 -0.030228266 0.048026532 0.01832253
-0.09857003 -0.0122262975 -0.008884067 -0.026932277 -0.060372405 -0.07706061 -0.094632484 -0.04785471
0.059719723 -0.10639538 0.07132288 0.01896347 -0.00065586495 0.04661514 0.016053041 0.04578161
-0.031674404 -0.087914 0.081118606 -0.08810658 -0.038159996 -0.02174781 0.015518396 -0.04403364
-0.02323366 -0.05320978 -0.05239766 -0.03298098 -0.023976572 -0.0797514 0.07987925 0.00563429
-0.09934661 -0.08350348 -0.031137265 0.0486711 -0.0801268 -0.102243625 -0.090422556 -0.06457947
0.025964117 -0.066147424 -0.10257991 0.077634275 0.06934966 -0.0060929507 -0.09306616 0.026620476
-0.10048792 -0.105794795 0.044697452 0.031120513 -0.077469766 -0.030922519 -0.0871274 0.029192636
0.010221161 0.045267165 -0.043989133 -0.010837546 0.01654646 -0.02600733 -0.084477894 0.031357158
0.08104885 -0.07894464 -0.042257227 -0.04160772 0.054439116 -0.057406243 0.08743437 -0.011023745
0.084101066 0.01261252 -0.1155616 -0.059748776 -0.091316916 0.009054999 -0.048200916 0.07233919
0.0132162655 -0.111286946 -0.08254431 -0.0748291 0.07879763 -0.05884754 -0.10716916 0.015817191
-0.034802515 -0.014529896 -0.08552035 -0.042359732 0.015646558 -0.08498786 0.0110783335 0.00032972434
-0.0960956 -0.02347754 -0.110058315 0.030096866 -0.022787126 -0.041320205 -0.06925098 0.04846974
-0.08468137 -0.085996345 -0.09187341 0.082975395 0.03378811 0.069525756 -0.005103094 0.010925893
-0.0651308 0.013803719 -0.048855856 -0.03560697 -0.09329057 0.01632976 -0.08630424 -0.07379811
0.011705769 0.043869007 0.09394097 -0.11101113 -0.08076198 0.03969367 -0.016087387 -0.021722944
-0.02502955 0.08992257 0.08774395 0.0543157 -0.079473354 -0.09830625 -0.07720394 0.03207071
0.09159725 -0.013838015 -0.06535134 -0.09637274 0.029877754 0.023180645 -0.07569455 -0.12326664
-0.039758798 -0.038485166 -0.02338789 -0.027600124 0.012170451 -0.027508028 -0.0138212405 -0.06328956
0.035755936 -0.020596525 -0.08136614 -0.014305368 -0.09008513 -0.0372124 -0.007120387 0.05753017
0.027505301 0.032746878 -0.023923293 0.06272838 -0.099148475 -0.052019473 0.08866829 -0.038478065
00000000: 0c1c dab9 00d2 ccbd bf13 46bd 1331 173d
00000010: fd99 393c 450a 1e3c c038 a93d b365 963d
00000020: 3969 ddbd b441 0abd c517 07bc b5fd 2dbd
00000030: b328 4ebd e71a ccbd 1f4a d3bd d781 8c3d
00000040: 1c1f 5ebd 54bd 133d 3478 b5bd 1d6e bbbb
00000050: bf4a 883c ea12 15bd 128d 003d 1f5b 5ebd
00000060: c652 ba3d f3d0 3c3d cb2a 463d e322 4b3d
00000070: 256f ff3b a0a0 7d3c eaa7 b7bd dc17 a8bd
00000080: cfce ddbd 2944 b33a 1072 a1bd bac3 2e3d
00000090: 0471 9e3d 3f21 41bc 9ef6 93bc 1131 cd3d
000000a0: c44a c3bd 8d0b 2dbd e690 d03d e705 bf3c
000000b0: 794f bd3d 5f82 773d ec24 4dbd f667 533d
000000c0: 3f5a b63d db83 febc 9d4e 913c 3797 4a3c
000000d0: 9450 653d 6030 22bd fa55 41bc b258 183d
000000e0: 2820 503d 23a8 a13c bcda e4bd c632 863c
000000f0: 14e4 b1bc 3de7 b73d 96a6 c63d 829b a5bd
00000100: 9787 7fbd 2dc7 40bd 24a4 b73c a2a5 a7bd
00000110: f4d7 83bc 10f4 d23b 7055 863c b747 84bd
00000120: 8230 a8bd 6ff6 5bbd 854b 1d3c 64cf 5bbd
00000130: 93ce 593b a7f0 3bbd 75e7 0ebd 9838 34bd
00000140: 3143 e3bd 87c9 5cbc ca25 983d c810 8f3d
00000150: 0354 be3c 45a1 f7bc 78b7 443d 2119 963c
00000160: 15df c9bd cf50 48bc 7a8e 11bc 14a1 dcbc
00000170: 0e49 77bd f4d1 9dbd adce c1bd 4d03 44bd
00000180: ab9c 743d d2e5 d9bd bb11 923d 4759 9b3c
00000190: 5aee 2bba 84ef 3e3d ab81 833c 7f85 3b3d
000001a0: 05bd 01bd 410c b4bd 8321 a63d 3971 b4bd
000001b0: a84d 1cbd 7728 b2bc df40 7e3c 9e5c 34bd
000001c0: 8454 bebc 80f2 59bd ee9e 56bd 1017 07bd
000001d0: 846a c4bc b454 a3bd bb97 a33d da9f b83b
000001e0: 3c76 cbbd df03 abbd 9413 ffbc 595b 473d
000001f0: 8519 a4bd 1b65 d1bd 762f b9bd 3e42 84bd
00000200: b3b2 d43c 4d78 87bd 6a15 d2bd b8fe 9e3d
00000210: 3207 8e3d 60a7 c7bb 7999 bebd 2f13 da3c
00000220: 9ccc cdbd f1aa d8bd ad14 373d 72f0 fe3c
00000230: 78a8 9ebd 3951 fdbc da6f b2bd 6525 ef3c
00000240: a876 273c 106a 393d f32d 34bd f68f 31bc
00000250: 718c 873c 530d d5bc bf02 adbd 5d70 003d
00000260: f1fc a53d baad a1bd ea15 2dbd db6c 2abd
00000270: 8dfb 5e3d cf22 6bbd ca10 b33d f09c 34bc
00000280: 2e3d ac3d bea4 4e3c 8fab ecbd 22bb 74bd
00000290: 5d04 bbbd 6b5b 143c 536e 45bd 9226 943d
000002a0: 0989 583c 69ea e3bd fe0c a9bd 0040 99bd
000002b0: a760 a13d 1e0a 71bd 817b dbbd 0e93 813c
000002c0: 158d 0ebd cd0e 6ebc 4b25 afbd 6681 2dbd
000002d0: 362d 803c 1d0e aebd e681 353c dade ac39
000002e0: c5cd c4bd f853 c0bc 4166 e1bd b48d f63c
000002f0: 11ac babc 603f 29bd 75d3 8dbd 3588 463d
00000300: 6d6d adbd da1e b0bd 2028 bcbd 01ef a93d
00000310: 6765 0a3d 8563 8e3d db37 a7bb 8402 333c
00000320: 4c63 85bd fe28 623c 141d 48bd 9dd8 11bd
00000330: 200f bfbd fdc5 853c 47c0 b0bd 7723 97bd
00000340: 8ec9 3f3c fdaf 333d 2064 c03d ce59 e3bd
00000350: 8966 a5bd d495 223d b2c9 83bc 51f4 b1bc
00000360: c50a cdbc 5329 b83d 1ab3 b33d 247a 5e3d
00000370: edc2 a2bd ca54 c9bd 191d 9ebd 945c 033d
00000380: 5797 bb3d d7b8 62bc ecd6 85bd 125f c5bd
00000390: 31c2 f43c 56e5 bd3c bf05 9bbd 3873 fcbd
000003a0: 1fda 22bd 9fa2 1dbd f697 bfbc a819 e2bc
000003b0: 9266 473c 8458 e1bc 7c72 62bc f59d 81bd
000003c0: d174 123d 0bba a8bc 4aa3 a6bd 1061 6abc
000003d0: 8d7e b8bd 086c 18bd 2352 e9bb c1a4 6b3d
000003e0: cc52 e13c 9721 063d c8fa c3bc bd77 803d
000003f0: 5b0e cbbd 5f12 55bd b897 b53d 2d9b 1dbd

audio_TCN.0.network.3.conv.bias f4 [32]
-0.11487771 -0.07769816 -0.02971082 0.091859415 0.053336605 0.014322799 0.08900039 0.03511578
-0.014230602 0.05861903 0.0052688885 -0.02618557 -0.045980584 0.03382576 -0.029108115 -0.06921089
-0.007747847 0.034218818 -0.008698084 -0.010739398 0.035279654 -0.010961341 0.058817793 0.023366524
0.017320197 0.015457485 0.093453385 -0.01622726 0.12602726 0.025622 0.11041515 -0.0697474
00000000: 0145 ebbd 3720 9fbd 1b64 f3bc ca20 bc3d
00000010: 7c77 5a3d 2caa 6a3c d645 b63d 90d5 0f3d
00000020: 7927 69bc 821a 703d a4a6 ac3b 1f83 d6bc
00000030: 2356 3cbd e18c 0a3d 2474 eebc 70be 8dbd
00000040: a7e1 fdbb 0829 0c3d 6982 0ebc 4df4 2fbc
00000050: 6681 103d 3297 33bc edea 703d 276b bf3c
00000060: 16e3 8d3c 6441 7d3c 7d64 bf3d 08ef 84bc
00000070: 4a0d 013e 3be5 d13c 5721 e23d bad7 8ebd

audio_TCN.0.network.3.conv.weight_g f4 [32, 1, 1]
0.5336215 0.54792494 0.5996618 0.53462124 0.65062803 0.5933369 0.57203186 0.5655385
0.5707094 0.5679454 0.5511937 0.5718925 0.52901363 0.61536163 0.57207507 0.5837751
0.66422176 0.5731065 0.6344087 0.5744235 0.58321494 0.6152947 0.58577853 0.58160573
0.64384645 0.5910989 0.597382 0.57126987 0.6344701 0.5518088 0.77295685 0.5454526
00000000: 6b9b 083f cf44 0c3f 7083 193f f0dc 083f
00000010: 8f8f 263f ede4 173f ae70 123f 22c7 103f
00000020: 031a 123f df64 113f 081b 0d3f 8c67 123f
00000030: 706d 073f 5788 1d3f 8373 123f 4972 153f
00000040: 700a 2a3f 1cb7 123f 9c68 223f 6b0d 133f
00000050: 934d 153f f483 1d3f 95f5 153f 1de4 143f
00000060: 1fd3 243f 4252 173f 07ee 183f be3e 123f
00000070: a26c 223f 5743 0d3f 80e0 453f c8a2 0b3f
