results/models/strong/strong_acce-gyro_cnn-lstm_checkpoint.pt (torch_old, 351866 bytes, 8 tensors)

acce_gyro_layers.0.weight f4 [32, 6, 8]
00000000: b702 80bd 836c f3bd 6df8 14be 7236 5cbd
00000010: 0d9f 10bd 1edc d93d b170 a8bd 5585 b4bb
00000020: 51db 8cbd 3a75 ae3d 4c9d 783c f696 d83a
00000030: 16a9 d7bc 47d2 ae3c 2c4b 3f3d 1fde 02bc
00000040: 0fa9 d83c 344b b13d 6f12 cfbd a1e8 ba3c
00000050: 8fdd b3bd c2c4 20be d3d0 3dbc 54d5 743d
00000060: aeab cd3e 724d a03e 58e5 b43e be2c c23e
00000070: a3e1 b43e a4ac 5c3e 2e6a c83e 3ec7 5a3e
00000080: bbf7 42be 6863 af3d d653 37bd 30e3 eabc
00000090: 11a5 dabd ce36 2bbe c325 efbd b908 edbc
000000a0: a494 363e b84a abbd 8e9e 363d 4278 413e
000000b0: 4beb 9c3c e74b cdbc d4b3 0fbd 5cf1 103e
000000c0: 0006 6dbd 9e32 cbbd 4d84 54bd 151c 2bbe
000000d0: 7658 1bbe 298f e43c b56b ccbd 6905 a3bd
000000e0: c3cf 17be 38ed 8c3d c6f4 e5bd e71d 91bc
000000f0: 12e5 dbbd 4b41 173a f6e3 9bbd 6a05 c5bd
00000100: fcdc e9bd 0c69 e3bc d1a9 90bd 57e7 c4bd
00000110: 3e5f ffbd 00c9 d8bd 7a06 bbbd 2a6b 893c
00000120: 09b5 9dbc 5fb4 91bc 1973 56be 76cc 7ebe
00000130: 075d 45be a6f2 82be 2ab1 81be 946d ef3b
00000140: 2299 6fbe d83e e1bd 754e 0bbe 6379 80be
00000150: e4ae b7bd e649 f7bd 5f39 8abe 151e 11bd
00000160: 233b 00bb ec02 343d 6edf 193e 800f 3e3e
00000170: effe 0d3e 46ea 38bc 68fb a63d 9369 283e
00000180: 4d23 96bd f3ea 233e 8578 c7bd 6096 243d
00000190: 560c d63d cd88 5cbd 346d d33d 8b20 8bbc
000001a0: ed6e 293e 70dc cc3d d066 f93c abdb 433e
000001b0: faf2 823e c78e 7b3e 8f73 113e bbaf ca3d
000001c0: 3570 0c3e d775 953e d556 903d c019 e73c
000001d0: a80e 053c 3d71 8a3e f4ed 853e d907 3b3d
000001e0: cbe6 09be b1dd 3ebd b6ca fbbd d7fe 5f3c
000001f0: f23d e8bb d9c2 a93c 7881 20be 4491 05be
00000200: cac9 74be 98e4 b9bd e790 7abe e6a6 1cbe
00000210: 0f4f 503b 6fa4 84be 0037 0cbe ec43 63be
00000220: 23d7 cfbd 32c4 8b3a 87c8 4c3d c1cb 1bbc
00000230: 8654 293d 6d0f 0f3e 004c 03be 94e1 47bd
00000240: 694b 26be 5386 eebd 3372 e43c f8f6 5ebe
00000250: 2675 dabd 845e 33bd f1eb 14bd c614 48be
00000260: 3839 503c 5797 993d 4576 18be c2e7 b53c
00000270: e2f2 4a3d afd1 83bd 2b42 9dbd a15b 643d
00000280: 789e f0bd 72b6 903b 6b94 5dbd 0c26 f4bd
00000290: 2f82 3e3d 76db 303d fa37 b23d 6040 acbc
000002a0: b849 013e d374 21bc 98b5 153e 986c 823e
000002b0: 60b2 a2bc 6de5 843e ea78 0e3e c698 223e
000002c0: 1a00 3a3d 9754 0b3c 3549 413e dae7 573e
000002d0: 2bb6 2b3e b13a 5b3d 3f8b d33c 76de 563c
000002e0: 329b c83c b52e aa3b 39a5 1ebe b3b5 413d
000002f0: cac5 d2bd 466e 05bd e906 87bd 6ee3 5d3c
00000300: d776 3b3c 61b1 523d 8ee7 63be 9339 983c
00000310: 1761 973c 3167 1f3d c460 983d 4419 13be
00000320: 6bcd d83d 9fa0 a6bd 4d01 053e 9899 f23d
00000330: 4193 89bd 8c36 9c3d a720 23bc d87d c33d
00000340: e144 f83c 9fd2 2dbe 3e20 5e3d c7cd 99bd
00000350: eef1 e13d 8355 a03d 14fe ea3d 10b5 26be
00000360: 5852 343d 898c 683d 7e48 5f3e 81c3 4c3d
00000370: 8cb7 8b3e c7c3 a63d 5a1c 053e bcc6 183e
00000380: b1dd 81bd 86a1 213e f8be 1a3e 919f b83c
00000390: 2fdb 5fbd 0586 1a3d 3417 27bb 91dd 92bd
000003a0: ec4b f53a 9a98 1e3e 1a1e 8e3c 6511 8b3d
000003b0: c8f9 2e3e cbe7 8ebd 1152 943d 81b7 3a3e
000003c0: 8c07 083e f026 a13d ae37 c0bd 013a e3bd
000003d0: 51a4 ee3d 0891 30bc 07cf 48bc ce50 4a3c
000003e0: a711 ca3a 750f 9a3d 4b35 bcbd 3924 d13c
000003f0: 2789 c23d 677e e2bd ad42 4f3c f904 d53d
-0.06250518 -0.11885931 -0.14547892 -0.05376286 -0.035307933 0.10637687 -0.08224619 -0.0055090585
-0.06877769 0.08518453 0.015174221 0.0016524482 -0.026325744 0.021340502 0.04670255 -0.007987528
0.0264478 0.08656922 -0.10110938 0.022816004 -0.08782493 -0.15700057 -0.011585432 0.059773758
0.40170044 0.31309086 0.35331225 0.3792476 0.35328397 0.21550232 0.3914351 0.21365067
-0.19039814 0.08563882 -0.044757687 -0.028672785 -0.10676015 -0.16720125 -0.11677124 -0.028934823
0.1783014 -0.08363861 0.044584803 0.18893531 0.019155165 -0.025060607 -0.035083607 0.14154571
-0.05786705 -0.09921764 -0.051883984 -0.16709931 -0.15170464 0.027900295 -0.09981481 -0.07960016
-0.14825349 0.068811834 -0.112283275 -0.017714454 -0.10737051 0.0005769922 -0.076118395 -0.09620173
-0.114191025 -0.027760051 -0.0706364 -0.09614437 -0.12469338 -0.10585213 -0.09132095 0.016774733
-0.019251363 -0.017786203 -0.20942344 -0.24882683 -0.19273768 -0.2557575 -0.25330478 0.007306764
-0.2339826 -0.109983146 -0.13604148 -0.2509261 -0.089689046 -0.12074642 -0.26996896 -0.03542908
-0.0019566498 0.0439481 0.15026638 0.185606 0.1386678 -0.011286324 0.08153421 0.16446523
-0.07330952 0.16007595 -0.09739784 0.04018247 0.10451572 -0.0538414 0.10323563 -0.016983291
0.16546221 0.100029826 0.030444533 0.19126765 0.25576 0.24566184 0.14204238 0.09896799
0.13714679 0.29191467 0.07047812 0.02821052 0.00812117 0.2703952 0.26158106 0.04566178
-0.13466947 -0.04659814 -0.122945234 0.013671598 -0.0070874626 0.020722793 -0.15674388 -0.13043696
-0.23905101 -0.09076804 -0.24469338 -0.15298042 0.0031785404 -0.25906703 -0.13692856 -0.22193879
-0.10148456 0.0010663329 0.049995925 -0.009509028 0.041340373 0.13970728 -0.1282196 -0.048799112
-0.16239704 -0.11646714 0.027886486 -0.21773899 -0.106668755 -0.04379131 -0.036357824 -0.19539174
0.0127089545 0.07499569 -0.14888866 0.022205237 0.049548037 -0.06436478 -0.07678636 0.055751447
-0.117489755 0.0044162804 -0.05409662 -0.11921319 0.04651087 0.043178044 0.08702083 -0.02102679
0.12625778 -0.009854513 0.14620054 0.25473475 -0.019860446 0.25956288 0.13913313 0.15878591
0.045410253 0.0085040545 0.18875583 0.21084538 0.1676871 0.05352277 0.025823234 0.013114562
0.024488065 0.005193556 -0.15492715 0.047292423 -0.102916315 -0.032575868 -0.06593115 0.013542993
0.011441908 0.051438693 -0.222563 0.018582141 0.018478913 0.03891677 0.074403316 -0.14365107
0.10586055 -0.08136105 0.12988777 0.11845702 -0.067175396 0.076275915 -0.009956515 0.09545487
0.030306282 -0.16974877 0.054229967 -0.07509952 0.110324726 0.0782881 0.11474243 -0.16280007
0.04402384 0.05677465 0.21804997 0.049991135 0.27288473 0.0814281 0.12999097 0.14919561
-0.063411124 0.15784273 0.15111911 0.022537025 -0.05465239 0.037725467 -0.0025496008 -0.07171167
0.0018714643 0.154879 0.017348338 0.06790427 0.17087471 -0.06977805 0.072422154 0.18234064
0.13284129 0.07868755 -0.0938562 -0.11095048 0.116524346 -0.010776766 -0.01225639 0.012348367
0.0015416638 0.075224794 -0.09189852 0.025529968 0.09498816 -0.110592656 0.012650174 0.10401339

acce_gyro_layers.0.bias f4 [32]
00000000: cbac 523e 3dda 8ebb 2131 643d c4eb 523e
00000010: 6cf8 133e 2ba4 673e b206 2f3e 45bd 333b
00000020: d62b 603e e2cd 28bb e260 af3a 672c 5e3e
00000030: 0bc5 5f3e 4f57 0e3c e97d f13b cd3f 043b
00000040: 6eb5 253e cfb6 2ebc c90d 28bb ada1 123e
00000050: b678 fa3b 4800 f5ba c63e 5c3b de37 273e
00000060: 4f87 173b 6be9 433e 4098 713e dc6d d83a
00000070: 2b68 3b3d 1731 4b3d 1ece 533c 142a d63d
0.20573728 -0.004359512 0.055710915 0.2059775 0.14450234 0.22621219 0.17092398 0.0027426046
0.21891722 -0.0025757481 0.0013380314 0.21696626 0.2185251 0.008687808 0.007369746 0.002017963
0.16182491 -0.010663702 -0.0025642982 0.14319487 0.0076437844 -0.00186921 0.0033606752 0.16329905
0.0023121422 0.1913201 0.23593235 0.0016512233 0.04575364 0.049607363 0.01292756 0.104572445

lstm.weight_ih_l0 f4 [512, 32]
00000000: 8fa1 d0bc 8462 053d a453 6e3c 5244 b9bb
00000010: 58fc f53c 5d33 bc3d 7ca6 24bd 9817 e0bc
00000020: 97d5 e3bc 9106 833c 07cf ae3d 5c1e 5dbd
00000030: aa95 4e3d 83f3 41bd 16d5 983d bdcf c4bc
00000040: 30e1 2dbd f6f6 b33c 4296 b53d 7673 92bd
00000050: 1d1d 8d3d 925a 063e d7ee aabd 361b 1cbd
00000060: e870 c33d f17b 023c 39b6 b2bd 81e2 d2bb
00000070: 9c49 3abb f2c9 9d3c c852 4a3d 9eec dcbd
00000080: 4d4c e93d 3a04 fe3d a53d 3c3e 096b 913c
00000090: 3938 65bc 2834 dd3d 45c3 81bd 9793 973d
000000a0: 2f44 6f3d 174b 2a3e d0ff 423e 2ad6 86bd
000000b0: 4379 d63c 7e7d c33c 0ac2 023e 5320 043e
000000c0: 5679 883d 7874 8a3d 980b fd3d 0fdf 58bd
000000d0: 351d 1b3e a17a 283e 69a6 873d c5aa 16bd
000000e0: 1b79 e43d 1ac4 cb3c e707 953d d4ca 243c
000000f0: 1310 4a3e 6b1a 4a3e 334f 273e de11 a73d
00000100: 78b9 8f3c c081 2fbe ac52 4f39 a096 7dbd
00000110: 5512 a73d c0a7 b43d 5e7a d93d 390d 64bc
00000120: ab0d 023b 17af ac3d f9c7 3d3d b711 d03d
00000130: 178c 36bd c02b 74bd 74a2 a2bd 8627 15bd
00000140: affd 803d df31 dc3c 3017 503d 2ff5 a93e
00000150: 0eaa de3d 35d6 5ebd f0f3 9fbc 4bbb 143d
00000160: 70a5 e73d 5c33 233d a256 99bd c012 8f3d
00000170: 4d5d 5f3a 06a9 213e d65e c9bc 201c 20bd
00000180: b99d 43bd 6113 d2bc af88 78bd e4c5 1c3c
00000190: aad6 9d3d f4e1 cfbb 3e9b 36bd 19dd 59bd
000001a0: 5709 89bc 94d7 75bd 9f5c b9bd 6b48 bb3d
000001b0: 2719 843d 3e67 2ebd a4c9 02bd 7875 c83c
000001c0: 6694 613d d310 6cbd 4caf c5bd c09d 923d
000001d0: 770f fbbd e668 6a3c 698d b5bb 0887 cdba
000001e0: 9e14 9abd 182e 093d 1456 a7bd 0630 453d
000001f0: b1cf 253c 13d0 b6bd 340c 193b dae0 81bd
00000200: e57b ac3d 6e10 8abd c34b 0abe 2211 2e3b
00000210: b25e dd3c 18bb 4a3d 3fe7 1e3e 4c9b 3abd
00000220: 55d8 ce3c a1e1 f8bc a97e 48bc 2a1a ce3d
00000230: 7cc7 163d a9e3 553d 6999 293d eda4 08bd
00000240: 5b50 ea3d d01f 193d c919 8d3c c9b8 fbbc
00000250: b3a4 22bd 1d03 26be e4ce e4bd 9c70 dbbb
00000260: 82bc bfbc cf10 a6bc 5170 a63d ed82 b03a
00000270: c8c7 033e 0ae0 1a3d 5153 bb3d f649 40bc
00000280: b2e1 873d 5223 08be 055b 1e3d 9cff 2bbd
00000290: 254e 3ebd fa4e 4dbd 11a1 aebc 3c9b 5fbd
000002a0: baec d03c 5693 833c de48 42bd feaa 4a3d
000002b0: 8215 5dbd bd04 16be 625c 23be 7b0f b0bd
000002c0: c21e 9c3d e06a c33c aaf2 fb3c 2fb8 0dbd
000002d0: a7ca 05bd b8f2 933c 4141 10be b34e 96bd
000002e0: 3023 ddbd a20e 6ebc 3c08 2ebd e1a5 28bd
000002f0: e5ae 8abc cbc2 c6bd f580 103d cfbd 64bd
00000300: 7444 1f3d cacf ba3c c974 493e 839d 9d3d
00000310: e3ff 2b3e 2ffa 033e 7840 0d3e 632a 653d
00000320: 828d 003e 1d0a ff3d 4e77 c73d 380e e93d
00000330: eac0 4a3c c9da 803d 1b70 853e 3bfe cfbb
00000340: 059d f63d 744d 593c 58e6 8dbd 54da 9b3d
00000350: 730e 633d ab86 ea3d c44f fb3d 77bd 81ba
00000360: d73f be3d 0503 af3c d395 3c3e 32fe 88bc
00000370: 73a2 383d 33f2 c23d 5be3 ea3d 1cf8 073e
00000380: 4a00 593d 5aae fbbd 975f 09bd 61a9 48bc
00000390: 2b94 70bd c68b 0a3e 7e39 77bd aecd bebd
000003a0: 623d 5f3d d46b 883c 43cf 06bd a857 c33d
000003b0: af2c a4bd 81de 68bc c9c9 803d 0124 dcbc
000003c0: 0d63 bbbc 48a1 1fbc 7959 1cbc 6eee 8e3d
000003d0: ba4d 903e 2bf2 513c f586 32be bd10 893d
000003e0: 15d7 983e 255f de3d b78e 5c3d 5672 023e
000003f0: 054b df3d 53e6 373e e908 033e 954f e4bc
-0.025467662 0.032564655 0.014546309 -0.0056538964 0.030027553 0.09189484 -0.040197834 -0.027355
-0.027811809 0.015994342 0.08535581 -0.05398403 0.0504357 -0.04735137 0.07462518 -0.024024839
-0.042451084 0.021968346 0.0886655 -0.07150929 0.068903185 0.13120487 -0.08346336 -0.038111888
0.095430195 0.00796412 -0.087261625 -0.006435693 -0.0028425222 0.019261334 0.049395353 -0.10787319
0.11391506 0.1240315 0.1838289 0.017751234 -0.013990455 0.10800964 -0.06336073 0.074011974
0.058414634 0.16630207 0.19042897 -0.06583817 0.026180869 0.02386355 0.12769333 0.12902956
0.06663768 0.06760496 0.12355727 -0.0529471 0.1514786 0.16453029 0.06623537 -0.036783952
0.111559115 0.024873782 0.07276898 0.010058124 0.19732694 0.1973664 0.16338806 0.08157705
0.017544493 -0.1713934 0.00019771856 -0.061911225 0.081577934 0.08821058 0.10619043 -0.013919168
0.0019844573 0.08431833 0.046333287 0.10159629 -0.044567194 -0.059612036 -0.07941142 -0.036414646
0.06298386 0.02687925 0.050803363 0.33194873 0.10872279 -0.054403502 -0.019525498 0.03631143
0.113108516 0.039843902 -0.07487227 0.06985998 0.0008520678 0.15787134 -0.024581354 -0.039089322
-0.047757838 -0.025644006 -0.060677227 0.009568665 0.077069595 -0.0063440744 -0.044581644 -0.05318937
-0.016728086 -0.060020044 -0.09050869 0.09144672 0.0645011 -0.04257893 -0.03193058 0.024470076
0.055073164 -0.057633232 -0.09652576 0.07158995 -0.12258809 0.014307236 -0.005540539 -0.0015680501
-0.07523464 0.033491224 -0.08170715 0.0481415 0.010120318 -0.08926406 0.002335322 -0.06341715
0.084220685 -0.06741415 -0.13505463 0.0026560505 0.027022693 0.049494833 0.15517901 -0.04555826
0.02524964 -0.030381026 -0.012237229 0.10063584 0.036811337 0.052219067 0.04140607 -0.03336041
0.11441108 0.037383854 0.01722421 -0.03072776 -0.03970785 -0.16212125 -0.11172274 -0.0066967737
-0.023405317 -0.020271687 0.081268914 0.0013466753 0.12869179 0.037811317 0.09146751 -0.011736384
0.06634845 -0.13294724 0.03866102 -0.041991815 -0.046461243 -0.050124146 -0.021317037 -0.054591402
0.025503505 0.016061466 -0.047432773 0.049479477 -0.05397559 -0.14650245 -0.1595321 -0.08596703
0.07623054 0.023854673 0.03075536 -0.03459948 -0.032663967 0.018060073 -0.14087392 -0.073392294
-0.10797727 -0.014529856 -0.04248832 -0.04117382 -0.0169291 -0.097051226 0.035279233 -0.055845078
0.03888364 0.02280416 0.19673456 0.076960586 0.16796832 0.12888406 0.13794124 0.055948626
0.12553981 0.12453101 0.097395524 0.11379665 0.012375096 0.0629173 0.26062092 -0.0063474453
0.12041668 0.013263095 -0.069287 0.07610002 0.0554337 0.11451467 0.122710735 -0.0009898384
0.0928952 0.021363745 0.18416528 -0.016722772 0.0450768 0.09518852 0.11469146 0.1327824
0.05297879 -0.12289114 -0.033538427 -0.012247414 -0.058735054 0.13529882 -0.060357563 -0.09316574
0.0545019 0.016652979 -0.032912504 0.095382035 -0.08016335 -0.014213205 0.062884875 -0.026872637
-0.02287438 -0.009743042 -0.009542816 0.069790706 0.281843 0.012814085 -0.17434295 0.06692646
0.29851595 0.10857991 0.05384704 0.12738928 0.10902981 0.17958955 0.12796368 -0.027869979

lstm.weight_hh_l0 f4 [512, 128]
00000000: 9796 90bc 4c23 d4bd 8a21 49bd 740a c73b
00000010: 18ff e4bc 0d50 0dbe 4107 113e 9621 a1bc
00000020: 5504 063e b9f0 e13d d580 85bc bb5d 8a3c
00000030: faf3 0ebe 67b2 6bbd 5f22 083d 1c97 a0bc
00000040: b0f1 a4bd 42d5 24bd 1223 bdbd b2b9 66bd
00000050: e0a0 a0bd 2816 5f3d ace5 c5bd 6865 733a
00000060: 1740 bdbd b81d 063e 70d6 51bd 94e0 cf3a
00000070: 50d7 3cbe 2360 cb3c 7d96 12bc 7734 16be
00000080: 677c c83b a659 ef3c 89bb 423d ac89 53be
00000090: c174 883c fd31 0abe 2009 003c 2274 4ebd
000000a0: 4bf4 473d ef4c 1a3d 7cc4 36be a473 b2bd
000000b0: 78ff f33c 15eb b4bd 9dfa ce3d 03fa 593c
000000c0: e5c9 243a 6996 e9bc 56de cd3c 271e e83d
000000d0: a2bc 013e e25a e53d b9c1 30be dea0 423e
000000e0: 6083 7a3b 1f01 803c c0e2 a2bc b60e 47bd
000000f0: 4d41 d53c beea 7cbd 49bc 90bc b9d1 26be
00000100: 9cca b63b 743f 533d b10c 1c3b ca8b 76ba
00000110: c974 f4bc f086 913d 9605 353d afea 88bd
00000120: 554b a63c 9f60 7ebc cfa1 99bd a8be 8bbc
00000130: 322e fdbd 983b bbbd fa0b e5bc 2f9f 83bd
00000140: 16d7 6b3d c98b a73d 7202 e3bb 5b6b df39
00000150: 1fff ae3d 797a 3b3d 588a 973c 1958 7abd
00000160: e13f 00be f459 6abd 03f2 e2bd a70c acbd
00000170: 3a94 a23d 74c2 81bd 0370 2e3d b1e3 dabd
00000180: 8ec2 a0bd 5678 2abd 326c 66bd 0d68 113d
00000190: 6f95 853b 6292 01bd e43a df3d 5b80 c8bc
000001a0: f5ef 723d b4cc d53c f6d1 4dbe 034f 27bc
000001b0: 08ad 383d 7ebd 3d3d 8fdb e6bd e70d 643d
000001c0: c953 dabb e661 f63d b460 c4bd e863 f33d
000001d0: 174a 113e 64f4 82bd a0db 07be a1a6 febd
000001e0: d619 233e a4fe f8bd 9c2e f6bd 1f76 fdbb
000001f0: b4d6 513d f225 503c 6b3d afbd 0591 bbbc
00000200: cdc3 88bd 2826 47bd 8e88 803d b6c0 80bd
00000210: ad7f 5d3d d9cf 143d fba2 da3c a75f 90bd
00000220: 4cfb ccbc 8fa4 d8bd ff9e 08be 743e c23c
00000230: 3026 fdbb 4761 843c 76bc 84bc c592 0dbd
00000240: 8929 b8bd 8555 02be 4034 95bd 3554 2f3d
00000250: cf8e 8fbc 6928 b2bd 8a85 a33c 9af6 413d
00000260: 8bcd e6bc cd27 2dbd 52bd cebc 3877 08be
00000270: f991 933b 18db 8e3d ba51 15bd 0b69 a1bb
00000280: c994 493b 5c56 5d3d 2daa 38be f902 0fb9
00000290: 1736 c5bd 8683 32be 2728 a2bd e255 8bbd
000002a0: 2f25 dbbc fe00 62be bafb 063d 6aae 68be
000002b0: 8209 023c 0a70 bfbc 5303 d8bc cd1d 253b
000002c0: eb6e 6bbc 7c2c e83d 5c08 3c3d 2baf 043c
000002d0: 0dd5 0ebd 9c36 3fbc 93d2 e53c 371b 1fbd
000002e0: b72c 18bd 9095 32bd 92dc dabc 269e b8bd
000002f0: 99c7 da3d bd0a 02bc 9f58 c7bd d9cf 02bd
00000300: 1a53 9d3d 077a cd3b d0e9 c03a 07e2 d33c
00000310: 49dc d23d 6176 70bc b1f1 a53d 7705 dcbc
00000320: 01a3 ccbb 150e b83d f7c6 1f3d 5d96 d53d
00000330: b1c1 993c b9bd c33b 1be7 2cbc 6d5f a638
00000340: 60d9 18bd cfbb 27bc 5fbe 08bc caf5 143e
00000350: 99ec 65bd 27d1 83bd 6218 c7bc 3cbe 5abc
00000360: 7361 9a3d b190 f33c a795 a5bd cbda 703d
00000370: 185a b4bd e04e 3cbd b7b5 93bc f3ea b03d
00000380: 0d68 c93d a2b4 c5bd 541e 9aba c1a9 ddbb
00000390: de6b a83c 9ba4 96bd a693 0ebd 8315 c13c
000003a0: 8dc8 47bd db37 8f3b 7ce8 c1bb dc6c f43b
000003b0: ada8 bbbd 83c7 e63a fa81 98bc 17a9 e8bc
000003c0: c8da b23c 1689 f4bc dd2c 6b3e 3021 a1bd
000003d0: 7462 bf3c 05c8 92bd d24c 55bd 6644 f13c
000003e0: 0f3b 9dbd 0e04 aabd be3a b4bc 5f9c 933c
000003f0: 7495 833d 8e3d 133d a093 a43d da4c 52bc
-0.017649932 -0.10358295 -0.04910425 0.006074244 -0.02795367 -0.13800068 0.14162923 -0.019669335
0.1308759 0.11032242 -0.016296783 0.016890397 -0.13960257 -0.057543185 0.033235904 -0.019603305
-0.08053911 -0.04024244 -0.09235205 -0.056329437 -0.078431845 0.05446449 -0.09662947 0.0009284825
-0.0924074 0.13097274 -0.051229894 0.0015859776 -0.1844151 0.024826115 -0.008947012 -0.14668451
0.0061183455 0.029217552 0.04754213 -0.20657986 0.016657235 -0.13495632 0.007814676 -0.05040372
0.04881696 0.037671026 -0.1784839 -0.08713463 0.029784903 -0.08833901 0.101063944 0.013304236
0.0006286188 -0.028514104 0.025130432 0.11333876 0.12669614 0.11198975 -0.172614 0.19006678
0.0038225278 0.015625535 -0.019883513 -0.048598014 0.026032114 -0.061747305 -0.017667906 -0.1629094
0.005578352 0.051574185 0.0023811276 -0.00094049855 -0.029840844 0.071058154 0.04419478 -0.06685387
0.020299593 -0.015525966 -0.07501566 -0.017058685 -0.12362327 -0.09142226 -0.027959812 -0.06426846
0.05757817 0.08180959 -0.0069277817 0.0004261386 0.08544754 0.045771096 0.018498585 -0.061119173
-0.12524368 -0.057214692 -0.11081316 -0.08400851 0.07938428 -0.06335917 0.04258729 -0.1068796
-0.07849608 -0.041618668 -0.056255527 0.03549962 0.0040766518 -0.031633742 0.10899904 -0.024475267
0.059310872 0.026098587 -0.20099625 -0.010211709 0.04508689 0.046323292 -0.11272346 0.05567732
-0.00666282 0.120303914 -0.09588757 0.1188429 0.1418842 -0.0639427 -0.13267374 -0.12434126
0.15927824 -0.12157944 -0.12020609 -0.0077350284 0.051230147 0.012704359 -0.085566364 -0.0228963
-0.06677971 -0.048620373 0.06276046 -0.06286757 0.05407684 0.03633103 0.026689043 -0.07049494
-0.025022171 -0.10578262 -0.13341902 0.02371142 -0.0077254996 0.016159667 -0.016203146 -0.0345638
-0.08992297 -0.12727936 -0.072853565 0.042804915 -0.017524151 -0.08699114 0.019961137 0.04735432
-0.028174182 -0.042274285 -0.02523676 -0.13326728 0.0045034853 0.069753826 -0.036454894 -0.004925852
0.003075885 0.054037437 -0.18033667 -0.0001363865 -0.096294574 -0.17432985 -0.07917815 -0.0680349
-0.026751129 -0.22070691 0.03295491 -0.22722784 0.007936837 -0.023368854 -0.026368773 0.0025194765
-0.014369707 0.1133661 0.04590641 0.008098404 -0.03487115 -0.011670735 0.028054511 -0.038844313
-0.03715202 -0.043599665 -0.026716504 -0.090145394 0.106826015 -0.0079371305 -0.097337 -0.0319365
0.07681866 0.0062706503 0.0014718119 0.025864614 0.10295922 -0.014676661 0.081027396 -0.026858075
-0.0062450175 0.08987061 0.039008107 0.1042907 0.018769117 0.0059735444 -0.010553147 7.933271e-05
-0.03731668 -0.010237648 -0.008346169 0.14546886 -0.05613384 -0.06436377 -0.024303619 -0.0133510195
0.07538118 0.02973208 -0.080851845 0.058802407 -0.088062465 -0.04597366 -0.018030984 0.08638563
0.09834299 -0.096535936 -0.0011758306 -0.006764621 0.020559248 -0.07355615 -0.034808777 0.023569828
-0.048775245 0.004370672 -0.005917607 0.007459266 -0.09163032 0.0017607067 -0.018616665 -0.02840094
0.021832839 -0.029850524 0.22966333 -0.07867658 0.023362376 -0.07167057 -0.052075215 0.02945156
-0.0767728 -0.083015546 -0.022000667 0.0180189 0.0642499 0.035947375 0.0803597 -0.012835706

lstm.bias_ih_l0 f4 [512]
00000000: 9c6b f93d 4a5a 51bd baef 09bd b54d 113e
00000010: 8a63 063e 77a2 98bc 301a 353e 5f26 28bd
00000020: 81d2 793d 0cf5 9e3d 94a1 0b3e c580 e7bc
00000030: bc5a 8a3c a4d9 833d 24ed 1d3d eec9 1c3e
00000040: f2f4 793d 666b 80bd 7e88 00bd f356 163e
00000050: 7f06 513c 6cbb 2d3d 962d 27bd 74ca 72bc
00000060: 73b8 0a3c 0eb6 a73d 4583 203d 6d9d acbd
00000070: 0895 903d bfb4 8c3d a6b0 f2bc 5db3 143e
00000080: 0a15 ee3c 98f8 223d 7979 d43d 40ce 75bc
00000090: 14ee 283e 94b8 fa3d d2a5 63bd c6e2 933d
000000a0: f11f e93d c112 033e b73f 943c 0862 b43d
000000b0: e6e7 1d3d 7abf 55ba 12cc af3d 9641 673d
000000c0: d8b2 35bd 874e 0abc 09de b7bc 4427 d93d
000000d0: dfd7 043d 04e6 193e d521 fc3d 94f9 b73d
000000e0: acab ca3d eb26 323d fa81 213c 0554 933d
000000f0: 7869 053d 3eca 3b3e dbc0 cf3d 054e 513d
00000100: 5d92 9c3b 81b2 3f3b 49d5 9a3d aab6 b3bc
00000110: 2b35 d1bb f521 f9bc 55f1 1f3d e5ee 973d
00000120: 52c0 af3d 38bf 1d3e 0f63 553e 697a f43d
00000130: 7414 e03d 7649 3cbd 68a0 f93d ab28 193e
00000140: 7711 443c 2f4e 373e 3b19 bc3d 4977 c3bb
00000150: e5af 093e 9b68 df3b 021d 46bd 6668 133e
00000160: 17f4 c13c f19b a73d d3e7 b23d eea3 1c3e
00000170: 4b39 e93d ecce d43d 8efb 8cbb 8821 823d
00000180: c23c 983d 40ac d8bc df6f 51bd 7883 0a3e
00000190: cd75 ea3d a6c4 df3d 50b5 613d 37d1 1f3e
000001a0: aeb8 bd3d 0f17 03bd f236 22bc 1267 f33d
000001b0: 73e7 f3bc 24b7 dfbc 7f49 efbb 008e d23d
000001c0: 9ed5 003e a236 c93d 20fe e53d 083d c0bc
000001d0: 1b7b cebc ca9e 1e3e cb21 003e 5ce7 893d
000001e0: 6529 3e3d 6cc3 e93d dd78 163e 8d84 d23d
000001f0: 41e2 923d bb50 20bc fd81 d73d 2054 bb3d
00000200: 1704 113d 513e ce3d 56d4 813c cce9 ac3d
00000210: 2c1f 393d 0d1b 73bd 33bc 043e 0162 ed3c
00000220: e03e 6e3d 3f98 5b3a e4dc a93d d121 6abd
00000230: 75ac bc3d 1964 9c3d e5a0 373d 302b 5b3c
00000240: e4cb b93d fea4 6c3d 643a f13a fbcd d33d
00000250: 8aa2 283e f9cd 0f3e 32ef b23d 1af2 bc3c
00000260: e4ff ac3d 460f c3bc 2150 503c 1a10 ab3c
00000270: e5e7 8fbc 550f ecba c9eb 383d 582f d53d
00000280: b362 c23d 0170 003e fdc8 c839 0b03 703d
00000290: d6df 3f3d 6961 23bd 8464 003d dbcc 693c
000002a0: 4340 9b3d 380c 1a3d 8185 1b3c c293 023e
000002b0: afa6 3ebd fe2d babb 0664 dd3d 1dcd a13d
000002c0: a7a8 84bc c19d 9e3c 0699 9dbc 96ce 28bd
000002d0: 27de 4b3d 28f8 853d 45e8 263e d6e7 c73d
000002e0: 8e42 c73d bd3c b43d e72c df3d 9b4f c03d
000002f0: d652 963d 3bbe ee3d 3ffc 8d3d d80f 093e
00000300: 9b19 d23d db0e c63d 3a66 5d3c 2067 b03d
00000310: 27b0 ea3d a228 99bc 06eb a13d 05e3 dcbc
00000320: e80d 663d 360a ec3d 7aec fbb6 d784 d23d
00000330: ecc0 293e f39f a5bc de25 32bc e4b9 a23d
00000340: 2769 693a 3db5 d63d e3a2 cc3d e632 003d
00000350: b5b9 0a3e f89b be3d 4a31 743d 6ac8 a43d
00000360: 0952 d93d 5e13 a93d 45e4 093e eb3d b33d
00000370: 31ce e93d 9679 b63c 3386 e9bc 87b1 833d
00000380: 9f27 9e3d d7b9 de3d fd68 263c e58a 09b9
00000390: b539 9f3d 0b31 40bd ea10 163d 5ada ab3d
000003a0: 2cdf 5dbd 37c0 ac3d 08b1 023e dde6 583d
000003b0: 236a a13d 49c0 62bd b951 e43d 003f 4c3d
000003c0: 3084 213d 8f8c a83d 1c74 983d 9508 123e
000003d0: 0a48 a33d 4b0a 7f3d fd28 db3d 01df fe3d
000003e0: cee8 fc3d 5144 cb3b 0cdf cc3d a12a d43b
000003f0: 37f0 bdbc 2f8e 1a3e ef0c d63d 3a0e ce3b
0.12178728 -0.051111497 -0.033675887 0.14189799 0.13123909 -0.018632157 0.17685771 -0.04105222
0.060991768 0.07761583 0.13635856 -0.028259644 0.016888969 0.06437996 0.038556233 0.15311405
0.061024614 -0.062704846 -0.03138017 0.14681606 0.012757896 0.042415068 -0.04081496 -0.014818776
0.008466828 0.08189021 0.03918769 -0.08428464 0.070596755 0.06870412 -0.029625248 0.14521547
0.029062767 0.03978786 0.103747316 -0.015002787 0.1649707 0.12242237 -0.05557806 0.07220988
0.113830455 0.12800123 0.018096788 0.088077605 0.038551234 -0.00081538374 0.08583845 0.056459032
-0.04436001 -0.008441574 -0.022444742 0.106031924 0.032432433 0.1502915 0.123111404 0.0898315
0.09896025 0.043494146 0.009857649 0.0719376 0.032571286 0.18338868 0.10144206 0.051099796
0.00477819 0.0029250684 0.07560212 -0.021937687 -0.006384512 -0.0304117 0.03904851 0.074186124
0.08581604 0.15404975 0.20838569 0.119374104 0.10941401 -0.045968495 0.12188798 0.1495692
0.011967055 0.17900918 0.091845 -0.0059651476 0.13446005 0.00681789 -0.048367508 0.14395294
0.023675961 0.0818404 0.08735623 0.15296909 0.11387881 0.1039103 -0.0043024486 0.06354052
0.07433464 -0.026449323 -0.05113208 0.13526714 0.1144825 0.109261796 0.055104554 0.15607153
0.092637405 -0.032004412 -0.009900795 0.118848935 -0.02977345 -0.027309008 -0.0073024626 0.102809906
0.12581488 0.098248735 0.11230111 -0.023466602 -0.025205186 0.1549026 0.12512891 0.067335814
0.046426196 0.11414227 0.14694543 0.10279188 0.07172061 -0.009784873 0.1052284 0.09146905
0.03540429 0.1007048 0.01584832 0.08443031 0.045195743 -0.05935197 0.12962417 0.028977396
0.05816543 0.00083768734 0.08294085 -0.057161156 0.09212581 0.076362796 0.044831175 0.013376996
0.09072092 0.057774536 0.0018404243 0.10342022 0.16468254 0.14043416 0.08737029 0.023064662
0.08447245 -0.023810994 0.012714417 0.020881701 -0.01756663 -0.001800994 0.045146737 0.10409421
0.09491482 0.12542726 0.0003829672 0.058596652 0.046844326 -0.03988782 0.03134586 0.014270033
0.07580616 0.03760931 0.009492279 0.12751678 -0.04654568 -0.005681752 0.108100936 0.079004504
-0.016193701 0.019362332 -0.019238006 -0.04121264 0.049772408 0.06541473 0.16299541 0.09761016
0.09729491 0.088006474 0.10897236 0.093901835 0.073400185 0.11657377 0.06932878 0.1338495
0.1025879 0.09670802 0.013513142 0.086134195 0.1145938 -0.018696133 0.07906155 -0.02696372
0.056165606 0.11525385 -7.5079124e-06 0.102792434 0.165775 -0.020217871 -0.010873286 0.07945612
0.00089039135 0.10483787 0.09992006 0.03129854 0.13547404 0.093070924 0.05961732 0.080460384
0.1061135 0.08255647 0.13465984 0.08752044 0.11416281 0.022274774 -0.028506374 0.06430345
0.07722401 0.1087529 0.010156867 -0.0001311708 0.077746786 -0.04692177 0.036637224 0.08391257
-0.05416791 0.084350996 0.12762845 0.052954543 0.07881572 -0.05535916 0.111484 0.04986477
0.039432704 0.082299344 0.07444021 0.14261086 0.07972725 0.062265676 0.10701177 0.12444878
0.123490915 0.0062032123 0.1000348 0.0064748083 -0.023185832 0.15093301 0.10451686 0.006288317

lstm.bias_hh_l0 f4 [512]
00000000: 021a de3d 7ee7 c03b 790d 033d d4b9 c03d
00000010: 995c 0c3e b383 cb3c 405e 213d d30d 6bbd
00000020: 27e6 1d3e 0541 f03c 49af 5d3c 7127 ba3d
00000030: d9a1 133e 45c4 8e3d 4f63 ffbb ae10 113e
00000040: 620f 33bd 25e6 b83c 3453 8b3d aa30 0c3e
00000050: 1ba7 ae3c 3f19 c03d 0421 593a 28e9 853d
00000060: 7526 11bd ef29 a53d 0b0f 4c3d 42dc a4bc
00000070: d8a9 fd3d bbfd 1a3c b448 673c c5af fa3d
00000080: 4cd6 043e 1800 f73c 5e8a 163e df44 bcbc
00000090: 7436 2f3e d0c4 3b3c 37f8 47bd e661 043b
000000a0: 56ed 393e b516 de3c 61e8 fe3d 792f cc3c
000000b0: d809 c03c 75af c83d 9d37 a33d 9e6e 873d
000000c0: 27ac 5abc f7ae a03d fef9 a23c 2d71 7f3d
000000d0: 7475 d53d 168f 2e3e 6d73 9e3c 33e8 09bc
000000e0: 4cc7 d53d b424 e33d 865f b33c 5a4c 3f3e
000000f0: f05f 02bb 640a 1a3e e96f c0bc b213 483b
00000100: 8d0c d83d ff51 15bd dbb9 c53d ebf2 6a3d
00000110: 487b 6bbd de96 91bd ffef 1a3c 2211 353d
00000120: 9a9e 9b3d e526 063e 0887 863d 753f dcbc
00000130: fe1c 1c3d 26fa c5bc a77e a33b 4283 de3d
00000140: c210 043e b3ad 0c3e 9c2d 49bc 19de 233e
00000150: ee8a f8bb 88a9 d2bd ff04 9cbd 0a6a 8b3d
00000160: fe12 863d 142f 35bc 583a 1b3d cb5e a63a
00000170: 15f6 943c a034 253e 5029 1fbd 3ef8 64ba
00000180: 7494 0e3e 7db2 fd3c 36df 403c 40d9 f9bc
00000190: c926 813d d7da 6c3d d47d 81bd 1578 333c
000001a0: ddf9 8d3d 3be0 4b3d 7bb7 0d3e 3676 833d
000001b0: 24cb 4aba 97b6 f1bb 8b48 cd3d 9f34 f83d
000001c0: ac8e 9fbc 1387 db3d b64b 8e3d 268d 663c
000001d0: 47ef a93d c549 013e fe88 533e b8c0 d33d
000001e0: 24e1 803d 33c9 053e 28e4 d83d 5bed 843d
000001f0: 0814 033e e947 843c c4e2 443d fbce dc3c
00000200: cf49 593b 5a70 bd3d 7a76 2f3d 7b28 0e3e
00000210: 131b de3d 5aa5 8abc c75f 0a3e ec35 9a3d
00000220: 650a 58bc f74c 003e 355a b03d d2f4 f53b
00000230: f0f6 fb3d 04a8 b33d 1273 863c dd40 a63d
00000240: 3d0a ec3d b53f 8b3c 9f09 55bd 92c8 523d
00000250: 3fa1 b03d ceb8 393c 8f40 c03d df8b cd3c
00000260: 7de6 953d dfdd 9b3d 3b2f 0f3e c563 04bc
00000270: 44fd 00bc e196 7a3c 9356 cc3d d7b4 ab3c
00000280: c7d2 133d 7ad4 8eba f6c7 663d 7342 8f3c
00000290: c798 bb3d 1770 e7bb 8dda fdba 1432 9a3c
000002a0: 8cbf bf3d 9229 a73d 4763 973d dbb1 103d
000002b0: a922 2e3d e8b6 943b 2eff bebc 30f3 d23d
000002c0: c86e 6b3d 72ef c33d 754e d63d 9b50 2f3d
000002d0: e1fa 1c3d 8f60 3e3d 8a52 d33c ea5a 87bc
000002e0: 6200 c7bb fb1f 193d ebcb 4c3d 9d3a 043c
000002f0: 8d9b fd3d e27c f43d 90a4 723c c25c 893d
00000300: 7369 a03d edff 0c3d 890b e53d 6369 843d
00000310: 5ad7 b03b 6dda 513d 81df 433d 6d29 1c3d
00000320: d714 b13d 251e e7bc 7f78 143e cb91 163c
00000330: 1f96 033e 7784 ca3d 4622 94b9 37d3 3c3c
00000340: ca70 403c 0384 cd3d cc05 ff3c 0d41 19bd
00000350: 032d 0f3d 210e 513d 0c60 ac3d 34ef c33d
00000360: abdb 4a3d c0c6 893d 8081 173e 5778 1dbd
00000370: ad7b 3438 ad12 053e a395 9a3d 0025 303d
00000380: f498 ba3c a8fc 9e3d d531 87bc 4093 9f3d
00000390: 3ad7 00bc e121 4ebd d84f c33d 370c 163e
000003a0: f5df 08bd 7e3f 6a3d a24d 023e 4fa0 9a3d
000003b0: b03b c93c bb8a f9bc fa2d c83c 77dd f23d
000003c0: b061 5f3d 6d84 8c3d 207f 20bd 6939 073d
000003d0: 66bf ca3d a975 dc3d 8e14 103e a341 063e
000003e0: 67ac b63c bff3 c33b cf4e fd3d 7b30 b23c
000003f0: d7ac 913c 1d05 d03d fbdd d33c 4302 193d
0.10844804 0.005886971 0.03199527 0.09410444 0.13707198 0.024843073 0.039396524 -0.05738623
0.15419827 0.029327879 0.013530561 0.09089554 0.14417209 0.06971029 -0.007793821 0.14166519
-0.043715842 0.022570679 0.06802979 0.13690439 0.021319916 0.09379815 0.0008282813 0.06538612
-0.035437066 0.08064639 0.049819034 -0.020124558 0.12385911 0.009459908 0.014116455 0.12240557
0.12972373 0.030151412 0.1470122 -0.022982059 0.17110616 0.011460498 -0.0488207 0.0020199954
0.18156943 0.027110437 0.124466665 0.02492498 0.023442194 0.09799091 0.07969592 0.066128954
-0.013346708 0.07845872 0.019894596 0.062363792 0.10422793 0.1704677 0.019342149 -0.008417177
0.104384035 0.11090985 0.021896135 0.1868147 -0.001989361 0.15043026 -0.023490863 0.0030529317
0.10549269 -0.03645515 0.0965459 0.05736057 -0.057490617 -0.07108854 0.009456634 0.044205792
0.0759861 0.13100775 0.06568724 -0.026885727 0.038113587 -0.024167132 0.0049894634 0.10864879
0.12897018 0.13738136 -0.0122789405 0.16002692 -0.007584921 -0.10286242 -0.076181404 0.06807335
0.06546591 -0.011058588 0.037897438 0.0012693045 0.018183747 0.16133356 -0.038857758 -0.0008734501
0.13923818 0.030968899 0.011771968 -0.0304991 0.06306226 0.05782589 -0.06322828 0.010953923
0.06932423 0.04977439 0.13839523 0.06419031 -0.0007735959 -0.0073765027 0.10023602 0.12119412
-0.019477211 0.10719123 0.069480345 0.014071738 0.08297592 0.12625797 0.20657727 0.103394926
0.06292942 0.13065033 0.10590392 0.064905845 0.1280061 0.01614757 0.048067823 0.026954165
0.0033155566 0.09249945 0.042837597 0.1388263 0.10845008 -0.016924549 0.13513099 0.07529816
-0.013186072 0.1252936 0.086109556 0.0075059915 0.12302959 0.08772281 0.016412292 0.081178404
0.1152539 0.016998151 -0.05201113 0.05146081 0.08624505 0.011335565 0.093873136 0.02509111
0.07319353 0.07610678 0.1398286 -0.008080428 -0.007872883 0.015294761 0.0997745 0.020960255
0.036089685 -0.0010897063 0.05634304 0.01748774 0.09159999 -0.0070629227 -0.0019367501 0.018822707
0.093627065 0.08162226 0.073919825 0.035325866 0.042513523 0.0045384057 -0.023315039 0.103002906
0.057478696 0.09567155 0.10464183 0.04280148 0.038325194 0.046478804 0.025796194 -0.016522843
-0.0060730437 0.037384015 0.04999916 0.008070615 0.123831846 0.11937882 0.014809743 0.06707145
0.07832613 0.034423757 0.11183841 0.064654134 0.0053967657 0.051233698 0.04782057 0.038125444
0.08646553 -0.028212616 0.1449909 0.009190033 0.12850235 0.09888547 -0.00028254295 0.011524967
0.011745641 0.10034945 0.031130694 -0.037415553 0.034955036 0.051038865 0.08416757 0.09567109
0.049525898 0.06727362 0.14795494 -0.038444843 4.3030526e-05 0.12995405 0.07548072 0.043004036
0.022778012 0.07763034 -0.016503254 0.077917576 -0.007863814 -0.05032528 0.09536713 0.14653097
-0.033416707 0.057189457 0.12724927 0.07550108 0.024564594 -0.03046166 0.024435986 0.11858647
0.05453652 0.06861196 -0.039183736 0.033013735 0.098997876 0.107646294 0.14070341 0.13110976
0.022299005 0.0059799845 0.12368547 0.021751633 0.017782612 0.10157225 0.025862684 0.037355673

fc.weight f4 [24, 128]
00000000: d7ac c43e c555 9c3d 0332 5a3d 8f04 22be
00000010: 7086 fb3d d097 393e beee 003d d544 0e3d
00000020: 13e8 23bd b0f9 26be ea2d 07be 0e7f 06be
00000030: 2c88 1fbe d8d0 b33a b607 6b3d 0792 623d
00000040: 9f10 713d 5141 843e 5183 713d 8663 2cbd
00000050: b924 e33d 1131 4abe df8a 293e 2138 f73d
00000060: 965b 12be 5f9f 15bd b138 193e 51ef d23d
00000070: ac01 543d e334 e5bd c112 23be 2b7a 8ebd
00000080: 7ac4 6e3d 1e86 42bd 275a 95bd 9bcf ddbd
00000090: ed46 52be 90c6 10be e135 933d db0f 053e
000000a0: 0091 c13d 0f53 a2bc a468 5d3e fcde 96bd
000000b0: 73fd 14be 53b5 17be 3063 423d 19e9 3cbd
000000c0: bc16 63bd 6ce3 0abd 14df 393e ba1f 7fbe
000000d0: ee76 713d b194 06be ec15 623e eee5 af3d
000000e0: b4d9 003e 9b8d 653e 3d85 a4bd 111a 47be
000000f0: 5e7a 413e 70f3 90be d2df b4bd e03f 333e
00000100: 5cc2 a7be 8981 98be eb63 1fbc 44b3 3abb
00000110: 8f33 043e 078f 2bbe cb8a 47be faa9 f03d
00000120: 386d 88bb 349e a03d 774b 923c 0597 793d
00000130: 3684 233e b6aa c83e b0a0 3dbd 9ae4 13be
00000140: f6a4 17bd ac64 9abd 150b a3bd c2dc af3d
00000150: 53da 1ebd 8c53 73be c511 c93e 76b9 223e
00000160: 09e4 ca3d 0c5e 243e 1279 a73d 1462 63bd
00000170: 3883 74be a50c dcbd b10c b43d 9d16 74bd
00000180: 87ef 9e3d c0c1 2c3e ee77 713e 2483 263d
00000190: dc3e e53d 8e6a 11be 25f3 2c3e a494 6bbe
000001a0: d18d 0a3e 0c52 8a3d c39c 983d 60b4 09be
000001b0: 0224 ab3d e30d 53be d2d2 0bbe 322a 7fbd
000001c0: dffa a6bd 2c40 d1bc 4955 e93c 6ffd 88bc
000001d0: 96c5 c03d 3da0 ea3d 7f78 fd3d d62e 5fbe
000001e0: 9ca4 c8bd ac99 103e b329 70be 4b76 903d
000001f0: b0db 153e c99f 07be d05f 833d 8b19 00bd
00000200: 68fa 003d 8057 29be 63db a5bd abc3 ef3c
00000210: 20ee cdbc 91c8 143d 0f1a 2b3e 7093 27bc
00000220: c4bd ef3c 1671 733d 1246 d23c 8466 a3bd
00000230: be59 e9bd a888 813c 968a 123d 7ecb 09bd
00000240: fbc0 203e 8241 b23d ca64 78be d1c0 92bd
00000250: 766c 06bc 69eb a9bd 64dd 17be 53fc 903d
00000260: 975e 8dbd 247e e93d eaf9 46bc ce72 50bd
00000270: 3566 923b 5cb7 2ebe 6f8d e8bd be49 9b3d
00000280: d083 de3d 8ac7 16bd 95c7 283d f10e 06bc
00000290: 6728 7e3d 7796 cbbb 3823 933d bb16 783c
000002a0: f049 e33d fff1 8dbd 5a25 0fbe 3b72 8ebc
000002b0: cd1b 37be ee68 2ebe 38c6 dc3d f3a4 88be
000002c0: 4109 d63d bf84 54be cc4d 29bd 028e 133e
000002d0: 2751 e83d 4e8f 05be de03 903d dcf6 843d
000002e0: 0957 a13d 082b 743e 8bd8 0ebb 15d2 48bd
000002f0: b36b 43bc 8eb7 e0bc e6e2 563e 3498 b63d
00000300: 7196 6bbd 1000 c5bc 3ae4 bbbd 129e a53d
00000310: ef39 d4bd 910c fa3c 31f8 4cbe 2e6d 33be
00000320: 2d3c 4d3d 238f 683c 2111 46bd 45e5 d9bc
00000330: 31ee 10be d95a e8bd f59a 4bbe 4a14 5dbd
00000340: c397 c5bd 9d63 443e ec68 58bd c92d ab3d
00000350: 0c06 ea3d ae16 5dbe 0267 73bd 8159 493e
00000360: ffc7 f5bc 3eb5 9f3d 37e5 943e f93a 13be
00000370: 37bb 443e 555c 0dbd e429 22be b230 d0bd
00000380: 47d7 b4bd 2d53 0c3e e903 90be 3f3d 3e3e
00000390: c0d3 0bbe e159 233e 4594 963d 22db 14be
000003a0: a287 263e 9701 603d 476f 0d3e 6b98 2f3c
000003b0: f75f de3d 7861 2fbe 7ee9 f7bd e366 7c3e
000003c0: c777 07be 830c 8b3e 5600 3fbd e062 c8bd
000003d0: 884d a73c 0e19 20bd 3e9b 9ebc 0b0f 0bbe
000003e0: 8499 193e 6e79 9cbc 7326 18be dd89 0abe
000003f0: 40ab fe3c 188d 69bd 0f45 12be ec3e 24be
0.38413116 0.07633547 0.05327035 -0.15822051 0.12281501 0.18124318 0.031477682 0.034733612
-0.040016245 -0.16306186 -0.13201109 -0.13134405 -0.15579289 0.0013718856 0.0573804 0.055315044
0.05885374 0.25831082 0.058963124 -0.0420871 0.11090989 -0.1974528 0.16556881 0.120712526
-0.1429275 -0.03652894 0.14963032 0.10299552 0.051759407 -0.11191728 -0.15925123 -0.069568954
0.058292843 -0.047491185 -0.07292586 -0.10830613 -0.20534869 -0.14138246 0.07188011 0.1299433
0.09451485 -0.019814996 0.21621948 -0.0736675 -0.14549808 -0.14815263 0.047457874 -0.046120737
-0.055441603 -0.033908293 0.18151504 -0.24914446 0.05895131 -0.13142659 0.22078675 0.085887775
0.12583047 0.224173 -0.08033226 -0.19443537 0.18894336 -0.28310728 -0.08831753 0.17504835
-0.32765472 -0.29786327 -0.009728412 -0.0028488198 0.12910293 -0.1675378 -0.19486539 0.117511705
-0.0041634105 0.07842675 0.01785825 0.06093504 0.15968403 0.39192742 -0.04629582 -0.14442673
-0.037022553 -0.07538733 -0.07961098 0.08587028 -0.03878243 -0.2376234 0.3927137 0.1589106
0.099067755 0.16051501 0.08177389 -0.055513456 -0.23878181 -0.10744599 0.08791483 -0.05959188
0.0776053 0.16870785 0.23580906 0.04065241 0.1119363 -0.14200804 0.16889627 -0.2300592
0.13530661 0.067539304 0.07451775 -0.13447714 0.08356477 -0.20610766 -0.1365464 -0.0622961
-0.081533186 -0.025543295 0.02848305 -0.016722409 0.094126865 0.11456344 0.123764984 -0.2179521
-0.09797022 0.14121121 -0.23453407 0.070538126 0.14634585 -0.13244547 0.06414759 -0.03127436
0.031488806 -0.16537285 -0.08098485 0.029268106 -0.02513796 0.036324088 0.1670916 -0.010228023
0.029265292 0.05943402 0.025668178 -0.07978538 -0.1139407 0.015812233 0.035776697 -0.03364133
0.15698616 0.08703901 -0.24257198 -0.07165683 -0.00820457 -0.08296854 -0.14830548 0.07079377
-0.06902807 0.114010125 -0.012144545 -0.050890736 0.0044677504 -0.17062134 -0.11355101 0.075824246
0.10864985 -0.03681139 0.04120596 -0.008182273 0.06205025 -0.006213005 0.07184452 0.015142138
0.11098087 -0.06930923 -0.13979092 -0.017388454 -0.17881699 -0.17032215 0.10779995 -0.26688346
0.10450984 -0.20753764 -0.04133396 0.1440964 0.113436036 -0.13042948 0.070319876 0.06492397
0.07877929 0.2384454 -0.002179655 -0.049028475 -0.011927533 -0.027431276 0.20984992 0.08915749
-0.05751652 -0.024047881 -0.0917439 0.0808679 -0.103626125 0.03052357 -0.20016553 -0.17522117
0.050106216 0.014194283 -0.04835618 -0.026598582 -0.14153363 -0.11345453 -0.1988333 -0.053974427
-0.09648087 0.19178624 -0.052834436 0.08358342 0.114269346 -0.21590683 -0.059424408 0.1966305
-0.030002592 0.07798241 0.29081127 -0.14377965 0.19212042 -0.034511883 -0.15836293 -0.10165538
-0.088301234 0.13703604 -0.28127983 0.18578051 -0.13654995 0.15952255 0.07352499 -0.14536718
0.16262677 0.054689016 0.1381198 0.010717492 0.108581476 -0.17127025 -0.12105082 0.24648623
-0.13229285 0.27157983 -0.04663118 -0.09784484 0.020422712 -0.039086394 -0.019361135 -0.13579957
0.14999968 -0.019100871 -0.14858417 -0.13529153 0.031087518 -0.057019323 -0.14284156 -0.16039628

fc.bias f4 [24]
00000000: 4edf b33d 5ce4 c1bd f36c 3a3d a9e9 4dbd
00000010: b63d a43d 0f17 73bd 65a7 013c 79f8 60bd
00000020: 08f2 13bd 242f 7c3c 2c65 8abd 595c 25bd
00000030: 0437 623a 7cc2 23bd 31d5 873d 8d0c c23d
00000040: b2e9 383d 5eba 973c 48f7 18bd a653 853b
00000050: f400 673d 8ee7 ac3c c5e4 d5bc f450 383d
0.08782826 -0.09467384 0.04551406 -0.050271664 0.08019583 -0.059348162 0.007913445 -0.054924462
-0.03611949 0.015392099 -0.06757578 -0.040371273 0.0008629414 -0.039980397 0.0663246 0.0947505
0.045144744 0.018521484 -0.0373452 0.0040688096 0.056397393 0.021106508 -0.026110062 0.044999078
