results/models/strong/strong_multi_tcn_0_checkpoint.pt (torch_old, 847827 bytes, 78 tensors)

audio_TCN.network.0.conv.bias f4 [32]
00000000: 3e32 9fbd 2a82 bf3c f0ce 29bc cfe0 933d
00000010: 5d05 62bd 2d52 9dbd ad7a f2bd 3c99 12bd
00000020: e2e3 ebbd 6d11 f6bd 186a b5bd 30f0 2abd
00000030: 4e25 a4bd da35 3d3c 5cf2 693d e6f3 3bbd
00000040: 834d 0e3d 3a03 6cbd 4e7c 2c3e 07b3 8abd
00000050: acac 82bd 87e2 13bd 0001 9a3c 33ac f739
00000060: bab3 0cbe 6a4c bebd 2852 01be 5139 4bbb
00000070: e08e 8dbb 5e30 13bd fc77 c63b 67fc 3a3d
-0.07773255 0.023377497 -0.010364279 0.07220613 -0.055180896 -0.076816894 -0.11839805 -0.035790667
-0.115180746 -0.120150425 -0.088581264 -0.041732967 -0.08014928 0.011548484 0.057115898 -0.045886897
0.03474189 -0.057620265 0.16844293 -0.06772428 -0.06380591 -0.036104705 0.018799305 0.0004723981
-0.13740435 -0.092919186 -0.12628996 -0.0031009505 -0.0043200105 -0.0359348 0.0060567837 0.045650866

audio_TCN.network.0.conv.weight_g f4 [32, 1, 1]
00000000: 2dd6 123f 4d20 183f 2296 0f3f 5326 5e3f
00000010: 67e4 693f 237e 2d3f 6a21 1f3f c5e7 1f3f
00000020: 9882 fc3e aa8b 0e3f e8c5 0d3f fd94 263f
00000030: 81c9 133f dbaa 1d3f 0b43 1a3f 1d73 133f
00000040: e0f2 5d3f 0d9a 003f ab2a 693f 2fab 173f
00000050: 8735 1d3f a478 1d3f 6a70 083f 0ea0 123f
00000060: 8aa9 0c3f a12e 123f 8b73 0e3f d86f 123f
00000070: 53d7 0d3f f201 133f 2911 0c3f 6d6f 153f
0.57358056 0.5942429 0.5608846 0.8677723 0.9136414 0.67770594 0.6216036 0.6246303
0.49318385 0.5568186 0.55380106 0.6507109 0.57729346 0.6158883 0.6025855 0.57597524
0.8669872 0.5023506 0.9108073 0.5924558 0.614098 0.6151221 0.5329653 0.57275474
0.54946196 0.571024 0.55645055 0.5720191 0.55406684 0.57424843 0.54713684 0.5837315

audio_TCN.network.0.conv.weight_v f4 [32, 32, 3]
00000000: 3281 ad3d 4208 75bd 08a0 9c3d 08e8 fc3c
00000010: 1ce7 923d 1837 e23c b8e8 e23c 5b64 36bd
00000020: 46b8 853d eaed 873d b955 c5bd 44bd 43bd
00000030: c81c a4bc e844 aa3d 1861 c23c 7a9e 8dbd
00000040: 3f8a 7ebd 9e85 79bd 8415 9d3d 76a1 92bd
00000050: 70dc 85bd 444e 38bd 9274 86bd fd63 4bbd
00000060: e034 0abb 2081 6e3d ec10 d1bc 2888 683c
00000070: c887 5d3d 5855 fc3c c08d 06bc 4496 c33d
00000080: 0c01 c0bd 363a a7bd d6be 9bbd 6bf8 c5bd
00000090: e0d0 87bc 500d ec3b 2061 7dbb 8041 7c3a
000000a0: 4a6e 8e3d 3927 c7bd 284b 41bc d84f b6bc
000000b0: 0c71 843c dc36 cbbc 24b8 4fbd 0214 873d
000000c0: 50c2 933d 7021 553d 74be f4bc 0e2f 31bd
000000d0: 300f 16bc 70e2 a6bc 00ed 8abd 88fe a73d
000000e0: 72eb a9bd 6059 c8bc e6d1 98bd 96ad cb3d
000000f0: 14a7 133d 0aed 96bd 6cb0 89bd b08b c63d
00000100: 7eb1 1abd 6ad9 97bd 1024 563d b858 31bc
00000110: 28e6 8a3d f8b8 26bc c616 bd3d 9847 3abc
00000120: 9439 853c 787e ef3c 9fc5 23bd d0bc e53c
00000130: 4c31 d9bc 30e6 533d bec9 a0bd 7ddd 9dbd
00000140: 009b 743d 109d 233c 63ae b4bd 9ed5 84bd
00000150: 608a 22bd d462 3dbd 6008 003d 0895 e7bc
00000160: 0c70 3c3d 2196 b4bd 7c2d 783d 3088 be3c
00000170: d0f7 bb3d 54f3 b83d 901f 9f3d ec13 0d3d
00000180: 86f6 bb3c 3f04 823d 8f61 14bd 0b6c d83d
00000190: 0367 3e3e 7f07 133e 05fd 33be 0e70 e9bd
000001a0: 4082 e8bd 6558 653d bee1 76bd 29f3 1bbd
000001b0: 1d5e 69bd 9d70 d03c 695d a9bd 27b9 43bc
000001c0: de2a 343b 24e2 eabc 23a1 293d 0305 ac3c
000001d0: a5d3 933c 8911 53bc b662 69bd 59e8 f83c
000001e0: 8efc f1bc 2369 f73a 44f5 a73d 2557 ebbd
000001f0: d892 63bd 8199 d9bd 3a59 5d3d dcdd 013d
00000200: c129 4fbc 1a88 4cbd c9b0 3c3d 23eb 97bd
00000210: 6864 e83c 4357 a9bd 9151 a0bd 986d 12bb
00000220: c3dc 17bc eaca 78bd 4a26 1d3d 1b76 493d
00000230: ed1e 853d 9071 473d a959 cb3d 3370 bf3c
00000240: ead3 dbbd 9112 823c f8a8 66bd b279 3e3c
00000250: 29cc 953d 18e3 66bc a5cc b03b 1829 abbd
00000260: 1326 2bbc d743 30bc 7167 75bd 79ff 9ebc
00000270: c019 c33d d4d9 db3b 78f5 7a3d b8c8 b1bd
00000280: 8f0d c73c 3489 3d3d ee8d a43c 06d3 9abc
00000290: d4aa 3a3d 599e 22bd db45 aabd 3938 a9bd
000002a0: 368f a63d 24a6 b03d db55 07bd b1a3 efbc
000002b0: f9b0 93bd fe73 f93c 5d38 1c3d 333b 163d
000002c0: b65e 0e3d 8eeb 693b 8bed 373d 8e5c b43c
000002d0: 85d5 21bc cd07 6bbd 670f 99bb d27e 1bbd
000002e0: c3d5 35bd 091c e2bc c905 b23d 8f4a f4bc
000002f0: d570 bf3d 2cfe 0b3d a593 dabd af40 2b3c
00000300: 6c72 aa3c 92f9 ae3d d0a9 f6bb 7f81 4bbd
00000310: bab0 95bd e95a 77bd b493 10bd f428 5b3d
00000320: 24b5 a9bc 2b4d 41bd aae5 52bd 3ad1 5bbd
00000330: 8c6c 5c3d d071 c9bb 248a 82bd e0cc a23b
00000340: e0dc d03b c48e 94bd 9292 c23d 7a00 23bd
00000350: 24ac 94bc 8039 043b 906e 6f3c 20c1 0dbd
00000360: fa20 0abd f053 b93b e8cd b83c 908f 6e3d
00000370: 849d c93d ee00 b53d 3dd1 32bd 185c 1c3d
00000380: 2be9 79bd 04f9 c53d 0840 5a3d 540c ad3d
00000390: d43f 44bd ec74 e9bc 6094 b03d dcb5 753d
000003a0: e26e 42bd 15c5 cdbd 2380 29bd 24d7 11bd
000003b0: d01d ac3b 4d4d 44bd f831 973d f00d 5f3d
000003c0: 10dd edbc 7063 943d a070 c0bb e849 6a3c
000003d0: c0da e0bc 7424 a0bd c6d0 ccbd c40a b53c
000003e0: bc9b 163d 28a0 27bc 4056 54bc b86a 3f3d
000003f0: fe0e 863d 9e99 cbbd ec12 3a3d 2085 843d
0.08471908 -0.05982233 0.07647711 0.03087236 0.07172987 0.027614161 0.02769886 -0.0445293
0.06529288 0.066371754 -0.09635491 -0.04778792 -0.020033255 0.08313924 0.023727939 -0.06914993
-0.06214356 -0.060918443 0.076701194 -0.071597025 -0.06536186 -0.044996515 -0.06565203 -0.049655903
-0.0021088645 0.058228612 -0.025520764 0.014192618 0.05408457 0.030802414 -0.008212507 0.09550145
-0.093752 -0.081654 -0.076047584 -0.096665226 -0.016579092 0.0072037354 -0.0038662627 0.00096227974
0.0695463 -0.09724278 -0.011797704 -0.02225487 0.016167186 -0.024806432 -0.05071272 0.06595613
0.072147965 0.05203384 -0.029875971 -0.043257765 -0.009158894 -0.020371646 -0.067834854 0.08202845
-0.08296861 -0.02445668 -0.0746191 0.09945218 0.03604801 -0.0736943 -0.06723103 0.09694612
-0.037766926 -0.07414515 0.052280486 -0.010824375 0.0678218 -0.010175936 0.09232859 -0.011369608
0.016262807 0.02923511 -0.039983388 0.028044134 -0.026512764 0.051733196 -0.07850979 -0.07708261
0.059718132 0.009986177 -0.08822324 -0.06486057 -0.039682746 -0.046236828 0.031257987 -0.028269306
0.046005294 -0.08817697 0.060590252 0.023258299 0.09178126 0.09030786 0.07769692 0.034442827
0.0229447 0.06348466 -0.03622585 0.105674826 0.18593983 0.14358328 -0.17576988 -0.11398326
-0.11352968 0.055992503 -0.06027388 -0.038073692 -0.05697452 0.025444323 -0.0826977 -0.011945999
0.002749137 -0.028672285 0.041413438 0.020998484 0.018045256 -0.012882599 -0.056978904 0.03038423
-0.029539373 0.0018875938 0.082010776 -0.11491231 -0.055559963 -0.10624982 0.05404017 0.031705722
-0.012644232 -0.049934484 0.046067033 -0.07417896 0.02836819 -0.08268597 -0.078280576 -0.0022343155
-0.009268942 -0.06074039 0.038366593 0.0491849 0.06500039 0.048692286 0.09929211 0.02336893
-0.10733779 0.015877994 -0.056313485 0.011625694 0.07314331 -0.014092229 0.0053954893 -0.083574474
-0.010446089 -0.010758362 -0.059913103 -0.019408928 0.09526396 0.0067093167 0.061269253 -0.08680862
0.024298457 0.046273425 0.020087209 -0.018899452 0.04557307 -0.039701793 -0.08314105 -0.08262677
0.08132784 0.08625439 -0.033040863 -0.029252859 -0.07211489 0.030450817 0.03813969 0.03667755
0.034758292 0.003569338 0.044904273 0.02201679 -0.009877567 -0.057380486 -0.0046710256 -0.037962742
-0.044393312 -0.027601259 0.0869251 -0.029820709 0.09347693 0.034177944 -0.10672692 0.0104524335
0.020806514 0.085436955 -0.0075275674 -0.049684044 -0.073090985 -0.060389433 -0.03529711 0.053505853
-0.020716257 -0.047192734 -0.051488556 -0.05366633 0.053814456 -0.0061476007 -0.063740045 0.0049682707
0.0063739866 -0.07253793 0.09500612 -0.039795376 -0.01814849 0.0020175874 0.0146137625 -0.034608006
-0.033722855 0.005655758 0.022559121 0.05824238 0.09844497 0.08838068 -0.043656576 0.038173765
-0.061013382 0.096666366 0.05328372 0.08449617 -0.047912434 -0.028498136 0.0862205 0.059987888
-0.047469027 -0.10047356 -0.041381966 -0.035605565 0.0052525774 -0.047925282 0.07382578 0.05445665
-0.029036075 0.07245529 -0.005872801 0.014299847 -0.027448058 -0.07819453 -0.10000758 0.02209986
0.036769614 -0.010231055 -0.012960017 0.046732634 0.06545828 -0.099414095 0.0454282 0.06470704

audio_TCN.network.0.net.0.bias f4 [32]
00000000: 3e32 9fbd 2a82 bf3c f0ce 29bc cfe0 933d
00000010: 5d05 62bd 2d52 9dbd ad7a f2bd 3c99 12bd
00000020: e2e3 ebbd 6d11 f6bd 186a b5bd 30f0 2abd
00000030: 4e25 a4bd da35 3d3c 5cf2 693d e6f3 3bbd
00000040: 834d 0e3d 3a03 6cbd 4e7c 2c3e 07b3 8abd
00000050: acac 82bd 87e2 13bd 0001 9a3c 33ac f739
00000060: bab3 0cbe 6a4c bebd 2852 01be 5139 4bbb
00000070: e08e 8dbb 5e30 13bd fc77 c63b 67fc 3a3d
-0.07773255 0.023377497 -0.010364279 0.07220613 -0.055180896 -0.076816894 -0.11839805 -0.035790667
-0.115180746 -0.120150425 -0.088581264 -0.041732967 -0.08014928 0.011548484 0.057115898 -0.045886897
0.03474189 -0.057620265 0.16844293 -0.06772428 -0.06380591 -0.036104705 0.018799305 0.0004723981
-0.13740435 -0.092919186 -0.12628996 -0.0031009505 -0.0043200105 -0.0359348 0.0060567837 0.045650866

audio_TCN.network.0.net.0.weight_g f4 [32, 1, 1]
00000000: 2dd6 123f 4d20 183f 2296 0f3f 5326 5e3f
00000010: 67e4 693f 237e 2d3f 6a21 1f3f c5e7 1f3f
00000020: 9882 fc3e aa8b 0e3f e8c5 0d3f fd94 263f
00000030: 81c9 133f dbaa 1d3f 0b43 1a3f 1d73 133f
00000040: e0f2 5d3f 0d9a 003f ab2a 693f 2fab 173f
00000050: 8735 1d3f a478 1d3f 6a70 083f 0ea0 123f
00000060: 8aa9 0c3f a12e 123f 8b73 0e3f d86f 123f
00000070: 53d7 0d3f f201 133f 2911 0c3f 6d6f 153f
0.57358056 0.5942429 0.5608846 0.8677723 0.9136414 0.67770594 0.6216036 0.6246303
0.49318385 0.5568186 0.55380106 0.6507109 0.57729346 0.6158883 0.6025855 0.57597524
0.8669872 0.5023506 0.9108073 0.5924558 0.614098 0.6151221 0.5329653 0.57275474
0.54946196 0.571024 0.55645055 0.5720191 0.55406684 0.57424843 0.54713684 0.5837315

audio_TCN.network.0.net.0.weight_v f4 [32, 32, 3]
00000000: 3281 ad3d 4208 75bd 08a0 9c3d 08e8 fc3c
00000010: 1ce7 923d 1837 e23c b8e8 e23c 5b64 36bd
00000020: 46b8 853d eaed 873d b955 c5bd 44bd 43bd
00000030: c81c a4bc e844 aa3d 1861 c23c 7a9e 8dbd
00000040: 3f8a 7ebd 9e85 79bd 8415 9d3d 76a1 92bd
00000050: 70dc 85bd 444e 38bd 9274 86bd fd63 4bbd
00000060: e034 0abb 2081 6e3d ec10 d1bc 2888 683c
00000070: c887 5d3d 5855 fc3c c08d 06bc 4496 c33d
00000080: 0c01 c0bd 363a a7bd d6be 9bbd 6bf8 c5bd
00000090: e0d0 87bc 500d ec3b 2061 7dbb 8041 7c3a
000000a0: 4a6e 8e3d 3927 c7bd 284b 41bc d84f b6bc
000000b0: 0c71 843c dc36 cbbc 24b8 4fbd 0214 873d
000000c0: 50c2 933d 7021 553d 74be f4bc 0e2f 31bd
000000d0: 300f 16bc 70e2 a6bc 00ed 8abd 88fe a73d
000000e0: 72eb a9bd 6059 c8bc e6d1 98bd 96ad cb3d
000000f0: 14a7 133d 0aed 96bd 6cb0 89bd b08b c63d
00000100: 7eb1 1abd 6ad9 97bd 1024 563d b858 31bc
00000110: 28e6 8a3d f8b8 26bc c616 bd3d 9847 3abc
00000120: 9439 853c 787e ef3c 9fc5 23bd d0bc e53c
00000130: 4c31 d9bc 30e6 533d bec9 a0bd 7ddd 9dbd
00000140: 009b 743d 109d 233c 63ae b4bd 9ed5 84bd
00000150: 608a 22bd d462 3dbd 6008 003d 0895 e7bc
00000160: 0c70 3c3d 2196 b4bd 7c2d 783d 3088 be3c
00000170: d0f7 bb3d 54f3 b83d 901f 9f3d ec13 0d3d
00000180: 86f6 bb3c 3f04 823d 8f61 14bd 0b6c d83d
00000190: 0367 3e3e 7f07 133e 05fd 33be 0e70 e9bd
000001a0: 4082 e8bd 6558 653d bee1 76bd 29f3 1bbd
000001b0: 1d5e 69bd 9d70 d03c 695d a9bd 27b9 43bc
000001c0: de2a 343b 24e2 eabc 23a1 293d 0305 ac3c
000001d0: a5d3 933c 8911 53bc b662 69bd 59e8 f83c
000001e0: 8efc f1bc 2369 f73a 44f5 a73d 2557 ebbd
000001f0: d892 63bd 8199 d9bd 3a59 5d3d dcdd 013d
00000200: c129 4fbc 1a88 4cbd c9b0 3c3d 23eb 97bd
00000210: 6864 e83c 4357 a9bd 9151 a0bd 986d 12bb
00000220: c3dc 17bc eaca 78bd 4a26 1d3d 1b76 493d
00000230: ed1e 853d 9071 473d a959 cb3d 3370 bf3c
00000240: ead3 dbbd 9112 823c f8a8 66bd b279 3e3c
00000250: 29cc 953d 18e3 66bc a5cc b03b 1829 abbd
00000260: 1326 2bbc d743 30bc 7167 75bd 79ff 9ebc
00000270: c019 c33d d4d9 db3b 78f5 7a3d b8c8 b1bd
00000280: 8f0d c73c 3489 3d3d ee8d a43c 06d3 9abc
00000290: d4aa 3a3d 599e 22bd db45 aabd 3938 a9bd
000002a0: 368f a63d 24a6 b03d db55 07bd b1a3 efbc
000002b0: f9b0 93bd fe73 f93c 5d38 1c3d 333b 163d
000002c0: b65e 0e3d 8eeb 693b 8bed 373d 8e5c b43c
000002d0: 85d5 21bc cd07 6bbd 670f 99bb d27e 1bbd
000002e0: c3d5 35bd 091c e2bc c905 b23d 8f4a f4bc
000002f0: d570 bf3d 2cfe 0b3d a593 dabd af40 2b3c
00000300: 6c72 aa3c 92f9 ae3d d0a9 f6bb 7f81 4bbd
00000310: bab0 95bd e95a 77bd b493 10bd f428 5b3d
00000320: 24b5 a9bc 2b4d 41bd aae5 52bd 3ad1 5bbd
00000330: 8c6c 5c3d d071 c9bb 248a 82bd e0cc a23b
00000340: e0dc d03b c48e 94bd 9292 c23d 7a00 23bd
00000350: 24ac 94bc 8039 043b 906e 6f3c 20c1 0dbd
00000360: fa20 0abd f053 b93b e8cd b83c 908f 6e3d
00000370: 849d c93d ee00 b53d 3dd1 32bd 185c 1c3d
00000380: 2be9 79bd 04f9 c53d 0840 5a3d 540c ad3d
00000390: d43f 44bd ec74 e9bc 6094 b03d dcb5 753d
000003a0: e26e 42bd 15c5 cdbd 2380 29bd 24d7 11bd
000003b0: d01d ac3b 4d4d 44bd f831 973d f00d 5f3d
000003c0: 10dd edbc 7063 943d a070 c0bb e849 6a3c
000003d0: c0da e0bc 7424 a0bd c6d0 ccbd c40a b53c
000003e0: bc9b 163d 28a0 27bc 4056 54bc b86a 3f3d
000003f0: fe0e 863d 9e99 cbbd ec12 3a3d 2085 843d
0.08471908 -0.05982233 0.07647711 0.03087236 0.07172987 0.027614161 0.02769886 -0.0445293
0.06529288 0.066371754 -0.09635491 -0.04778792 -0.020033255 0.08313924 0.023727939 -0.06914993
-0.06214356 -0.060918443 0.076701194 -0.071597025 -0.06536186 -0.044996515 -0.06565203 -0.049655903
-0.0021088645 0.058228612 -0.025520764 0.014192618 0.05408457 0.030802414 -0.008212507 0.09550145
-0.093752 -0.081654 -0.076047584 -0.096665226 -0.016579092 0.0072037354 -0.0038662627 0.00096227974
0.0695463 -0.09724278 -0.011797704 -0.02225487 0.016167186 -0.024806432 -0.05071272 0.06595613
0.072147965 0.05203384 -0.029875971 -0.043257765 -0.009158894 -0.020371646 -0.067834854 0.08202845
-0.08296861 -0.02445668 -0.0746191 0.09945218 0.03604801 -0.0736943 -0.06723103 0.09694612
-0.037766926 -0.07414515 0.052280486 -0.010824375 0.0678218 -0.010175936 0.09232859 -0.011369608
0.016262807 0.02923511 -0.039983388 0.028044134 -0.026512764 0.051733196 -0.07850979 -0.07708261
0.059718132 0.009986177 -0.08822324 -0.06486057 -0.039682746 -0.046236828 0.031257987 -0.028269306
0.046005294 -0.08817697 0.060590252 0.023258299 0.09178126 0.09030786 0.07769692 0.034442827
0.0229447 0.06348466 -0.03622585 0.105674826 0.18593983 0.14358328 -0.17576988 -0.11398326
-0.11352968 0.055992503 -0.06027388 -0.038073692 -0.05697452 0.025444323 -0.0826977 -0.011945999
0.002749137 -0.028672285 0.041413438 0.020998484 0.018045256 -0.012882599 -0.056978904 0.03038423
-0.029539373 0.0018875938 0.082010776 -0.11491231 -0.055559963 -0.10624982 0.05404017 0.031705722
-0.012644232 -0.049934484 0.046067033 -0.07417896 0.02836819 -0.08268597 -0.078280576 -0.0022343155
-0.009268942 -0.06074039 0.038366593 0.0491849 0.06500039 0.048692286 0.09929211 0.02336893
-0.10733779 0.015877994 -0.056313485 0.011625694 0.07314331 -0.014092229 0.0053954893 -0.083574474
-0.010446089 -0.010758362 -0.059913103 -0.019408928 0.09526396 0.0067093167 0.061269253 -0.08680862
0.024298457 0.046273425 0.020087209 -0.018899452 0.04557307 -0.039701793 -0.08314105 -0.08262677
0.08132784 0.08625439 -0.033040863 -0.029252859 -0.07211489 0.030450817 0.03813969 0.03667755
0.034758292 0.003569338 0.044904273 0.02201679 -0.009877567 -0.057380486 -0.0046710256 -0.037962742
-0.044393312 -0.027601259 0.0869251 -0.029820709 0.09347693 0.034177944 -0.10672692 0.0104524335
0.020806514 0.085436955 -0.0075275674 -0.049684044 -0.073090985 -0.060389433 -0.03529711 0.053505853
-0.020716257 -0.047192734 -0.051488556 -0.05366633 0.053814456 -0.0061476007 -0.063740045 0.0049682707
0.0063739866 -0.07253793 0.09500612 -0.039795376 -0.01814849 0.0020175874 0.0146137625 -0.034608006
-0.033722855 0.005655758 0.022559121 0.05824238 0.09844497 0.08838068 -0.043656576 0.038173765
-0.061013382 0.096666366 0.05328372 0.08449617 -0.047912434 -0.028498136 0.0862205 0.059987888
-0.047469027 -0.10047356 -0.041381966 -0.035605565 0.0052525774 -0.047925282 0.07382578 0.05445665
-0.029036075 0.07245529 -0.005872801 0.014299847 -0.027448058 -0.07819453 -0.10000758 0.02209986
0.036769614 -0.010231055 -0.012960017 0.046732634 0.06545828 -0.099414095 0.0454282 0.06470704

audio_TCN.network.1.conv.bias f4 [32]
00000000: b4bf 36bd a8c6 03bd 8bed 93bc 4d61 87bd
00000010: 8f48 fbbd 4d18 a53d b48a aabd 220a 103d
00000020: 8201 bf3b fde8 023c 23bc 363d 822e c6bd
00000030: 1268 4c3d 31ce 81bd fd34 8abd 2c9a bebc
00000040: ba54 8a3d 78f8 3ebd e826 a83d 7a0e c43c
00000050: debc aa3d 0f2a f4bc 96d6 fa3c b58c 623d
00000060: 56ca 173d a11e 2dbd 31ac d4bd a80d 59bc
00000070: 4951 3f3e e32b e0bb 9109 e6bd 0490 aa3c
-0.044616416 -0.032171875 -0.018057605 -0.066103555 -0.12269699 0.08061276 -0.08327237 0.035165913
0.005829037 0.007990119 0.044613015 -0.096768394 0.049903937 -0.06338156 -0.06748388 -0.023266874
0.067544416 -0.046623677 0.08210546 0.023932684 0.08336805 -0.029805211 0.0306199 0.05530997
0.037058197 -0.042265538 -0.103844054 -0.013247885 0.18683352 -0.006841169 -0.112322934 0.020820625

audio_TCN.network.1.conv.weight_g f4 [32, 1, 1]
00000000: ec52 1a3f cbe4 2e3f 7b22 093f 6c73 203f
00000010: 2cae 183f 6ae3 0f3f 289a 443f 5835 243f
00000020: 6bcc 0b3f 475d 113f 1969 123f 7707 123f
00000030: 8dcd 153f ff0d 363f eed7 0e3f 0fd6 0a3f
00000040: 8188 113f f08f 0c3f 4803 423f 3a29 113f
00000050: a9c0 0d3f a562 163f 023f 183f dda0 203f
00000060: 4b1a 073f dde2 0b3f 7416 263f 7f31 103f
00000070: b806 2d3f 33aa 0c3f 7a40 0c3f 5a2d 183f
0.6028278 0.6831786 0.5356824 0.6267612 0.59640765 0.5620638 0.76797724 0.64143896
0.5460879 0.56782955 0.57191616 0.5704264 0.5851677 0.71115106 0.5579823 0.5423288
0.56848913 0.5490713 0.75786257 0.5670353 0.553721 0.5874427 0.5947114 0.6274546
0.52774495 0.5464304 0.6487801 0.56325525 0.67588377 0.54947203 0.54785883 0.594442

audio_TCN.network.1.conv.weight_v f4 [32, 32, 3]
00000000: 192e d53d 25f7 d03d 46fd ae3d 8a9b c33d
00000010: 07ff 363c 2b0b 943d 928d 32bd 861c ad3d
00000020: 09e1 b1bd d746 253e eaf4 0d3e 41a9 593d
00000030: e457 bc3d cbb4 033e c78b 5fbd d590 08be
00000040: f835 cd3c fe35 a0bd 6cae 9bbd 3cfa 4f3c
00000050: f2a6 b6bd 7bf3 fdbd 49c1 aebd c903 0c3d
00000060: ec92 ccbd 0378 6abd ad70 aa3c ac08 b73c
00000070: ff01 7dbc 724b a73b 8c57 873c 4b28 3ebd
00000080: 7a9d 60bd a0a9 683e 76a4 3a3e 97bf 3abd
00000090: 6169 24bd 1ead aa3c dadd c0bd 50c0 47bd
000000a0: 9a11 12bd c83f 5e3c a4df e8bd fcff a83d
000000b0: 754c aebd 39e5 50bd d99d d6ba 4485 5fbd
000000c0: dfa9 c73d 1687 353c aecb bcbd d0b8 5c3d
000000d0: d43c 753c 3d34 32bd ce18 913d 3d0b df3d
000000e0: e6ec e9bd 4b17 a8bc 1ce8 38bd 9887 70bb
000000f0: f5b6 aabd a607 743d 9979 9f3d 9899 dfbd
00000100: ba3e 86bd 2bb9 7fbd 3793 2bbd 1316 54bd
00000110: c21e 023d 77ae 773c de01 adbd c5e1 9fbc
00000120: 0171 2b3d d8c0 863d de3d b5bd f963 953d
00000130: 5bf6 ff3c ef60 d1bd 0faf aa3d 06ec 8cbd
00000140: 358b 27bd 7feb 9e3d 66e4 8d3d 76e6 123d
00000150: ccb1 7b3c 8ca4 a43d 148e a7bd e98c 133d
00000160: d08a 72bd 667f b8bc f012 ba3b 4832 c5bd
00000170: 5afc b53d 3503 e4bd f083 b1bd 1fad 103d
00000180: 1c3b 95bc 393a ca38 6155 a4bb 78af ba3d
00000190: 0b89 513e 2397 c13d 59fa 1dbd c610 64bc
000001a0: 5a38 dabc 70c0 f03c 875e 2f3d b80d 553d
000001b0: 0813 08bc 494a 043d e1f1 3f3b fb75 efbd
000001c0: 7103 fbbd ea10 e8bd 0e7a 9cbd b66d e2bd
000001d0: f800 b9bd e00e f5bc 7bba 0abd 2b47 dd3d
000001e0: 0295 233c 1960 00bd fd51 4fbd 1388 5c3d
000001f0: e6ff 4bbd 30ae c5bc 4834 bc3d 0488 9b3d
00000200: 18a8 ad3c 7e1b e93d 6480 693e c5c2 233d
00000210: 8704 a7bd 04e7 44bd 98ac c7bb 73b9 dfbc
00000220: 1fa4 9bbd 1da0 cebd f2ab 74bd 1cbb 3a3d
00000230: 8bef fd3c 16db ffbc c753 cabc 0509 64bd
00000240: 8d59 ecbd 81af a0bc af12 4ebd 3eeb 2c3d
00000250: e1a4 b5bd 4827 533b 0c77 093d 8a7a f13c
00000260: 56b9 d3bd bb75 85bd 6b90 f83c 53d0 16bd
00000270: 9066 823d 2f3a 96bc c62b acbb dd8c 29bd
00000280: 4476 74bd 70ab 4bbc 0868 873c f7ac 16bc
00000290: 982a 64bc 60e5 f1bb 95bd fdbd ba30 fb3b
000002a0: 5b54 b1bd 8e1d 163b ab41 75bd 1f0c 28bd
000002b0: 06c8 6fbd cd0b bdbc 4c92 913d c198 96bd
000002c0: 14b2 9b3d 2106 5c3c e234 30bd 7203 3d3c
000002d0: e66a dc3c c470 aebc ce9a f5bc 64e5 99bb
000002e0: 4512 0fbd 929d 82bd 0614 93bd 2ea7 dbba
000002f0: 6267 d43b 4af1 76bc 77ae 0cbd 9aa4 16bd
00000300: 5074 cbbd 5d99 95bd 2fed 863d 2444 f1bd
00000310: 429f 263d ffb7 f73a 36f1 28bd a987 87bd
00000320: ea76 27bd 35dd bd3d fc58 83bd 496f 5dbc
00000330: 9dfc b6bd d384 47bd 7874 41bd b36e 9fbd
00000340: f023 dd3c c4f0 fabd 7513 3bbd 6413 8fbc
00000350: d54b f6bc 4e4d 6a3d 0994 f5bd ef3c d33d
00000360: 2d4b b6bd e369 b2bd a3e6 5bbd f9be e53c
00000370: e5fc ffbc e1a4 393b 7841 4b3d e61a d0bc
00000380: 3763 193d bdf3 f0bd 7db3 b1bc e996 65bc
00000390: 2440 8dbd d2b7 793d 1662 cd3c 45ab a73d
000003a0: df37 c6bb 2423 a9bc 3d3f 933c 15e8 c3bd
000003b0: 6018 f5bc 1de8 47bb efda 223c b926 953d
000003c0: 249f 65bd 53f4 4bbd f0c5 a9bd 6e13 8c3d
000003d0: cb97 2e3d d5ea a4bd adb0 ae3d a6ec ecbd
000003e0: 175d 1abd 5cd9 233d 1447 663d 80a8 14bc
000003f0: fe25 4d3d 94b6 97bd 2342 623d 21a3 ac3d
0.10409183 0.10203389 0.08544402 0.09551151 0.011169202 0.072286926 -0.043592043 0.08452706
-0.086855 0.16140305 0.13862959 0.05313993 0.09196451 0.12861936 -0.05457666 -0.13336499
0.025050148 -0.07822798 -0.07601628 0.012693938 -0.08918561 -0.12399956 -0.0853296 0.034183297
-0.099889606 -0.05724336 0.020805681 0.022343002 -0.01544237 0.0051054293 0.016521238 -0.046425145
-0.05483768 0.22720957 0.182268 -0.04559287 -0.04013956 0.020834502 -0.09417315 -0.048767388
-0.035661317 0.013565011 -0.11370781 0.0825195 -0.08510677 -0.050999854 -0.0016373947 -0.05457045
0.09749197 0.01107957 -0.09218536 0.05388719 0.014968116 -0.04350685 0.07084809 0.108908154
-0.11422138 -0.02051892 -0.04514323 -0.0036701914 -0.083356775 0.059577607 0.07786865 -0.109179676
-0.06554933 -0.06243245 -0.041888442 -0.051778864 0.031767614 0.015117279 -0.08447622 -0.019516835
0.041855816 0.06579751 -0.08849691 0.07294459 0.031245401 -0.10223567 0.08334171 -0.068809554
-0.040904243 0.07759761 0.06928329 0.035864316 0.015362214 0.08039197 -0.08181396 0.036023054
-0.059214413 -0.022521686 0.005678527 -0.09628731 0.08886023 -0.11133424 -0.08667743 0.03532135
-0.018216662 9.6429554e-05 -0.005015061 0.09115499 0.20462434 0.09452655 -0.03856883 -0.013920015
-0.026638199 0.029388636 0.042814758 0.052015036 -0.008305319 0.032297406 0.0029288458 -0.11692425
-0.12256516 -0.11331351 -0.076404676 -0.11056082 -0.09033388 -0.02991432 -0.033869248 0.1080459
0.009984257 -0.031341646 -0.0506153 0.053840708 -0.04980459 -0.02413091 0.09189659 0.07594302
0.021198317 0.11382197 0.22802883 0.03998067 -0.081551604 -0.048071876 -0.006093573 -0.027310109
-0.07599663 -0.10089133 -0.059734292 0.045588598 0.030998012 -0.031232398 -0.024698151 -0.055672664
-0.11540518 -0.019614937 -0.050310787 0.042216532 -0.08869339 0.0032219458 0.033560798 0.029477376
-0.103380844 -0.06516596 0.030342301 -0.036819767 0.063672185 -0.018338291 -0.0052542416 -0.041394103
-0.0596831 -0.012431011 0.016529098 -0.0091965115 -0.013926171 -0.00738208 -0.123896755 0.007665721
-0.08658668 0.00229058 -0.05987708 -0.041027185 -0.058540367 -0.023076916 0.07107982 -0.07353354
0.07602325 0.013429196 -0.043019183 0.011536466 0.026906442 -0.021294005 -0.029981043 -0.004696535
-0.034929533 -0.063777104 -0.071815535 -0.0016758197 0.0064820508 -0.015072176 -0.03434607 -0.03677807
-0.09934294 -0.07304642 0.06588208 -0.11780575 0.040679224 0.001889944 -0.04124566 -0.06617672
-0.04088489 0.092707075 -0.06413457 -0.013515302 -0.08934901 -0.048710655 -0.047230214 -0.07784786
0.026994675 -0.12252954 -0.045672853 -0.0174653 -0.030065456 0.05720263 -0.11991126 0.103143565
-0.089010574 -0.087116025 -0.05368675 0.028045164 -0.03124852 0.0028327035 0.049622983 -0.025403451
0.037448134 -0.117652394 -0.021692032 -0.014013031 -0.068969995 0.06096632 0.025071185 0.08186964
-0.006049141 -0.02064664 0.01797449 -0.095657505 -0.02991885 -0.003050334 0.009939893 0.072827764
-0.05605997 -0.049793553 -0.08289707 0.068396434 0.04262523 -0.08052603 0.08529792 -0.115685746
-0.037686434 0.040002212 0.05622013 -0.009073377 0.05008506 -0.07407871 0.055238854 0.08429552

audio_TCN.network.1.net.0.bias f4 [32]
00000000: b4bf 36bd a8c6 03bd 8bed 93bc 4d61 87bd
00000010: 8f48 fbbd 4d18 a53d b48a aabd 220a 103d
00000020: 8201 bf3b fde8 023c 23bc 363d 822e c6bd
00000030: 1268 4c3d 31ce 81bd fd34 8abd 2c9a bebc
00000040: ba54 8a3d 78f8 3ebd e826 a83d 7a0e c43c
00000050: debc aa3d 0f2a f4bc 96d6 fa3c b58c 623d
00000060: 56ca 173d a11e 2dbd 31ac d4bd a80d 59bc
00000070: 4951 3f3e e32b e0bb 9109 e6bd 0490 aa3c
-0.044616416 -0.032171875 -0.018057605 -0.066103555 -0.12269699 0.08061276 -0.08327237 0.035165913
0.005829037 0.007990119 0.044613015 -0.096768394 0.049903937 -0.06338156 -0.06748388 -0.023266874
0.067544416 -0.046623677 0.08210546 0.023932684 0.08336805 -0.029805211 0.0306199 0.05530997
0.037058197 -0.042265538 -0.103844054 -0.013247885 0.18683352 -0.006841169 -0.112322934 0.020820625

audio_TCN.network.1.net.0.weight_g f4 [32, 1, 1]
00000000: ec52 1a3f cbe4 2e3f 7b22 093f 6c73 203f
00000010: 2cae 183f 6ae3 0f3f 289a 443f 5835 243f
00000020: 6bcc 0b3f 475d 113f 1969 123f 7707 123f
00000030: 8dcd 153f ff0d 363f eed7 0e3f 0fd6 0a3f
00000040: 8188 113f f08f 0c3f 4803 423f 3a29 113f
00000050: a9c0 0d3f a562 163f 023f 183f dda0 203f
00000060: 4b1a 073f dde2 0b3f 7416 263f 7f31 103f
00000070: b806 2d3f 33aa 0c3f 7a40 0c3f 5a2d 183f
0.6028278 0.6831786 0.5356824 0.6267612 0.59640765 0.5620638 0.76797724 0.64143896
0.5460879 0.56782955 0.57191616 0.5704264 0.5851677 0.71115106 0.5579823 0.5423288
0.56848913 0.5490713 0.75786257 0.5670353 0.553721 0.5874427 0.5947114 0.6274546
0.52774495 0.5464304 0.6487801 0.56325525 0.67588377 0.54947203 0.54785883 0.594442

audio_TCN.network.1.net.0.weight_v f4 [32, 32, 3]
00000000: 192e d53d 25f7 d03d 46fd ae3d 8a9b c33d
00000010: 07ff 363c 2b0b 943d 928d 32bd 861c ad3d
00000020: 09e1 b1bd d746 253e eaf4 0d3e 41a9 593d
00000030: e457 bc3d cbb4 033e c78b 5fbd d590 08be
00000040: f835 cd3c fe35 a0bd 6cae 9bbd 3cfa 4f3c
00000050: f2a6 b6bd 7bf3 fdbd 49c1 aebd c903 0c3d
00000060: ec92 ccbd 0378 6abd ad70 aa3c ac08 b73c
00000070: ff01 7dbc 724b a73b 8c57 873c 4b28 3ebd
00000080: 7a9d 60bd a0a9 683e 76a4 3a3e 97bf 3abd
00000090: 6169 24bd 1ead aa3c dadd c0bd 50c0 47bd
000000a0: 9a11 12bd c83f 5e3c a4df e8bd fcff a83d
000000b0: 754c aebd 39e5 50bd d99d d6ba 4485 5fbd
000000c0: dfa9 c73d 1687 353c aecb bcbd d0b8 5c3d
000000d0: d43c 753c 3d34 32bd ce18 913d 3d0b df3d
000000e0: e6ec e9bd 4b17 a8bc 1ce8 38bd 9887 70bb
000000f0: f5b6 aabd a607 743d 9979 9f3d 9899 dfbd
00000100: ba3e 86bd 2bb9 7fbd 3793 2bbd 1316 54bd
00000110: c21e 023d 77ae 773c de01 adbd c5e1 9fbc
00000120: 0171 2b3d d8c0 863d de3d b5bd f963 953d
00000130: 5bf6 ff3c ef60 d1bd 0faf aa3d 06ec 8cbd
00000140: 358b 27bd 7feb 9e3d 66e4 8d3d 76e6 123d
00000150: ccb1 7b3c 8ca4 a43d 148e a7bd e98c 133d
00000160: d08a 72bd 667f b8bc f012 ba3b 4832 c5bd
00000170: 5afc b53d 3503 e4bd f083 b1bd 1fad 103d
00000180: 1c3b 95bc 393a ca38 6155 a4bb 78af ba3d
00000190: 0b89 513e 2397 c13d 59fa 1dbd c610 64bc
000001a0: 5a38 dabc 70c0 f03c 875e 2f3d b80d 553d
000001b0: 0813 08bc 494a 043d e1f1 3f3b fb75 efbd
000001c0: 7103 fbbd ea10 e8bd 0e7a 9cbd b66d e2bd
000001d0: f800 b9bd e00e f5bc 7bba 0abd 2b47 dd3d
000001e0: 0295 233c 1960 00bd fd51 4fbd 1388 5c3d
000001f0: e6ff 4bbd 30ae c5bc 4834 bc3d 0488 9b3d
00000200: 18a8 ad3c 7e1b e93d 6480 693e c5c2 233d
00000210: 8704 a7bd 04e7 44bd 98ac c7bb 73b9 dfbc
00000220: 1fa4 9bbd 1da0 cebd f2ab 74bd 1cbb 3a3d
00000230: 8bef fd3c 16db ffbc c753 cabc 0509 64bd
00000240: 8d59 ecbd 81af a0bc af12 4ebd 3eeb 2c3d
00000250: e1a4 b5bd 4827 533b 0c77 093d 8a7a f13c
00000260: 56b9 d3bd bb75 85bd 6b90 f83c 53d0 16bd
00000270: 9066 823d 2f3a 96bc c62b acbb dd8c 29bd
00000280: 4476 74bd 70ab 4bbc 0868 873c f7ac 16bc
00000290: 982a 64bc 60e5 f1bb 95bd fdbd ba30 fb3b
000002a0: 5b54 b1bd 8e1d 163b ab41 75bd 1f0c 28bd
000002b0: 06c8 6fbd cd0b bdbc 4c92 913d c198 96bd
000002c0: 14b2 9b3d 2106 5c3c e234 30bd 7203 3d3c
000002d0: e66a dc3c c470 aebc ce9a f5bc 64e5 99bb
000002e0: 4512 0fbd 929d 82bd 0614 93bd 2ea7 dbba
000002f0: 6267 d43b 4af1 76bc 77ae 0cbd 9aa4 16bd
00000300: 5074 cbbd 5d99 95bd 2fed 863d 2444 f1bd
00000310: 429f 263d ffb7 f73a 36f1 28bd a987 87bd
00000320: ea76 27bd 35dd bd3d fc58 83bd 496f 5dbc
00000330: 9dfc b6bd d384 47bd 7874 41bd b36e 9fbd
00000340: f023 dd3c c4f0 fabd 7513 3bbd 6413 8fbc
00000350: d54b f6bc 4e4d 6a3d 0994 f5bd ef3c d33d
00000360: 2d4b b6bd e369 b2bd a3e6 5bbd f9be e53c
00000370: e5fc ffbc e1a4 393b 7841 4b3d e61a d0bc
00000380: 3763 193d bdf3 f0bd 7db3 b1bc e996 65bc
00000390: 2440 8dbd d2b7 793d 1662 cd3c 45ab a73d
000003a0: df37 c6bb 2423 a9bc 3d3f 933c 15e8 c3bd
000003b0: 6018 f5bc 1de8 47bb efda 223c b926 953d
000003c0: 249f 65bd 53f4 4bbd f0c5 a9bd 6e13 8c3d
000003d0: cb97 2e3d d5ea a4bd adb0 ae3d a6ec ecbd
000003e0: 175d 1abd 5cd9 233d 1447 663d 80a8 14bc
000003f0: fe25 4d3d 94b6 97bd 2342 623d 21a3 ac3d
0.10409183 0.10203389 0.08544402 0.09551151 0.011169202 0.072286926 -0.043592043 0.08452706
-0.086855 0.16140305 0.13862959 0.05313993 0.09196451 0.12861936 -0.05457666 -0.13336499
0.025050148 -0.07822798 -0.07601628 0.012693938 -0.08918561 -0.12399956 -0.0853296 0.034183297
-0.099889606 -0.05724336 0.020805681 0.022343002 -0.01544237 0.0051054293 0.016521238 -0.046425145
-0.05483768 0.22720957 0.182268 -0.04559287 -0.04013956 0.020834502 -0.09417315 -0.048767388
-0.035661317 0.013565011 -0.11370781 0.0825195 -0.08510677 -0.050999854 -0.0016373947 -0.05457045
0.09749197 0.01107957 -0.09218536 0.05388719 0.014968116 -0.04350685 0.07084809 0.108908154
-0.11422138 -0.02051892 -0.04514323 -0.0036701914 -0.083356775 0.059577607 0.07786865 -0.109179676
-0.06554933 -0.06243245 -0.041888442 -0.051778864 0.031767614 0.015117279 -0.08447622 -0.019516835
0.041855816 0.06579751 -0.08849691 0.07294459 0.031245401 -0.10223567 0.08334171 -0.068809554
-0.040904243 0.07759761 0.06928329 0.035864316 0.015362214 0.08039197 -0.08181396 0.036023054
-0.059214413 -0.022521686 0.005678527 -0.09628731 0.08886023 -0.11133424 -0.08667743 0.03532135
-0.018216662 9.6429554e-05 -0.005015061 0.09115499 0.20462434 0.09452655 -0.03856883 -0.013920015
-0.026638199 0.029388636 0.042814758 0.052015036 -0.008305319 0.032297406 0.0029288458 -0.11692425
-0.12256516 -0.11331351 -0.076404676 -0.11056082 -0.09033388 -0.02991432 -0.033869248 0.1080459
0.009984257 -0.031341646 -0.0506153 0.053840708 -0.04980459 -0.02413091 0.09189659 0.07594302
0.021198317 0.11382197 0.22802883 0.03998067 -0.081551604 -0.048071876 -0.006093573 -0.027310109
-0.07599663 -0.10089133 -0.059734292 0.045588598 0.030998012 -0.031232398 -0.024698151 -0.055672664
-0.11540518 -0.019614937 -0.050310787 0.042216532 -0.08869339 0.0032219458 0.033560798 0.029477376
-0.103380844 -0.06516596 0.030342301 -0.036819767 0.063672185 -0.018338291 -0.0052542416 -0.041394103
-0.0596831 -0.012431011 0.016529098 -0.0091965115 -0.013926171 -0.00738208 -0.123896755 0.007665721
-0.08658668 0.00229058 -0.05987708 -0.041027185 -0.058540367 -0.023076916 0.07107982 -0.07353354
0.07602325 0.013429196 -0.043019183 0.011536466 0.026906442 -0.021294005 -0.029981043 -0.004696535
-0.034929533 -0.063777104 -0.071815535 -0.0016758197 0.0064820508 -0.015072176 -0.03434607 -0.03677807
-0.09934294 -0.07304642 0.06588208 -0.11780575 0.040679224 0.001889944 -0.04124566 -0.06617672
-0.04088489 0.092707075 -0.06413457 -0.013515302 -0.08934901 -0.048710655 -0.047230214 -0.07784786
0.026994675 -0.12252954 -0.045672853 -0.0174653 -0.030065456 0.05720263 -0.11991126 0.103143565
-0.089010574 -0.087116025 -0.05368675 0.028045164 -0.03124852 0.0028327035 0.049622983 -0.025403451
0.037448134 -0.117652394 -0.021692032 -0.014013031 -0.068969995 0.06096632 0.025071185 0.08186964
-0.006049141 -0.02064664 0.01797449 -0.095657505 -0.02991885 -0.003050334 0.009939893 0.072827764
-0.05605997 -0.049793553 -0.08289707 0.068396434 0.04262523 -0.08052603 0.08529792 -0.115685746
-0.037686434 0.040002212 0.05622013 -0.009073377 0.05008506 -0.07407871 0.055238854 0.08429552

audio_TCN.network.2.conv.bias f4 [32]
00000000: 38ff f6bd c9bc 803c 600c 19bd 0b58 45bd
00000010: 6024 6a3d ea7d 593d 1801 5bbd 4407 36bd
00000020: 4058 9dbd 7bc2 ec3c 5752 a9bd a66a 3c3d
00000030: 03cd 113d 713d d1bd c473 b2bd baa7 b23c
00000040: 0f0c ddbd 1e75 7a3d 3b72 703d 717e 28be
00000050: f8ba 4e3d b10e 8d3d c5b2 4c3d 2686 cc3d
00000060: c9f4 ae3d a898 613d 30e1 dfbc b0ea 993d
00000070: b0f0 043e b12f 483c 10b6 a6bd 717c b83d
-0.12060398 0.01571502 -0.037365317 -0.048179667 0.057163596 0.053098597 -0.05346784 -0.044440523
-0.07682848 0.02890133 -0.08267658 0.046000145 0.035595905 -0.10216797 -0.08713487 0.021808494
-0.107933156 0.061146848 0.05870269 -0.16454484 0.050471276 0.06887568 0.049975175 0.09986524
0.08542783 0.055077225 -0.027329057 0.07515466 0.1298244 0.012218402 -0.081401944 0.0900811

audio_TCN.network.2.conv.weight_g f4 [32, 1, 1]
00000000: 7da2 2b3f 52f2 4c3f ea0e 0e3f 12ae 0d3f
00000010: 81f6 143f 38dd 113f 0469 1b3f e5f7 143f
00000020: 95d1 123f c873 1b3f c638 083f db41 0e3f
00000030: 7b7f 123f 6589 193f d3fe 183f 53fb 0e3f
00000040: 7a2f 103f bb6b 243f b0ed 163f 9d25 2f3f
00000050: e25e 243f 485e 0f3f b3fc 093f 3f8f 273f
00000060: 7121 0a3f 1de5 193f 3ce0 1a3f e409 1f3f
00000070: 1454 263f b734 0b3f a470 153f 387a 1a3f
0.6704481 0.8005725 0.5549151 0.55343735 0.58188635 0.5697818 0.60707116 0.5819076
0.57351047 0.60723543 0.5321163 0.5556924 0.5722577 0.5997527 0.5976383 0.5585224
0.56322443 0.64226884 0.5895643 0.6841677 0.6420728 0.56003237 0.53901213 0.6545295
0.5395728 0.60115224 0.60498405 0.62124467 0.64972043 0.5437731 0.58375 0.6034274

audio_TCN.network.2.conv.weight_v f4 [32, 32, 3]
00000000: 79ad 203d 0ef7 2cbd a520 f23c c575 633e
00000010: d0cc ce3d d5b6 8c3d 17e5 4abc fc09 25bd
00000020: 26ef 6ebc d690 7d3e 30a6 543e 34ea 843d
00000030: ffbb e83d 1079 383e b09b 8d3c 8e48 87bc
00000040: 3938 acbd f598 95bd 0c03 02bd 7c0b 89bd
00000050: 42e0 173c 5f46 96bd d034 b2bd 8418 e9bc
00000060: c7b4 ef3c 4bc3 aa3d a18e c3bb 43a6 82bd
00000070: acfb 413d 007a 85bd 2cb7 1fbd 5573 4b3d
00000080: e83b 82bd 737a 1a3d bd98 643d 4ee7 89bd
00000090: c62f 29bd 4752 723d 881e 953d 6e99 03bc
000000a0: 20d7 e3bc 7e3a a2bd c047 233d f7e8 7d3d
000000b0: b6be 323d f6c9 d5bc d4a3 533c 7e30 833d
000000c0: 7f43 533d f35c 1c3d 1926 8bbd ed97 c4bd
000000d0: ead4 833d e362 c1bd 3fed 213d d93d 03bd
000000e0: 5cee ffbd fa04 82bd 2279 a8bd eab6 1c3d
000000f0: 6d16 b6bc b5ef 913d 95c5 25bd a150 fbbc
00000100: 037b ecbd 0589 503c c8b6 b23a 8986 29bc
00000110: eb88 a3bc 9af4 e8bb 4331 77bd e1be 503d
00000120: ea14 793d d196 b93d affa 92bc 705a b4bd
00000130: 5435 e6bd c6fc 693d a5f4 7dbd a5ff 0a3c
00000140: c41c 88bd de99 06bd b378 d63b 3262 0b3d
00000150: 54ab 93bc 1912 a6bb 290f 323b 87b5 023e
00000160: 53fc 0f3d 9765 1ebd fa55 833d c9c1 213c
00000170: 55e4 4ebd 7c08 77bd 75c0 9bbd 196c 5ebd
00000180: 985b 93bc 1d67 b3bc f026 6bbc d32e 1a3e
00000190: 16e0 8d3e 319c ca3d a31e ec3a 6747 7cbd
000001a0: 3063 d0bd d956 c23d c2bf f53d 8d3d 1bbd
000001b0: 5557 46bc 0368 9b3d b95d 30bd 8256 fdbd
000001c0: f9d1 8bbd 802a ac3a 5fc1 a9bd 3d97 293c
000001d0: 56ba a5bc 5809 8b3b eb6f 44bd 7bbf 27bd
000001e0: a7bf 70bd ab44 38bd f666 403b 804d d9bd
000001f0: 7cb1 cfbd c697 7c3d 3db7 3f3d fbc0 c33d
00000200: 5635 a7bd d056 0e3d c33d da3d 9234 80bc
00000210: 6d77 15bd 0977 bfbc 7509 0d3b abe6 e8bc
00000220: 3107 b6bd 8e49 b5bc 27d9 033d 1c4e 843c
00000230: 32f6 163c 6bc5 cebc 7c8b 90bb 87a9 823d
00000240: 44dc f4ba 66da 083d 7d78 5fbd 5dbf 213d
00000250: bb8d 803c a16f de3c 08d2 b2bd 5fd8 83bc
00000260: 10fd a7bd bd10 85bc c4c3 8abd e27d 43bd
00000270: ee3a 56bd 112e c1bc c37f 8d3d 3edd dcbd
00000280: a622 b0bd 73f8 20bd 58d3 033e a0b6 7b3d
00000290: 9707 083d 9ef6 e2bd 8dc6 c0bd e42a 443c
000002a0: 34d6 4dbd 98a1 3bbd b192 9f3d 6f45 e8bd
000002b0: 44c4 c2bd 0021 523d a3c7 573c d1f7 923c
000002c0: d5ab a73d aa5e 48bd 8553 f5bb 9ae9 353c
000002d0: 3ab7 413c 93f9 0abc 6916 c63a c8e2 1a3d
000002e0: 7d98 883d 40e4 58bd 9f4a 07bd a4c3 4ebd
000002f0: 177c d3bb 986a 8b3a 6f0b 8f3a c482 27bc
00000300: 04ed 793c 5419 133b ad23 bf3d f3e6 aebb
00000310: 39e5 81bd 836f 94bc 1a02 12bd a4b8 3bbd
00000320: 7d30 a73d ae91 153d 60af 413c ce60 c8bd
00000330: 705f 9a3d 6825 753b c17e 573d e4e6 83bd
00000340: e65d 5bbd e5a8 3e3d bdd1 9cbd 47a8 c5bd
00000350: 918e 013d ef2a 2bbd bedc 80ba 56ac 913c
00000360: d5d7 c83c b4c9 7fbd 46cf 1dbd b23b bcbb
00000370: 1784 9d3d 9117 8cbd 6252 e2bd 67a8 1f3d
00000380: 7458 683c 47ff 5c3d c964 77bc d172 873d
00000390: 3152 c3bd 6ae7 8b3d ba6c c33d 66d2 80bd
000003a0: ec9c 5abd 4142 833d 206a 02bc 5272 403d
000003b0: a2c6 f53c 589c 1bbd 0e1f 883d 2b89 b93d
000003c0: 6018 d5bd 43f1 cebd 87de 4d3a 2645 a6bb
000003d0: 861d 3f3d ba48 2f3d dc8f b2bc 89a9 e2bc
000003e0: 13d0 b2bd 3178 c7bd 0942 67bd dd3e cbbd
000003f0: c537 0f3d 2e62 2bbd a8a7 bd3a d3de 253d
0.039227936 -0.042227797 0.029556582 0.22212894 0.10097659 0.0687081 -0.012383721 -0.040292725
-0.014583385 0.24762282 0.2076652 0.06489983 0.113639824 0.18014932 0.017286152 -0.016514089
-0.08409161 -0.07304565 -0.031741187 -0.066916436 0.009269776 -0.07337641 -0.087014794 -0.028454073
0.029261006 0.083380304 -0.0059679304 -0.06379368 0.047359154 -0.0651741 -0.038993046 0.049670536
-0.063590825 0.037714433 0.055809725 -0.06733571 -0.041305326 0.059160497 0.07281214 -0.008032186
-0.02781254 -0.07921313 0.039863348 0.06198975 0.043638907 -0.026097279 0.012917478 0.064057335
0.05157804 0.03817458 -0.06794376 -0.0959929 0.064370945 -0.09442689 0.039532896 -0.032041404
-0.12496635 -0.063486055 -0.08226229 0.038260378 -0.02222749 0.071257986 -0.040471632 -0.030678095
-0.115469 0.0127279805 0.0013634795 -0.010347017 -0.019962749 -0.007109237 -0.060349714 0.050963286
0.06081096 0.09061969 -0.0179418 -0.08806312 -0.1124064 0.05712583 -0.06200089 0.008483802
-0.066461116 -0.032861583 0.00654515 0.034029193 -0.018026032 -0.0050680754 0.002716968 0.1276456
0.035152745 -0.038671102 0.06412883 0.009872862 -0.050510723 -0.060310826 -0.07605068 -0.05430231
-0.017988011 -0.021899754 -0.014352545 0.15056925 0.27710027 0.098930724 0.0018014502 -0.061591532
-0.101751685 0.09489221 0.119994655 -0.037900496 -0.0121057825 0.07588198 -0.04305813 -0.12370016
-0.068271585 0.0013135225 -0.08288836 0.010350999 -0.020230453 0.004243057 -0.047958296 -0.040954094
-0.058776524 -0.044987362 0.0029358245 -0.10610485 -0.10141274 0.06166818 0.04680561 0.095582925
-0.0816447 0.03475076 0.10656311 -0.015650067 -0.036490846 -0.02337219 0.002152053 -0.028430304
-0.088880904 -0.0221298 0.032189514 0.016150527 0.009213971 -0.02524062 -0.004411159 0.06379991
-0.0018681367 0.033411406 -0.054558266 0.03948914 0.015692582 0.027152838 -0.087314665 -0.016094385
-0.08202565 -0.016243333 -0.067756206 -0.047727473 -0.052302293 -0.023581536 0.06909134 -0.10784386
-0.08600359 -0.03929944 0.1287359 0.06145346 0.033210363 -0.11082195 -0.094128706 0.011973117
-0.05025311 -0.045808405 0.07791651 -0.113413684 -0.09510091 0.051301003 0.013170156 0.017940434
0.08187071 -0.048918404 -0.007486763 0.011103058 0.01182347 -0.008482355 0.001511288 0.03781393
0.0666971 -0.05295205 -0.03303015 -0.050479546 -0.0064540016 0.0010636626 0.0010913442 -0.010224048
0.015254263 0.0022445517 0.093329765 -0.00533759 -0.06342549 -0.01811958 -0.035646535 -0.045830384
0.08163545 0.036515884 0.011821598 -0.09784089 0.075377345 0.003740633 0.052611116 -0.06440523
-0.053556345 0.04654779 -0.07657192 -0.09651237 0.031630103 -0.04178899 -0.0009831411 0.017782371
0.02451698 -0.06244822 -0.03852775 -0.005744421 0.0769121 -0.068404324 -0.110508695 0.03897896
0.014181245 0.05395439 -0.015099713 0.06613696 -0.09537161 0.06831248 0.09542222 -0.0629013
-0.05337231 0.06409121 -0.0079598725 0.046984024 0.030001942 -0.037990898 0.06646548 0.09059366
-0.1040504 -0.10104611 0.00078532886 -0.005074161 0.046659015 0.042793967 -0.021797113 -0.027668731
-0.08731093 -0.097397216 -0.05645946 -0.099240996 0.034965295 -0.04184168 0.0014469521 0.040495705

audio_TCN.network.2.net.0.bias f4 [32]
00000000: 38ff f6bd c9bc 803c 600c 19bd 0b58 45bd
00000010: 6024 6a3d ea7d 593d 1801 5bbd 4407 36bd
00000020: 4058 9dbd 7bc2 ec3c 5752 a9bd a66a 3c3d
00000030: 03cd 113d 713d d1bd c473 b2bd baa7 b23c
00000040: 0f0c ddbd 1e75 7a3d 3b72 703d 717e 28be
00000050: f8ba 4e3d b10e 8d3d c5b2 4c3d 2686 cc3d
00000060: c9f4 ae3d a898 613d 30e1 dfbc b0ea 993d
00000070: b0f0 043e b12f 483c 10b6 a6bd 717c b83d
-0.12060398 0.01571502 -0.037365317 -0.048179667 0.057163596 0.053098597 -0.05346784 -0.044440523
-0.07682848 0.02890133 -0.08267658 0.046000145 0.035595905 -0.10216797 -0.08713487 0.021808494
-0.107933156 0.061146848 0.05870269 -0.16454484 0.050471276 0.06887568 0.049975175 0.09986524
0.08542783 0.055077225 -0.027329057 0.07515466 0.1298244 0.012218402 -0.081401944 0.0900811

audio_TCN.network.2.net.0.weight_g f4 [32, 1, 1]
00000000: 7da2 2b3f 52f2 4c3f ea0e 0e3f 12ae 0d3f
00000010: 81f6 143f 38dd 113f 0469 1b3f e5f7 143f
00000020: 95d1 123f c873 1b3f c638 083f db41 0e3f
00000030: 7b7f 123f 6589 193f d3fe 183f 53fb 0e3f
00000040: 7a2f 103f bb6b 243f b0ed 163f 9d25 2f3f
00000050: e25e 243f 485e 0f3f b3fc 093f 3f8f 273f
00000060: 7121 0a3f 1de5 193f 3ce0 1a3f e409 1f3f
00000070: 1454 263f b734 0b3f a470 153f 387a 1a3f
0.6704481 0.8005725 0.5549151 0.55343735 0.58188635 0.5697818 0.60707116 0.5819076
0.57351047 0.60723543 0.5321163 0.5556924 0.5722577 0.5997527 0.5976383 0.5585224
0.56322443 0.64226884 0.5895643 0.6841677 0.6420728 0.56003237 0.53901213 0.6545295
0.5395728 0.60115224 0.60498405 0.62124467 0.64972043 0.5437731 0.58375 0.6034274

audio_TCN.network.2.net.0.weight_v f4 [32, 32, 3]
00000000: 79ad 203d 0ef7 2cbd a520 f23c c575 633e
00000010: d0cc ce3d d5b6 8c3d 17e5 4abc fc09 25bd
00000020: 26ef 6ebc d690 7d3e 30a6 543e 34ea 843d
00000030: ffbb e83d 1079 383e b09b 8d3c 8e48 87bc
00000040: 3938 acbd f598 95bd 0c03 02bd 7c0b 89bd
00000050: 42e0 173c 5f46 96bd d034 b2bd 8418 e9bc
00000060: c7b4 ef3c 4bc3 aa3d a18e c3bb 43a6 82bd
00000070: acfb 413d 007a 85bd 2cb7 1fbd 5573 4b3d
00000080: e83b 82bd 737a 1a3d bd98 643d 4ee7 89bd
00000090: c62f 29bd 4752 723d 881e 953d 6e99 03bc
000000a0: 20d7 e3bc 7e3a a2bd c047 233d f7e8 7d3d
000000b0: b6be 323d f6c9 d5bc d4a3 533c 7e30 833d
000000c0: 7f43 533d f35c 1c3d 1926 8bbd ed97 c4bd
000000d0: ead4 833d e362 c1bd 3fed 213d d93d 03bd
000000e0: 5cee ffbd fa04 82bd 2279 a8bd eab6 1c3d
000000f0: 6d16 b6bc b5ef 913d 95c5 25bd a150 fbbc
00000100: 037b ecbd 0589 503c c8b6 b23a 8986 29bc
00000110: eb88 a3bc 9af4 e8bb 4331 77bd e1be 503d
00000120: ea14 793d d196 b93d affa 92bc 705a b4bd
00000130: 5435 e6bd c6fc 693d a5f4 7dbd a5ff 0a3c
00000140: c41c 88bd de99 06bd b378 d63b 3262 0b3d
00000150: 54ab 93bc 1912 a6bb 290f 323b 87b5 023e
00000160: 53fc 0f3d 9765 1ebd fa55 833d c9c1 213c
00000170: 55e4 4ebd 7c08 77bd 75c0 9bbd 196c 5ebd
00000180: 985b 93bc 1d67 b3bc f026 6bbc d32e 1a3e
00000190: 16e0 8d3e 319c ca3d a31e ec3a 6747 7cbd
000001a0: 3063 d0bd d956 c23d c2bf f53d 8d3d 1bbd
000001b0: 5557 46bc 0368 9b3d b95d 30bd 8256 fdbd
000001c0: f9d1 8bbd 802a ac3a 5fc1 a9bd 3d97 293c
000001d0: 56ba a5bc 5809 8b3b eb6f 44bd 7bbf 27bd
000001e0: a7bf 70bd ab44 38bd f666 403b 804d d9bd
000001f0: 7cb1 cfbd c697 7c3d 3db7 3f3d fbc0 c33d
00000200: 5635 a7bd d056 0e3d c33d da3d 9234 80bc
00000210: 6d77 15bd 0977 bfbc 7509 0d3b abe6 e8bc
00000220: 3107 b6bd 8e49 b5bc 27d9 033d 1c4e 843c
00000230: 32f6 163c 6bc5 cebc 7c8b 90bb 87a9 823d
00000240: 44dc f4ba 66da 083d 7d78 5fbd 5dbf 213d
00000250: bb8d 803c a16f de3c 08d2 b2bd 5fd8 83bc
00000260: 10fd a7bd bd10 85bc c4c3 8abd e27d 43bd
00000270: ee3a 56bd 112e c1bc c37f 8d3d 3edd dcbd
00000280: a622 b0bd 73f8 20bd 58d3 033e a0b6 7b3d
00000290: 9707 083d 9ef6 e2bd 8dc6 c0bd e42a 443c
000002a0: 34d6 4dbd 98a1 3bbd b192 9f3d 6f45 e8bd
000002b0: 44c4 c2bd 0021 523d a3c7 573c d1f7 923c
000002c0: d5ab a73d aa5e 48bd 8553 f5bb 9ae9 353c
000002d0: 3ab7 413c 93f9 0abc 6916 c63a c8e2 1a3d
000002e0: 7d98 883d 40e4 58bd 9f4a 07bd a4c3 4ebd
000002f0: 177c d3bb 986a 8b3a 6f0b 8f3a c482 27bc
00000300: 04ed 793c 5419 133b ad23 bf3d f3e6 aebb
00000310: 39e5 81bd 836f 94bc 1a02 12bd a4b8 3bbd
00000320: 7d30 a73d ae91 153d 60af 413c ce60 c8bd
00000330: 705f 9a3d 6825 753b c17e 573d e4e6 83bd
00000340: e65d 5bbd e5a8 3e3d bdd1 9cbd 47a8 c5bd
00000350: 918e 013d ef2a 2bbd bedc 80ba 56ac 913c
00000360: d5d7 c83c b4c9 7fbd 46cf 1dbd b23b bcbb
00000370: 1784 9d3d 9117 8cbd 6252 e2bd 67a8 1f3d
00000380: 7458 683c 47ff 5c3d c964 77bc d172 873d
00000390: 3152 c3bd 6ae7 8b3d ba6c c33d 66d2 80bd
000003a0: ec9c 5abd 4142 833d 206a 02bc 5272 403d
000003b0: a2c6 f53c 589c 1bbd 0e1f 883d 2b89 b93d
000003c0: 6018 d5bd 43f1 cebd 87de 4d3a 2645 a6bb
000003d0: 861d 3f3d ba48 2f3d dc8f b2bc 89a9 e2bc
000003e0: 13d0 b2bd 3178 c7bd 0942 67bd dd3e cbbd
000003f0: c537 0f3d 2e62 2bbd a8a7 bd3a d3de 253d
0.039227936 -0.042227797 0.029556582 0.22212894 0.10097659 0.0687081 -0.012383721 -0.040292725
-0.014583385 0.24762282 0.2076652 0.06489983 0.113639824 0.18014932 0.017286152 -0.016514089
-0.08409161 -0.07304565 -0.031741187 -0.066916436 0.009269776 -0.07337641 -0.087014794 -0.028454073
0.029261006 0.083380304 -0.0059679304 -0.06379368 0.047359154 -0.0651741 -0.038993046 0.049670536
-0.063590825 0.037714433 0.055809725 -0.06733571 -0.041305326 0.059160497 0.07281214 -0.008032186
-0.02781254 -0.07921313 0.039863348 0.06198975 0.043638907 -0.026097279 0.012917478 0.064057335
0.05157804 0.03817458 -0.06794376 -0.0959929 0.064370945 -0.09442689 0.039532896 -0.032041404
-0.12496635 -0.063486055 -0.08226229 0.038260378 -0.02222749 0.071257986 -0.040471632 -0.030678095
-0.115469 0.0127279805 0.0013634795 -0.010347017 -0.019962749 -0.007109237 -0.060349714 0.050963286
0.06081096 0.09061969 -0.0179418 -0.08806312 -0.1124064 0.05712583 -0.06200089 0.008483802
-0.066461116 -0.032861583 0.00654515 0.034029193 -0.018026032 -0.0050680754 0.002716968 0.1276456
0.035152745 -0.038671102 0.06412883 0.009872862 -0.050510723 -0.060310826 -0.07605068 -0.05430231
-0.017988011 -0.021899754 -0.014352545 0.15056925 0.27710027 0.098930724 0.0018014502 -0.061591532
-0.101751685 0.09489221 0.119994655 -0.037900496 -0.0121057825 0.07588198 -0.04305813 -0.12370016
-0.068271585 0.0013135225 -0.08288836 0.010350999 -0.020230453 0.004243057 -0.047958296 -0.040954094
-0.058776524 -0.044987362 0.0029358245 -0.10610485 -0.10141274 0.06166818 0.04680561 0.095582925
-0.0816447 0.03475076 0.10656311 -0.015650067 -0.036490846 -0.02337219 0.002152053 -0.028430304
-0.088880904 -0.0221298 0.032189514 0.016150527 0.009213971 -0.02524062 -0.004411159 0.06379991
-0.0018681367 0.033411406 -0.054558266 0.03948914 0.015692582 0.027152838 -0.087314665 -0.016094385
-0.08202565 -0.016243333 -0.067756206 -0.047727473 -0.052302293 -0.023581536 0.06909134 -0.10784386
-0.08600359 -0.03929944 0.1287359 0.06145346 0.033210363 -0.11082195 -0.094128706 0.011973117
-0.05025311 -0.045808405 0.07791651 -0.113413684 -0.09510091 0.051301003 0.013170156 0.017940434
0.08187071 -0.048918404 -0.007486763 0.011103058 0.01182347 -0.008482355 0.001511288 0.03781393
0.0666971 -0.05295205 -0.03303015 -0.050479546 -0.0064540016 0.0010636626 0.0010913442 -0.010224048
0.015254263 0.0022445517 0.093329765 -0.00533759 -0.06342549 -0.01811958 -0.035646535 -0.045830384
0.08163545 0.036515884 0.011821598 -0.09784089 0.075377345 0.003740633 0.052611116 -0.06440523
-0.053556345 0.04654779 -0.07657192 -0.09651237 0.031630103 -0.04178899 -0.0009831411 0.017782371
0.02451698 -0.06244822 -0.03852775 -0.005744421 0.0769121 -0.068404324 -0.110508695 0.03897896
0.014181245 0.05395439 -0.015099713 0.06613696 -0.09537161 0.06831248 0.09542222 -0.0629013
-0.05337231 0.06409121 -0.0079598725 0.046984024 0.030001942 -0.037990898 0.06646548 0.09059366
-0.1040504 -0.10104611 0.00078532886 -0.005074161 0.046659015 0.042793967 -0.021797113 -0.027668731
-0.08731093 -0.097397216 -0.05645946 -0.099240996 0.034965295 -0.04184168 0.0014469521 0.040495705

audio_TCN.network.3.conv.bias f4 [32]
00000000: b5b7 393d 03a9 efbd c4a9 97bc 5192 8fbd
00000010: 1965 68bd c497 24bc 8863 e1bd f27f 25bd
00000020: d9bf 373d 65f3 38bd a5de fc3c 26eb 05bd
00000030: 0f98 2bbc a07b 46bd 416c dc3d a208 ab3c
00000040: c6a9 ae3d bd8f 46bc cb78 06bc 0ae8 08bd
00000050: 661c 913c b708 92bd 046e 583c 9f08 84bd
00000060: 8837 61ba e214 1cbd 3035 89bd 4bc5 493d
00000070: 7912 a3ba d3d1 94bc 238a 773d c9da 60bd
0.045341212 -0.11702158 -0.018513568 -0.070103295 -0.05673704 -0.010045949 -0.11005312 -0.04040522
0.044860695 -0.045153994 0.030867884 -0.03269496 -0.010473265 -0.04845774 0.10762835 0.02087814
0.085284755 -0.012119231 -0.00820751 -0.033424415 0.017713737 -0.071305685 0.0132098235 -0.06446957
-0.00085913436 -0.038105853 -0.06699598 0.04926042 -0.0012441418 -0.018166458 0.06043447 -0.05489615

audio_TCN.network.3.conv.weight_g f4 [32, 1, 1]
00000000: febc 1a3f f2d8 0c3f e118 143f 61b9 203f
00000010: 7ca2 353f c9a2 173f 4cd4 093f eb50 093f
00000020: 0e79 1f3f 1559 193f a989 173f 92f1 0e3f
00000030: dd6d 0b3f af68 143f a060 173f 8f5c 0b3f
00000040: 3fac 0a3f f0a9 1c3f 3a05 0d3f 4e84 1c3f
00000050: 935f 0e3f 07aa 0c3f d717 423f b211 133f
00000060: 5d90 113f defb 0e3f eabe 0e3f a561 0a3f
00000070: b89b 113f ee8b 083f 28f2 093f 2a4b 183f
0.6044463 0.5501853 0.5785046 0.62782866 0.70951056 0.59232765 0.53839564 0.53639096
0.6229409 0.59901553 0.5919443 0.5583736 0.54464513 0.57972234 0.59131813 0.5443811
0.54169077 0.61196804 0.550861 0.6113938 0.55614585 0.5494694 0.75817627 0.57448876
0.56860906 0.5585307 0.5576006 0.54055244 0.5687823 0.53338516 0.53885126 0.5948969
