results/models/strong/strong_multi_cnn-lstm_checkpoint.pt (torch_old, 450682 bytes, 10 tensors)

audio_layers.0.weight f4 [32, 32, 8]
000000 6f bd 0d bc 66 5d 21 3d 12 82 4a bd a3 4b 96 3c
       -0.0086511215 0.039395712 -0.04944045 0.018346613
000010 30 02 56 3d f4 e2 89 3c 73 c6 2e 3d e5 00 c7 bc
       0.05224818 0.016831852 0.042669725 -0.024292419
000020 05 73 cf bc 19 76 27 bd c0 35 8a 3c 72 96 46 bc
       -0.0253234 -0.04088411 0.016871333 -0.01212083
000030 b4 92 f7 bc c3 06 47 3d 91 a0 a2 bc c0 e5 13 bd
       -0.03022132 0.048590433 -0.019851955 -0.03610778
000040 00 cc 55 3c bb 65 b5 3c b0 7e 78 3c 47 82 84 bd
       0.013049126 0.022143235 0.015166923 -0.06470161
000050 cb 21 c5 3b 0f 08 8b bc cb 59 37 3d 33 4c 3b 3d
       0.0060159913 -0.016971616 0.044763368 0.045726966
000060 38 e9 a9 bc 81 77 28 3d 30 0d 55 3d a1 c4 75 3d
       -0.02074109 0.041129593 0.05201453 0.060001973
000070 b4 e0 21 bd 17 53 e3 bc ad 06 46 bd 5f e2 5d bd
       -0.039520934 -0.027749581 -0.04834621 -0.054170962
000080 51 ae 86 3b 30 e3 25 bd 8c 2a 34 3d 66 22 00 bd
       0.0041101356 -0.040499866 0.04398589 -0.031282805
000090 f2 8f 31 bd af b9 84 bc 24 80 e1 bb 95 ce 14 bd
       -0.043350168 -0.016201822 -0.0068817306 -0.036329824
0000a0 d8 e1 4a bd 72 1b 4b ba 00 10 c9 3c 16 af c8 3c
       -0.049531788 -0.0007747925 0.024543762 0.02449755
0000b0 af cf c5 bc 90 14 5f 3a c5 95 4a 3c 1b af 4f 3d
       -0.024146883 0.0008509839 0.012364809 0.050704103
0000c0 83 56 68 bd 9e 54 57 3d 4d cc 5c bd 47 e1 c8 bc
       -0.05672313 0.05257093 -0.053905774 -0.024521483
0000d0 9e c5 46 bd 8e 3f e2 bc c0 75 ec bc 7c 50 69 3d
       -0.048528306 -0.027618196 -0.028864741 0.05696152
0000e0 0f 16 16 3c f8 72 bb 3b 77 30 09 3b 2a 0f f9 3c
       0.009160533 0.0057204925 0.0020933428 0.030402739
0000f0 97 a5 5b 3b 13 39 19 3d 1c aa 8c bd 26 87 5c 3c
       0.0033515447 0.037407946 -0.06868383 0.013459956
000100 8f b7 46 bc bd 37 80 3d 99 6b 5c bd d8 1d 6c bd
       -0.012128725 0.06260631 -0.05381355 -0.05764565
000110 a7 a9 3e bd e6 8d 8b bc a3 f5 b6 bb ac 73 95 bc
       -0.04654851 -0.017035436 -0.0055834814 -0.018243633
000120 c8 10 87 bd 39 ac 09 bd 0e ed 5d bd 1a 11 8a bd
       -0.06594998 -0.03361151 -0.05418115 -0.06741543
000130 55 c9 10 bc b7 7a 7c bc ea ea 4f ba 22 44 46 3d
       -0.008837064 -0.015410117 -0.0007931428 0.04840482
000140 ff 22 45 3d 14 9d 96 bc 10 10 fe bb 75 54 b0 3c
       0.048129078 -0.018385448 -0.0077533796 0.021524647
000150 3f 5c bd 3c 22 72 da 3c f3 9e 7d 3d 72 a8 54 bb
       0.023115275 0.02666575 0.061919164 -0.0032449034
000160 3b 0f 3b bc 3c 6c 62 3d 7b 69 b2 3c a1 cc f5 bc
       -0.011417205 0.055279 0.021778813 -0.030004801
000170 80 1a 6b bc c0 4d 4b 3d 6d 50 d3 3c ed 1c 34 3d
       -0.01434958 0.049634695 0.025795186 0.0439729
000180 f7 dd af 3c e1 c0 05 3d a3 e6 34 bd f2 f1 4a 3c
       0.021468146 0.032654647 -0.044165265 0.012386786
000190 7d 44 86 bc 8d e2 4f bd f5 d1 c5 bb 7c 5c 9f bb
       -0.01639008 -0.050753165 -0.0060369917 -0.00486332
0001a0 45 0c 8f 3b 0e db a6 b9 90 53 3b 3d 6f d6 b9 3b
       0.0043654763 -0.00031825196 0.04573399 0.0056713144
0001b0 a0 30 12 3d 10 a8 3d bd 65 61 ac 3c 35 7c c0 3c
       0.035690904 -0.046302855 0.021042535 0.023496727
0001c0 2c 8a 6a bb e9 ef 23 bd 08 db 8c 3d ed c4 df bb
       -0.0035787923 -0.040023718 0.068777144 -0.0068288953
0001d0 68 e9 da ba 57 6f 0c bd 10 42 62 bd 5f b2 24 3d
       -0.001670164 -0.03428587 -0.055238783 0.04020917
0001e0 2b ae cb 3b 05 6d 4a bd 6b bb f2 39 8e dc 98 bc
       0.006215831 -0.049420375 0.00046297474 -0.018659856
0001f0 b0 e8 98 bc 36 27 12 3b 10 73 4d bd c6 e6 ef 3c
       -0.018665642 0.0022301204 -0.05015856 0.029284846
000200 6e 84 f1 3c c5 bd 4b 3d 0b c1 35 3b 1e 44 7e 3c
       0.029482093 0.049741525 0.002773347 0.01551917
000210 c5 f9 8d 3a 2d 48 11 bd c0 69 6d 3d 62 5f 26 3d
       0.0010831883 -0.035469223 0.05796218 0.040618308
000220 c8 30 be bc c5 4f f7 3c 3d fd 51 bd 5f 0d 40 bd
       -0.02321662 0.030189404 -0.051266897 -0.04688775
000230 5b b1 c9 bc 92 1f 21 bd 4a 40 1f bd 97 16 26 bd
       -0.024620702 -0.03933675 -0.03887967 -0.040548887
000240 87 5c 0c 3d e3 d9 1c 3d a2 5b 2f bd f2 8a 45 3d
       0.03426793 0.03829373 -0.042811997 0.04822821
000250 a7 01 c5 3c 61 12 0b 3d 2e 81 0e 3d 76 e6 4a 3c
       0.02404864 0.033953074 0.034791164 0.012384048
000260 21 67 d1 3c 3f 41 39 bd 67 50 65 bd ea 02 48 bd
       0.025561871 -0.04522824 -0.05598488 -0.048830904
000270 81 6e 53 3d 6d a1 fc bc ab 7d 35 3c 7c 3c ae 3c
       0.051619057 -0.030838693 0.011077325 0.021269076
000280 58 3c f5 bc d2 c8 07 bd 70 88 56 3d 61 53 38 3c
       -0.029936 -0.0331505 0.05237621 0.011250348
000290 01 52 50 bd 91 c2 b4 3c 8a 1e 6c ba cf 8c 3f bc
       -0.050859455 0.022065433 -0.0009007236 -0.011691286
0002a0 ec e0 e4 3c 34 91 fb bc 6d f0 3a 3c ff 50 88 bd
       0.027939282 -0.030708887 0.011409861 -0.06656074
0002b0 b3 d8 48 3c 1d b4 1a 3d f5 b8 f5 bc 64 c3 ea bc
       0.012258696 0.037769426 -0.029995421 -0.028657623
0002c0 63 7a 2e 3b 7c 04 4b 3b 25 40 a7 bc 62 70 10 3d
       0.002662324 0.0030978015 -0.020416329 0.035263427
0002d0 c3 07 15 bd 75 83 48 bd 53 b3 79 3c d2 00 a4 3b
       -0.036384355 -0.048953492 0.015240508 0.0050049806
0002e0 dd 0b 0b 3c 59 00 37 bd 52 87 22 bd fc 09 51 bd
       0.008486715 -0.044678066 -0.039679833 -0.051034912
0002f0 bc 8b e7 bc 30 90 30 bb 63 50 d6 bc 2b b5 ff bc
       -0.028264873 -0.0026941411 -0.026161378 -0.031214317
000300 bf 9e 0b bd e6 c0 51 3d 17 51 af bb 5b e9 21 b9
       -0.03408694 0.051209353 -0.005350243 -0.00015441088
000310 03 85 05 3d 2b ef be bc 5d 46 18 3d f6 0d 11 bd
       0.032597553 -0.023307404 0.03717648 -0.035413705
000320 7a 34 dc bb bd f7 18 bc f3 4e 60 bd 71 5b 37 bd
       -0.006720123 -0.009336409 -0.05476279 -0.04476494
000330 39 6a 70 bc 45 8e 01 3d d3 0f 23 3d d8 6d 5d 3c
       -0.014673763 0.03162982 0.039810013 0.013514958
000340 68 ca 2a bd 04 79 36 bd 21 79 13 bd e3 fa 8d bb
       -0.041696936 -0.044549003 -0.03600419 -0.0043328865
000350 ae 10 04 bc de 9b ed 3c 0f b5 03 3d 38 a4 9b bc
       -0.008060617 0.029004987 0.032155093 -0.018999204
000360 88 f0 3d bd 6c 16 9b 3c 4c 56 09 3d 99 00 16 bd
       -0.046371967 0.01893159 0.033529565 -0.036621664
000370 9c f0 2c 3c 52 25 df bc 8c b6 11 bd 26 49 ab 3b
       0.010555413 -0.027239475 -0.03557448 0.005227226
000380 73 8c 12 3d 6e f8 59 3d 22 1e 00 bd 10 8d 39 3c
       0.035778474 0.053215437 -0.031278737 0.011325136
000390 b2 07 27 bd 19 12 b6 bc 84 f7 5e bd 31 3b b6 3c
       -0.040778823 -0.022225427 -0.054435268 0.022245022
0003a0 39 ac 81 3c 2e d1 4b bd 73 a2 1f 3c 2f f5 ae 3c
       0.015829192 -0.049760036 0.009743321 0.021357147
0003b0 4b 2a 55 3d 3d b9 2a 3d 14 02 c9 3b 1a c5 54 3d
       0.052042287 0.041680563 0.006134281 0.051945783
0003c0 92 b0 d8 bc 58 23 d0 3c 60 9d 1e bd 86 05 05 bd
       -0.026451383 0.025407478 -0.038724303 -0.03247597
0003d0 77 89 51 bd ce a8 08 bd fa df 85 3c 0d 92 5a 3b
       -0.051156487 -0.03336411 0.016342152 0.0033351213
0003e0 e4 7f 07 bb 53 48 f9 bc cf 9b 0b 3b 19 38 87 bc
       -0.0020675594 -0.030429995 0.0021302586 -0.016506242
0003f0 77 f6 79 bd bb ed ce bc 33 30 5f 3d 03 71 f8 3c
       -0.061026063 -0.025259843 0.054489326 0.030327326

audio_layers.0.bias f4 [32]
000000 b7 b2 00 3b d9 e5 29 bd b8 95 fd 3c d2 fa 5f bd
       0.0019637772 -0.041478965 0.03095518 -0.05468256
000010 8a 1e 48 bd df ab 0e 3b c7 24 2a 3d 8c 39 d3 3c
       -0.04885725 0.0021769924 0.04153898 0.025784276
000020 f8 49 6d bc a9 43 94 3b a5 f3 8d 3d 34 54 29 3d
       -0.014482968 0.0045246673 0.06931237 0.041340068
000030 47 1e 53 3d f0 e1 aa bc c7 84 41 3d fc 8d 59 3d
       0.051542547 -0.020859689 0.047245767 0.053113922
000040 09 38 80 bd 35 32 49 3d b2 b2 3f bd 04 44 22 bc
       -0.06260688 0.049120147 -0.046801277 -0.0099039115
000050 2e 4e 52 3d e4 c9 b2 3c e4 01 47 bd da 79 f6 3b
       0.05134409 0.021824785 -0.048585787 0.00752185
000060 e0 3e 2e 3b a0 fe a4 3b ed 02 00 bd 00 a0 64 bb
       0.002658777 0.0050352365 -0.03125279 -0.0034885406
000070 d3 54 40 bd 26 d5 19 bd 9c 10 7b 3d c2 32 0f 3d
       -0.046955895 -0.03755679 0.061295137 0.034960516

acce_gyro_layers.0.weight f4 [32, 6, 8]
000000 7c 24 20 3d 45 05 2a 3d 69 42 f1 3d 26 c0 d6 bd
       0.039097294 0.04150893 0.11780245 -0.10485868
000010 aa d8 d4 bd 47 98 60 3d 98 da dc bd 84 fb ac 3d
       -0.10392888 0.054832723 -0.10783881 0.0844641
000020 b0 13 de bd e0 c0 2d 3d 45 0e 4b 3b e4 45 f3 3b
       -0.10843599 0.042420268 0.0030983847 0.007424103
000030 d0 77 0f 3d ad ea 26 3d 62 98 10 bd 43 18 0b 3d
       0.03502637 0.040751148 -0.035301574 0.033958685
000040 6f 10 45 3d f0 15 48 3c 1b dc cb bd d6 88 ff bd
       0.048111375 0.012212262 -0.09954091 -0.12477271
000050 0e 45 e7 3c d7 fe 96 bd 25 08 d8 3d 05 b3 ce 3d
       0.02823117 -0.073728256 0.105484284 0.10092739
000060 75 ce d5 3e 8f 7c 7b 3e 7b 00 ad 3e a9 41 01 3e
       0.41759077 0.24559234 0.3378943 0.12622704
000070 f1 2c ce 3e 05 46 28 3e 31 76 ab 3e b9 1e 58 3e
       0.40268663 0.1643296 0.3348861 0.2110547
000080 7f 6c 9d 3d a8 c5 0a 3d 2f 24 96 3d 7b bf 29 3c
       0.076867096 0.033879906 0.0733112 0.010360594
000090 9f c7 eb bd eb 83 d4 bd 46 18 b4 bd 69 78 9b bd
       -0.11512684 -0.10376724 -0.08793692 -0.07591326
0000a0 49 7c 70 be 75 c6 d0 3b 2f d2 36 be f3 ce 0b be
       -0.23484911 0.006371314 -0.17853616 -0.13653164
0000b0 ed 18 40 3d 8e 80 21 be 45 17 c7 3c 01 78 f4 bd
       0.04689877 -0.15771696 0.024303088 -0.119369514
0000c0 73 45 06 be 30 8c 09 bd 97 4c 0d bd 48 b0 fa bd
       -0.1311243 -0.03358096 -0.03449687 -0.12240654
0000d0 ba b4 63 3b 0d 06 fc 3c 27 f7 17 3e c7 2e b8 3d
       0.0034745173 0.030764604 0.14840375 0.08993297
0000e0 32 8a c0 bd 49 00 08 3c 83 a5 06 be b6 a0 d9 bd
       -0.09401359 0.008300849 -0.13149075 -0.10626356
0000f0 47 5a 89 3d 7d db 4f bd 0b 7b a0 3d 13 b2 57 3e
       0.06706672 -0.05074643 0.078359686 0.21064024
000100 1c 84 77 3e c6 ce 90 bc 4f 9c 38 bd 51 ee 8f bd
       0.2417149 -0.017676722 -0.045070942 -0.07027877
000110 dc 5b b4 3d 2f 5b 07 be a8 d6 78 bd c6 64 c3 3d
       0.08806583 -0.13218378 -0.060751587 0.095407054
000120 67 54 59 be 46 a4 b6 be 01 4d 96 be 36 46 d6 be
       -0.21223603 -0.35672206 -0.29355624 -0.41850442
000130 cf 85 be be d4 23 8a be c7 da e7 be 3d bb eb be
       -0.37211463 -0.2698046 -0.452841 -0.4604129
000140 40 d6 09 bd 1d 54 c0 3d ad 60 13 be ee 64 85 3d
       -0.03365159 0.09391043 -0.14392348 0.065133914
000150 a6 21 b0 bc c4 2e 6d 3a 69 50 aa bd 04 80 13 be
       -0.02150042 0.0009047801 -0.08316118 -0.14404303
000160 53 0c 08 be 51 76 0c be 30 4e e1 3c 04 3f a9 3d
       -0.13285951 -0.13717009 0.027503103 0.082639724
000170 22 27 a6 3d d5 d0 57 bd 34 6f 5b 3d 2d 36 02 be
       0.08112933 -0.052689392 0.05357285 -0.12715979
000180 d4 a1 06 3c 3b be ec 3d 4f 26 be bd 74 e0 d2 bd
       0.008217294 0.11559721 -0.092846505 -0.10296717
000190 d9 43 bb 3d 7f d0 e4 3c 73 40 ab 3d ad 82 2b bd
       0.091438 0.02793145 0.08361902 -0.04187267
0001a0 04 ca 7f bd 41 70 29 be 9d c3 45 bd 89 d2 5c 3d
       -0.062448516 -0.16546728 -0.048282254 0.05391172
0001b0 c1 d9 01 bd 4d b7 ed 3d d1 73 5b 3d 16 0f 80 bc
       -0.031701807 0.116072275 0.053577248 -0.015632194
0001c0 53 07 0c bc 87 8a 28 3d 8a e3 49 3d 17 29 b7 bd
       -0.008546668 0.041147735 0.049289264 -0.08943384
0001d0 f2 58 92 3d f9 f3 93 3c fa 91 31 3e 70 65 1e bd
       0.07145871 0.018060671 0.17340842 -0.038670957
0001e0 72 7f cc 3e 50 08 55 3e cf 0b 4b 3e ab d9 a9 3e
       0.39940983 0.20803952 0.19828723 0.3317388
0001f0 af 22 98 3e 57 72 92 3e 8b 1a 99 3e 15 df b8 3e
       0.2971396 0.2860286 0.29903063 0.36107698
000200 57 bd ab bd 85 64 a4 bd e9 00 f6 bd ce eb 01 bd
       -0.08385723 -0.08026985 -0.12011892 -0.03171902
000210 10 79 e2 bc 6b 23 8e bd 75 ae e1 bd 7e a3 bb bd
       -0.027645618 -0.06940349 -0.11019603 -0.09162043
000220 f0 55 bd 3d 2d 35 b2 3e a4 8b 9f 3e 59 dc 42 3e
       0.09244907 0.34806195 0.31161225 0.19029368
000230 ac 37 3e 3e 50 ac 99 3e 27 ec 62 3e e7 2d e2 3d
       0.18575925 0.30014277 0.22160397 0.110439114
000240 dc 8b 50 bd 38 40 3f bd 97 7d 03 3e 6c a1 b6 bc
       -0.05091463 -0.046692103 0.12840877 -0.022293769
000250 f8 86 22 bb 31 20 2c 3c 97 35 a1 3d 08 0c 68 bd
       -0.0024799686 0.010505722 0.078715496 -0.0566521
000260 ae dc f9 3c 93 59 a2 3d eb eb 63 3c 13 55 14 be
       0.030500736 0.07927241 0.013911228 -0.14485578
000270 29 44 79 3d d4 71 f9 bd 9a 6c 1e be 78 74 42 be
       0.06085602 -0.12179914 -0.15471116 -0.18989742
000280 30 54 e8 bc e5 dd ae bd af 29 0e bd eb bb 1c bb
       -0.028360456 -0.08538417 -0.03470772 -0.0023915719
000290 74 87 8f bb 40 d3 ed bc 1a 90 65 bd e3 96 01 3e
       -0.004380161 -0.029031396 -0.05604563 0.12655215
0002a0 56 49 bf 3d 87 5a 3d 3e e9 23 cf 3d cd b6 be 3d
       0.093401596 0.18491565 0.10114271 0.0931221
0002b0 25 c1 fb 3d 36 32 c8 3d 8b 96 92 3d 9c 4c 18 3e
       0.12292699 0.09775202 0.0715762 0.14872974
0002c0 01 6e 31 3d 70 d8 cc bc a3 10 81 bd e0 05 f6 bd
       0.0433178 -0.02500555 -0.06302001 -0.12012839
0002d0 0e 38 a1 bd 65 9b 23 3d 41 59 b5 3d 2a af 16 be
       -0.0787202 0.039943118 0.088549145 -0.14715257
0002e0 8e 84 e5 bd 44 d3 92 bd a4 05 dd bd 49 e7 e7 bd
       -0.112069234 -0.07169202 -0.107920915 -0.11323411
0002f0 d8 a8 08 bd e1 7c 5d be 63 73 d9 bd fa 02 61 be
       -0.033364147 -0.21629669 -0.106177114 -0.21973792
000300 32 e1 17 3c 3f fc de bc cf e7 03 be 3a c6 d5 bd
       0.009269999 -0.02721989 -0.12881397 -0.10438199
000310 15 70 45 bc 15 50 a2 3d 2b f0 c1 3d 5b 49 fe 3c
       -0.012050648 0.07925431 0.094696365 0.031040838
000320 a7 34 4a 3d 6a 83 0f 3d 94 2f 25 3e f1 3c c9 bd
       0.04936662 0.035037436 0.16131431 -0.09826077
000330 5c 83 c3 bd 2f 18 b7 3d 8a 67 e8 3d 76 9f e0 3d
       -0.09546539 0.089401595 0.113478735 0.10967915
000340 eb 8f f3 3d a2 8e c2 bd 44 eb 49 3c af bb f9 3c
       0.118926845 -0.09499861 0.012324158 0.030485002
000350 0a d0 08 be a5 da 90 3d 4a ff 77 3c 94 8d 09 be
       -0.1336061 0.07072953 0.015136549 -0.13432914
000360 8a 93 28 3e 07 be 43 3e 78 e0 5c 3e f8 d5 71 3e
       0.16462532 0.19115458 0.21570003 0.23616779
000370 41 5a 0f 3e 06 9e 55 3e 3a 2c 86 3e 41 ca b9 3d
       0.13999273 0.20861062 0.26205617 0.0907178
000380 60 58 c8 3d bc f9 cd bd 00 87 b5 3d df d4 fe 3d
       0.09782481 -0.10057399 0.0886364 0.12442946
000390 72 6a e7 bc 35 8f f4 3d 32 b4 6c bd fa 1a 0d 3e
       -0.028249 0.11941377 -0.057789035 0.13779822
0003a0 8f 35 03 be 08 da 48 bd d2 ab 51 bc e1 dd 15 be
       -0.128134 -0.049036056 -0.012797313 -0.14635421
0003b0 e1 ed 7c be 44 8c ab 3b cd 60 6d bd e9 2b 35 bc
       -0.24700119 0.005235227 -0.057953645 -0.011057832
0003c0 ec 9f a5 3d 18 27 68 3d 92 06 2a bd 82 43 b9 bd
       0.08087143 0.056677908 -0.041510172 -0.09046079
0003d0 51 4f a3 bc a5 82 8d 3d 04 11 d6 3d 29 29 ed bd
       -0.019935282 0.06909684 0.10452464 -0.11580116
0003e0 75 3f 75 3d 6b 10 39 3e b5 d6 bf 3d 1b 08 55 3e
       0.05987497 0.18072669 0.09367124 0.20803873
0003f0 1f 05 43 3e b1 66 31 3d 8d e1 10 3e 68 7a f1 bd
       0.19044922 0.043310825 0.14148541 -0.11790925

acce_gyro_layers.0.bias f4 [32]
000000 a0 ff db bd 8a c0 e7 bc 6f 01 37 3d 9e de 2c 3d
       -0.10742116 -0.028290052 0.0446791 0.04220449
000010 16 30 9a 3d 61 a7 3b bd fb 50 f7 3c 7e c3 87 3c
       0.07528703 -0.04581392 0.030189982 0.01657271
000020 5e 09 b6 3d 90 21 08 be 66 85 c3 bd ad 61 3a 3d
       0.088885054 -0.13294053 -0.09546928 0.045503307
000030 81 1f 86 bb eb 0e 66 bd 76 96 f8 3c 1f 1a 20 3e
       -0.004093111 -0.05616657 0.030345183 0.15634964
000040 45 95 6e bd b4 91 c0 3b 5d 27 06 be 49 b5 b1 bd
       -0.058247823 0.005876744 -0.13100953 -0.086771555
000050 93 c0 80 3d bb 91 5c bd 50 a9 c4 bd fd f1 bb bd
       0.062867306 -0.053849917 -0.09602606 -0.09177015
000060 10 09 bd 3d 4e e7 10 bd 19 64 32 3c 81 0c a8 bd
       0.09230244 -0.03537684 0.010888123 -0.0820551
000070 f7 b2 84 bd 52 50 98 3d 0a 3a 32 bc a1 ca 84 bc
       -0.06479447 0.07437195 -0.010878095 -0.016209902

lstm.weight_ih_l0 f4 [512, 64]
000000 11 b6 60 bd 79 06 88 bc 03 8a 85 bc c8 3c ac bd
       -0.054861132 -0.016604649 -0.01630116 -0.084100306
000010 d2 85 a4 3d 6b c1 5b 3c bb a8 80 3d 25 74 ac 3a
       0.08033337 0.013412814 0.06282183 0.0013157172
000020 ee b5 9b bc c7 31 9a 3d bc 3d a2 bd bc 51 84 3d
       -0.01900765 0.075290255 -0.07921931 0.06460902
000030 92 4d 24 3d 32 b8 97 bc de 98 80 3c fe 05 5e bd
       0.04011304 -0.018520448 0.015697893 -0.054204933
000040 bc f8 f0 3d dd 5f bb bd 6c 80 f8 3c 13 32 3a 3d
       0.11766192 -0.09149144 0.030334674 0.04545791
000050 0a 40 d4 3d 26 5e 6f 3d db 68 db 3d 21 db 5d 3b
       0.10363777 0.058439396 0.10713359 0.0033852535
000060 cf ee c0 3d 14 3b 70 bd 70 cb 5d 3d 10 59 04 bd
       0.09420549 -0.05865009 0.05414909 -0.0323115
000070 d6 2b 9f 3d fe a7 26 bd 85 54 0e 3c 85 55 be 3c
       0.07772033 -0.040687554 0.008687143 0.023234138
000080 14 41 8e bc 3e d8 80 3d 00 2c d8 ba c0 8c 99 3a
       -0.017365016 0.06291245 -0.0016492605 0.001171492
000090 1f 07 33 bd e9 fb 9b 3d 7a 10 29 3d a7 60 ab 3d
       -0.043707963 0.076164074 0.04127548 0.08368044
0000a0 46 57 c0 3c 9f c2 bf 3b e6 ee 58 bc d2 7a 8a bb
       0.023479115 0.005852058 -0.013240552 -0.004226067
0000b0 b1 16 3d bd e5 cf aa bd 77 23 6d bd 9b 38 5c bd
       -0.04616422 -0.08340434 -0.05789515 -0.05376492
0000c0 2c bb 73 3d 97 bb 47 3c c4 1d 0d bd ae e8 21 3e
       0.059504673 0.012190721 -0.034452215 0.15811417
0000d0 68 8a 67 3d 64 df df 3c ed 26 70 bd 8e bb eb 3d
       0.05652848 0.0273282 -0.058630873 0.115103826
0000e0 c8 8d a6 bd 18 cf 07 3d eb 8c 1f bd 51 c3 b4 bd
       -0.081325114 0.033156484 -0.03895275 -0.08826316
0000f0 d4 a3 a0 bd de bd 7a 3d 33 c3 aa 3d 1c 52 a9 3d
       -0.07843748 0.061216228 0.083380125 0.08267614
000100 7b 7c 87 3d 88 52 10 bd b5 58 f8 3c 38 5d 19 bd
       0.0661554 -0.035234958 0.030315736 -0.037442416
000110 ea 0b 62 bd 1a e9 07 bd e0 dc 93 3c d3 1e aa bc
       -0.055187143 -0.033181287 0.018049657 -0.020766651
000120 3b 87 3c 3d e1 cf 9f 3d 18 e9 04 3d 1e 48 26 bd
       0.046027403 0.07803322 0.032448858 -0.04059612
000130 ed ee 8f 3d 9e 2d 41 3d ea be 5a 3d 3e 5f 30 3d
       0.07027993 0.047162645 0.053404726 0.04305958
000140 4f 61 b0 bd 2f 4a 92 bd b9 dd 86 3d be e2 39 3c
       -0.0861231 -0.07143056 0.06585259 0.011345563
000150 10 ac ae bc 66 06 f5 3c 65 98 19 bd 84 f5 4f bd
       -0.02132228 0.029910278 -0.03749885 -0.05077125
000160 7d 72 41 bd 77 b2 e9 3c 19 21 9a 3d d0 55 4f 3d
       -0.047228325 0.028527481 0.07525844 0.050618947
000170 55 f8 ea bc 9c 04 1c 3d b7 6c 6c bc 54 03 00 3d
       -0.028682867 0.038090333 -0.0144302165 0.031253174
000180 20 e8 24 3c 10 25 0f 3d 3b 2a a6 3d 34 39 a6 3c
       0.010065109 0.034947455 0.081135236 0.020290948
000190 1c 74 b5 3d 80 fe 2e 3d 50 7f 8c 3c e1 ed a2 3d
       0.08860037 0.04272318 0.017150551 0.07955528
0001a0 fc 64 55 bd d1 84 6a 3d eb 07 2b 3d dc e2 a4 bd
       -0.05209826 0.05725557 0.041755598 -0.080510825
0001b0 90 31 8b bd 49 3e 4e bd 53 22 69 3c 50 13 00 bc
       -0.06796563 -0.05035237 0.014229375 -0.007817104
0001c0 23 29 77 3d 02 8b 4e 3d d5 18 04 3b c9 bb 66 bd
       0.060341965 0.050425537 0.0020156403 -0.05633143
0001d0 24 28 db 3c 1e 74 aa bc 48 5a 74 3c 05 a1 12 bc
       0.026752539 -0.020807322 0.014914103 -0.008949523
0001e0 d7 ca b0 3d 12 ef 98 bd c0 44 9e 3b ea 54 7c 3d
       0.08632439 -0.07467474 0.004829973 0.061604418
0001f0 50 f9 62 bc f1 58 26 bd 3b ef a8 3d 87 3d ad 3d
       -0.013853386 -0.040612165 0.082487546 0.08459001
000200 f3 97 6e 3d bd 90 ef bb d1 80 4f 3d 34 20 5c bd
       0.05825038 -0.0073109553 0.05065996 -0.05374165
000210 08 9d 92 bd b5 57 e1 3b 75 14 dd 3c 50 02 98 3d
       -0.071588576 0.0068769106 0.026987294 0.07422316
000220 f4 da 15 3d 0d f2 f9 3c e1 2a 99 3d dc a8 13 bd
       0.036585763 0.030510927 0.074788816 -0.03604971
000230 59 8a 6b bd 86 46 53 bd 46 6e ab 3d fb 2c d7 3c
       -0.057504985 -0.05158093 0.08370642 0.026266566
000240 d5 0e b7 3d d0 45 88 3d d4 60 85 3c 3c c9 a7 3c
       0.08938376 0.06653941 0.016281523 0.020481698
000250 c3 5b a2 bd 23 6c f7 bc 5d b4 c5 bc 60 0f ae 3d
       -0.079276584 -0.03020293 -0.024133855 0.08499026
000260 e9 ee 7d bd fb 08 8a bd a9 fe 19 3d ef 50 85 bd
       -0.06199542 -0.06739994 0.03759638 -0.065095775
000270 c5 a1 5c 3c c0 3e 94 bd b9 7d 80 bd 41 c9 1e bd
       0.013466303 -0.07238531 -0.0627398 -0.03876615
000280 17 f7 81 3d 7c 0c 34 3d b0 b1 e6 3c 9e f7 a9 bd
       0.06345957 0.04395722 0.0281609 -0.08299182
000290 aa c3 84 3c 7a df c5 bb 3b 9b eb 3c 98 03 a6 3c
       0.016206581 -0.0060386034 0.028760543 0.020265386
0002a0 1d 10 e9 3c 3e f6 a6 bb 01 bc 77 3d bf d5 80 bd
       0.028450066 -0.0050952723 0.06048203 -0.06290769
0002b0 30 f1 75 bd 9b 2d 08 bd 7e 03 ad bc 21 6f 50 bd
       -0.060044467 -0.033246618 -0.02111983 -0.05088723
0002c0 5b 48 87 3d 20 9e 38 bc bf 58 23 3d 0d 59 2b bb
       0.066055976 -0.011268169 0.039879557 -0.0026145608
0002d0 48 31 ca bc d2 f9 60 3d a3 08 74 bc 99 aa 4a bd
       -0.024681702 0.054925747 -0.014894637 -0.0494791
0002e0 be 0d 3f 3d a6 f1 21 3d 2a e1 d4 bc 2e 65 93 bd
       0.046643965 0.039537095 -0.025986273 -0.07197033
0002f0 9c e0 d8 3c 2a 60 1e bd a4 36 a1 bc d4 52 23 3d
       0.02647429 -0.038665928 -0.019679375 0.039873913
000300 90 c1 e4 bc ae 25 2f 3d 40 bd bf 3d 14 e7 da bd
       -0.027924329 0.042760544 0.093622684 -0.10688606
000310 18 01 bb bc 2f d2 2d 3c 61 f0 19 3d 77 ae de 3b
       -0.02282767 0.010609194 0.03758276 0.0067957
000320 5b a3 50 3d 5d da 4d bd 11 48 ff bc d8 87 62 bd
       0.050937038 -0.050257076 -0.031162294 -0.055305332
000330 ef 11 e1 3c 8e 9a 69 3c 38 54 be 3c ba db 3d 3d
       0.027474372 0.01425804 0.023233518 0.046352126
000340 0b 47 58 3d 33 70 a9 bc d9 b9 79 bc 57 0c e8 bc
       0.052802127 -0.020683384 -0.015242063 -0.028326197
000350 ce a2 d9 3d f3 37 3a bd 77 27 55 bc ce 2e b9 3d
       0.10626756 -0.045463514 -0.013009897 0.090421304
000360 df 14 fa bc f3 7b 99 3d 29 0d 1a ba b4 29 eb 3d
       -0.03052753 0.074943446 -0.0005876595 0.114825636
000370 6c 78 de bc 40 91 9d 3a b5 83 6e bc be 4f 4e bd
       -0.027157031 0.0012021437 -0.014557769 -0.050369017
000380 1b cd 8c bd a1 b0 ae bd c8 b3 8b bd b6 87 9b bd
       -0.06875058 -0.08529783 -0.068214 -0.07594244
000390 b3 2f 56 3d ea 49 9e 3d 38 c8 5a bc a8 c3 33 bc
       0.052291583 0.07728942 -0.0133534 -0.010971941
0003a0 ff 29 a8 3d 47 e1 f8 3c ec 21 9f 3d 6d ea a3 3d
       0.08211135 0.030380858 0.07770142 0.080036975
0003b0 63 a9 e2 3b 64 a5 98 3d e8 4a 92 3c 81 67 af 3d
       0.006917165 0.07453421 0.017857984 0.08564664
0003c0 a7 96 4a 3d 90 97 0a bd e7 5f 8b bd 78 ae 05 bd
       0.04946008 -0.033835948 -0.06805401 -0.03263709
0003d0 86 09 ff bb 3f fa 05 be 7c cb 59 3d 5f 5c cf bd
       -0.0077831177 -0.13083743 0.053172573 -0.1012504
0003e0 f4 22 95 bc 7d 8c 9b 3d ef f1 8e 3d 3a aa 6b 3d
       -0.018205144 0.075951554 0.06979739 0.057535388
0003f0 4a 2a 2c 3d f6 aa 0d 3d 78 54 ad bd a3 d4 8c bd
       0.042032517 0.03458687 -0.08463377 -0.06876495

lstm.weight_hh_l0 f4 [512, 128]
000000 fb 0a 87 3d 83 09 b3 3d 79 13 29 3d 6a 6c f6 bb
       0.06593891 0.087420486 0.041278336 -0.007520248
000010 2f a7 3b bd a1 2b cf bb 7f 13 bb 3c d2 ca 77 bd
       -0.045813736 -0.0063223396 0.022836445 -0.06049616
000020 82 d0 03 bd ae 49 72 bd 4a 1c ec 3d 7d 8a d0 3b
       -0.03218127 -0.059152298 0.11528833 0.0063641653
000030 f7 48 a9 bd 58 04 c5 bc d0 a0 39 bd e0 5c f3 bc
       -0.0826587 -0.024049923 -0.04531938 -0.029707372
000040 1b d0 8b 3d 97 e0 1d 3d 81 ff e5 3d 59 08 35 3c
       0.06826802 0.038544264 0.11230374 0.0110493535
000050 cc 62 a3 bc b4 de a6 bc 60 2f 5b 3d d3 4f 76 bd
       -0.019944571 -0.020369865 0.053511977 -0.06013472
000060 fc 03 18 bd 63 06 40 3c 48 ec 4e 3d 17 90 0e 3d
       -0.037113175 0.011720273 0.050518304 0.034805384
000070 44 88 1c bc bd 56 13 3d 73 d2 be 3d 87 98 c9 bd
       -0.009553973 0.035971392 0.09317484 -0.098435454
000080 36 d8 98 3d a3 5d 92 bc 40 27 a7 bd 51 99 38 bd
       0.07463114 -0.017866915 -0.08161783 -0.04506809
000090 5a a4 27 bd 18 ea ce bb 70 a2 2a bd 57 a4 3f 3b
       -0.040928222 -0.0063145272 -0.04165882 0.0029242241
0000a0 bd eb dd bc 62 3e 02 be a5 43 81 3d a6 2f ef bd
       -0.027089948 -0.1271911 0.0631173 -0.1167901
0000b0 84 94 02 3e d6 04 19 3d f2 27 83 bd 74 33 d4 bb
       0.12751967 0.037358128 -0.06404103 -0.0064758603
0000c0 e3 09 8c 3d db 48 b6 3c 0a a4 b3 bc 5f db 2d bd
       0.06837823 0.022251537 -0.021928806 -0.042445537
0000d0 34 48 5c 3d 7a 52 d5 3d 35 53 b3 3d 4c ca 00 3d
       0.053779796 0.10416122 0.08756105 0.031442925
0000e0 e0 ac 71 3d 1a f8 06 bd e6 e2 65 3c 85 70 07 3e
       0.059002757 -0.03295145 0.014031148 0.13226517
0000f0 c1 af 9a 3d 73 f3 08 bd 07 47 0c bd 8e 77 ab bc
       0.07553054 -0.033435296 -0.034247424 -0.020931032
000100 e9 e6 0e 3c 5c 2b 3b bd 00 72 6e 3d 35 49 5f bd
       0.008722045 -0.045695648 0.058214188 -0.054513175
000110 86 e2 64 3d 76 61 ad 3d a6 57 24 3d ff 60 41 3b
       0.055880092 0.08465855 0.04012265 0.0029507277
000120 fc 23 29 bd 2f 57 e2 3d 69 f7 a7 bd 15 f3 97 3c
       -0.041294083 0.11051785 -0.082014866 0.018548528
000130 9e b6 c9 bb 45 f6 8f bd 6c dc bb bc bc 30 13 3e
       -0.006155803 -0.07029394 -0.022932254 0.1437406
000140 74 1f 8d 3d ea 7d 54 bd 13 6b 5a 3d 15 cb 57 bd
       0.06890765 -0.051877894 0.05332477 -0.05268391
000150 a0 2b db bc 91 d0 94 bc b9 e6 bb bc fd 4f f9 bb
       -0.0267542 -0.018165858 -0.022937166 -0.0076084123
000160 fc 7b 43 bd 0f 23 22 bd 96 b1 a5 3d 03 6e fd 3c
       -0.047725663 -0.039584216 0.080905125 0.030936247
000170 cf f2 c7 3d 15 67 1e 3d ff 66 93 3d 5b 12 9d 3d
       0.09763109 0.038672525 0.07197379 0.07669517
000180 53 16 1a 3e 84 e7 23 bd 2e 5f 73 bd 0b fb 0b bd
       0.15047579 -0.040015712 -0.059416942 -0.03417496
000190 72 8d 8b 3d a7 2a a1 3c b4 c2 b6 3d d3 4f 40 3d
       0.06814088 0.019673659 0.089238554 0.046951126
0001a0 fd 34 52 3b c1 38 09 bd 8f 2b 15 bc 5e eb 5e 3d
       0.003207504 -0.03350139 -0.009104623 0.054423682
0001b0 f5 46 10 3c f9 04 ac 3d 1c af be 3d b4 81 dc 3d
       0.00880598 0.08399386 0.09310743 0.107669264
0001c0 08 9f 15 3d ba b6 65 3d 9f 66 76 3d fb db b0 bc
       0.036528617 0.056082465 0.06015646 -0.02158927
0001d0 31 ab 7c 3b ee 11 38 3c 82 a8 9d bd e1 17 a5 bd
       0.0038554186 0.0112347435 -0.07698156 -0.08061195
0001e0 c6 9e 71 bd 72 c6 8f bd c7 c8 d0 bc 19 71 81 bb
       -0.05898931 -0.07020272 -0.025486363 -0.00395025
0001f0 e5 34 7c 3d 7e 82 31 3d d8 0c b2 3d a4 6b 3b 3d
       0.06157388 0.043337338 0.08693856 0.04575695
000200 c7 fd bc bb 75 cc 27 bc cc 03 49 bc 76 f9 4a bc
       -0.0057675573 -0.010241617 -0.012268972 -0.012388578
000210 0f d6 a8 3d 23 7e 0e 3c 02 3c 32 bd 96 2b 9e 3d
       0.082439534 0.0086970655 -0.04351426 0.07723157
000220 ca ed d2 3c 8c dd 38 bd 7b 77 a3 bd dd 70 67 bd
       0.025748152 -0.04513316 -0.079817735 -0.05650412
000230 53 aa 9d bd 05 76 35 3d de 2a 1c 3d c1 a5 a8 3d
       -0.076985024 0.044302005 0.03812682 0.0823474
000240 b2 2e 24 bd 31 10 98 bd 59 0b 5c bc 49 01 09 3d
       -0.040083595 -0.07424963 -0.01343044 0.03344849
000250 a5 43 b0 bb cb 3d 07 3d 0e 5c b1 3d 99 cf 0d bc
       -0.0053791576 0.033017915 0.08660136 -0.008655452
000260 9f e0 83 3d 19 97 55 3c 12 9e c6 3c 85 cb 9f bd
       0.064393274 0.013036513 0.024245296 -0.0780249
000270 70 45 08 bd 0c 4e 9d bc 7d d8 9b 3c b9 88 31 3d
       -0.033269346 -0.019202255 0.019024128 0.04334328
000280 97 c8 a2 bd f4 a9 87 3c bd 2c 00 3c 47 3d 63 bd
       -0.07948416 0.016560532 0.007823166 -0.05547836
000290 1d 97 a9 3d fc e3 ed bb 36 bc 00 bd 17 38 ce 3c
       0.08280776 -0.007259844 -0.031429492 0.02517323
0002a0 28 dc 06 3d e7 de 11 3d 89 09 29 bd b4 96 96 3d
       0.0329248 0.035612967 -0.04126886 0.07352963
0002b0 23 2a 97 3d 5e bb 89 3c ee cb 94 3c 6b d6 98 bd
       0.07381084 0.016812976 0.018163648 -0.07462772
0002c0 67 7e 86 bd 54 e8 e5 bc 31 8e 82 bd e0 ff 18 bc
       -0.06567078 -0.028064884 -0.06374777 -0.009338349
0002d0 61 68 4d 3c 34 8f a7 bd 26 38 9f 3c b8 51 88 bc
       0.012537093 -0.08181611 0.019435953 -0.016640529
0002e0 3d 27 8d 3d cb d1 83 bd eb f2 0f bd 7c 43 80 bd
       0.0689225 -0.06436499 -0.035143774 -0.062628716
0002f0 f1 c5 9c 3b 12 8b 51 3d ea 28 6e bd 1f eb c7 3b
       0.0047843386 0.05115802 -0.058144487 0.0061010267
000300 c4 eb 82 3c e7 fc 85 3d 91 a7 60 3c b3 ce 4e bd
       0.015981562 0.06542378 0.013711826 -0.050490092
000310 e6 d0 10 3d e8 e8 af bd c6 ac b1 bd a3 ee 99 3d
       0.03535547 -0.08589345 -0.08675532 0.075162195
000320 d3 cb a8 3d b1 fd 48 3d d8 6e 9c bd 8d a9 b5 bc
       0.082420014 0.049070064 -0.07638329 -0.022175575
000330 f4 19 a2 bd a1 73 70 bd 16 dc a3 bd 16 b3 8c bd
       -0.079151064 -0.058704022 -0.080009624 -0.068700954
000340 68 ee 8f 3d 95 02 a3 bc 0a dc 34 bd 46 5c 4a bd
       0.07027894 -0.019898692 -0.044155158 -0.049404405
000350 a2 44 30 bd 58 a2 0d 3d c0 52 3d bc 01 6d 52 bd
       -0.043034203 0.03457865 -0.011555374 -0.051373485
000360 4a 19 f3 3c fe df 4a 3c 92 04 a3 bd bc 8b 71 bd
       0.029675145 0.012382505 -0.07959856 -0.05897115
000370 80 83 8d bc b9 a6 cc b9 57 99 9b 3d d9 c5 28 3a
       -0.017274618 -0.0003903413 0.07597607 0.0006438173
000380 df b7 25 bb dc 90 b1 bd 15 b2 78 3d 38 ba 1d bd
       -0.0025286598 -0.08670208 0.060716707 -0.03850767
000390 20 e8 8d 3d 59 16 9d bb 56 70 f8 3c 11 51 ae 3d
       0.0692904 -0.004793924 0.030327003 0.08511556
0003a0 77 d7 52 3d b9 64 69 bd f7 40 a3 3d 11 16 2f bd
       0.051475015 -0.056980822 0.079713754 -0.042745654
0003b0 2d e3 3e bd ae ed 48 3d 12 47 6d 3c c1 72 77 3d
       -0.04660337 0.049054794 0.0144822765 0.060412172
0003c0 27 c4 3c 3d 70 35 6e bd 5e c4 19 bd 63 fa fb bc
       0.046085503 -0.05815643 -0.037540786 -0.030759042
0003d0 e2 63 6e 3d f8 c1 a6 bd 39 18 89 bd b1 d6 9b 3d
       0.058200724 -0.08142465 -0.06694073 0.076093085
0003e0 4a df 8e 3d d7 a5 2a bd 89 43 88 3c 90 a8 49 3d
       0.06976183 -0.041662063 0.016633766 0.04923302
0003f0 4c 26 28 bd 67 9d 24 3d bd a6 b4 3d 16 5a 28 3c
       -0.041052148 0.040189173 0.08820865 0.010275384

lstm.bias_ih_l0 f4 [512]
000000 a4 fb 60 bd 05 6c 46 bd d3 53 f5 bc 4a ac b1 bd
       -0.054927483 -0.04844286 -0.029947197 -0.0867544
000010 fc a2 3e 3d 2c 77 74 bb 2f d3 b9 bc 01 70 ca 3c
       0.046542153 -0.0037302477 -0.022683708 0.02471161
000020 19 29 8c bd 9f f0 1c 3c fc ab 76 bb 39 5d b1 bc
       -0.06843776 0.009578853 -0.0037639132 -0.021650897
000030 e4 ff 6f bc 0e c6 26 bd c7 33 6f 3d d9 24 23 bc
       -0.014648411 -0.040716223 0.058398988 -0.009957516
000040 40 73 01 b9 26 e9 08 3d 07 83 95 3d 6e f9 c3 bd
       -0.00012345333 0.033425473 0.07300382 -0.09569059
000050 15 8e 7a bc 1a d8 73 3b 7d 27 89 bd c8 94 8a 3c
       -0.015292664 0.0037207664 -0.06696985 0.016916648
000060 0a 98 5a 3d 7a 0d 59 bc ce 0d 1a 3d 3d 48 82 3d
       0.053367652 -0.013247842 0.03761082 0.063614346
000070 5f c0 d4 3b 26 10 8c 3d 5a 73 36 bd 37 ad d6 3d
       0.006492659 0.068390176 -0.0445436 0.10482257
000080 bb 73 be 3d c9 7f 24 3c 04 2a e7 bc 48 fa 2b bc
       0.092994176 0.010040232 -0.028218277 -0.010496683
000090 13 b1 79 bc b4 3f b0 3d ee 5b de 3c a8 d0 1b bb
       -0.015239972 0.086059004 0.027143445 -0.0023775492
0000a0 e3 3f a2 bd 35 93 65 bd 93 20 08 bd da 60 80 3c
       -0.07922342 -0.05604859 -0.03323419 0.015671182
0000b0 28 38 c0 bd f0 2b 1a bd e1 ee 80 39 74 c1 9b 3d
       -0.09385711 -0.03763956 0.0002459204 0.07605258
0000c0 6e 8e 7f bc 65 9e e5 bc fa b4 7b bc ec 4f 0c bd
       -0.015597923 -0.02802963 -0.015362972 -0.034255907
0000d0 4f 65 b8 3d 91 59 b2 bd b2 bd 26 3d 59 fa 41 bc
       0.09003698 -0.0870849 0.04070825 -0.011839473
0000e0 a2 72 b2 bd 33 5d e1 3d 5c d8 97 3b ed 4b 34 bd
       -0.08713271 0.110041045 0.0046339463 -0.04401772
0000f0 14 24 27 3d e4 e0 43 3c 9b 60 86 3d 2d 90 2c bd
       0.04080589 0.011955474 0.06561395 -0.042129684
000100 0e 15 38 3c d3 a4 86 3d 18 69 74 3d 72 5a d5 3d
       0.011235489 0.065744065 0.059670538 0.10417642
000110 f6 27 4b 3d e9 f1 6b 3d f7 7c d8 bb 2e 9a 00 3d
       0.049598657 0.05760375 -0.006606694 0.031397037
000120 66 75 d7 3d cc d6 69 bc d8 29 91 bc cf 73 a2 3d
       0.10520439 -0.014272403 -0.017720148 0.07932245
000130 99 c6 b1 bb 2d 35 27 bd b3 28 4b 3d a9 35 2f bd
       -0.005425286 -0.040822197 0.04959936 -0.042775784
000140 3d dd 6b 3c 32 c7 61 3d a4 03 21 3d ae cf 6a 3c
       0.014396009 0.055121608 0.039310113 0.014331741
000150 2c 4b 01 3d 15 85 d4 3c ea 1f 8c 3d d3 a5 8f 3d
       0.03156583 0.025942365 0.068420246 0.0701405
000160 4e a3 ee 3c d7 9d 59 3d 0f 06 6f bd 6e 85 ac bd
       0.029130604 0.053129043 -0.058355387 -0.08423887
000170 8c 5d 56 bc c1 aa 7d bd f8 90 dc 3c b1 e7 a6 bd
       -0.013083827 -0.06193042 0.026924595 -0.081496604
000180 e6 54 7b 3d 9f 93 7e bd 0d d7 ef bc 24 78 48 bc
       0.061360262 -0.0621525 -0.029277349 -0.012235675
000190 87 1f b5 bd 6b e1 4b bd 99 cc 3c bd 06 67 5c 3c
       -0.08843904 -0.049775522 -0.046093557 0.013452297
0001a0 d3 db 18 bd aa 84 40 3d 81 ba 7d 3b 3e e7 9a bd
       -0.037319016 0.04700152 0.0038715901 -0.07563637
0001b0 e5 58 eb 3c 5d 77 d8 bc e3 94 0c 3d 58 c7 c7 bd
       0.028728912 -0.026424104 0.034321677 -0.09754819
0001c0 f7 8b 01 bc 75 e3 1d bd 7d ce b8 3d 7d 73 d2 3c
       -0.007906905 -0.038546998 0.090237595 0.025689835
0001d0 df ca 93 3d 8c 86 d5 bb 70 87 ac 3c dd a2 d9 3c
       0.07216429 -0.0065162834 0.021060675 0.026566917
0001e0 1c 96 a0 bc 83 87 9f bb 00 8a 08 bd 73 27 31 bd
       -0.019602828 -0.004868449 -0.033334732 -0.043250512
0001f0 07 9b bf bc f0 07 3e 3d 1c 16 d4 bb 7d c5 7a bd
       -0.023389352 0.04639429 -0.006472362 -0.061223496
000200 e2 56 79 bd a5 89 0b bc e9 ca 84 bd f6 60 05 bd
       -0.060873874 -0.008516704 -0.064840145 -0.032563172
000210 32 58 c3 bc aa 94 cf 3c a4 0c 69 bd f2 f2 84 3c
       -0.023845766 0.025339443 -0.05689682 0.016229127
000220 71 71 1d bd dd 8d 30 bd 65 82 b4 bb ae d8 ba 3d
       -0.038438264 -0.04310404 -0.0055087083 0.091233596
000230 1c d3 06 3d 07 dc 7c 3c 33 b0 48 3d 7e 57 e5 3d
       0.032916173 0.015433318 0.04899616 0.111983284
000240 81 da e6 3d 79 38 88 3d 65 00 23 3d 14 8c 15 3d
       0.11272145 0.06651396 0.039795298 0.036510542
000250 44 7e 74 bd 55 36 8f bc 8a 3e 1e bd d2 5d 23 3d
       -0.05969073 -0.017481962 -0.03863386 0.039884396
000260 00 09 4e bc 0b 37 87 3d 53 7c fb 3d c3 0a ae 3d
       -0.012575388 0.066022955 0.12279572 0.084981464
000270 1b ae 9e 3d 3d 36 0d 3d 9c a6 6c 3c 1d 2f a9 3a
       0.07748052 0.034475554 0.01444402 0.0012907718
000280 d5 1e 4e 3c db 7a 87 3d 52 be 52 bd 96 3b ba 3d
       0.012580593 0.0661523 -0.051451035 0.09093396
000290 71 85 b3 3c ae ef aa 3c 96 c6 97 3d c7 b2 ec bc
       0.021914216 0.020866241 0.07410924 -0.028893841
0002a0 9b 15 38 bd ad a3 47 3d 10 69 1c 3d ba 65 a1 3b
       -0.04494248 0.048740078 0.038186133 0.004925457
0002b0 9a 21 df 3c 88 ea c4 3d 6f f8 2c bd 55 3f 08 3c
       0.027237702 0.09615046 -0.042229112 0.008315881
0002c0 dc 47 96 bd 71 f4 81 3c 3d 65 a0 3d fb 30 9c bd
       -0.07337925 0.015863629 0.0783181 -0.0762653
0002d0 12 14 3e bd 87 fb 3d bd 19 ed a9 3c 1b 3b 7e 3d
       -0.04640586 -0.046382453 0.02074294 0.062068086
0002e0 ab af fc 3b b3 c8 da bc 24 e5 0c 3d 5e 3b fa bc
       0.007711371 -0.026707029 0.034398213 -0.030545887
0002f0 47 3d b4 3d 54 0c e1 3b 51 c6 59 bd b7 0c 1e bd
       0.0880075 0.0068679247 -0.053167645 -0.038586345
000300 3e 28 b0 bd e4 64 29 3d 14 e5 0a bd d7 37 cb 3d
       -0.086014256 0.041355982 -0.033909872 0.0992276
000310 3b 47 70 3c 7c c9 b3 3c 6b de 34 bd ef 6a 93 3d
       0.01466542 0.021946661 -0.044157427 0.0719813
000320 1b 11 fc 3b 82 58 0c 3b 94 7f a7 bc be fa af 3d
       0.007692469 0.002141506 -0.020446576 0.08592747
000330 c3 c9 a8 3d 32 0c 66 3c 38 b0 7d 3d 12 99 0b bc
       0.08241608 0.0140409935 0.061935633 -0.0085203815
000340 b5 9a b7 3c 2b 8b 1d 3d 28 7d 42 bd 86 b0 96 bd
       0.022412637 0.0384628 -0.04748264 -0.07357888
000350 a6 87 45 3d 7e fe 9f 3d 28 04 43 bc b3 75 7a bb
       0.048225068 0.078122124 -0.011902846 -0.0038217127
000360 8d e0 11 bd 71 09 45 3d 66 7a 5c bc df 14 24 3d
       -0.03561454 0.048104707 -0.013456916 0.040058967
000370 9e eb 19 3d 7c 96 b5 3d 4f 23 d4 bb 1b b9 92 3d
       0.037578218 0.08866593 -0.0064739357 0.07164212
000380 de 84 5b bd 83 6e d7 3d 77 32 7c bb d8 ff 92 3c
       -0.05359351 0.10519125 -0.0038482228 0.017944261
000390 49 a7 19 bd c9 00 12 3d 04 dd 83 bd b8 6d 8d bd
       -0.03751305 0.03564528 -0.0643864 -0.06905693
0003a0 b7 a5 77 3d 6e 19 8e bd 77 a9 96 3d a2 a7 a9 3d
       0.060460772 -0.06938444 0.073565416 0.082839265
0003b0 9b 17 37 bd 59 40 f6 3c 1c 8a 98 3d fd 96 7e bd
       -0.044700246 0.03005998 0.07448217 -0.062155712
0003c0 2c a5 75 3d 11 6e 4f bc cf a3 c0 3d 71 09 d7 bc
       0.059971973 -0.012660519 0.09406244 -0.02624962
0003d0 c8 87 30 bd 51 d0 eb 3d 8a ec b8 3d 96 ee 8d bc
       -0.04309824 0.115143426 0.09029491 -0.01732568
0003e0 0a 62 df 3c 5f 65 a5 3d 1d 33 af bd 29 9f 92 3a
       0.027268428 0.080759756 -0.08554671 0.001118635
0003f0 02 cc a0 3d b8 9e a1 bd ab 13 c8 3c 25 f7 5f 3d
       0.078514114 -0.07891601 0.02442344 0.054679055

lstm.bias_hh_l0 f4 [512]
000000 14 a7 8a 3d d0 ed 4a 3d 01 11 62 bd 67 6f 5c 3d
       0.06770149 0.049543202 -0.055191997 0.05381718
000010 9f db 82 3d a7 3f 0c bd a7 31 ed 3d a6 0b 8a bd
       0.06389546 -0.03424039 0.11581736 -0.06740503
000020 7d b6 86 bd 95 44 05 3d 31 df 61 bd d0 35 bc 3d
       -0.065777756 0.032536108 -0.055144493 0.091899514
000030 1a 6b 03 bd 50 ad aa 3d 71 35 12 bc d1 a7 87 bd
       -0.032084562 0.08333838 -0.008923874 -0.06623805
000040 f9 a4 0e 3c cb 09 b5 bc 6b 5a 5a 3c d8 b4 ee 3c
       0.008706325 -0.022099396 0.013327221 0.029138967
000050 5d 3a fe 3c 77 74 88 3d 11 1e bd 3d e3 42 3d bd
       0.03103369 0.06662839 0.0923425 -0.046206366
000060 42 79 d4 3d ef 2e 8f 3d ad 3d 81 bd b0 f6 9d bd
       0.103746906 0.06991374 -0.06310592 -0.077130675
000070 77 fa 79 3a 34 2e b1 3d 16 17 75 bd 4a a3 57 bd
       0.00095359184 0.08651391 -0.05983647 -0.05264596
000080 8b 81 14 bc e8 1f 78 bd 90 76 88 bd a7 4d 00 3d
       -0.009064089 -0.060577303 -0.06663239 0.031324055
000090 3d 6a 8f 3d d5 17 c4 3d b6 60 0c bc 83 40 07 3c
       0.07002685 0.09574858 -0.00856798 0.008255127
0000a0 76 1f 88 3d 64 df bb 3c da 2b 93 bd 49 82 9d 3c
       0.06646626 0.02293367 -0.071860984 0.019227164
0000b0 5b ec 2a 3d 3e 56 0b ba 29 68 97 3c 72 03 10 3d
       0.041729312 -0.000531528 0.018482285 0.035159536
0000c0 c6 97 84 bc f5 d7 52 bd 8d 57 c5 bc 11 52 24 3d
       -0.016185652 -0.051475484 -0.024089599 0.040117327
0000d0 14 00 90 3d 03 0c b9 bd 0e 8c d6 bc 28 c7 a8 3d
       0.07031265 -0.09035494 -0.02618983 0.08241111
0000e0 91 09 2e bd cf 8b c3 3c 53 1b 6c 3d da 81 be ba
       -0.042489592 0.023870377 0.057643246 -0.0014534548
0000f0 c5 4b 82 3c 88 c7 a3 3d 95 cc 8b 3d a2 14 49 bc
       0.01590527 0.07997042 0.0682613 -0.012272986
000100 82 b5 fd bc 7a 53 7c 3b 76 b6 18 bd a3 68 50 3c
       -0.030970339 0.0038501904 -0.037283383 0.01272026
000110 e8 9f c8 3d 1c 84 7b bc 6f 8c 4c bd da ad 32 3c
       0.09796125 -0.015351322 -0.049938615 0.010905707
000120 cb fd 31 bd 1f 02 85 3b 59 74 22 bd eb 8c 20 3d
       -0.043454926 0.0040590907 -0.03966174 0.03919689
000130 c2 5c a2 3d 7f 96 17 bd b8 1c d7 3d 5e 64 5f 3b
       0.079278484 -0.03700876 0.105035245 0.0034086923
000140 47 c4 76 bd 76 d8 0e 3d 85 26 f4 bc 9c d8 2b 3d
       -0.06024578 0.034874402 -0.029803524 0.04195462
000150 88 c8 a0 3d 76 80 94 3d 6e 05 9d bc 1f 0a 0c 3d
       0.07850748 0.072510645 -0.019167628 0.03418934
000160 0f 0b 0a bd 37 b9 0a bd 03 e4 23 3d bd de 82 bd
       -0.033701953 -0.03386804 0.04001237 -0.0639014
000170 94 2b 61 3d 19 f0 a8 3d 10 8d dd bc 27 37 ee bc
       0.0549732 0.0824892 -0.027044803 -0.029079033
000180 c8 e4 84 bc 9e 4e af 3c 1d f0 23 3b 9e 5d 56 3d
       -0.016222373 0.021399792 0.0025014945 0.052335374
000190 e0 30 3c bd d7 bb 94 bd df 3c a5 3c 70 2e 63 3d
       -0.04594505 -0.0726239 0.020170627 0.055464208
0001a0 1c 82 4b 3d 87 6c 5b 3d 55 86 ae 3a b2 8d d3 3c
       0.04968463 0.053570297 0.001331518 0.025824402
0001b0 24 35 a2 3c b0 f8 b0 3d b7 be 12 3d 6d 0e 39 bd
       0.01980073 0.086411834 0.03582641 -0.045179773
0001c0 62 02 5f 3d 25 f3 72 3d 27 68 84 3d bd 14 34 bc
       0.05444563 0.059313912 0.06465178 -0.0109912725
0001d0 35 9b 23 3c 8e 9d 6d bd 86 bc 97 3d 73 ff ee bd
       0.009985735 -0.058011584 0.07409005 -0.11669817
0001e0 79 42 70 3d 64 05 61 bc b8 de 24 bd b1 95 93 3d
       0.058657143 -0.013734195 -0.040251464 0.07206286
0001f0 98 da 96 3d 7f 85 85 3d 2d 06 82 3d 51 1c a3 bd
       0.07365912 0.06519603 0.06348834 -0.07964385
000200 b7 30 1a 3d e7 5b bf 3c 52 f8 3a bc 77 35 1c bd
       0.037644114 0.023359252 -0.011411743 -0.038136926
000210 6f 10 1b bd bc be 58 bd 9a 52 21 bc 92 4d e6 bc
       -0.03785747 -0.052916273 -0.009846354 -0.02811316
000220 5c 18 26 3d ce 28 42 bd 3c 73 d4 3c f0 9e 97 3d
       0.040550575 -0.047402196 0.025933854 0.07403362
000230 30 bf 79 3d a6 c9 2b 3d a3 01 e2 3c d8 5e 93 3b
       0.060973346 0.041940354 0.027588671 0.0044973902
000240 dc 95 b7 3d 5d 2b c9 3d 03 4a 68 bd 9c de 38 bd
       0.0896413 0.09822724 -0.056711208 -0.04513417
000250 53 44 0c bc e0 3d 1a bd 27 2a 03 bd 16 95 d9 bb
       -0.008561212 -0.037656665 -0.03202262 -0.006640087
000260 70 ff 1a bd 47 2f 86 39 c8 94 9f 3d 88 d9 9c 3d
       -0.03784126 0.00025593696 0.0779205 0.07658678
000270 a9 5c fd 3c b2 f5 42 3d b6 e6 b3 bd 61 38 06 3c
       0.030927973 0.047597595 -0.08784239 0.008192153
000280 82 33 c8 3d ba 1c 8d bb 50 e1 8c bd e5 0c 82 3d
       0.09775449 -0.004306403 -0.068789124 0.06350116
000290 f0 35 1d bd d5 63 b7 bd 75 00 9f 3c 6c 71 7c 3d
       -0.038381517 -0.08954588 0.019409398 0.061631605
0002a0 8a 81 94 3d 5d aa bd 3d 88 b5 84 bd 90 2a 8a bd
       0.0725127 0.0926101 -0.06479937 -0.067463994
0002b0 b9 7c 70 3c d5 0a 5d 3d b4 09 86 3d ba 06 e6 bb
       0.014678174 0.05396541 0.065448195 -0.007019845
0002c0 98 ef 5c bd c3 71 1e 3d d5 b3 b5 3c 87 7a 9d bd
       -0.053939432 0.03868271 0.022180477 -0.07689386
0002d0 c9 06 c8 3d 8e 3f a9 3d 46 51 98 3d 70 0d 52 bd
       0.09766919 0.08264075 0.07437377 -0.051282346
0002e0 51 da a9 bd 8d f8 80 bd f0 67 4e 3d fe f7 ae bb
       -0.08293594 -0.06297407 0.05039209 -0.0053396216
0002f0 05 11 22 3d b2 27 6f 3c 62 16 59 3d d3 41 a8 bd
       0.039567012 0.014596866 0.05299986 -0.0821568
000300 1a 92 d6 bd fb 5d d2 3b f3 cb be bc 4c a3 f8 3b
       -0.104770854 0.0064198948 -0.02329061 0.007587826
000310 48 5a cb 3d cb c4 9a bd 00 aa d4 bc 55 28 9d 3d
       0.09929329 -0.075570665 -0.025959969 0.07673708
000320 6e 87 d2 3d d0 d0 72 bd 16 72 2c bd 46 d5 b2 3c
       0.102797374 -0.05928117 -0.04210099 0.021830212
000330 d3 73 ef 3d b3 95 f8 3c 7d f0 48 bc ac 30 91 3d
       0.116920136 0.03034482 -0.012264368 0.070893615
000340 15 c2 e1 bb 1b 3d 20 3d a7 fe 30 bd 59 4c 6d 3d
       -0.0068895915 0.039120775 -0.043211605 0.05793414
000350 cb 48 a4 3d 22 d6 6a 3c 35 35 aa 3d 19 3d b0 3d
       0.08021697 0.01433328 0.0831093 0.086054035
000360 49 7c 22 bd 04 c8 92 3d 14 b5 83 3d 97 a4 b0 3d
       -0.03966931 0.07167056 0.06431022 0.08625143
000370 ed 1f 90 3c 6c 66 21 3d ba 3a 66 3d c2 ab 57 bd
       0.017593348 0.039404318 0.05620835 -0.052654035
000380 0e 46 9e 3c 01 5e a5 3d c2 61 33 bd c1 78 ab 3d
       0.019320514 0.080745704 -0.0437944 0.08372641
000390 0f 89 84 3b 77 7f 45 bd dd fb bd 3d 49 71 c9 3c
       0.004044659 -0.048217263 0.09276555 0.024590151
0003a0 1a 0a 80 bb ae 07 11 3d 0b 70 14 bd fc e9 e4 3d
       -0.003907454 0.035407715 -0.036239665 0.111774415
0003b0 a0 7b 06 3a cb cb 74 3d 70 9d bd 3d 82 9e 19 bb
       0.0005130116 0.059764665 0.092585444 -0.0023440425
0003c0 25 03 dd 3c 69 7c 87 3d 3a 47 4e 3d 6b d1 87 bd
       0.026979038 0.06615526 0.050360896 -0.0663174
0003d0 71 ea 52 3d 6a 72 9a 3c af 84 82 3d d5 d4 62 3d
       0.051493112 0.018853385 0.06372964 0.055378754
0003e0 34 6a 0d bd 5f 26 b3 3d dd 07 41 3d 0b cb 85 bc
       -0.03452511 0.08747553 0.04712664 -0.01633217
0003f0 47 26 48 3d e6 9b 67 bd 04 9c dd 3b 94 2d 6e 3c
       0.04886463 -0.05654516 0.0067629833 0.014537234
