results/models/strong/strong_audio_cnn-lstm_checkpoint.pt (torch_old, 378467 bytes, 8 tensors)

audio_layers.0.weight f4 [32, 32, 8]
0	0xbcf156b3	-0.029460287
1	0x3c9b7ed1	0.01898137
2	0xbc63e8dc	-0.0139104985
3	0xbb053017	-0.0020322853
4	0x3d1e115f	0.038590785
5	0x3d7a86b9	0.061163638
6	0xbd321324	-0.043475285
7	0x3ca091c5	0.019600758
8	0x3d77cd11	0.0604983
9	0x3d89e623	0.06733348
10	0x3cf063a4	0.029344387
11	0xbc74d9e8	-0.014944531
12	0xbc2b56f0	-0.010457739
13	0xbce6ab8b	-0.02815797
14	0x3d4fc85d	0.05072819
15	0x3d4f4369	0.050601397
16	0x3a2d89df	0.00066199707
17	0xbe19eb97	-0.15031277
18	0xbdc6ded0	-0.09710467
19	0xbd8d4ad2	-0.068990365
20	0xbc2dc349	-0.010605642
21	0xbd375415	-0.04475792
22	0xbe1c8dc9	-0.15288462
23	0xbdc959ab	-0.09831556
24	0x3ddb774f	0.10716116
25	0x3c138dd7	0.009005985
26	0xbc153e09	-0.009109029
27	0xbdb4cf6b	-0.08828624
28	0xbbdfbf40	-0.0068282187
29	0xbb3843f6	-0.002811668
30	0x3bebe5b9	0.007199016
31	0xbb606523	-0.003423997
32	0xbdc05078	-0.09390348
33	0x3abd9c32	0.0014466105
34	0xbdaccc73	-0.08437433
35	0xbcf5dcf9	-0.030012595
36	0xbd15ea03	-0.036600124
37	0x3ca6bb45	0.020352969
38	0x3d981a1a	0.074268535
39	0xbcf404c1	-0.029787423
40	0x3d54fc5d	0.051998485
41	0xbd22509a	-0.03962765
42	0xbd8413f6	-0.0644912
43	0xbd8b7922	-0.068102136
44	0xbe36d0e7	-0.17853127
45	0xbe622610	-0.22084832
46	0xbe23664b	-0.1595699
47	0xbe32092c	-0.17386311
48	0x3da65f65	0.08123664
49	0x3de5f6af	0.11228692
50	0xbd12800b	-0.035766643
51	0x3df8a01a	0.12139912
52	0x3c9fcbdd	0.01950639
53	0x3b73e385	0.003721447
54	0x3b1f4a4a	0.0024305754
55	0x3d4f964e	0.05068045
56	0x3d2de976	0.042458974
57	0x3cc63de6	0.024199437
58	0xbe0beba8	-0.13664114
59	0x3d807ce7	0.06273823
60	0xbcb49a80	-0.022046328
61	0x3beb49d7	0.0071804333
62	0xbd1a258b	-0.03763346
63	0x3c1c1b26	0.009527957
64	0x3cc55a79	0.024090992
65	0x3d0f9b82	0.035060413
66	0xbe4f6d39	-0.20256509
67	0xbdf080d5	-0.11743323
68	0xbe84f03b	-0.2596453
69	0xbe5726b7	-0.21010862
70	0xbe377286	-0.17914781
71	0xbe25e131	-0.16199185
72	0x3d8557a7	0.06510859
73	0x3bfcf536	0.007719661
74	0x3d81f52d	0.06345592
75	0xbcc34854	-0.0238382
76	0xbdf8369d	-0.12119792
77	0xbd126644	-0.03574206
78	0xbd0b400c	-0.033996627
79	0xbd2fbb47	-0.04290321
80	0xbdfb9973	-0.122851275
81	0xbca46622	-0.020068232
82	0xbcad5a5a	-0.021161247
83	0xbd4111a2	-0.047135957
84	0xb94f6f61	-0.0001978255
85	0x3d918b1b	0.071066104
86	0x3d6c75d1	0.057729546
87	0xbba15315	-0.004923234
88	0x3d5b9034	0.05360432
89	0x3c8ae5c9	0.016955273
90	0x3d2c12f2	0.042010255
91	0x3d8a8e80	0.06765461
92	0xbd9717a5	-0.07377557
93	0x3e157099	0.14593734
94	0xbd712450	-0.05887252
95	0xbd1092ba	-0.03529618
96	0x3e18afa4	0.14910752
97	0xbca9b8ad	-0.020717943
98	0xbdb61dd9	-0.08892412
99	0xbdb2d6c2	-0.08732368
100	0xbd8b8577	-0.06812566
101	0x3d6d8f5e	0.057998054
102	0x3c7c7242	0.015408101
103	0xbbc3408b	-0.005958622
104	0x3d0c7c82	0.034298427
105	0x3db72b90	0.08943856
106	0x3d9c36d4	0.07627645
107	0x3dd8f27a	0.10593124
108	0x3d84bbf5	0.064811625
109	0x3d35e9d5	0.044412453
110	0x3e2d9237	0.16950308
111	0x3e2a89ea	0.16654173
112	0x3e2e775c	0.1703772
113	0x3e0acc65	0.13554533
114	0x3b66f963	0.003524386
115	0xbd286cd1	-0.0411194
116	0x3d33a592	0.043859072
117	0xbd7a1972	-0.061059423
118	0x3d95847d	0.07300661
119	0x3c8eb27c	0.017419092
120	0x3e137496	0.14399943
121	0xbd2d5f6f	-0.04232734
122	0x3c9ccf21	0.019141736
123	0xbd4ce485	-0.05002262
124	0xbdabd730	-0.08390653
125	0xbc8f5931	-0.017498584
126	0xbcf3a7a4	-0.029743023
127	0x3d423062	0.047409423
128	0x3d65c9de	0.05610072
129	0xbda2f5d7	-0.079570465
130	0xbd7d4f0e	-0.06184297
131	0xbdca9cef	-0.09893214
132	0xbdc175a3	-0.094462655
133	0x3cbb081a	0.022831012
134	0x3d657235	0.05601712
135	0x3b094b2e	0.0020949352
136	0x3dca8a40	0.0988965
137	0x3d817d63	0.06322744
138	0x3d0c6a63	0.034281146
139	0x3d15caeb	0.03657047
140	0x3d3195cd	0.04335575
141	0x3d8f8d41	0.07009364
142	0x3db7d084	0.08975318
143	0x3ccab754	0.02474562
144	0x3d9e61c3	0.0773349
145	0x3d8f3e60	0.06994319
146	0x3e54fa2e	0.20798561
147	0x3d21970b	0.039450686
148	0x3e459e4c	0.19298667
149	0x3d292113	0.041291308
150	0x3e769167	0.24078904
151	0x3e2d4ff5	0.16925032
152	0x3dc6f2b3	0.0971426
153	0x3db66517	0.08906
154	0x3da9a0b1	0.082826026
155	0x3e0a92fb	0.13532631
156	0x3dc3d8fa	0.09562869
157	0xbdbe99ba	-0.09306665
158	0x3d9c997f	0.076464646
159	0x3e095d49	0.13414492
160	0x3ddd61d1	0.108096726
161	0xbdca6c83	-0.09883978
162	0x3d226cde	0.039654605
163	0x3d7890d9	0.060685012
164	0x3da00f26	0.07815389
165	0x3cf55112	0.029945884
166	0x3d00ab83	0.031413566
167	0x3d795f4a	0.06088189
168	0xbd8170c6	-0.06320338
169	0x3cdffb74	0.027341582
170	0xbc386db9	-0.011256629
171	0x3d0e1d59	0.034695957
172	0xbba9d3eb	-0.0051827333
173	0xbc8e4b40	-0.017369866
174	0xbddd8926	-0.108171746
175	0xbbfdcdc2	-0.0077454755
176	0xbdc581ae	-0.09643875
177	0x3cd6e22f	0.0262309
178	0xbd1742e2	-0.03692902
179	0xbb76c188	-0.0037651975
180	0xbd101474	-0.035175756
181	0x3dcc18a0	0.09965634
182	0xbd02017d	-0.0317397
183	0x3caef358	0.02135627
184	0x3d163087	0.036667373
185	0x3e3ee2bd	0.18641181
186	0x3dc8c8d7	0.09803932
187	0x3e0be4df	0.13661526
188	0x3dcb57e0	0.0992887
189	0x3e3a122d	0.18170996
190	0x3dd36e01	0.10323716
191	0x3ddfd944	0.10930112
192	0xbdd32fd8	-0.1031186
193	0xbdb32b25	-0.087484635
194	0xbe0b11fb	-0.13581078
195	0xbe55acdc	-0.20866722
196	0xbde2269a	-0.11042519
197	0xbe291488	-0.16511738
198	0xbe1fb854	-0.1559766
199	0xbe05b214	-0.13056213
200	0x3dbc2ae1	0.09187866
201	0x3e06eabf	0.13175486
202	0x3e8374a7	0.25674936
203	0x3d095e76	0.03353735
204	0x3e67a742	0.22622398
205	0x3c688e35	0.014194061
206	0x3d17702b	0.036972206
207	0x3e0a9856	0.13534674
208	0xbd5c3572	-0.053761907
209	0x3c8d7de9	0.017271953
210	0x3cafe839	0.021473037
211	0x3c959152	0.01825777
212	0xbd085225	-0.033281464
213	0xbc82fa43	-0.015988475
214	0xbcf841db	-0.03030484
215	0xbdd1dc97	-0.10247152
216	0xbc92e6df	-0.017932354
217	0xbdd86a2d	-0.105671264
218	0xbe0c2a11	-0.13687922
219	0xbd1eba47	-0.038751867
220	0x3cfa2383	0.030534511
221	0x3b15fd78	0.0022886675
222	0xbe0e4ff2	-0.13897684
223	0xbe23c516	-0.15993151
224	0x3d665baa	0.05623976
225	0x3b99b6f5	0.0046909996
226	0x3d8a966f	0.06766974
227	0x3d28679d	0.04111444
228	0xbc314887	-0.0108205145
229	0xbc1fd4ea	-0.0097553525
230	0x3d082d3b	0.03324626
231	0x3d160d1a	0.03663359
232	0x3ccbda9b	0.024884513
233	0x3bc16104	0.0059014577
234	0xbc05f414	-0.008175869
235	0x3dc9d41a	0.09854908
236	0x3be5329f	0.00699456
237	0x3d7a9295	0.061174948
238	0x3dcf83c1	0.10132552
239	0x3da07ef5	0.07836715
240	0x3d24a649	0.040197644
241	0xbc77df99	-0.015128993
242	0xbcd3f73d	-0.025874728
243	0x3c2cf28d	0.0105558755
244	0xbd1bda25	-0.038049836
245	0x3d45e555	0.04831441
246	0xbd68f147	-0.056870725
247	0xbd8b2829	-0.06794769
248	0x3df9bab3	0.12193813
249	0xbd0266d8	-0.03183636
250	0xbe485314	-0.19562942
251	0xbe065c77	-0.1312121
252	0xbdb5f52e	-0.08884655
253	0xbe70d30b	-0.23518007
254	0xbe659b56	-0.22422537
255	0xbe7c5d89	-0.24645056

audio_layers.0.bias f4 [32]
0	0x3d0ef68c	0.034903094
1	0xbd42a04d	-0.047516156
2	0xbc8d077c	-0.017215483
3	0xbd1953d0	-0.037433445
4	0xbd81156e	-0.063029155
5	0x3ce91634	0.02845297
6	0x3d01c5e5	0.031682868
7	0xbd24a6b5	-0.040198047
8	0x3cf96cfc	0.030447476
9	0x3c36bbba	0.011153156
10	0xbd192bcf	-0.037395295
11	0x3d741150	0.059586823
12	0xbd4ae0be	-0.049530737
13	0xbc93795b	-0.018002203
14	0x3ca084fe	0.019594666
15	0x3d5fbc27	0.054622795
16	0x3c853e4d	0.016265059
17	0xbce928a9	-0.028461771
18	0x3a55346b	0.0008133116
19	0x3d622572	0.055211492
20	0x3dabdba4	0.083915025
21	0xbd6abcdf	-0.057309028
22	0xba7f57ad	-0.0009740543
23	0xbd85bfcc	-0.06530723
24	0xbaab137f	-0.0013052075
25	0xbd7b5ad0	-0.061365902
26	0xbd1f616d	-0.03891127
27	0xbd2805ee	-0.04102128
28	0x3ce707da	0.028201986
29	0xbdc9137c	-0.098181695
30	0x3cffc3fd	0.031221384
31	0xbd3c392b	-0.045952957

lstm.weight_ih_l0 f4 [512, 32]
0	0x3da70a8e	0.0815631
1	0xbc98afea	-0.01863857
2	0xbd4ef500	-0.05052662
3	0xbd25d8fa	-0.040490128
4	0x3dc24e32	0.09487571
5	0x3caace90	0.02085045
6	0x3d1b17ca	0.037864484
7	0x3d3bff44	0.045897737
8	0xbd23e9c5	-0.040017862
9	0x3c840772	0.016116831
10	0xbd94f225	-0.07272748
11	0x3d2da5ca	0.042394437
12	0xbd479276	-0.04872366
13	0x3dc13416	0.09433763
14	0xba99fced	-0.0011748351
15	0x3d2ecdb1	0.04267663
16	0x3d5e780d	0.054313708
17	0xbb87fd10	-0.0041500404
18	0x3da75970	0.08171356
19	0xbc3c1860	-0.011480421
20	0xbcc3cfcd	-0.023902798
21	0xba5ec616	-0.0008498145
22	0x3da9fe72	0.08300485
23	0x3d2f6082	0.042816646
24	0x3d5207dd	0.05127703
25	0xbc2fd9d0	-0.010733083
26	0xbd7324ac	-0.059361145
27	0x3a1e1100	0.0006029755
28	0xbd2f5aeb	-0.042811316
29	0x3dae0d92	0.08498682
30	0xbd9510a2	-0.07278563
31	0x3db26f80	0.08712673
32	0x3e18159a	0.1485199
33	0xbdb44487	-0.08802133
34	0xbdb50747	-0.08839279
35	0x3d94be49	0.072628565
36	0x3c808703	0.015689379
37	0xbd2873ff	-0.041126247
38	0x3c0ce63b	0.008599813
39	0x3db4411c	0.08801481
40	0x3c14dfe0	0.009086579
41	0xbdabfcf7	-0.083978586
42	0x3ded96ab	0.11601003
43	0x3d90e691	0.07075227
44	0xbdb96548	-0.09052521
45	0x3dd13ba2	0.10216452
46	0x3d259c20	0.040432096
47	0x3d390ea0	0.045179963
48	0xbdbb55ee	-0.09147249
49	0x3c302f85	0.010753517
50	0x3c5fa91b	0.013651158
51	0xbcfd5332	-0.03092346
52	0x3d4c19ca	0.049829282
53	0x3e304840	0.17215061
54	0xbe09f09b	-0.1347069
55	0x3db67186	0.089083716
56	0xb99e8a73	-0.0003023926
57	0x3d63904a	0.055557527
58	0xbd9f9877	-0.07792752
59	0xbdb24b33	-0.08705749
60	0xbe8d7410	-0.2762761
61	0xbe11305f	-0.14178608
62	0xbe1132c9	-0.14179529
63	0x3d73edc2	0.059552915
64	0x3e13d7f8	0.14437854
65	0x3db27de8	0.08715421
66	0xbdd634b1	-0.10459269
67	0x3d40a43a	0.04703162
68	0xbcbc3334	-0.022973634
69	0x3ce87fc0	0.028381228
70	0x3c8e5a82	0.017377142
71	0x3de8417c	0.11340615
72	0x3d318af6	0.043345414
73	0xbe30ee5a	-0.17278424
74	0x3db8e2f7	0.09027665
75	0xbbd7d876	-0.0065870835
76	0x3b8878b4	0.0041647796
77	0xbde919b4	-0.113818556
78	0xbc17d721	-0.009267599
79	0x3c980587	0.018557323
80	0x3d8e10a2	0.06936766
81	0xbd928a59	-0.07155294
82	0x3b1230d6	0.002230694
83	0xbd85e0a8	-0.065369904
84	0xbd9d2591	-0.07673181
85	0x3e032649	0.12807573
86	0x3b1deab5	0.0024096195
87	0xbcc3e608	-0.023913398
88	0xbd2142b7	-0.039370265
89	0xbd9d13e0	-0.076698065
90	0x3d3e335d	0.046435703
91	0xbd3f4686	-0.046698116
92	0x3da0c2f0	0.078496814
93	0x3cd69bd0	0.026197344
94	0xbdb631d9	-0.088962264
95	0xbdd3630e	-0.103216276
96	0x3db13c73	0.08654108
97	0x3db034f4	0.0860385
98	0xbccbac0a	-0.024862308
99	0xbcb24f78	-0.02176641
100	0xbc8dc3ef	-0.017305342
101	0xbdb11a91	-0.08647645
102	0xbd831050	-0.06399596
103	0x3d82d4fb	0.06388279
104	0x3c852704	0.016253956
105	0xbc7e8120	-0.0155337155
106	0xba21c79e	-0.0006171408
107	0xbd8b511c	-0.0680258
108	0xbad9c070	-0.0016613137
109	0x3cfaee7e	0.0306313
110	0xbc8f5906	-0.017498504
111	0x3d0b91c7	0.03407457
112	0x3d8a0dfc	0.067409486
113	0x3d98df8b	0.074645124
114	0x3d72da8f	0.059290465
115	0x39a69d00	0.0003177896
116	0xbd8d9736	-0.06913607
117	0x3d5f3f39	0.054503653
118	0x3c2abf74	0.010421623
119	0x3d68899d	0.056771863
120	0xbcbd3c66	-0.02310009
121	0x3da04dd5	0.07827345
122	0xbbc2e7e9	-0.005948056
123	0x3d9dca23	0.0770457
124	0xbcdd867a	-0.027041662
125	0x3bc944a4	0.006142216
126	0xba1cf2c6	-0.0005987104
127	0x3952a699	0.00020089223
128	0xbd1e8a4f	-0.03870612
129	0xbc97625b	-0.018479517
130	0x3d4f6ac2	0.05063892
131	0x3b4a0300	0.0030824542
132	0xbd93f48f	-0.0722438
133	0xbdafba04	-0.085804015
134	0xbba0e0a3	-0.0049095913
135	0x3d892fb4	0.06698552
136	0xbdac0c3c	-0.08400771
137	0x3b311492	0.0027020318
138	0x3b8f4b76	0.0043730093
139	0xbcf2b893	-0.029629027
140	0xbd9574ba	-0.072976544
141	0x3cec45bc	0.028841846
142	0x3b8a3cdf	0.004218682
143	0xbd2abc1b	-0.041683298
144	0x3d81bc31	0.06334723
145	0xbc8de638	-0.01732169
146	0xbd756cb1	-0.05991811
147	0x3c8839a0	0.01662904
148	0xbd9f17c2	-0.07768203
149	0x3d0b0b83	0.033946525
150	0xbd8eee26	-0.06979017
151	0x3d8ab75f	0.067732565
152	0x3dad8c2e	0.08474003
153	0xbd34e8d7	-0.044167366
154	0xbd9900dc	-0.07470867
155	0xbd282c19	-0.04105768
156	0xbd2267c0	-0.039649725
157	0xbd54a840	-0.05191827
158	0x3cd5e9ab	0.026112398
159	0xbd9891aa	-0.07449658
160	0xbe02ad0f	-0.12761329
161	0xbba41a2f	-0.005008004
162	0x3d4486d1	0.047980133
163	0x3d981b4d	0.07427082
164	0xbd990035	-0.074707426
165	0xbd4ab5ad	-0.049489666
166	0x3d7b3cbd	0.06133722
167	0x3d8f6024	0.07000759
168	0x3d1f10d6	0.038834415
169	0xbc6cbd23	-0.014449391
170	0x3d59cc85	0.05317356
171	0xbda02c2a	-0.078209236
172	0xbd9ef164	-0.07760885
173	0xbd9696ce	-0.073529825
174	0xbc31cee3	-0.010852548
175	0x3d433580	0.047658443
176	0xbd6ff6f4	-0.058585122
177	0xbd79af3c	-0.060958132
178	0x3ca86344	0.020555146
179	0x3d2355ce	0.03987675
180	0x3d907b88	0.07054812
181	0x3d1e9be2	0.03872288
182	0x3d9ac7f7	0.075576715
183	0x3d7b325f	0.061327334
184	0x3c8dcc00	0.017309189
185	0x3c1f16e8	0.009710051
186	0xbd237700	-0.03990841
187	0x3da9e7c1	0.08296157
188	0xbd4716d6	-0.048605762
189	0x3dea8751	0.11451591
190	0x3da1a8c6	0.07893519
191	0x3db4635a	0.08808012
192	0xbda1284d	-0.07869015
193	0x3aeb5a3f	0.0017955973
194	0x3c70c0b1	0.014694379
195	0xbcf9121e	-0.030404147
196	0x3c579758	0.013158642
197	0xbcfcd15f	-0.030861555
198	0xbcf9fe7a	-0.030516852
199	0x3cb0927e	0.021554228
200	0x3b8eca20	0.0043575913
201	0x3e8c88d5	0.27448145
202	0xbd9a409e	-0.07531856
203	0x3e33b679	0.17550077
204	0xbd56ddc1	-0.052457575
205	0x3e0148d7	0.12625442
206	0xbd2aa798	-0.041663736
207	0x3a1acb04	0.00059048855
208	0x3d267824	0.04064192
209	0xbcd69a47	-0.026196612
210	0x3bfcaf18	0.0077113025
211	0x3d8df415	0.069313206
212	0x3e351da6	0.17687091
213	0x3bf452db	0.007456166
214	0xbb621337	-0.0034496316
215	0xbd1c714b	-0.038193982
216	0xbccd6725	-0.025073597
217	0x3c3a9b28	0.011389531
218	0xbca13958	-0.019680664
219	0xbd2a9449	-0.041645322
220	0x3e0f00ec	0.13965195
221	0x3c577478	0.013150327
222	0xbcd193ca	-0.025583167
223	0xbd1f276d	-0.03885596
224	0x3db0f3be	0.0864024
225	0xbcf5b6ca	-0.029994387
226	0xbd5463bc	-0.051852927
227	0xbca18744	-0.01971782
228	0xbcb84a6f	-0.02249643
229	0x3d42e210	0.04757887
230	0x3cb76693	0.022387778
231	0xbd2b9c59	-0.04189715
232	0x3d340cba	0.04395745
233	0x3d7c98d0	0.06166917
234	0x3dd02afb	0.10164448
235	0xbd46179d	-0.048362363
236	0xbc307b64	-0.010771606
237	0x3cd4df0e	0.025985267
238	0x3d3b72ab	0.045763653
239	0x3d95c369	0.07312662
240	0xb99cbc4c	-0.0002989493
241	0x3d41db49	0.047328267
242	0x3d9c2493	0.076241635
243	0xbcc6b6dc	-0.024257116
244	0xbaa79e9d	-0.0012788359
245	0x3d8583fd	0.065193154
246	0x3da09986	0.07841782
247	0x3d9a2bfb	0.0752792
248	0xbcae8848	-0.021305218
249	0xbb643d00	-0.0034826398
250	0x3da8513e	0.08218621
251	0xbd25dc2e	-0.040493183
252	0x3d0e2cde	0.034710757
253	0x3db5bc86	0.088738486
254	0x3d9b5341	0.07584239
255	0xbd9c8b2e	-0.07643734

lstm.weight_hh_l0 f4 [512, 128]
0	0x3d6d2bf5	0.05790325
1	0x3c8b75a5	0.01702387
2	0x3d3b22a9	0.04568735
3	0x3c219238	0.009861521
4	0xbd451c1f	-0.04812252
5	0xbd864a3f	-0.0655713
6	0xbda50f83	-0.08059599
7	0x3c0c4826	0.008562123
8	0xbcb1edde	-0.02171987
9	0xbc905673	-0.017619347
10	0x3d558f72	0.052138753
11	0x3d751ea5	0.059843678
12	0x3d6e9806	0.05825045
13	0xbd6b2650	-0.057409585
14	0x3d0f665b	0.035009723
15	0xbda2abf0	-0.07942951
16	0xbd582297	-0.052767362
17	0xbd09c43d	-0.033634413
18	0x3d9e57ee	0.07731615
19	0xbd9aed8e	-0.07564841
20	0x3d8ca9b3	0.06868305
21	0x3c7b751d	0.015347746
22	0xbd2150d7	-0.039383736
23	0xbc6a32b1	-0.014294312
24	0xbcfe0e00	-0.031012535
25	0x3c80d0f7	0.015724642
26	0x3d5d63ee	0.05405038
27	0xbca31a07	-0.019909872
28	0xbd3a3862	-0.045463927
29	0x3d0e3971	0.03472275
30	0xbd115089	-0.035477195
31	0x3d0a0408	0.03369525
32	0x3a341620	0.0006869752
33	0x3d9d15d4	0.07670179
34	0x3d190b5d	0.037364352
35	0x3c09518b	0.008381258
36	0x3daad079	0.08340544
37	0xbd388c25	-0.045055527
38	0xbc94ca76	-0.018162947
39	0x3d4e17f0	0.050315797
40	0xbdac78ba	-0.08421464
41	0x3d94b073	0.072602175
42	0xbdb5dcab	-0.0887998
43	0xbdb38dde	-0.087672934
44	0xbda83e28	-0.0821498
45	0x3c89f8ad	0.01684221
46	0xbda6592d	-0.08122478
47	0x3db61e6f	0.088925235
48	0xbcb94c87	-0.022619499
49	0x3d937afc	0.07201192
50	0x3c6802d3	0.01416083
51	0x3bbd6c70	0.005780749
52	0xbd4cccf3	-0.050000142
53	0xbdb3b6ea	-0.087751225
54	0xbc55e48a	-0.013054976
55	0x3d67ecca	0.056622304
56	0xbc9d32c3	-0.019189244
57	0x3bf9ba54	0.007621089
58	0x3d0939ee	0.03350251
59	0x3ce7273d	0.028216952
60	0x3dad7e5b	0.08471366
61	0x3d87878c	0.066176504
62	0x3db4e1b6	0.088321134
63	0xbcb76d8c	-0.022391103
64	0x3d5d0f3a	0.0539696
65	0x3d21a03d	0.039459456
66	0xbd806343	-0.06268933
67	0x3db17646	0.08665137
68	0xbd18941f	-0.037250634
69	0xbd1b5a85	-0.037928123
70	0x3d560a09	0.052255664
71	0x3d7385bc	0.05945371
72	0x3d8148a1	0.06312681
73	0x3d0fcd12	0.03510768
74	0xbb319b7e	-0.0027100737
75	0xbd652f6b	-0.055953424
76	0x3db1d1cf	0.08682596
77	0xbd813bba	-0.0631022
78	0x3cad44ef	0.021151034
79	0x3bfe6cb7	0.0077644247
80	0x3cb2c215	0.021821061
81	0xbd76533e	-0.06013798
82	0xbce68492	-0.028139386
83	0x3b76fbfe	0.003768682
84	0x3c84d46d	0.016214574
85	0x3d2f9d91	0.042874876
86	0xbcb3bbfe	-0.021940228
87	0x3cefd47d	0.029276127
88	0xbcfb37c7	-0.030666245
89	0xbd91ec57	-0.071251564
90	0xbd2d1610	-0.04225737
91	0xbc03d709	-0.008046874
92	0x3cf21053	0.0295488
93	0xbd7573ec	-0.059925005
94	0x3db26270	0.08710182
95	0x3d9b4c28	0.07582885
96	0xbd8feeb6	-0.070279524
97	0x3d937bd9	0.072013564
98	0x3d1fe03e	0.039032213
99	0xbd593fc0	-0.053039312
100	0xbbf26a0e	-0.0073978966
101	0xbc9b0bc6	-0.018926512
102	0xbc471a1c	-0.012152221
103	0x3cbffeb8	0.023436889
104	0xbd66b436	-0.056324206
105	0x3ca80f68	0.020515159
106	0x3c9b3cf1	0.018949958
107	0x3d030cfb	0.0319948
108	0x3dae0915	0.08497826
109	0x3d8d288d	0.068925
110	0xbd01b874	-0.03167005
111	0x3c9229fc	0.017842285
112	0xba79587e	-0.00095117826
113	0x3c8fbc7e	0.017545935
114	0x3b7da4b4	0.0038702907
115	0x3d244fdf	0.040115234
116	0xbd22be04	-0.039731994
117	0xbd9b2a11	-0.07576383
118	0x3ce5bcd8	0.02804415
119	0xbd20c8d0	-0.03925401
120	0x3d2c41dc	0.042054996
121	0x3d1213e1	0.03566349
122	0x3d12df5d	0.035857547
123	0x3d250965	0.040292162
124	0xbcbf019c	-0.023316197
125	0xbd89eae0	-0.06734252
126	0xbd320042	-0.043457277
127	0x3d03f715	0.032218058
128	0x3d8474a8	0.06467563
129	0x3f6a7dd7	0.91598266
130	0xbe415b83	-0.18882565
131	0x3c818293	0.015809333
132	0x3a9a242d	0.0011760049
133	0x3eb5a1e8	0.35475087
134	0x3d9993fb	0.07498928
135	0xbcf499d3	-0.029858505
136	0xbd95632d	-0.07294307
137	0x3e38da85	0.18052109
138	0xbcdc2892	-0.026874814
139	0xbe8d64d0	-0.27615976
140	0xbc946e09	-0.018118875
141	0xbe21481f	-0.15750168
142	0xbd8469f4	-0.064655215
143	0x3c6242cd	0.013809872
144	0x3e53e12e	0.20691368
145	0x3d9ffa8a	0.078114584
146	0x3c8f20b3	0.017471647
147	0xbed48b7c	-0.41512668
148	0xbdc1480d	-0.09437571
149	0xbcbfd1ee	-0.023415532
150	0xbe5bd801	-0.21469118
151	0xbe5c72ee	-0.21528217
152	0x3ead93ba	0.3390177
153	0x3db8c604	0.090221435
154	0xbd84e452	-0.06488861
155	0x3b92cdcb	0.004480099
156	0xbdfe0910	-0.12404072
157	0xbd085619	-0.033285234
158	0x3e8dff76	0.27733964
159	0xbe255929	-0.16147293
160	0x3e887731	0.26653436
161	0x3def90a9	0.116975136
162	0xbd0b21af	-0.03396767
163	0xbe25057a	-0.1611537
164	0x3d98d59b	0.07462617
165	0xbc6b6bae	-0.014368935
166	0x3d4e74d3	0.05040438
167	0xbdbb5098	-0.091462314
168	0xbded5330	-0.115881324
169	0xbd5c2b68	-0.053752333
170	0x3ca5aec4	0.020224936
171	0xbcdd4a40	-0.027012944
172	0xbd932522	-0.07184817
173	0x3e2c36b3	0.16817741
174	0x3ccbe7fd	0.024890894
175	0x3e548165	0.20752485
176	0x3c77a4c4	0.015114967
177	0x3de157b0	0.11003053
178	0xbda5d12c	-0.08096537
179	0x3ca99388	0.020700231
180	0xbeccd48b	-0.40005907
181	0xbda08897	-0.078385524
182	0xbee99c7c	-0.456272
183	0xbcb6bfa1	-0.022308173
184	0x3e3d5004	0.18487555
185	0x3d378437	0.044803824
186	0x3e0fbdd7	0.14037262
187	0x3e810856	0.25201672
188	0x3e0bfb2f	0.13670038
189	0x3e9531e2	0.2913962
190	0x3d3633fb	0.044483166
191	0x3da3180b	0.0796357
192	0xbe788afd	-0.2427177
193	0xbec55a72	-0.38545567
194	0x3d99921c	0.07498571
195	0xbd333a73	-0.043756913
196	0xbf176ee7	-0.591536
197	0xbd811d52	-0.063044205
198	0x3d39ef5e	0.045394294
199	0xbe10ef44	-0.14153773
200	0x3d912d12	0.070886746
201	0x3da1a4bf	0.07892751
202	0xbf333e54	-0.7001698
203	0xbeae2cd6	-0.34018582
204	0xbd9cdafd	-0.07658956
205	0xbeb6ecd7	-0.3572757
206	0x3df9447d	0.12171266
207	0x3c4a65b0	0.012353346
208	0xbea60a98	-0.32429957
209	0xbd8348f1	-0.06410397
210	0xbdf87b57	-0.121329
211	0x3df2955d	0.11844895
212	0x3e06e7e2	0.13174394
213	0x3e82c010	0.25537157
214	0x3eac15f4	0.336105
215	0x3e92af3b	0.28649315
216	0xbdcb9b8a	-0.09941776
217	0xbe6be62c	-0.23037022
218	0x3e4e8e73	0.20171528
219	0xbd423da1	-0.047422055
220	0xbb7e0466	-0.0038759946
221	0xbe4fb076	-0.20282158
222	0x3d426f36	0.04746934
223	0x3c85413b	0.016266456
224	0xbd31e1b9	-0.043428157
225	0x3d49e389	0.04928926
226	0x3daf6c65	0.085655965
227	0xbd550144	-0.05200316
228	0x3d86dd35	0.06585161
229	0xbde3abee	-0.11116777
230	0xbaf978ad	-0.0019033157
231	0xbb5af35a	-0.003340921
232	0xbd95936f	-0.07303511
233	0x3dc95a38	0.09831661
234	0xbc979ea8	-0.01850827
235	0xbd70be62	-0.058775313
236	0x3c0a7e36	0.008452943
237	0xbdd0a3a4	-0.10187462
238	0x3e3538fd	0.1769752
239	0xbed6e828	-0.41973996
240	0x3d9fe9f4	0.07808295
241	0xbc2d69e6	-0.01058433
242	0xbf15fc85	-0.5858844
243	0x3e26ffd6	0.16308531
244	0xbee2cf05	-0.44298568
245	0xbd7284a1	-0.059208516
246	0x3e2517d4	0.16122371
247	0xbeae4d64	-0.3404342
248	0xbdd4fe10	-0.10400021
249	0x3ce55fed	0.027999843
250	0xbd14742b	-0.0362436
251	0xbce5d3aa	-0.02805503
252	0x3dbd0ff7	0.09231561
253	0x3ca24a7d	0.01981091
254	0x3e3d6aa9	0.18497719
255	0xbe92032d	-0.28518048

lstm.bias_ih_l0 f4 [512]
0	0x3d07e9d1	0.03318197
1	0x3da11a1a	0.078663066
2	0xbc9686bd	-0.018374795
3	0x3d58a642	0.05289293
4	0xbd9d2f55	-0.076750435
5	0xbd49781b	-0.049186807
6	0x3de091b9	0.109652944
7	0xbd99b53f	-0.07505273
8	0x3dc75f90	0.09735024
9	0xba9bde41	-0.0011891798
10	0xbda7004f	-0.08154356
11	0x3d6f6f3c	0.05845569
12	0x3c565fe4	0.013084386
13	0x3dce2e97	0.1006748
14	0xba8ad849	-0.0010593022
15	0x3d4d0326	0.05005183
16	0xbc874d05	-0.016516218
17	0x3db5c856	0.08876102
18	0x3d12d8ab	0.035851162
19	0xbbd17a56	-0.0063927574
20	0x3d43373b	0.047660094
21	0xbd416909	-0.04721931
22	0xbcc831da	-0.024437834
23	0x3d3c202f	0.04592913
24	0xbca34cf1	-0.01993415
25	0x3d63eff7	0.05564877
26	0x3d708bae	0.05872696
27	0x3d3760fe	0.044770233
28	0x3da422dd	0.08014462
29	0xbd991fd3	-0.07476773
30	0x3c3f87ac	0.011690062
31	0x3bc08a14	0.005875835
32	0xbb2b1ab0	-0.0026108436
33	0x3d421d20	0.047391057
34	0x3daa6983	0.08320906
35	0xbd62f27f	-0.055407044
36	0x3d52f31f	0.05150139
37	0xbdb203a6	-0.08692102
38	0xbc6264e6	-0.013818001
39	0x3c6c0601	0.014405728
40	0x3c8b80a0	0.017029107
41	0xbd25f4a2	-0.040516503
42	0x3d5ce135	0.05392571
43	0xbd036539	-0.032078955
44	0xbd5bf558	-0.053700775
45	0xbd7b0a95	-0.06128939
46	0x3d871a31	0.065967925
47	0xbcb9be8e	-0.022673871
48	0x3d869634	0.06571618
49	0x3d4aaa01	0.049478535
50	0xbd801c0d	-0.0625535
51	0x3ddf459c	0.10901949
52	0x3d6fa47e	0.05850648
53	0x3c9bc8b7	0.019016607
54	0x3d6de06e	0.05807536
55	0xbd597f6a	-0.053100027
56	0x3b3d2610	0.0028861798
57	0x3d8bfaad	0.06834922
58	0x3cce7597	0.025202556
59	0xbc9be8f0	-0.019031972
60	0x3b818ec3	0.003953786
61	0xbdbd3930	-0.09239423
62	0xbce2928e	-0.027657773
63	0x3bfde28b	0.0077479533
64	0x3df39fae	0.11895691
65	0xbc41dff6	-0.011833182
66	0x3d4f0d80	0.050549984
67	0xbcf60693	-0.030032432
68	0x3c6e12c1	0.0145308385
69	0xbd846fe9	-0.06466658
70	0xbc9984ff	-0.018740175
71	0xbd3de1c3	-0.04635788
72	0xbd85524a	-0.06509836
73	0x3d167b7a	0.03673885
74	0x3c9f3b07	0.019437326
75	0x3d6c5b7b	0.05770443
76	0x3cc39fae	0.023879852
77	0x3d9a407f	0.07531833
78	0xbc17eca3	-0.009272727
79	0x3dae34b9	0.0850615
80	0xbcb83b4c	-0.022489212
81	0xbccab319	-0.024743604
82	0x3d8283de	0.06372808
83	0x3db2c266	0.08728485
84	0x3da65f26	0.08123617
85	0xbd45e4ad	-0.048313785
86	0x3cfc30c9	0.030784981
87	0xbd2bef61	-0.041976336
88	0xbd434cb3	-0.047680568
89	0xba01458f	-0.00049313245
90	0x3db20e96	0.08694188
91	0x3c4c2994	0.012461085
92	0x3ca66646	0.02031244
93	0x3dfd589d	0.12370417
94	0x3c7ce90c	0.015436422
95	0xbcca5546	-0.024698865
96	0xbd59ab13	-0.053141665
97	0x3d9f15d0	0.07767832
98	0xbc8edede	-0.017440256
99	0x3aa90422	0.0012894908
100	0x3a28651b	0.00064237573
101	0xbd68eaf5	-0.056864697
102	0xbd0ec50d	-0.03485589
103	0x3c913aeb	0.01772829
104	0xbd42db52	-0.04757244
105	0xbd3e6ad8	-0.046488613
106	0xbd5a8df8	-0.05335805
107	0x3c96e618	0.018420264
108	0x3ce896b6	0.028392177
109	0xbc83de80	-0.016097307
110	0xbcb49ba5	-0.022046873
111	0x3dca05b3	0.09864368
112	0xbcd26460	-0.025682628
113	0xbd5e3596	-0.054250322
114	0x3d72a278	0.059236974
115	0x3d13f61c	0.03612338
116	0x3d95913e	0.073030934
117	0x3d385f33	0.045012664
118	0xbd93f611	-0.07224668
119	0x3d25e6b5	0.040503222
120	0xbaa6d7dc	-0.0012729126
121	0x3c4c0f23	0.012454781
122	0xbd62c331	-0.05536193
123	0xbcf08ca8	-0.029363945
124	0x3d5cbb9e	0.053889863
125	0x3d52e07e	0.051483624
126	0x3ce3d9c5	0.027813802
127	0xbcdfb6b6	-0.027308803
128	0xbd27b3e2	-0.040943034
129	0x3d953b76	0.07286732
130	0x3da8c638	0.08240932
131	0x3d736871	0.059425775
132	0xbda51635	-0.08060876
133	0xbd216e7c	-0.039412007
134	0x3da80ce5	0.082055844
135	0xbb037d17	-0.0020063573
136	0x3a1d2748	0.0005994928
137	0x3da9e685	0.08295921
138	0x3d04e92c	0.032448933
139	0x3d953426	0.07285337
140	0x3cbdef96	0.023185533
141	0x38ca6542	9.650971e-05
142	0xbd8ea0fd	-0.069643
143	0x3d20f2da	0.0392941
144	0xbd1dbead	-0.03851192
145	0xbcf4a130	-0.029862016
146	0xbb5d0656	-0.00337257
147	0x3caa5c4e	0.020795967
148	0x3bbe70e5	0.005811798
149	0x3d859994	0.06523433
150	0x3c7b9b93	0.015356916
151	0xbccfd666	-0.025370788
152	0x3c6897e7	0.014196373
153	0xba6332eb	-0.000866695
154	0x3cfc6e44	0.030814297
155	0x3d0de766	0.034644507
156	0xbd105db7	-0.035245623
157	0x3d8190b1	0.06326426
158	0xbba0484a	-0.00489143
159	0x3cfa9538	0.030588731
160	0xbda34159	-0.079714485
161	0xbd81a44a	-0.06330164
162	0xbcb32e0b	-0.021872541
163	0x3d68e949	0.056863103
164	0xbd4ab8c1	-0.0494926
165	0xbbd2e39b	-0.006435824
166	0x3b0490e2	0.0020227958
167	0xbc788cea	-0.015170315
168	0x3dbe6c4c	0.09298
169	0xbd61b017	-0.055099573
170	0xbd931f59	-0.071837135
171	0xbd32d7b9	-0.04366276
172	0x3c7b09c2	0.015322151
173	0x3d0dc043	0.034607183
174	0x3c4cfcae	0.012511415
175	0xbd3d18ae	-0.046166115
176	0x3d97f6dd	0.07420132
177	0xbc63d3d1	-0.013905481
178	0x3ad1b2d2	0.0015998727
179	0x3d532d79	0.051557038
180	0x3da3f7d8	0.08006257
181	0x3c2d2eb0	0.010570213
182	0x3db95f94	0.09051433
183	0xbd1a87fc	-0.03772734
184	0x3d1e5e1d	0.038663972
185	0x3dbacea8	0.09121448
186	0xbd1e0906	-0.038582824
187	0x3dce7e24	0.10082653
188	0xbdd554f7	-0.104165964
189	0x3c571745	0.0131281065
190	0x3d99b031	0.07504309
191	0x3d9fa315	0.07794777
192	0xbd8d79c4	-0.069079906
193	0xbc0d24e5	-0.008614753
194	0x3ca26990	0.019825727
195	0xbd8eaf9e	-0.0696709
196	0xbc9d64b0	-0.01921305
197	0xbd9ddbf0	-0.077079654
198	0xbc4fb47e	-0.01267731
199	0x3d57ce9a	0.052687265
200	0xbd902bf6	-0.07039635
201	0x3be3f5ba	0.006956783
202	0xbdc96005	-0.098327674
203	0xbcf850ae	-0.030311909
204	0xbd506064	-0.050873175
205	0x3d826f17	0.06368845
206	0x3d4cc42e	0.04999178
207	0x3d24d7fd	0.040245045
208	0xbd732cde	-0.05936896
209	0xbd580ad0	-0.052744687
210	0xbcbd9af3	-0.023145175
211	0x3c98a91b	0.018635323
212	0x3d6f6b4f	0.058451947
213	0x3d87f51a	0.06638546
214	0x3d3c26c3	0.045935404
215	0x3df1c39b	0.11804887
216	0xbb9c82ca	-0.0047763335
217	0x3d364063	0.044494998
218	0x3db0e490	0.08637345
219	0xbd53ea6e	-0.05173724
220	0x3d7a9b34	0.06118317
221	0x3d8d0da6	0.06887369
222	0x3d467dee	0.04845994
223	0x3bde2193	0.0067789047
224	0xbcea17c6	-0.02857579
225	0xbb7dba98	-0.0038715955
226	0x3d24a90f	0.04020029
227	0xbdc5dfb2	-0.09661807
228	0xbd8935be	-0.06699704
229	0xbcfd6bf5	-0.030935267
230	0xbc49a79c	-0.012308028
231	0xbb2731c6	-0.0025511845
232	0xbd87c096	-0.0662853
233	0x3cf6cfdc	0.030128412
234	0xbd7058fe	-0.05867862
235	0x3d7c4c22	0.061596043
236	0xbd928f01	-0.07156182
237	0x3d7f85ae	0.062383346
238	0x3ae8cb97	0.001776087
239	0x3d57a056	0.052643143
240	0xbd95d3f0	-0.073158145
241	0xbd853086	-0.06503396
242	0xbc9adb34	-0.018903352
243	0x3db1fa3a	0.08690305
244	0xbc1cfbb7	-0.009581498
245	0xbb58dd82	-0.0033091013
246	0x3d84fe44	0.0649381
247	0x3dd8dd6c	0.10589108
248	0xbd162cc0	-0.03666377
249	0x39af4d68	0.00033436273
250	0x3d9a036b	0.07520183
251	0x3d25db2e	0.04049223
252	0x3dbb9cac	0.09160742
253	0x3bcba405	0.006214621
254	0xbc396f97	-0.011318109
255	0x3b8105e8	0.0039374717

lstm.bias_hh_l0 f4 [512]
0	0x3d64dec9	0.055876527
1	0xbd351ddf	-0.04421794
2	0x3d2d2c9d	0.042278875
3	0x3d6a343a	0.057178713
4	0x3d37e93b	0.04490016
5	0x3cfe72b2	0.03106055
6	0xbd83404f	-0.0640875
7	0xbcd62052	-0.026138458
8	0x3da97e21	0.0827601
9	0x3d8a36ea	0.06748755
10	0xbc60dfd4	-0.01372524
11	0x3d518d68	0.051160246
12	0xbd0d01e5	-0.034425635
13	0x3d5c19f3	0.053735685
14	0x3dd68841	0.10475207
15	0xbda7c905	-0.08192638
16	0x3db623cf	0.08893549
17	0xbbe8e307	-0.007107142
18	0x3d99972e	0.07499538
19	0xbc6d872d	-0.01449756
20	0xbd8813a3	-0.066443704
21	0x3bc8b081	0.0061245565
22	0xbd194883	-0.03742267
23	0xbc055f62	-0.008140417
24	0xbcfefc13	-0.031126058
25	0x3ba9f666	0.0051868437
26	0xbb7272b6	-0.0036994643
27	0xbc67d1e6	-0.014149165
28	0xbd2b6f5c	-0.041854247
29	0xbb1ee025	-0.0024242487
30	0xbccb3b3b	-0.024808517
31	0x3cebbc2e	0.028776255
32	0xbba62c50	-0.0050712004
33	0x3d8cf5ab	0.06882795
34	0x3d952e63	0.07284238
35	0x3dd850f1	0.10562313
36	0xbc8d2dab	-0.01723369
37	0x3d4810d8	0.04884419
38	0xbc97417a	-0.018463839
39	0x3d9556db	0.07291957
40	0xbc705e55	-0.014670928
41	0x3d841795	0.064498104
42	0x3dcfdb4e	0.10149251
43	0x3bd8c9d6	0.0066158576
44	0xbdb1c25d	-0.0867965
45	0xbcca261e	-0.024676379
46	0x3d8e8cdf	0.06960463
47	0x3d2bccce	0.041943364
48	0x3b921471	0.004458003
49	0x3c2cb36c	0.010540824
50	0x3c7c2249	0.015389034
51	0x3dd4d4d8	0.10392159
52	0x3d7e2e0e	0.06205564
53	0x3ca5afc3	0.020225411
54	0x3cb3a8c8	0.021931067
55	0x3da24e26	0.07925062
56	0xbd1e6b61	-0.038676623
57	0xbd4a72b8	-0.04942581
58	0x3dd0c234	0.10193291
59	0x3d2085f9	0.039190266
60	0x3d2dff2e	0.042479686
61	0xbd91efd5	-0.071258225
62	0xbd829e17	-0.063778095
63	0x3d000e4d	0.03126364
64	0x3dae3cfa	0.08507724
65	0xbd5e3b1f	-0.0542556
66	0x3d36a190	0.04458767
67	0xbd76ffe0	-0.060302615
68	0xbc144496	-0.009049555
69	0xbcb0c146	-0.021576535
70	0x3c718dc9	0.014743277
71	0xbc6db6ff	-0.014508962
72	0x3da926f4	0.08259383
73	0x3c628239	0.013824993
74	0x3b0205eb	0.0019839953
75	0x3dd152ab	0.10220846
76	0x3d105768	0.035239607
77	0x3c97618e	0.018479135
78	0xbd55917b	-0.052140694
79	0x3da48d31	0.080347426
80	0x3d9a8304	0.075445205
81	0x3c5f15b5	0.013616015
82	0xbdddd9ae	-0.10832535
83	0x3c1e85dc	0.009675469
84	0xbc8288bb	-0.015934339
85	0x3dae6150	0.08514655
86	0x3d5d6894	0.05405481
87	0x3d9f7194	0.07785335
88	0x3c5193e2	0.012791606
89	0x3db04bc2	0.086082
90	0x3d48b0bc	0.048996672
91	0xbde5d2c5	-0.11221842
92	0x3de6fa3e	0.11278199
93	0xbbff6e21	-0.007795111
94	0xbd78b409	-0.06071857
95	0x3cfb935f	0.03070992
96	0x3c49270e	0.012277378
97	0xbd5a8080	-0.053345203
98	0xbd840d2b	-0.06447824
99	0x3d37ce98	0.044874758
100	0xbd623349	-0.05522469
101	0xbd4c5979	-0.049890015
102	0xbd4ceeb3	-0.05003233
103	0xbd74c2ab	-0.059755962
104	0xbc7e4801	-0.015520097
105	0x3da4c1a0	0.080447435
106	0x3d590e71	0.052992288
107	0xbd9693e5	-0.073524274
108	0xbd08822c	-0.033327267
109	0x3d12c44b	0.03583173
110	0x3d814c5e	0.06313394
111	0xbd25bbcb	-0.040462296
112	0xbd4f739e	-0.05064737
113	0x3d086e6b	0.033308428
114	0x3de5cce9	0.11220724
115	0xbd2e3fc4	-0.04254128
116	0x3c7ed122	0.015552791
117	0x3d626f1b	0.05528174
118	0xbd6bf66d	-0.057608057
119	0x3da306d4	0.07960287
120	0x3da39703	0.079877876
121	0xbd9bf292	-0.07614626
122	0x3c1f34e9	0.009717205
123	0x3dc0d659	0.094158836
124	0x3c9fdc70	0.019514292
125	0xbd769306	-0.060198806
126	0xbd57e609	-0.052709613
127	0x3c722498	0.014779232
128	0xbb63eb8d	-0.003477785
129	0xbd08dbd9	-0.033412788
130	0xbca323df	-0.019914566
131	0xbd370641	-0.0446837
132	0x3d251bde	0.04030978
133	0x3d91a5ed	0.07111726
134	0x3cff03c9	0.031129735
135	0xbc04bfeb	-0.008102397
136	0xbd09efa8	-0.03367582
137	0x3dc500fe	0.0961933
138	0x3d195b84	0.03744079
139	0xbc46a06f	-0.012123211
140	0xbd809536	-0.0627846
141	0xbcff8470	-0.03119108
142	0xbdbfddc8	-0.09368473
143	0x3c8b1310	0.016976863
144	0xbda952f5	-0.08267776
145	0xbdcf11b5	-0.10110799
146	0x3d0c576a	0.034263052
147	0xbd5a8195	-0.053346235
148	0x3cedd07b	0.029030075
149	0xbda90d47	-0.082544856
150	0x3d0c135c	0.03419815
151	0xbd5f37e7	-0.054496672
152	0x3d280963	0.041024577
153	0x3d3bfdae	0.045896225
154	0xbdae9861	-0.08525158
155	0x3cbb8c81	0.022894146
156	0xbda2f934	-0.07957688
157	0x3db11198	0.08645934
158	0x3dcde844	0.10054067
159	0x3b7b9819	0.0038390218
160	0xbce0f8e9	-0.02746244
161	0xbd850256	-0.06494586
162	0x3ddfe537	0.10932391
163	0x3d80393c	0.062609166
164	0x3d52094e	0.051278405
165	0xbd0416b9	-0.032248233
166	0x3d8c094b	0.0683771
167	0x3d012f26	0.031539105
168	0x3d912419	0.07086963
169	0xbd150da0	-0.036389947
170	0xbd8763c9	-0.066108294
171	0xbcb45f07	-0.022017969
172	0x3cbad67f	0.022807358
173	0x3db9125c	0.09036705
174	0x3d11280d	0.035438586
175	0x3db07c0a	0.086174086
176	0x3d746a26	0.059671544
177	0xbb06e966	-0.0020585894
178	0x3d482a2b	0.04886834
179	0xbcca6f46	-0.024711262
180	0x3a9f36b0	0.0012147035
181	0x3c389fc0	0.011268556
182	0x3da6d82e	0.08146702
183	0xbbe13fe0	-0.0068740696
184	0xbca91815	-0.020641366
185	0xbadbd2f7	-0.0016771246
186	0x3c0c986a	0.00858126
187	0x3dac256c	0.08405575
188	0x3bbb0e00	0.005708456
189	0xbd0ca626	-0.03433814
190	0x3c9c9734	0.019115068
191	0x3cebfad4	0.028806128
192	0xbd850ac9	-0.06496198
193	0x3cc3fda8	0.023924664
194	0x3d559ec8	0.05215338
195	0x3d2aa27b	0.04165886
196	0xbc98fc4a	-0.018674988
197	0x3d50983d	0.050926436
198	0x3d33c6d9	0.043890808
199	0xbb6b2df5	-0.0035885547
200	0x3d4f941c	0.050678357
201	0x3cc50bd4	0.024053492
202	0x3c8e05a5	0.017336676
203	0x3d820f04	0.0635052
204	0x3d89ef99	0.06735153
205	0xbd6d06cf	-0.05786782
206	0x3c554006	0.013015753
207	0xbd38432e	-0.044985943
208	0x3d54e776	0.05197855
209	0x3da19dbb	0.07891413
210	0x3d429dc6	0.047513746
211	0xbc3dc641	-0.011582912
212	0x3b047931	0.0020213837
213	0xbba53a63	-0.0050423606
214	0x3dbc84de	0.0920503
215	0xbc138910	-0.009004846
216	0xbdc00663	-0.09376218
217	0xbc51e509	-0.012810954
218	0xbd969dea	-0.073543385
219	0x3c1cc2f0	0.009567961
220	0xbdabbba0	-0.08385396
221	0x3cd4f4e6	0.025995683
222	0xbd943a71	-0.07237709
223	0xbbe40190	-0.006958194
224	0xbd6c8f5c	-0.057753906
225	0xbd5b0706	-0.053473495
226	0xbd9fbd1d	-0.07799742
227	0xbd234818	-0.039863676
228	0x3db1efe3	0.08688333
229	0xbd869437	-0.065712385
230	0x3d573bd6	0.0525473
231	0xba76fa03	-0.000942141
232	0xbda82c4b	-0.08211573
233	0x3dc435df	0.095805876
234	0x3c9cb42e	0.019128885
235	0xbd49a7bb	-0.049232226
236	0x3c32de13	0.010917204
237	0x3db6770f	0.089094274
238	0x3d3877bc	0.045036063
239	0x3bce6197	0.0062982547
240	0xbd116cf7	-0.035504308
241	0xbd968bc9	-0.07350881
242	0xbd7b9524	-0.06142153
243	0xbb83cb11	-0.00402201
244	0x3dcb3c73	0.09923639
245	0xbd2d3d1a	-0.0422946
246	0xbca8fa85	-0.02062727
247	0xbc2b2813	-0.010446566
248	0x3dc05287	0.09390741
249	0xbc9a7274	-0.018853404
250	0x3d728557	0.059209194
251	0xbd54e649	-0.05197743
252	0x3dbcb880	0.09214878
253	0xbcac0744	-0.020999558
254	0x3b046965	0.0020204422
255	0xbd9d5459	-0.07682104

fc.weight f4 [24, 128]
0	0x3aee30bc	0.0018172483
1	0xbf1e4c94	-0.618356
2	0xbd7a77e0	-0.061149478
3	0xbd927a90	-0.07152283
4	0x3dad1595	0.08451382
5	0xbc8e2927	-0.017353607
6	0x3f1ac4b1	0.6045638
7	0xbde4d55b	-0.11173507
8	0xbcbb85b9	-0.022890912
9	0xbd9c7ae2	-0.076406255
10	0x3d49be5f	0.049253818
11	0x3d75aea9	0.059981022
12	0xbd72b290	-0.05925232
13	0xbf0efa19	-0.5585037
14	0xbdb80011	-0.08984388
15	0x3cf4390c	0.029812358
16	0xbc349dab	-0.011023919
17	0x3c5660d2	0.013084607
18	0xbd546f17	-0.051863756
19	0x3ed4adae	0.41538757
20	0x3f013184	0.5046618
21	0xbf272c53	-0.6530201
22	0x3f024f5c	0.5090234
23	0xbd8a0ac2	-0.06740333
24	0x3d8b998a	0.068163946
25	0x3cf110ae	0.029426899
26	0xbc108010	-0.008819595
27	0xbc2388cf	-0.009981348
28	0xbd307bf0	-0.043086946
29	0xbda31cfd	-0.079645135
30	0xbda8dff6	-0.08245842
31	0xbd91eae4	-0.0712488
32	0x3f15b6e3	0.5848219
33	0x3db6d708	0.08927733
34	0x3d8ac84c	0.06776485
35	0xbda4503f	-0.08023118
36	0xbc0fc0f2	-0.008774029
37	0xbb8eda90	-0.004359551
38	0x3cfb78d1	0.030697258
39	0x3dd9ee0c	0.10641107
40	0xbdceb176	-0.10092442
41	0x3d9bdbc1	0.07610274
42	0xbd2079d6	-0.03917869
43	0x3f0bb2b2	0.5456954
44	0xbc8a0c34	-0.016851522
45	0x3cadd960	0.021221817
46	0xbd884c93	-0.066552304
47	0x3d582037	0.052765097
48	0xbc94b36e	-0.018151965
49	0xbd4669e2	-0.04844082
50	0xbd24007a	-0.040039517
51	0xbda94965	-0.08265952
52	0xbd80b5fa	-0.06284709
53	0xbd0d158a	-0.03444437
54	0x3d4c24c8	0.049839765
55	0xbd88c8fd	-0.066789605
56	0x3ef100ce	0.47070926
57	0xbc5e6de3	-0.013576004
58	0x3bea88b1	0.007157408
59	0xbf0c7b30	-0.5487547
60	0x3f33cd6e	0.70235336
61	0x3cbd324e	0.023095276
62	0xbdd0d4c0	-0.10196829
63	0x3a8c6022	0.0010709802
64	0xbf0ee35d	-0.5581568
65	0xbd0017b5	-0.03127261
66	0x3d3a8403	0.045536052
67	0xbe7ae204	-0.2450028
68	0x3f3de24c	0.74173427
69	0x3bba7b25	0.0056909495
70	0xbd89c24c	-0.06726512
71	0x3d6f7852	0.058464356
72	0x3f24d5df	0.6438884
73	0xbc6ac833	-0.014329958
74	0x3c803e36	0.015654664
75	0xbf0c0b83	-0.54705065
76	0x3c9209fd	0.017827028
77	0xbd0835d6	-0.033254467
78	0xbc1a6b21	-0.009424956
79	0xbd63e12c	-0.055634663
80	0xbc314504	-0.010819677
81	0xbee41fe4	-0.4455558
82	0x3e4062d1	0.18787695
83	0xbeac43d0	-0.33645487
84	0x3f32606e	0.6967839
85	0xbf6cb922	-0.9246999
86	0xbccc50ed	-0.024940932
87	0xbed193b1	-0.40932992
88	0x3efc1d0a	0.49240905
89	0xbdaeae28	-0.085293114
90	0xbb5479f1	-0.0032421316
91	0x3f355676	0.70835054
92	0xbf027de7	-0.5097336
93	0x3cd0489d	0.02542525
94	0xbd560aa2	-0.052256234
95	0xbb77a131	-0.0037785287
96	0x3c834efa	0.01602887
97	0xbcbaed12	-0.022818122
98	0x3c9968af	0.018726675
99	0xbd11d506	-0.035603546
100	0xbd2ba00c	-0.04190068
101	0x3db40fe4	0.087920934
102	0x3c48acbf	0.012248217
103	0x3cba3497	0.022730155
104	0xbd82d639	-0.06388516
105	0x3d4103c0	0.047122717
106	0xbd408bf5	-0.047008473
107	0x3d8e42b7	0.069463186
108	0x3da9831b	0.082769595
109	0x3caa3c80	0.020780802
110	0x3d0c91ec	0.03431885
111	0x3f108625	0.5645469
112	0xbc691f27	-0.014228619
113	0xbcab3cef	-0.020903079
114	0xbeeab648	-0.45842195
115	0xbd85d9e4	-0.065357
116	0xbf3a78ba	-0.72840464
117	0xbc44327f	-0.01197493
118	0xbf0db06b	-0.5534732
119	0xbed8e12c	-0.42359293
120	0xbf4b896e	-0.79506576
121	0x3d8278b5	0.06370679
122	0x3d991525	0.07474736
123	0xbba2f40b	-0.00497294
124	0xbed6a7ca	-0.41924888
125	0xbd7e832f	-0.062136825
126	0x3dcc995c	0.099901885
127	0x3d436a3d	0.04770874
128	0xbcdf887c	-0.02728676
129	0xbf48eb69	-0.7848421
130	0xbd42981a	-0.047508337
131	0x3c81c3c4	0.015840419
132	0xbc38bcf8	-0.011275522
133	0x3c300a18	0.010744594
134	0xbeba9e22	-0.3644877
135	0x3d70fb46	0.058833383
136	0xbcc79145	-0.024361262
137	0x3c07a06d	0.008277995
138	0xbd5610b2	-0.052262016
139	0x3daebc66	0.08532028
140	0xbd2a8edc	-0.041640148
141	0xbed6c851	-0.41949704
142	0x3da3e6dd	0.08003018
143	0x3e2ba296	0.1676124
144	0xba510262	-0.00079730724
145	0xbd957278	-0.07297224
146	0x3df4c8bb	0.11952349
147	0x3f104a42	0.5636331
148	0xbece0e95	-0.402455
149	0x3ef1830d	0.47170296
150	0x3f0a932e	0.5413083
151	0xbbc00f86	-0.0058612255
152	0xbcaa0d54	-0.020758308
153	0xbda10e49	-0.07864053
154	0x3d8cd33d	0.06876228
155	0x3d2cc775	0.042182405
156	0xbdac2670	-0.08405769
157	0x3c96cbc2	0.018407706
158	0x3e2dd201	0.16974641
159	0xbe1aa025	-0.15100153
160	0xbf33e6dc	-0.7027414
161	0xbd53795d	-0.051629413
162	0x3e2cf8cd	0.16891785
163	0xbd96df1a	-0.07366772
164	0xbd907c03	-0.07054903
165	0xbda96566	-0.08271293
166	0xbb88e4f3	-0.0041776835
167	0xbb874141	-0.004127652
168	0x3c9a88c2	0.01886404
169	0x3dc9ffd2	0.09863247
170	0xbe1d9def	-0.15392278
171	0x3f244bce	0.6417817
172	0xbd851cd6	-0.06499641
173	0x3d03b85d	0.032158244
174	0xbdd32fee	-0.10311876
175	0x3cfa517f	0.030556438
176	0xbbf2cebb	-0.007409898
177	0xbe108f42	-0.14117149
178	0x3dfcc381	0.12341977
179	0x3cef6298	0.029221818
180	0xbd38f420	-0.04515469
181	0x3ce9d90d	0.02854588
182	0xbd4f22bb	-0.05057023
183	0x3ce1c748	0.027560845
184	0xbef781ca	-0.4834121
185	0x3d788eb1	0.060682956
186	0x3d8b4086	0.06799416
187	0x3e1de6ef	0.15420125
188	0xbe0319cf	-0.12802814
189	0x3cebc2b1	0.02877936
190	0x3cd2c85d	0.025730306
191	0x3c074a59	0.008257472
192	0x3eb8ee74	0.36119425
193	0x3e262b5d	0.1622748
194	0x3e272577	0.16322885
195	0x3edbde5d	0.42943087
196	0x3f918e70	1.1371593
197	0x3d5cc21a	0.053896047
198	0xbe174ee2	-0.14776185
199	0xbb504fa2	-0.0031785746
200	0xbf34437b	-0.7041547
201	0x3d5bfc7e	0.053707592
202	0xbc6639f9	-0.014051908
203	0xbf0a94f5	-0.5413354
204	0xbcb94e14	-0.022620238
205	0x3b42d588	0.0029729325
206	0xbd8801db	-0.06640979
207	0x3a60ef46	0.00085805764
208	0x3d0f873f	0.03504109
209	0x3f2c4cc6	0.67304647
210	0xbf6082e4	-0.87699723
211	0x3f0c4d29	0.5480524
212	0xbf122570	-0.57088375
213	0xbf3cf27f	-0.7380752
214	0x3cc9581e	0.02457815
215	0xbf186cc2	-0.5954095
216	0xbf0b1ded	-0.5434254
217	0x3cf2f36f	0.029657094
218	0x3d3e6726	0.04648509
219	0x3f2a0fab	0.6643016
220	0x3f233627	0.63754505
221	0x3cce8547	0.025210036
222	0xbe249a91	-0.16074587
223	0xbc5b21c2	-0.013374748
224	0x3d98621b	0.07440587
225	0xbdaba3f5	-0.08380882
226	0x3d268ede	0.040663593
227	0x3c7d40c3	0.015457335
228	0x3d47dd2c	0.04879491
229	0xbd9efc53	-0.07762971
230	0x3de9f7c7	0.11424213
231	0x3cb42862	0.021991912
232	0x3dc03d41	0.09386683
233	0xbda31ccc	-0.07964477
234	0xbdd2ef04	-0.10299495
235	0xbd90263d	-0.070385434
236	0xbd8dd03a	-0.06924482
237	0x3d916d9b	0.07100984
238	0xbce41844	-0.027843602
239	0x3f8954f9	1.0729057
240	0x3c8c1195	0.017098228
241	0x3cebddd0	0.028792292
242	0xbd8dfabd	-0.0693259
243	0x3cd4ec8d	0.025991702
244	0x3eedfdbe	0.46482652
245	0xbdf42e7e	-0.1192293
246	0x3efea58b	0.49735674
247	0x3eb458aa	0.35223895
248	0x3ebf47f6	0.3735959
249	0xbd58a86d	-0.052895
250	0xbd8f72f0	-0.070043445
251	0x3e07327b	0.1320285
252	0x3ecb62e7	0.39723894
253	0x3cee7514	0.029108562
254	0x3da06a99	0.07832832
255	0xbc90e52e	-0.017687406

fc.bias f4 [24]
0	0x39d1c28b	0.00040008532
1	0xba4de972	-0.00078549155
2	0xbd7d707a	-0.061874844
3	0x3de146fe	0.10999869
4	0xbb4d047b	-0.0031283188
5	0x3dccf0db	0.10006877
6	0x3da680d3	0.0813004
7	0x3c748498	0.014924191
8	0xbd03da3a	-0.03219054
9	0xbd9b43d0	-0.075812936
10	0x3d37e3d1	0.044894997
11	0x3dd976cc	0.10618362
12	0xbe2cd3bd	-0.16877647
13	0x3b8de590	0.0043303445
14	0xbd537e41	-0.051634077
15	0xbdab15a4	-0.08353737
16	0xbd233f17	-0.03985509
17	0xbd9531c5	-0.072848834
18	0xbd7e6d04	-0.062115684
19	0xbce65305	-0.028115759
20	0x3da24512	0.0792333
21	0x3a98e99e	0.0011666303
22	0xbd144c10	-0.03620535
23	0xbd9f0c73	-0.077660464
