results/models/strong/strong_acce-gyro_tcn_0_checkpoint.pt (torch_old, 726716 bytes, 54 tensors)

acce_gyro_TCN.0.network.0.conv.bias f4 [32]
0	0x3e5f595d	0.21811433
1	0x3e09d754	0.13461047
2	0x3a6700de	0.000881208
3	0xbbded749	-0.0068005663
4	0xbcc4d26d	-0.02402612
5	0xbd145313	-0.03621204
6	0x3d9eddab	0.077571236
7	0x3dbd102b	0.092315994
8	0x3afac35e	0.001913171
9	0x3e1163ec	0.14198273
10	0xbe55eaa9	-0.20890297
11	0xbdf17214	-0.11789337
12	0xbc28e482	-0.010308387
13	0xbdb76f3e	-0.08956765
14	0x3d67f68a	0.056631602
15	0xbdf47f8a	-0.11938389
16	0x3e5971fb	0.21234886
17	0xbe45d25f	-0.19318531
18	0x3a8d20ba	0.00107672
19	0xbbb281d1	-0.005447604
20	0xbbb8a3e7	-0.005634773
21	0x3d4a1a39	0.049341414
22	0x3e01d77f	0.12679861
23	0xbd32336c	-0.04350607
24	0x3e1f8fc6	0.15582189
25	0x3ddefcbc	0.10888049
26	0xbccae2b3	-0.024766302
27	0xbe1b4f20	-0.15166903
28	0x3d115411	0.035480563
29	0x3b960490	0.0045781806
30	0xbc99f8a1	-0.018795313
31	0x3a7fc9a6	0.0009757526

acce_gyro_TCN.0.network.0.conv.weight_g f4 [32, 1, 1]
0	0x3f35f95d	0.71083623
1	0x3f43ccab	0.76484174
2	0x3f33643f	0.7007484
3	0x3f213732	0.62974846
4	0x3f10833a	0.56450236
5	0x3f282610	0.6568308
6	0x3f131b3b	0.57463425
7	0x3f37b638	0.7176242
8	0x3f10f38b	0.5662162
9	0x3f28b736	0.6590456
10	0x3f28147c	0.65656257
11	0x3f200d5a	0.6252037
12	0x3f116d9c	0.56807876
13	0x3f379db8	0.71725035
14	0x3f1ad417	0.60479873
15	0x3f186532	0.5952941
16	0x3f48ad9a	0.78389895
17	0x3f53143b	0.82452744
18	0x3f2b1285	0.66825134
19	0x3f330d76	0.69942415
20	0x3f181968	0.59413767
21	0x3f29a69c	0.6626985
22	0x3f27bd0c	0.6552284
23	0x3f516b87	0.818047
24	0x3f37b641	0.7176247
25	0x3f2cfd60	0.6757412
26	0x3f17371b	0.5906846
27	0x3f312fca	0.69213545
28	0x3f2a88bf	0.6661491
29	0x3f1d237e	0.6138228
30	0x3f271a51	0.6527453
31	0x3f2bd40a	0.6712042

acce_gyro_TCN.0.network.0.conv.weight_v f4 [32, 6, 3]
0	0xbe0b221b	-0.13587229
1	0xbd6fe01a	-0.05856333
2	0x3da0b5e5	0.07847194
3	0xbcceee93	-0.025260245
4	0x3e1305ff	0.14357756
5	0xbe392bac	-0.18083066
6	0xbe14bde7	-0.14525567
7	0x3e82ea48	0.25569367
8	0x3d3ae0fc	0.045624718
9	0x3eb7fd2b	0.3593534
10	0x3ecdd289	0.40199688
11	0x3e9bd4f8	0.3043592
12	0xbe0dd837	-0.1385201
13	0xbcd87972	-0.026425097
14	0x3d763775	0.06011148
15	0xbe713427	-0.23555051
16	0xbd5872a1	-0.052843694
17	0x3d8f10ab	0.06985601
18	0xbd18633d	-0.037204016
19	0x3ab6301a	0.0013899833
20	0x3db6855a	0.089121535
21	0x3cc51903	0.024059778
22	0xbd8719ab	-0.06596693
23	0xba621e6a	-0.0008625748
24	0xbd651fe8	-0.05593863
25	0xbc97ac90	-0.018514901
26	0x3e06494b	0.13113897
27	0xbd6541a8	-0.055970818
28	0xbe62f2b1	-0.22162892
29	0xbe267107	-0.16254054
30	0xbe95ba42	-0.29243666
31	0xbe8419b1	-0.2580085
32	0xbcaf73b4	-0.021417476
33	0xbeac3eb5	-0.33641592
34	0xbeac2465	-0.33621517
35	0xbea6a16e	-0.32545036
36	0x3d12d3da	0.03584657
37	0x3d937e91	0.07201875
38	0x3d484e68	0.0489029
39	0x3dc86e86	0.09786706
40	0xbdc704b0	-0.09717691
41	0xbc8e92ab	-0.017403921
42	0xbddf8c96	-0.109154865
43	0x3e77851e	0.24171874
44	0x3d2ea534	0.04263802
45	0x3e8b77ce	0.2723984
46	0x3e73cf15	0.23809464
47	0x3e9ae1ca	0.30250388
48	0xbe45b4b6	-0.19307217
49	0x3dd0d205	0.10196308
50	0xbe2f87cc	-0.17141646
51	0xbea709b5	-0.32624593
52	0xbe9969d7	-0.29963562
53	0xbe9a50e7	-0.3013985
54	0x3d4b91f5	0.049699742
55	0xbd054a36	-0.032541476
56	0xbe565192	-0.20929554
57	0x3c4e7c8f	0.012602939
58	0x3e27540f	0.1634066
59	0xbe1008aa	-0.14065805
60	0x3e0692b0	0.13141894
61	0xbc9bdd81	-0.01902652
62	0x3e10e812	0.14151028
63	0xbe659a18	-0.22422063
64	0xbe7d7dfc	-0.2475509
65	0xbe37dae7	-0.17954598
66	0xbdd05eea	-0.101743534
67	0xbe5259b2	-0.20542029
68	0xbe4e68c8	-0.20157158
69	0x3e0eb332	0.13935545
70	0xbd1b9602	-0.037984855
71	0x3d8a5c13	0.06755843
72	0x3e3ba41a	0.18324319
73	0x3e0860a7	0.1331812
74	0x3e3a5a59	0.18198527
75	0xbd7c165e	-0.06154477
76	0x3e2d9fbe	0.16955468
77	0x3e0d62d6	0.13807234
78	0xbcef54fa	-0.029215325
79	0xbc819daf	-0.01582226
80	0x3e5ebeed	0.2175252
81	0xbe507f56	-0.20361075
82	0xbc469542	-0.012120547
83	0x3db6c149	0.08923585
84	0x3b9708ef	0.0046092193
85	0xbe296d4d	-0.16545601
86	0x3ce2a708	0.027667537
87	0x3c388fd0	0.011264756
88	0x3df26bb4	0.11836949
89	0x3d873667	0.06602173
90	0xbd8f63a2	-0.07001425
91	0x3e2ae7e0	0.16690016
92	0x3dd92871	0.10603417
93	0x3d8cfeff	0.06884574
94	0xbdc625d6	-0.096751854
95	0xbde17047	-0.11007743
96	0x3e22c59d	0.15895696
97	0x3e90feaf	0.28319308
98	0x3c883150	0.016625077
99	0x3e89aac5	0.268881
100	0x3e734fae	0.23760864
101	0x3e8e24da	0.2776249
102	0x3ce1c1c7	0.02755822
103	0x3e29d422	0.16584828
104	0x3e199fea	0.15002409
105	0x39f6b5d5	0.00047056252
106	0x3d81ff15	0.06347481
107	0xbd8ea0f9	-0.06964297
108	0xbe86cf10	-0.2632985
109	0xbe59719c	-0.21234745
110	0xbe12c5cd	-0.14333268
111	0x3e024cf5	0.1272467
112	0x3c817064	0.015800662
113	0xbe0cfdb2	-0.13768652
114	0x3d93379b	0.0718834
115	0x3e436706	0.19082269
116	0x3deb5801	0.11491395
117	0xbddad433	-0.10685005
118	0xbd89c7fc	-0.06727597
119	0xbddad8a3	-0.106858514
120	0xbcb17a2a	-0.021664698
121	0x3dc658ff	0.096849434
122	0x3df03bf6	0.11730187
123	0x3d920082	0.07129003
124	0x3cac0b86	0.021001589
125	0x3de97214	0.11398712
126	0xbe2c8816	-0.16848788
127	0xbceadc6d	-0.02866956
128	0x3da6dbaf	0.0814737
129	0x3e77ded1	0.24206091
130	0x3e5dd2c1	0.21662427
131	0x3e28ed8e	0.1649687
132	0x3e24ede8	0.16106379
133	0x3df06a93	0.117390774
134	0xbe28242a	-0.16420045
135	0xbdf44cec	-0.11928734
136	0x3e6041a5	0.21900041
137	0x3e1782be	0.14795968
138	0xbe01d157	-0.12677513
139	0x3e769e87	0.24083911
140	0xbe128551	-0.14308669
141	0xbe10c3fc	-0.14137262
142	0x3e73a6bd	0.23794074
143	0xbe19c1b6	-0.15015301
144	0xbe344733	-0.17605285
145	0xbe06b82f	-0.13156198
146	0xbdbfd932	-0.093675986
147	0x3c98c266	0.018647384
148	0xbdd31921	-0.10307527
149	0x3e0d3d2f	0.13792871
150	0x3e72f220	0.23725176
151	0x3e61a8a3	0.22036986
152	0xbdc3c254	-0.095585495
153	0x3c909ca6	0.01765282
154	0x3d88e063	0.06683423
155	0xbd59e208	-0.053194076
156	0xbd758250	-0.05993873
157	0x3c116fd8	0.008876763
158	0xbe31edc0	-0.1737585
159	0xbe42eab8	-0.1903485
160	0xbe59cbea	-0.21269193
161	0xbe5259d0	-0.20542073
162	0x3dbff2f8	0.093725145
163	0xbda5a06e	-0.0808724
164	0xbb6cdbb8	-0.0036141705
165	0xbdab75b8	-0.083720624
166	0xbe3a7e09	-0.18212141
167	0xbe1238ee	-0.1427953
168	0xbe0f5d7d	-0.14000507
169	0xbd88160a	-0.066448286
170	0x3e0909a8	0.1338259
171	0x3e891747	0.26775572
172	0x3e543f4e	0.20727274
173	0x3e8edacc	0.27901304
174	0x3e1beaae	0.15226242
175	0x3cfd57fc	0.030925743
176	0xbe0e10f0	-0.13873649
177	0x3e5e4f8a	0.21710029
178	0x3e616eb8	0.22014892
179	0x3e46aa67	0.19400941
180	0x3d69a2db	0.057040077
181	0xbe2efc48	-0.17088425
182	0x3de4f6f8	0.11179918
183	0xbe2da32e	-0.1695678
184	0xbe0385c8	-0.12844002
185	0x3e2f7222	0.17133382
186	0xbdc375cf	-0.095439546
187	0xbdc98d86	-0.098414466
188	0xbc97d309	-0.018533247
189	0x3e8aaaa1	0.27083305
190	0x3e6e31e1	0.23261215
191	0x3e6863ee	0.2269437
192	0xbce8c2ec	-0.028413258
193	0xbd965c9f	-0.07341885
194	0x3dd15cf6	0.10222809
195	0x3a40a0fe	0.00073482085
196	0xbd9a1b8d	-0.07524786
197	0x3d120bf2	0.035655923
198	0xbdc46ade	-0.09590696
199	0xbdfaeb58	-0.122519195
200	0xbdffe9ed	-0.1249579
201	0x3d90b15e	0.0706508
202	0x3e55daec	0.20884293
203	0xbe687eb8	-0.2270459
204	0x3dd7d509	0.1053868
205	0xbdcf5d75	-0.101252474
206	0xbe279feb	-0.16369598
207	0x3e827b23	0.2548457
208	0x3e851f80	0.26000595
209	0x3e1c3bd4	0.15257198
210	0xbd81cbfe	-0.063377365
211	0xbe3a0b2d	-0.18168326
212	0xbd901d63	-0.07036855
213	0xbdcf3705	-0.10117916
214	0xbe421791	-0.18954302
215	0xbe3e6b9d	-0.18595739
216	0xbdb0f42a	-0.086403206
217	0x3c9b823b	0.018982997
218	0x3dd5c611	0.10438169
219	0x3d80edb4	0.06295338
220	0x3e4b1c86	0.198351
221	0x3e483620	0.19551897
222	0xbe0682c9	-0.13135828
223	0x3df9586d	0.12175069
224	0xbddec5dc	-0.108775824
225	0xbdc491d1	-0.09598125
226	0xbdd5cb8f	-0.10439216
227	0xbe14d6a9	-0.14535011
228	0x3dd5bb56	0.10436122
229	0x3e037339	0.12836923
230	0x3e3252b4	0.17414361
231	0xbde75cda	-0.11297007
232	0xbda5e7a1	-0.0810082
233	0xbd7cad60	-0.06168878
234	0xbe0990ff	-0.13434218
235	0x3e0d3079	0.13788022
236	0x3e1a516c	0.15070122
237	0xbdfcf8aa	-0.123521164
238	0x3e20fa1d	0.1572041
239	0xbe72836a	-0.23682943
240	0x3db53294	0.08847538
241	0xbe56aab4	-0.20963556
242	0xbe8196c0	-0.25310326
243	0x3e989b2e	0.29805893
244	0x3e70758a	0.23482338
245	0x3e9db75a	0.3080395
246	0xbdb98a20	-0.090595484
247	0xbd87da35	-0.066334166
248	0xbe10b095	-0.1412986
249	0xbdc90a21	-0.09816385
250	0xbe5d8d4b	-0.2163593
251	0xbe7d314e	-0.2472584
252	0x3c383a0d	0.011244309
253	0x3d1b3a36	0.03789731
254	0x3db7f477	0.08982175
255	0xbe1446ab	-0.14480083

acce_gyro_TCN.0.network.0.net.0.bias f4 [32]
0	0x3e5f595d	0.21811433
1	0x3e09d754	0.13461047
2	0x3a6700de	0.000881208
3	0xbbded749	-0.0068005663
4	0xbcc4d26d	-0.02402612
5	0xbd145313	-0.03621204
6	0x3d9eddab	0.077571236
7	0x3dbd102b	0.092315994
8	0x3afac35e	0.001913171
9	0x3e1163ec	0.14198273
10	0xbe55eaa9	-0.20890297
11	0xbdf17214	-0.11789337
12	0xbc28e482	-0.010308387
13	0xbdb76f3e	-0.08956765
14	0x3d67f68a	0.056631602
15	0xbdf47f8a	-0.11938389
16	0x3e5971fb	0.21234886
17	0xbe45d25f	-0.19318531
18	0x3a8d20ba	0.00107672
19	0xbbb281d1	-0.005447604
20	0xbbb8a3e7	-0.005634773
21	0x3d4a1a39	0.049341414
22	0x3e01d77f	0.12679861
23	0xbd32336c	-0.04350607
24	0x3e1f8fc6	0.15582189
25	0x3ddefcbc	0.10888049
26	0xbccae2b3	-0.024766302
27	0xbe1b4f20	-0.15166903
28	0x3d115411	0.035480563
29	0x3b960490	0.0045781806
30	0xbc99f8a1	-0.018795313
31	0x3a7fc9a6	0.0009757526

acce_gyro_TCN.0.network.0.net.0.weight_g f4 [32, 1, 1]
0	0x3f35f95d	0.71083623
1	0x3f43ccab	0.76484174
2	0x3f33643f	0.7007484
3	0x3f213732	0.62974846
4	0x3f10833a	0.56450236
5	0x3f282610	0.6568308
6	0x3f131b3b	0.57463425
7	0x3f37b638	0.7176242
8	0x3f10f38b	0.5662162
9	0x3f28b736	0.6590456
10	0x3f28147c	0.65656257
11	0x3f200d5a	0.6252037
12	0x3f116d9c	0.56807876
13	0x3f379db8	0.71725035
14	0x3f1ad417	0.60479873
15	0x3f186532	0.5952941
16	0x3f48ad9a	0.78389895
17	0x3f53143b	0.82452744
18	0x3f2b1285	0.66825134
19	0x3f330d76	0.69942415
20	0x3f181968	0.59413767
21	0x3f29a69c	0.6626985
22	0x3f27bd0c	0.6552284
23	0x3f516b87	0.818047
24	0x3f37b641	0.7176247
25	0x3f2cfd60	0.6757412
26	0x3f17371b	0.5906846
27	0x3f312fca	0.69213545
28	0x3f2a88bf	0.6661491
29	0x3f1d237e	0.6138228
30	0x3f271a51	0.6527453
31	0x3f2bd40a	0.6712042

acce_gyro_TCN.0.network.0.net.0.weight_v f4 [32, 6, 3]
0	0xbe0b221b	-0.13587229
1	0xbd6fe01a	-0.05856333
2	0x3da0b5e5	0.07847194
3	0xbcceee93	-0.025260245
4	0x3e1305ff	0.14357756
5	0xbe392bac	-0.18083066
6	0xbe14bde7	-0.14525567
7	0x3e82ea48	0.25569367
8	0x3d3ae0fc	0.045624718
9	0x3eb7fd2b	0.3593534
10	0x3ecdd289	0.40199688
11	0x3e9bd4f8	0.3043592
12	0xbe0dd837	-0.1385201
13	0xbcd87972	-0.026425097
14	0x3d763775	0.06011148
15	0xbe713427	-0.23555051
16	0xbd5872a1	-0.052843694
17	0x3d8f10ab	0.06985601
18	0xbd18633d	-0.037204016
19	0x3ab6301a	0.0013899833
20	0x3db6855a	0.089121535
21	0x3cc51903	0.024059778
22	0xbd8719ab	-0.06596693
23	0xba621e6a	-0.0008625748
24	0xbd651fe8	-0.05593863
25	0xbc97ac90	-0.018514901
26	0x3e06494b	0.13113897
27	0xbd6541a8	-0.055970818
28	0xbe62f2b1	-0.22162892
29	0xbe267107	-0.16254054
30	0xbe95ba42	-0.29243666
31	0xbe8419b1	-0.2580085
32	0xbcaf73b4	-0.021417476
33	0xbeac3eb5	-0.33641592
34	0xbeac2465	-0.33621517
35	0xbea6a16e	-0.32545036
36	0x3d12d3da	0.03584657
37	0x3d937e91	0.07201875
38	0x3d484e68	0.0489029
39	0x3dc86e86	0.09786706
40	0xbdc704b0	-0.09717691
41	0xbc8e92ab	-0.017403921
42	0xbddf8c96	-0.109154865
43	0x3e77851e	0.24171874
44	0x3d2ea534	0.04263802
45	0x3e8b77ce	0.2723984
46	0x3e73cf15	0.23809464
47	0x3e9ae1ca	0.30250388
48	0xbe45b4b6	-0.19307217
49	0x3dd0d205	0.10196308
50	0xbe2f87cc	-0.17141646
51	0xbea709b5	-0.32624593
52	0xbe9969d7	-0.29963562
53	0xbe9a50e7	-0.3013985
54	0x3d4b91f5	0.049699742
55	0xbd054a36	-0.032541476
56	0xbe565192	-0.20929554
57	0x3c4e7c8f	0.012602939
58	0x3e27540f	0.1634066
59	0xbe1008aa	-0.14065805
60	0x3e0692b0	0.13141894
61	0xbc9bdd81	-0.01902652
62	0x3e10e812	0.14151028
63	0xbe659a18	-0.22422063
64	0xbe7d7dfc	-0.2475509
65	0xbe37dae7	-0.17954598
66	0xbdd05eea	-0.101743534
67	0xbe5259b2	-0.20542029
68	0xbe4e68c8	-0.20157158
69	0x3e0eb332	0.13935545
70	0xbd1b9602	-0.037984855
71	0x3d8a5c13	0.06755843
72	0x3e3ba41a	0.18324319
73	0x3e0860a7	0.1331812
74	0x3e3a5a59	0.18198527
75	0xbd7c165e	-0.06154477
76	0x3e2d9fbe	0.16955468
77	0x3e0d62d6	0.13807234
78	0xbcef54fa	-0.029215325
79	0xbc819daf	-0.01582226
80	0x3e5ebeed	0.2175252
81	0xbe507f56	-0.20361075
82	0xbc469542	-0.012120547
83	0x3db6c149	0.08923585
84	0x3b9708ef	0.0046092193
85	0xbe296d4d	-0.16545601
86	0x3ce2a708	0.027667537
87	0x3c388fd0	0.011264756
88	0x3df26bb4	0.11836949
89	0x3d873667	0.06602173
90	0xbd8f63a2	-0.07001425
91	0x3e2ae7e0	0.16690016
92	0x3dd92871	0.10603417
93	0x3d8cfeff	0.06884574
94	0xbdc625d6	-0.096751854
95	0xbde17047	-0.11007743
96	0x3e22c59d	0.15895696
97	0x3e90feaf	0.28319308
98	0x3c883150	0.016625077
99	0x3e89aac5	0.268881
100	0x3e734fae	0.23760864
101	0x3e8e24da	0.2776249
102	0x3ce1c1c7	0.02755822
103	0x3e29d422	0.16584828
104	0x3e199fea	0.15002409
105	0x39f6b5d5	0.00047056252
106	0x3d81ff15	0.06347481
107	0xbd8ea0f9	-0.06964297
108	0xbe86cf10	-0.2632985
109	0xbe59719c	-0.21234745
110	0xbe12c5cd	-0.14333268
111	0x3e024cf5	0.1272467
112	0x3c817064	0.015800662
113	0xbe0cfdb2	-0.13768652
114	0x3d93379b	0.0718834
115	0x3e436706	0.19082269
116	0x3deb5801	0.11491395
117	0xbddad433	-0.10685005
118	0xbd89c7fc	-0.06727597
119	0xbddad8a3	-0.106858514
120	0xbcb17a2a	-0.021664698
121	0x3dc658ff	0.096849434
122	0x3df03bf6	0.11730187
123	0x3d920082	0.07129003
124	0x3cac0b86	0.021001589
125	0x3de97214	0.11398712
126	0xbe2c8816	-0.16848788
127	0xbceadc6d	-0.02866956
128	0x3da6dbaf	0.0814737
129	0x3e77ded1	0.24206091
130	0x3e5dd2c1	0.21662427
131	0x3e28ed8e	0.1649687
132	0x3e24ede8	0.16106379
133	0x3df06a93	0.117390774
134	0xbe28242a	-0.16420045
135	0xbdf44cec	-0.11928734
136	0x3e6041a5	0.21900041
137	0x3e1782be	0.14795968
138	0xbe01d157	-0.12677513
139	0x3e769e87	0.24083911
140	0xbe128551	-0.14308669
141	0xbe10c3fc	-0.14137262
142	0x3e73a6bd	0.23794074
143	0xbe19c1b6	-0.15015301
144	0xbe344733	-0.17605285
145	0xbe06b82f	-0.13156198
146	0xbdbfd932	-0.093675986
147	0x3c98c266	0.018647384
148	0xbdd31921	-0.10307527
149	0x3e0d3d2f	0.13792871
150	0x3e72f220	0.23725176
151	0x3e61a8a3	0.22036986
152	0xbdc3c254	-0.095585495
153	0x3c909ca6	0.01765282
154	0x3d88e063	0.06683423
155	0xbd59e208	-0.053194076
156	0xbd758250	-0.05993873
157	0x3c116fd8	0.008876763
158	0xbe31edc0	-0.1737585
159	0xbe42eab8	-0.1903485
160	0xbe59cbea	-0.21269193
161	0xbe5259d0	-0.20542073
162	0x3dbff2f8	0.093725145
163	0xbda5a06e	-0.0808724
164	0xbb6cdbb8	-0.0036141705
165	0xbdab75b8	-0.083720624
166	0xbe3a7e09	-0.18212141
167	0xbe1238ee	-0.1427953
168	0xbe0f5d7d	-0.14000507
169	0xbd88160a	-0.066448286
170	0x3e0909a8	0.1338259
171	0x3e891747	0.26775572
172	0x3e543f4e	0.20727274
173	0x3e8edacc	0.27901304
174	0x3e1beaae	0.15226242
175	0x3cfd57fc	0.030925743
176	0xbe0e10f0	-0.13873649
177	0x3e5e4f8a	0.21710029
178	0x3e616eb8	0.22014892
179	0x3e46aa67	0.19400941
180	0x3d69a2db	0.057040077
181	0xbe2efc48	-0.17088425
182	0x3de4f6f8	0.11179918
183	0xbe2da32e	-0.1695678
184	0xbe0385c8	-0.12844002
185	0x3e2f7222	0.17133382
186	0xbdc375cf	-0.095439546
187	0xbdc98d86	-0.098414466
188	0xbc97d309	-0.018533247
189	0x3e8aaaa1	0.27083305
190	0x3e6e31e1	0.23261215
191	0x3e6863ee	0.2269437
192	0xbce8c2ec	-0.028413258
193	0xbd965c9f	-0.07341885
194	0x3dd15cf6	0.10222809
195	0x3a40a0fe	0.00073482085
196	0xbd9a1b8d	-0.07524786
197	0x3d120bf2	0.035655923
198	0xbdc46ade	-0.09590696
199	0xbdfaeb58	-0.122519195
200	0xbdffe9ed	-0.1249579
201	0x3d90b15e	0.0706508
202	0x3e55daec	0.20884293
203	0xbe687eb8	-0.2270459
204	0x3dd7d509	0.1053868
205	0xbdcf5d75	-0.101252474
206	0xbe279feb	-0.16369598
207	0x3e827b23	0.2548457
208	0x3e851f80	0.26000595
209	0x3e1c3bd4	0.15257198
210	0xbd81cbfe	-0.063377365
211	0xbe3a0b2d	-0.18168326
212	0xbd901d63	-0.07036855
213	0xbdcf3705	-0.10117916
214	0xbe421791	-0.18954302
215	0xbe3e6b9d	-0.18595739
216	0xbdb0f42a	-0.086403206
217	0x3c9b823b	0.018982997
218	0x3dd5c611	0.10438169
219	0x3d80edb4	0.06295338
220	0x3e4b1c86	0.198351
221	0x3e483620	0.19551897
222	0xbe0682c9	-0.13135828
223	0x3df9586d	0.12175069
224	0xbddec5dc	-0.108775824
225	0xbdc491d1	-0.09598125
226	0xbdd5cb8f	-0.10439216
227	0xbe14d6a9	-0.14535011
228	0x3dd5bb56	0.10436122
229	0x3e037339	0.12836923
230	0x3e3252b4	0.17414361
231	0xbde75cda	-0.11297007
232	0xbda5e7a1	-0.0810082
233	0xbd7cad60	-0.06168878
234	0xbe0990ff	-0.13434218
235	0x3e0d3079	0.13788022
236	0x3e1a516c	0.15070122
237	0xbdfcf8aa	-0.123521164
238	0x3e20fa1d	0.1572041
239	0xbe72836a	-0.23682943
240	0x3db53294	0.08847538
241	0xbe56aab4	-0.20963556
242	0xbe8196c0	-0.25310326
243	0x3e989b2e	0.29805893
244	0x3e70758a	0.23482338
245	0x3e9db75a	0.3080395
246	0xbdb98a20	-0.090595484
247	0xbd87da35	-0.066334166
248	0xbe10b095	-0.1412986
249	0xbdc90a21	-0.09816385
250	0xbe5d8d4b	-0.2163593
251	0xbe7d314e	-0.2472584
252	0x3c383a0d	0.011244309
253	0x3d1b3a36	0.03789731
254	0x3db7f477	0.08982175
255	0xbe1446ab	-0.14480083

acce_gyro_TCN.0.network.0.downsample.weight f4 [32, 6, 1]
0	0x3d0f4de2	0.034986384
1	0x3d52bd16	0.051449858
2	0x3d8095fd	0.06278608
3	0x3e887898	0.26654506
4	0xbd1f4962	-0.038888343
5	0xbe4ff2dc	-0.20307487
6	0x3c203ff7	0.009780875
7	0x3bc3f0fd	0.005979656
8	0x3c958f23	0.01825673
9	0xbe766516	-0.24061999
10	0xbe5396c1	-0.20662977
11	0xbf23bb0c	-0.63957286
12	0x3d2136ee	0.039359026
13	0xbc3ac57c	-0.011399623
14	0x3d807e73	0.06274118
15	0x3e9a2e69	0.30113533
16	0xbe5a4079	-0.21313657
17	0xbf040ba9	-0.5158029
18	0xbd941112	-0.072298184
19	0x3d23b204	0.03996469
20	0x3d6f66a2	0.058447488
21	0xbeac3ce0	-0.33640194
22	0xbdf7f05d	-0.121063925
23	0x3decbd0c	0.11559495
24	0x3def3a25	0.11681012
25	0x3d386045	0.045013685
26	0x3d767b52	0.0601762
27	0xbe75d04c	-0.2400524
28	0xbd8d51bb	-0.069003545
29	0x3deb4c15	0.11489121
30	0x3da196e2	0.07890107
31	0x3dd02306	0.1016293
32	0xbdce78ad	-0.10081611
33	0x3e89982b	0.26873907
34	0x3dc5301d	0.096283175
35	0x3e618d72	0.22026613
36	0xbe196796	-0.14980921
37	0xbd3a3a8a	-0.045465983
38	0x3d256123	0.04037584
39	0xbe5be614	-0.21474487
40	0xbd0a4ccf	-0.033764657
41	0x3e1ee092	0.15515354
42	0x3d49585e	0.04915654
43	0x3d708368	0.05871907
44	0xbde5bd94	-0.112178
45	0x3e048267	0.1294037
46	0xbd36a1dd	-0.04458796
47	0x3d95eee1	0.07320953
48	0xbda462c1	-0.08026648
49	0xbb2b162b	-0.0026105742
50	0x3d9faf17	0.077970676
51	0xbc272f76	-0.010204187
52	0xbdb79127	-0.089632325
53	0xbedb9efc	-0.42894733
54	0xbcafda56	-0.021466415
55	0xbdbf4ea2	-0.0934117
56	0x3c661b88	0.01404465
57	0x3ec1122d	0.3770918
58	0xbe038e1a	-0.12847176
59	0x3e9c5a2d	0.3053755
60	0x3c66e558	0.014092766
61	0x3d6bc5e1	0.05756176
62	0xbd50b48d	-0.050953437
63	0x3eb0b8e5	0.34516063
64	0x3aa849bd	0.0012839359
65	0xbe1dcef7	-0.15410982
66	0x3b69c25a	0.003566882
67	0xbbdd356a	-0.006750752
68	0xbc5e0aa0	-0.013552338
69	0x3e82d7ef	0.2555537
70	0xbd6be581	-0.05759192
71	0xbeb2066b	-0.34770522
72	0xbc25fb73	-0.010130751
73	0x3de3eb99	0.11128921
74	0xbdbc9eae	-0.09209953
75	0xbd3b6d74	-0.04575868
76	0xbdc0c997	-0.0941345
77	0xbdfa598b	-0.1222411
78	0xbcf9505f	-0.030433832
79	0x3b8de9c5	0.004330846
80	0xbd6e1ee7	-0.05813494
81	0x3e68a4e2	0.22719148
82	0xbd04b140	-0.0323956
83	0xbe9fb246	-0.311907
84	0x3d30601a	0.0430604
85	0xbdb71b3d	-0.08940742
86	0x3de84525	0.11341313
87	0xbdd1f38e	-0.102515325
88	0xbd7061a3	-0.058686864
89	0x3e02cc5c	0.1277327
90	0xbd367405	-0.04454424
91	0x3cbc3b50	0.022977501
92	0x3d357ebb	0.044310313
93	0x3ed13d15	0.40866914
94	0xbe0785fd	-0.13234706
95	0xbdc58375	-0.09644214
96	0xbd1bdd3d	-0.038052786
97	0xbc8a6c10	-0.016897231
98	0x3cfb22c4	0.030656226
99	0x3ec46062	0.38354784
100	0xbd240b6c	-0.040049955
101	0xbec4fc8a	-0.38473922
102	0x3e1c45b2	0.15260962
103	0xbd31adb8	-0.04337856
104	0xbcc7b561	-0.02437848
105	0x3e83e7bf	0.25762746
106	0x3e18f0e8	0.14935648
107	0xbe80355e	-0.25040716
108	0xbb6d366b	-0.0036195766
109	0x3c9cd534	0.019144632
110	0xbd0f43ca	-0.034976758
111	0xbecd5014	-0.40100157
112	0xbdbe3996	-0.092883274
113	0x3ef546c5	0.47905555
114	0x3c385e59	0.011252963
115	0xbc029257	-0.00796946
116	0xbd0b63ad	-0.034030605
117	0xbe81c701	-0.2534714
118	0xbea11d57	-0.31467697
119	0x3eb13794	0.34612715
120	0x3d8e9c44	0.06963399
121	0xbe05cbd5	-0.13066037
122	0x3dfa982d	0.122360565
123	0x3e1b94df	0.15193509
124	0xbe0a7a14	-0.13523132
125	0x3ec85ee7	0.39134905
126	0xbcc0bddd	-0.023528034
127	0xbc6ea4d5	-0.014565666
128	0xbd351fe0	-0.04421985
129	0xbefee3ac	-0.49783075
130	0x3d5e57b6	0.054282866
131	0x3958c2ce	0.00020671936
132	0x3d8085d8	0.06275529
133	0x3c7c938a	0.015416035
134	0xbdcaf878	-0.09910673
135	0xbe52b4b2	-0.20576742
136	0x3de3d072	0.11123742
137	0xbea38900	-0.3194046
138	0xbd5384be	-0.051640265
139	0xbdcb48c1	-0.09925986
140	0x3dee4c21	0.11635614
141	0xbea4ab0d	-0.3216175
142	0x3e7f913b	0.24957745
143	0xbd96b5b5	-0.073588766
144	0xbc4c8eb1	-0.012485192
145	0x3b3e16ba	0.0029005245
146	0xbcb1fe86	-0.021727812
147	0x3ed2f196	0.4119994
148	0xbdd5d399	-0.1044075
149	0xbe0a2a28	-0.13492644
150	0x3da33429	0.07968933
151	0xbe25285a	-0.16128674
152	0xbdc437a1	-0.09580923
153	0xbe20605c	-0.15661758
154	0xbe10fbb4	-0.14158517
155	0x3eb23a5a	0.34810144
156	0xbbc7c21d	-0.006096138
157	0x3d1bcb21	0.038035516
158	0x3995e473	0.00028589703
159	0x3ee9713a	0.45594198
160	0xbd98e5f1	-0.07465733
161	0x3d8736fd	0.06602285
162	0x3d252e75	0.040327508
163	0xbd4a1a4d	-0.04934149
164	0xbda2daeb	-0.079519115
165	0x3e74dd16	0.23912463
166	0x3bd17a29	0.0063927365
167	0xbe8c96cb	-0.27458796
168	0x3c84c27c	0.016206019
169	0xbbc1eddd	-0.005918248
170	0xbd083449	-0.033252988
171	0xbe2858fc	-0.16440195
172	0xbe286010	-0.16442895
173	0xbf269b37	-0.6508059
174	0x3d1b1e29	0.03787056
175	0xbd7c63e7	-0.06161871
176	0xbd9709f2	-0.07374944
177	0xbe52495e	-0.205358
178	0xbe327fde	-0.1743159
179	0xbe9bd505	-0.30435959
180	0x3ca6c43a	0.02035724
181	0xbd7423ca	-0.059604444
182	0x3b889709	0.0041683954
183	0x3ea4184f	0.32049796
184	0xbb36b490	-0.002787862
185	0xbe17c442	-0.1482096
186	0x3d848946	0.06471495
187	0x3db92271	0.09039772
188	0x3dced0e4	0.100984365
189	0xbc303f89	-0.010757335
190	0xbe801b58	-0.25020862
191	0xbeffaa84	-0.4993478

acce_gyro_TCN.0.network.0.downsample.bias f4 [32]
0	0xbe8f40b5	-0.27979055
1	0x3db76761	0.08955265
2	0xb9fe57ad	-0.0004851198
3	0xbe0bb403	-0.13642888
4	0x3e00874c	0.12551612
5	0x3e9c94c0	0.30582237
6	0x3ea70ed9	0.32628515
7	0xbe9a1a7f	-0.3009834
8	0xbc0a75b8	-0.008450918
9	0xbde51474	-0.11185542
10	0xbea3fd37	-0.32029125
11	0xbe9c1d6a	-0.3049119
12	0x3da86793	0.0822288
13	0xbe9c2c32	-0.30502468
14	0xbd9a51ec	-0.075351566
15	0x3c1d79d5	0.009611567
16	0xbd66993a	-0.056298472
17	0xbea3cd05	-0.31992355
18	0x3e9148d0	0.28375864
19	0x3e2b795f	0.16745518
20	0xbe130004	-0.14355475
21	0x3e322cdb	0.17399924
22	0xbe23af9f	-0.15984963
23	0xbdb32a24	-0.08748272
24	0x3d6beec9	0.05760077
25	0x3e0c5ec1	0.13708021
26	0x3ec7c422	0.39016825
27	0xbeb2ba25	-0.34907642
28	0xbc17c732	-0.0092638
29	0x3dc38924	0.09547642
30	0xbe83bb16	-0.25728673
31	0xbb421801	-0.0029616358

acce_gyro_TCN.0.network.1.conv.bias f4 [32]
0	0x3c8806dd	0.016604835
1	0xbcee852e	-0.02911624
2	0x3d2cf0eb	0.042221945
3	0xbcdc9538	-0.026926622
4	0xbd9455b6	-0.072429106
5	0x3d6160aa	0.055023827
6	0xbdb72e64	-0.08944395
7	0x3d7e9dec	0.062162325
8	0xbdadbdf6	-0.08483498
9	0x3bf2255d	0.007389708
10	0x3d49ce8c	0.049269244
11	0x3ca844bb	0.020540586
12	0x3d317a60	0.043329597
13	0xbd6c22d5	-0.057650406
14	0x3d97f65d	0.07420037
15	0x3d00fb95	0.031489927
16	0x3dc61a68	0.09673005
17	0xbc934484	-0.017977007
18	0x3cd53cf1	0.026030036
19	0xbce20f7c	-0.027595274
20	0x3d3a1df8	0.045438737
21	0xbd917ecc	-0.07104263
22	0x3d82f39b	0.0639412
23	0xbd57b0ce	-0.05265885
24	0x3d2cd59a	0.042195894
25	0x3bbfb01a	0.0058498504
26	0xbe0a46f3	-0.13503627
27	0xbdd1e2b6	-0.1024832
28	0x3caa6669	0.020800786
29	0xbdbd14f2	-0.092325106
30	0x3d72d9a3	0.059289586
31	0x3cb48836	0.022037607

acce_gyro_TCN.0.network.1.conv.weight_g f4 [32, 1, 1]
0	0x3f18a922	0.59633076
1	0x3f3b07e3	0.7305891
2	0x3f4401d3	0.76565284
3	0x3f1ed16d	0.6203831
4	0x3f20b5f3	0.6277763
5	0x3f36c2de	0.71391094
6	0x3f1a7a31	0.603427
7	0x3f12f19c	0.57399917
8	0x3f0de2b2	0.55424035
9	0x3f2afa58	0.66788244
10	0x3f2a9a20	0.66641426
11	0x3f2205ef	0.63290304
12	0x3f20ee62	0.62863743
13	0x3f18f018	0.59741354
14	0x3f19f16f	0.60134023
15	0x3f268acf	0.65055555
16	0x3f3d73b0	0.7400465
17	0x3f3723e4	0.7153914
18	0x3f2b8b1b	0.67009133
19	0x3f2c9431	0.6741362
20	0x3f244314	0.64164853
21	0x3f28fccb	0.6601073
22	0x3f254394	0.6455624
23	0x3f24e5dd	0.64413244
24	0x3f2138ad	0.62977105
25	0x3f31005c	0.69141173
26	0x3f10941d	0.56476
27	0x3f233792	0.6375667
28	0x3f3d1517	0.73860306
29	0x3f2765e7	0.65389866
30	0x3f27abca	0.65496504
31	0x3f1c14de	0.6096934

acce_gyro_TCN.0.network.1.conv.weight_v f4 [32, 32, 3]
0	0x3d8ed8b0	0.069749236
1	0x3d6b0eb0	0.057387054
2	0x3e3f3b21	0.186749
3	0x3c928031	0.017883392
4	0xbd8cae1a	-0.06869145
5	0x3d24f4fe	0.040272705
6	0xbbc160c7	-0.0059014293
7	0x3ccf3518	0.025293872
8	0xbd39108e	-0.045181803
9	0xbca4fca5	-0.020140002
10	0x3d3c24a4	0.04593338
11	0x3b94da4d	0.004542625
12	0x3cb03ce6	0.021513414
13	0xbd2242c8	-0.03961447
14	0xbd400a8b	-0.046885055
15	0xbd3dddf8	-0.046354264
16	0x3b113b17	0.0022160464
17	0xbdc65500	-0.09684181
18	0x3d185f14	0.03720005
19	0xbd91dcad	-0.07122169
20	0x3d838054	0.06420961
21	0x3d916285	0.07098869
22	0x3c056202	0.008141043
23	0xbc856eba	-0.01628815
24	0x3d25c039	0.04046652
25	0x3d59794e	0.0530942
26	0x3d05739d	0.03258096
27	0xbc60fd8a	-0.013732323
28	0x3d7f8f4e	0.062392525
29	0xbd46a7ec	-0.048499987
30	0x3e1f13fe	0.1553497
31	0x3da7f5f5	0.082012095
32	0x3db6467e	0.08900164
33	0xbdb9c5fe	-0.09070967
34	0x3d34a65d	0.04410397
35	0x3d86933b	0.06571051
36	0xbdadecee	-0.084924564
37	0x3dd483bf	0.10376691
38	0xbd3cf9b4	-0.046136573
39	0xbd574e07	-0.052564647
40	0x3dc811f5	0.0976905
41	0x3bfb2823	0.007664697
42	0xbd91016d	-0.0708035
43	0x3d1788ad	0.03699558
44	0xbd68362f	-0.0566923
45	0xbd1df92c	-0.038567707
46	0x3d5175b3	0.051137637
47	0x3db93464	0.09043196
48	0x3e33e414	0.17567474
49	0xbc86dd58	-0.016462967
50	0x3e1e2c1d	0.15446515
51	0x3d2891fb	0.041154843
52	0xbd5fec2b	-0.054668587
53	0xbc1b33ab	-0.009472768
54	0x3ce48eef	0.027900187
55	0xbd24bd26	-0.04021945
56	0xbd187eae	-0.037230186
57	0xbd093569	-0.0334982
58	0xbdb9c50f	-0.09070789
59	0xbde8c08b	-0.1136485
60	0x3d4a496d	0.04938643
61	0xbd280788	-0.041022807
62	0xbb0c1e86	-0.0021380498
63	0xbdd35cb7	-0.10320418
64	0xbd3b0529	-0.045659218
65	0xbd32aec7	-0.043623712
66	0xbb9b19a1	-0.00473328
67	0xbd554032	-0.052063175
68	0x3d7be756	0.061499916
69	0x3d0d1bd3	0.034450363
70	0xba89422c	-0.0010471991
71	0x3cd3310d	0.025780225
72	0xbd300aed	-0.04297917
73	0x3db79081	0.08963109
74	0x3d998e47	0.074978404
75	0x3c4dc100	0.012558222
76	0xbe0819b2	-0.13291052
77	0xbda480ec	-0.080324024
78	0xbca61a62	-0.020276252
79	0x3d201a81	0.039087776
80	0x3d8c8cb7	0.06862777
81	0xbc8aa3ad	-0.01692375
82	0x3d705d42	0.058682688
83	0xbba0115a	-0.004884881
84	0x3dca4cb3	0.098779105
85	0xbcd122d9	-0.025529312
86	0x3d84e4e2	0.064889684
87	0xbd8d1ee6	-0.06890659
88	0x3d1a9a07	0.03774455
89	0xbd59f79d	-0.053214658
90	0x3dff9534	0.1247963
91	0x3e11d75c	0.1424231
92	0xbd334790	-0.04376942
93	0x3c0f2233	0.008736181
94	0x3c8ddfbf	0.017318605
95	0x3d29a750	0.041419327
96	0xbc86f39c	-0.016473584
97	0x3d3d4100	0.046204567
98	0xbc24230b	-0.0100181205
99	0x3dd9a14a	0.106264666
100	0x3e467662	0.19381097
101	0x3c7f05dc	0.015565362
102	0x3e2195bd	0.15779777
103	0x3e464a78	0.19364345
104	0x3dd4baa0	0.103871584
105	0x3d60e9fc	0.054910645
106	0x3da4715b	0.08029433
107	0xbbdb3624	-0.0066898037
108	0xbcf22ca2	-0.029562298
109	0xbcf9e766	-0.030505847
110	0xbce87ec9	-0.028380768
111	0xbdc4b402	-0.09604646
112	0xbdc5f466	-0.09665756
113	0xbd1336d5	-0.035940964
114	0x3d55f277	0.052233186
115	0x3d3f7e7d	0.046751488
116	0xbc70fd9d	-0.014708904
117	0x3b01af9b	0.0019788507
118	0xbd91da19	-0.07121677
119	0xbc8a5662	-0.016886894
120	0x3d4a1284	0.049334064
121	0x3d8cd8e2	0.068773046
122	0x3c55068a	0.013002047
123	0xbe20065d	-0.15627427
124	0xbdfbfc27	-0.123039536
125	0xbcf7239e	-0.03016835
126	0xbda1a88d	-0.07893477
127	0xbda0e7ba	-0.07856698
128	0xbdebf025	-0.11520413
129	0xbd2f7f67	-0.04284611
130	0x3c914313	0.017732179
131	0xbc5a80f3	-0.013336408
132	0xbd134a8a	-0.035959758
133	0xbdc3d304	-0.095617324
134	0x3c070117	0.008240006
135	0xbbc00631	-0.005860113
136	0x3d3b26c1	0.045691255
137	0x3b57ac6e	0.0032909173
138	0xbcef1e30	-0.0291892
139	0x3c116e96	0.008876463
140	0xbd56587c	-0.05233048
141	0x3d7c8f82	0.061660297
142	0xbcaae4d6	-0.02086107
143	0xbacec8da	-0.0015776411
144	0xbc7fb963	-0.0156081645
145	0xbd8919ce	-0.06694375
146	0x3d35e2ac	0.044405624
147	0x3d6bd01a	0.057571508
148	0x3dbbbb0d	0.091665365
149	0xbc4c6faa	-0.012477795
150	0x3d82d527	0.06388312
151	0xbd3ec63c	-0.04657577
152	0xbdab6f3c	-0.08370826
153	0x3dc7443a	0.0972981
154	0x3d9f32f9	0.07773394
155	0x3d1acbcc	0.037792012
156	0xbd8c6a3e	-0.068562016
157	0xbda0b1db	-0.07846423
158	0x3d4a4312	0.04938037
159	0xbd35eba0	-0.044414163
160	0xbd08f0c0	-0.033432722
161	0x3c7c4aaf	0.015398665
162	0x3dbf111e	0.09329437
163	0xbd4f6fe6	-0.050643824
164	0x3d2abdcf	0.04168492
165	0xbddcd930	-0.10783613
166	0xbc625abc	-0.013815578
167	0xbd181ea0	-0.03713858
168	0x3da6dbf9	0.08147425
169	0xbd0cc87d	-0.034370888
170	0x3d72a2fb	0.05923746
171	0xbd236338	-0.039889544
172	0x3d5dee6d	0.05418246
173	0xbd9423a2	-0.07233359
174	0xbb13184c	-0.0022444902
175	0x3bd2a2e6	0.0064281104
176	0xbc7bd2f7	-0.015370122
177	0xbc895095	-0.016762057
178	0xbd7478c3	-0.05968548
179	0x3d5257aa	0.051353134
180	0x3e9bf209	0.30458096
181	0x3e453a2d	0.19260474
182	0x3e21e445	0.15809734
183	0xbbda4eed	-0.0066622407
184	0x3cf811fa	0.03028201
185	0x3d885dfd	0.06658552
186	0xbd8464a8	-0.06464511
187	0x3c316ca3	0.010829124
188	0x3d04b303	0.03239728
189	0x3db05a22	0.086109415
190	0x3db37ac1	0.08763648
191	0x3dccb72f	0.09995877
192	0x3dc51ac3	0.09624245
193	0x3db18939	0.08668751
194	0x3ddca1de	0.10773061
195	0x3d898588	0.06714922
196	0x3d91971a	0.071088985
197	0x3d914029	0.07092316
198	0x3e42cb7d	0.19022937
199	0x3e70d124	0.23517281
200	0x3dcc1cbe	0.0996642
201	0xbbf110e2	-0.007356749
202	0xbcf16233	-0.02946577
203	0x3cf58fc2	0.029975776
204	0xbcac2e29	-0.021018105
205	0xbbf55765	-0.007487225
206	0xbcbfc447	-0.023409022
207	0xbd3adf4b	-0.045623105
208	0x3ba6a619	0.0050857184
209	0xbc31b403	-0.010846141
210	0xbdd4cfcf	-0.10391199
211	0xbcc896d7	-0.024485989
212	0x3c00645c	0.007836428
213	0xbd773111	-0.060349528
214	0xbc55cecf	-0.013049795
215	0x3cff1f9b	0.031143
216	0x3c75b29a	0.014996195
217	0x3d5745f0	0.052556932
218	0xbce0b0f4	-0.027428128
219	0xbc6eda30	-0.014578387
220	0xbdd231b7	-0.102633886
221	0xbd85101a	-0.06497212
222	0xbd4679c1	-0.048455957
223	0xbd4c329d	-0.049852956
224	0xbdb54c68	-0.08852464
225	0xbda10f48	-0.07864243
226	0xbd4c54c5	-0.04988553
227	0x3c08b0f8	0.008342974
228	0xbd3efbf8	-0.046627015
229	0xbdb4ea85	-0.088337936
230	0x3b62af86	0.0034589483
231	0x3d9ffcc9	0.07811887
232	0x3d17b46f	0.03703731
233	0x3dbcfe12	0.092281476
234	0xbd144ee2	-0.03620804
235	0x3ccaf22c	0.02477368
236	0xbd29e279	-0.041475747
237	0xbd07c24b	-0.033144277
238	0x3da3db61	0.080008276
239	0x3d8c3158	0.06845349
240	0x3d235f4c	0.039885804
241	0xbc9e8390	-0.019349843
242	0x3d510b1c	0.051035985
243	0xbca43b6c	-0.020047866
244	0x3d57d21f	0.05269062
245	0x3c0144d6	0.007889947
246	0xbd9e94f9	-0.07743258
247	0xbbfdf548	-0.007750187
248	0xbdb62b42	-0.088949695
249	0xbd07ec16	-0.033184133
250	0xbc40641b	-0.011742617
251	0xbd214ead	-0.03938167
252	0xbd5520cb	-0.052033227
253	0x3d0334c5	0.032032747
254	0x3c3773dd	0.011197058
255	0xbdb5ff56	-0.08886592

acce_gyro_TCN.0.network.1.net.0.bias f4 [32]
0	0x3c8806dd	0.016604835
1	0xbcee852e	-0.02911624
2	0x3d2cf0eb	0.042221945
3	0xbcdc9538	-0.026926622
4	0xbd9455b6	-0.072429106
5	0x3d6160aa	0.055023827
6	0xbdb72e64	-0.08944395
7	0x3d7e9dec	0.062162325
8	0xbdadbdf6	-0.08483498
9	0x3bf2255d	0.007389708
10	0x3d49ce8c	0.049269244
11	0x3ca844bb	0.020540586
12	0x3d317a60	0.043329597
13	0xbd6c22d5	-0.057650406
14	0x3d97f65d	0.07420037
15	0x3d00fb95	0.031489927
16	0x3dc61a68	0.09673005
17	0xbc934484	-0.017977007
18	0x3cd53cf1	0.026030036
19	0xbce20f7c	-0.027595274
20	0x3d3a1df8	0.045438737
21	0xbd917ecc	-0.07104263
22	0x3d82f39b	0.0639412
23	0xbd57b0ce	-0.05265885
24	0x3d2cd59a	0.042195894
25	0x3bbfb01a	0.0058498504
26	0xbe0a46f3	-0.13503627
27	0xbdd1e2b6	-0.1024832
28	0x3caa6669	0.020800786
29	0xbdbd14f2	-0.092325106
30	0x3d72d9a3	0.059289586
31	0x3cb48836	0.022037607

acce_gyro_TCN.0.network.1.net.0.weight_g f4 [32, 1, 1]
0	0x3f18a922	0.59633076
1	0x3f3b07e3	0.7305891
2	0x3f4401d3	0.76565284
3	0x3f1ed16d	0.6203831
4	0x3f20b5f3	0.6277763
5	0x3f36c2de	0.71391094
6	0x3f1a7a31	0.603427
7	0x3f12f19c	0.57399917
8	0x3f0de2b2	0.55424035
9	0x3f2afa58	0.66788244
10	0x3f2a9a20	0.66641426
11	0x3f2205ef	0.63290304
12	0x3f20ee62	0.62863743
13	0x3f18f018	0.59741354
14	0x3f19f16f	0.60134023
15	0x3f268acf	0.65055555
16	0x3f3d73b0	0.7400465
17	0x3f3723e4	0.7153914
18	0x3f2b8b1b	0.67009133
19	0x3f2c9431	0.6741362
20	0x3f244314	0.64164853
21	0x3f28fccb	0.6601073
22	0x3f254394	0.6455624
23	0x3f24e5dd	0.64413244
24	0x3f2138ad	0.62977105
25	0x3f31005c	0.69141173
26	0x3f10941d	0.56476
27	0x3f233792	0.6375667
28	0x3f3d1517	0.73860306
29	0x3f2765e7	0.65389866
30	0x3f27abca	0.65496504
31	0x3f1c14de	0.6096934

acce_gyro_TCN.0.network.1.net.0.weight_v f4 [32, 32, 3]
0	0x3d8ed8b0	0.069749236
1	0x3d6b0eb0	0.057387054
2	0x3e3f3b21	0.186749
3	0x3c928031	0.017883392
4	0xbd8cae1a	-0.06869145
5	0x3d24f4fe	0.040272705
6	0xbbc160c7	-0.0059014293
7	0x3ccf3518	0.025293872
8	0xbd39108e	-0.045181803
9	0xbca4fca5	-0.020140002
10	0x3d3c24a4	0.04593338
11	0x3b94da4d	0.004542625
12	0x3cb03ce6	0.021513414
13	0xbd2242c8	-0.03961447
14	0xbd400a8b	-0.046885055
15	0xbd3dddf8	-0.046354264
16	0x3b113b17	0.0022160464
17	0xbdc65500	-0.09684181
18	0x3d185f14	0.03720005
19	0xbd91dcad	-0.07122169
20	0x3d838054	0.06420961
21	0x3d916285	0.07098869
22	0x3c056202	0.008141043
23	0xbc856eba	-0.01628815
24	0x3d25c039	0.04046652
25	0x3d59794e	0.0530942
26	0x3d05739d	0.03258096
27	0xbc60fd8a	-0.013732323
28	0x3d7f8f4e	0.062392525
29	0xbd46a7ec	-0.048499987
30	0x3e1f13fe	0.1553497
31	0x3da7f5f5	0.082012095
32	0x3db6467e	0.08900164
33	0xbdb9c5fe	-0.09070967
34	0x3d34a65d	0.04410397
35	0x3d86933b	0.06571051
36	0xbdadecee	-0.084924564
37	0x3dd483bf	0.10376691
38	0xbd3cf9b4	-0.046136573
39	0xbd574e07	-0.052564647
40	0x3dc811f5	0.0976905
41	0x3bfb2823	0.007664697
42	0xbd91016d	-0.0708035
43	0x3d1788ad	0.03699558
44	0xbd68362f	-0.0566923
45	0xbd1df92c	-0.038567707
46	0x3d5175b3	0.051137637
47	0x3db93464	0.09043196
48	0x3e33e414	0.17567474
49	0xbc86dd58	-0.016462967
50	0x3e1e2c1d	0.15446515
51	0x3d2891fb	0.041154843
52	0xbd5fec2b	-0.054668587
53	0xbc1b33ab	-0.009472768
54	0x3ce48eef	0.027900187
55	0xbd24bd26	-0.04021945
56	0xbd187eae	-0.037230186
57	0xbd093569	-0.0334982
58	0xbdb9c50f	-0.09070789
59	0xbde8c08b	-0.1136485
60	0x3d4a496d	0.04938643
61	0xbd280788	-0.041022807
62	0xbb0c1e86	-0.0021380498
63	0xbdd35cb7	-0.10320418
64	0xbd3b0529	-0.045659218
65	0xbd32aec7	-0.043623712
66	0xbb9b19a1	-0.00473328
67	0xbd554032	-0.052063175
68	0x3d7be756	0.061499916
69	0x3d0d1bd3	0.034450363
70	0xba89422c	-0.0010471991
71	0x3cd3310d	0.025780225
72	0xbd300aed	-0.04297917
73	0x3db79081	0.08963109
74	0x3d998e47	0.074978404
75	0x3c4dc100	0.012558222
76	0xbe0819b2	-0.13291052
77	0xbda480ec	-0.080324024
78	0xbca61a62	-0.020276252
79	0x3d201a81	0.039087776
80	0x3d8c8cb7	0.06862777
81	0xbc8aa3ad	-0.01692375
82	0x3d705d42	0.058682688
83	0xbba0115a	-0.004884881
84	0x3dca4cb3	0.098779105
85	0xbcd122d9	-0.025529312
86	0x3d84e4e2	0.064889684
87	0xbd8d1ee6	-0.06890659
88	0x3d1a9a07	0.03774455
89	0xbd59f79d	-0.053214658
90	0x3dff9534	0.1247963
91	0x3e11d75c	0.1424231
92	0xbd334790	-0.04376942
93	0x3c0f2233	0.008736181
94	0x3c8ddfbf	0.017318605
95	0x3d29a750	0.041419327
96	0xbc86f39c	-0.016473584
97	0x3d3d4100	0.046204567
98	0xbc24230b	-0.0100181205
99	0x3dd9a14a	0.106264666
100	0x3e467662	0.19381097
101	0x3c7f05dc	0.015565362
102	0x3e2195bd	0.15779777
103	0x3e464a78	0.19364345
104	0x3dd4baa0	0.103871584
105	0x3d60e9fc	0.054910645
106	0x3da4715b	0.08029433
107	0xbbdb3624	-0.0066898037
108	0xbcf22ca2	-0.029562298
109	0xbcf9e766	-0.030505847
110	0xbce87ec9	-0.028380768
111	0xbdc4b402	-0.09604646
112	0xbdc5f466	-0.09665756
113	0xbd1336d5	-0.035940964
114	0x3d55f277	0.052233186
115	0x3d3f7e7d	0.046751488
116	0xbc70fd9d	-0.014708904
117	0x3b01af9b	0.0019788507
118	0xbd91da19	-0.07121677
119	0xbc8a5662	-0.016886894
120	0x3d4a1284	0.049334064
121	0x3d8cd8e2	0.068773046
122	0x3c55068a	0.013002047
123	0xbe20065d	-0.15627427
124	0xbdfbfc27	-0.123039536
125	0xbcf7239e	-0.03016835
126	0xbda1a88d	-0.07893477
127	0xbda0e7ba	-0.07856698
128	0xbdebf025	-0.11520413
129	0xbd2f7f67	-0.04284611
130	0x3c914313	0.017732179
131	0xbc5a80f3	-0.013336408
132	0xbd134a8a	-0.035959758
133	0xbdc3d304	-0.095617324
134	0x3c070117	0.008240006
135	0xbbc00631	-0.005860113
136	0x3d3b26c1	0.045691255
137	0x3b57ac6e	0.0032909173
138	0xbcef1e30	-0.0291892
139	0x3c116e96	0.008876463
140	0xbd56587c	-0.05233048
141	0x3d7c8f82	0.061660297
142	0xbcaae4d6	-0.02086107
143	0xbacec8da	-0.0015776411
144	0xbc7fb963	-0.0156081645
145	0xbd8919ce	-0.06694375
146	0x3d35e2ac	0.044405624
147	0x3d6bd01a	0.057571508
148	0x3dbbbb0d	0.091665365
149	0xbc4c6faa	-0.012477795
150	0x3d82d527	0.06388312
151	0xbd3ec63c	-0.04657577
152	0xbdab6f3c	-0.08370826
153	0x3dc7443a	0.0972981
154	0x3d9f32f9	0.07773394
155	0x3d1acbcc	0.037792012
156	0xbd8c6a3e	-0.068562016
157	0xbda0b1db	-0.07846423
158	0x3d4a4312	0.04938037
159	0xbd35eba0	-0.044414163
160	0xbd08f0c0	-0.033432722
161	0x3c7c4aaf	0.015398665
162	0x3dbf111e	0.09329437
163	0xbd4f6fe6	-0.050643824
164	0x3d2abdcf	0.04168492
165	0xbddcd930	-0.10783613
166	0xbc625abc	-0.013815578
167	0xbd181ea0	-0.03713858
168	0x3da6dbf9	0.08147425
169	0xbd0cc87d	-0.034370888
170	0x3d72a2fb	0.05923746
171	0xbd236338	-0.039889544
172	0x3d5dee6d	0.05418246
173	0xbd9423a2	-0.07233359
174	0xbb13184c	-0.0022444902
175	0x3bd2a2e6	0.0064281104
176	0xbc7bd2f7	-0.015370122
177	0xbc895095	-0.016762057
178	0xbd7478c3	-0.05968548
179	0x3d5257aa	0.051353134
180	0x3e9bf209	0.30458096
181	0x3e453a2d	0.19260474
182	0x3e21e445	0.15809734
183	0xbbda4eed	-0.0066622407
184	0x3cf811fa	0.03028201
185	0x3d885dfd	0.06658552
186	0xbd8464a8	-0.06464511
187	0x3c316ca3	0.010829124
188	0x3d04b303	0.03239728
189	0x3db05a22	0.086109415
190	0x3db37ac1	0.08763648
191	0x3dccb72f	0.09995877
192	0x3dc51ac3	0.09624245
193	0x3db18939	0.08668751
194	0x3ddca1de	0.10773061
195	0x3d898588	0.06714922
196	0x3d91971a	0.071088985
197	0x3d914029	0.07092316
198	0x3e42cb7d	0.19022937
199	0x3e70d124	0.23517281
200	0x3dcc1cbe	0.0996642
201	0xbbf110e2	-0.007356749
202	0xbcf16233	-0.02946577
203	0x3cf58fc2	0.029975776
204	0xbcac2e29	-0.021018105
205	0xbbf55765	-0.007487225
206	0xbcbfc447	-0.023409022
207	0xbd3adf4b	-0.045623105
208	0x3ba6a619	0.0050857184
209	0xbc31b403	-0.010846141
210	0xbdd4cfcf	-0.10391199
211	0xbcc896d7	-0.024485989
212	0x3c00645c	0.007836428
213	0xbd773111	-0.060349528
214	0xbc55cecf	-0.013049795
215	0x3cff1f9b	0.031143
216	0x3c75b29a	0.014996195
217	0x3d5745f0	0.052556932
218	0xbce0b0f4	-0.027428128
219	0xbc6eda30	-0.014578387
220	0xbdd231b7	-0.102633886
221	0xbd85101a	-0.06497212
222	0xbd4679c1	-0.048455957
223	0xbd4c329d	-0.049852956
224	0xbdb54c68	-0.08852464
225	0xbda10f48	-0.07864243
226	0xbd4c54c5	-0.04988553
227	0x3c08b0f8	0.008342974
228	0xbd3efbf8	-0.046627015
229	0xbdb4ea85	-0.088337936
230	0x3b62af86	0.0034589483
231	0x3d9ffcc9	0.07811887
232	0x3d17b46f	0.03703731
233	0x3dbcfe12	0.092281476
234	0xbd144ee2	-0.03620804
235	0x3ccaf22c	0.02477368
236	0xbd29e279	-0.041475747
237	0xbd07c24b	-0.033144277
238	0x3da3db61	0.080008276
239	0x3d8c3158	0.06845349
240	0x3d235f4c	0.039885804
241	0xbc9e8390	-0.019349843
242	0x3d510b1c	0.051035985
243	0xbca43b6c	-0.020047866
244	0x3d57d21f	0.05269062
245	0x3c0144d6	0.007889947
246	0xbd9e94f9	-0.07743258
247	0xbbfdf548	-0.007750187
248	0xbdb62b42	-0.088949695
249	0xbd07ec16	-0.033184133
250	0xbc40641b	-0.011742617
251	0xbd214ead	-0.03938167
252	0xbd5520cb	-0.052033227
253	0x3d0334c5	0.032032747
254	0x3c3773dd	0.011197058
255	0xbdb5ff56	-0.08886592

acce_gyro_TCN.0.network.2.conv.bias f4 [32]
0	0x3a462751	0.0007558959
1	0x3d801ff5	0.06256095
2	0x3d3a3eab	0.04546992
3	0xb9bfdaa8	-0.0003659327
4	0x3cfce0ba	0.030868877
5	0xbd5da69f	-0.05411398
6	0xbd079031	-0.033096496
7	0xbcdf48a5	-0.02725632
8	0xbd969c3c	-0.07354018
9	0x3b85f58a	0.0040881084
10	0xbd8f347a	-0.06992431
11	0x3da57bd6	0.080802605
12	0xbdb31139	-0.08743519
13	0xbda5123f	-0.08060121
14	0x3d89e9f5	0.06734077
15	0xbdeec9ef	-0.116596095
16	0x3de54563	0.11194875
17	0xbd6cd1f5	-0.057817418
18	0x3d386ff4	0.04502864
19	0xbd2409f4	-0.040048555
20	0xbca893f4	-0.020578362
21	0x3d5eaad9	0.05436215
22	0xbd0d1609	-0.034444842
23	0xbe1abfa8	-0.15112174
24	0x3cb5045c	0.022096805
25	0x37d5950b	2.5460982e-05
26	0xbdb0667c	-0.08613297
27	0x3ce291f8	0.027657494
28	0xbd0ecece	-0.034865193
29	0xbd956166	-0.07293968
30	0x3bada33f	0.0052990015
31	0xbde6b144	-0.112642795

acce_gyro_TCN.0.network.2.conv.weight_g f4 [32, 1, 1]
0	0x3f10dec0	0.5658989
1	0x3f1ab5cb	0.60433644
2	0x3f2c1ae9	0.6722856
3	0x3f241343	0.6409189
4	0x3f354976	0.7081522
5	0x3f2bb240	0.6706886
6	0x3f2d922f	0.67801183
7	0x3f21e722	0.63243306
8	0x3f1d1e39	0.6137424
9	0x3f314070	0.6923895
10	0x3f31c122	0.6943532
11	0x3f26f001	0.65209967
12	0x3f1a3c89	0.6024862
13	0x3f2973df	0.6619243
14	0x3f1c0c80	0.60956573
15	0x3f1aab09	0.6041723
16	0x3f216796	0.63048685
17	0x3f250ceb	0.64472836
18	0x3f17cc2e	0.5929593
19	0x3f242678	0.641212
20	0x3f2de6a0	0.6793003
21	0x3f2c6922	0.6734792
22	0x3f259425	0.64679176
23	0x3f18fafd	0.5975798
24	0x3f1a4dca	0.60274947
25	0x3f1e358a	0.61800444
26	0x3f178556	0.5918783
27	0x3f405975	0.751365
28	0x3f014e90	0.505105
29	0x3f1ecf7c	0.62035346
30	0x3f2c9e6f	0.6742925
31	0x3f1856ec	0.5950763

acce_gyro_TCN.0.network.2.conv.weight_v f4 [32, 32, 3]
0	0x3d504e7e	0.050856106
1	0x3e11c4e1	0.1423526
2	0xbd0c2b7f	-0.03422117
3	0xbd10c9a6	-0.035348557
4	0xbc1d1a07	-0.009588725
5	0xbd29da74	-0.0414681
6	0x3c1b5191	0.009479896
7	0x3d599034	0.05311604
8	0xbb8fab7a	-0.0043844553
9	0xbd963761	-0.073347814
10	0xbd5f49ea	-0.05451385
11	0xbcd23877	-0.02566169
12	0x3d8f3154	0.069918305
13	0xbcc272c5	-0.023736367
14	0x3d5ea8a8	0.054360062
15	0x3c9b06b0	0.018924087
16	0xbbed3cb5	-0.007239903
17	0x3dbdec42	0.09273578
18	0x3d0289fb	0.03186987
19	0xbc93b491	-0.018030437
20	0x3d4a87cb	0.04944591
21	0x3d2090f1	0.039200727
22	0xbd497b71	-0.04918999
23	0xbd954739	-0.07288975
24	0x3c0056f6	0.007833233
25	0xbc3e0b03	-0.011599305
26	0x3d44d8f2	0.048058458
27	0x3daa0350	0.08301413
28	0x3ac64d62	0.0015129263
29	0x3d9f9957	0.07792919
30	0xbc621f89	-0.013801464
31	0x3ca732e3	0.020410007
32	0x3d0fa893	0.035072874
33	0x3d8b5ef5	0.06805221
34	0x3d30d2ef	0.043169912
35	0x3d852aca	0.06502302
36	0xbc509276	-0.0127302315
37	0xbd6ace44	-0.057325616
38	0xbd7968e7	-0.06089106
39	0x3bd0b9da	0.0063698115
40	0xbd44e42c	-0.048069164
41	0x3d840df1	0.064479716
42	0xbb18cd66	-0.0023315786
43	0xbc78d37b	-0.01518714
44	0x3dbe3805	0.09288029
45	0x3d09a719	0.033606622
46	0x3d7f110d	0.06227212
47	0x3c74fd42	0.0149529595
48	0x3e00e59f	0.12587593
49	0x3d2396cb	0.03993873
50	0x3d240df2	0.04005236
51	0x3d189fec	0.03726189
52	0xbcccdc63	-0.025007432
53	0xbd2eb771	-0.042655412
54	0xbdc12a72	-0.09431924
55	0xbd50d729	-0.050986443
56	0xbd5bdaaf	-0.05367535
57	0xbdf88e0a	-0.12136467
58	0xbe07dd28	-0.13267958
59	0xbcea6676	-0.02861331
60	0xbd02f06b	-0.03196756
61	0xbd9257bc	-0.0714564
62	0xbd280493	-0.041019987
63	0x3dc66079	0.096863694
64	0xbb9aa635	-0.0047195205
65	0x3c2fb918	0.010725282
66	0x3cfb02ab	0.03064092
67	0xbd8cefd4	-0.06881681
68	0x3d3f329d	0.046679128
69	0xbd4636f9	-0.04839227
70	0xbca7380b	-0.020412466
71	0xbbf5a7ba	-0.007496801
72	0x3de8c356	0.113653824
73	0x3d61a752	0.05509121
74	0xbb18079a	-0.002319789
75	0xbd149bab	-0.03628127
76	0xbd869259	-0.06570882
77	0xbd27ad25	-0.040936608
78	0xbc6f651e	-0.014611511
79	0x3c834777	0.016025288
80	0xbd42e75c	-0.047583923
81	0xbcfdad6e	-0.030966487
82	0xbc960aa9	-0.01831563
83	0x3c9da8d2	0.019245539
84	0x3d407888	0.046989948
85	0xbdd2f27e	-0.10300158
86	0xbcba560a	-0.022746105
87	0xbcee2458	-0.029070064
88	0xbdfac723	-0.122450136
89	0x3cff0d8d	0.031134391
90	0x3d829463	0.06375959
91	0x3dc05cbd	0.093926884
92	0x3d6bdb7a	0.057582356
93	0x3d158f3e	0.03651356
94	0x3d8e4a46	0.0694776
95	0xbcce1667	-0.025157167
96	0x3d3d3ea8	0.04620233
97	0xbd114ab0	-0.03547162
98	0xbcb2c3b9	-0.021821843
99	0x3e198f13	0.14995985
100	0x3da6dc44	0.08147481
101	0x3c141e09	0.009040364
102	0x3e12d3b4	0.14338571
103	0x3e4f1a03	0.20224766
104	0x3e098f75	0.13433631
105	0x3d8a0a72	0.067402735
106	0x3dcbfd74	0.09960452
107	0x3cd64b42	0.026158933
108	0xbc5a0017	-0.0133056855
109	0x3d1697c9	0.036765847
110	0xbc648662	-0.013948055
111	0xbd84d8a8	-0.064866364
112	0xbd137cbc	-0.036007628
113	0xbdc477c1	-0.09593154
114	0x3d7c3122	0.061570294
115	0x3d828137	0.06372302
116	0xbd212896	-0.039345346
117	0x3d5fbd1d	0.05462371
118	0x3d08d04a	0.033401765
119	0x3d0dd97e	0.034631245
120	0x3cb88ecd	0.02252903
121	0x3d66738f	0.05626255
122	0x3d927049	0.07150323
123	0xbd5ecba7	-0.054393437
124	0xbd96e209	-0.073673315
125	0xbc9410fe	-0.018074509
126	0xbd480c2c	-0.048839733
127	0xbdf92921	-0.12166048
128	0xbdb1e1fa	-0.0868568
129	0xbcebc1fc	-0.028779022
130	0x3c65dc89	0.01402963
131	0x3d334494	0.043766573
132	0x3d1d1bc0	0.038356543
133	0xbdad22fc	-0.08453938
134	0xbd43a305	-0.04776289
135	0x3d4c872e	0.049933605
136	0x3cf5908a	0.029976148
137	0x3ce7c535	0.028292278
138	0xbd1d1f8d	-0.038360167
139	0x3b79100e	0.0038003954
140	0xbcbfe4f4	-0.023424603
141	0x3b2fbdde	0.002681605
142	0xbb35ec23	-0.0027759157
143	0x3d983e42	0.0743375
144	0xbda76554	-0.08173624
145	0x3b9bf8dd	0.0047598914
146	0x3bc1030f	0.005890257
147	0xbba6f671	-0.005095296
148	0x3b9cbafc	0.0047830325
149	0x3d17bc16	0.037044607
150	0xbcb18a37	-0.021672351
151	0xbd55b275	-0.052172143
152	0x3c06a022	0.00821689
153	0x3df5b3a9	0.11997158
154	0x3e3d669b	0.18496172
155	0xbb4b9bd3	-0.003106822
156	0xbd309a68	-0.043116003
157	0xbca4f00a	-0.02013399
158	0x3cd9da40	0.026593328
159	0xbded86f8	-0.11598009
160	0xbc6e8fc4	-0.014560644
161	0x3caf16e5	0.021373222
162	0xbd385989	-0.045007262
163	0xbd769eb0	-0.06020993
164	0xbd810672	-0.063000575
165	0xbde8b181	-0.11361981
166	0xbd5249a3	-0.051339757
167	0x3d0612b7	0.03273269
168	0xbb43aee6	-0.0029858886
169	0x3b8c93da	0.004290086
170	0xbd4b1785	-0.049582977
171	0xbceb5aa3	-0.028729742
172	0xbc9d9acc	-0.019238852
173	0x3d15065b	0.036383014
174	0xbd8ff98e	-0.07030021
175	0x3bcb951b	0.006212843
176	0xbd8ca0e0	-0.06866622
177	0xbd74e44a	-0.059788026
178	0xba0fd6c2	-0.00054870185
179	0xbc37fcfd	-0.011229751
180	0x3d137079	0.035995934
181	0x3e3390be	0.17535684
182	0x3dbd5890	0.092454076
183	0x3d881ec9	0.06646497
184	0x3dde7c2c	0.10863528
185	0xbae586e5	-0.0017511515
186	0xbdce621f	-0.10077309
187	0xbd6996ec	-0.057028696
188	0xbd17a803	-0.037025463
189	0x3cbfb678	0.023402438
190	0x3d6a993a	0.057275034
191	0xbd2141fe	-0.039369576
192	0x3cd71a9b	0.026257804
193	0x3de4d5fb	0.11173626
194	0xbca80231	-0.020508857
195	0xbb86a17f	-0.0041086073
196	0x3d92e3b3	0.071723364
197	0x3c9b5e97	0.018966002
198	0x3e006d21	0.1254163
199	0x3e638f4c	0.22222632
200	0x3df79fd9	0.120910354
201	0xbc8de128	-0.017319277
202	0xbdba4597	-0.090953045
203	0xbd52c193	-0.051454138
204	0x3b219fcb	0.0024661894
205	0x3c352f8c	0.011058699
206	0x3cfee115	0.031113187
207	0xbd4887ef	-0.04895776
208	0x3cc5041c	0.024049811
209	0x3b82a0b0	0.0039864406
210	0xbdcaa2e0	-0.09894347
211	0xbdce159b	-0.10062715
212	0xbc57c8c4	-0.013170425
213	0x3c8d6f71	0.017265053
214	0x3ce3ec8f	0.02782276
215	0x3d716a0e	0.058939032
216	0x3cd6045c	0.026125126
217	0x3dc39ffb	0.09551998
218	0xbd0d3af6	-0.034480058
219	0x3c9f52a4	0.019448586
220	0xbd91278f	-0.07087623
221	0xbdaa7227	-0.08322554
222	0xbc8ca845	-0.01717008
223	0xbd628af1	-0.055308286
224	0xbd926149	-0.07147462
225	0xbc516f43	-0.0127828745
226	0x3d76f80f	0.06029516
227	0x3dabc03f	0.083862774
228	0xbd6a9494	-0.0572706
229	0xbcdd4827	-0.027011944
230	0x3c87c939	0.016575443
231	0x3d8e135f	0.069372885
232	0xbce3edc8	-0.027823344
233	0x3c88a1d4	0.016678728
234	0x3d81a487	0.06330209
235	0x3bb0729b	0.005384756
236	0x3d5eb471	0.0543713
237	0xbd2ecba2	-0.042674668
238	0x3cd82352	0.02638403
239	0xbd5df55a	-0.054189064
240	0xbbec993d	-0.007220416
241	0x3d85615e	0.06512712
242	0x3d246606	0.04013636
243	0xbcdf2421	-0.027238907
244	0x3df496e1	0.1194284
245	0x3d88f430	0.066872
246	0xbdc86edc	-0.0978677
247	0xbdbf3f40	-0.09338236
248	0xbd452d2b	-0.04813878
249	0xbd266511	-0.04062373
250	0xbd392418	-0.045200437
251	0x3bbe2449	0.0058026654
252	0xbd2d5607	-0.04231837
253	0xbd65a7be	-0.056068175
254	0xbd5927cc	-0.05301647
255	0xbda8b990	-0.08238518

acce_gyro_TCN.0.network.2.net.0.bias f4 [32]
0	0x3a462751	0.0007558959
1	0x3d801ff5	0.06256095
2	0x3d3a3eab	0.04546992
3	0xb9bfdaa8	-0.0003659327
4	0x3cfce0ba	0.030868877
5	0xbd5da69f	-0.05411398
6	0xbd079031	-0.033096496
7	0xbcdf48a5	-0.02725632
8	0xbd969c3c	-0.07354018
9	0x3b85f58a	0.0040881084
10	0xbd8f347a	-0.06992431
11	0x3da57bd6	0.080802605
12	0xbdb31139	-0.08743519
13	0xbda5123f	-0.08060121
14	0x3d89e9f5	0.06734077
15	0xbdeec9ef	-0.116596095
16	0x3de54563	0.11194875
17	0xbd6cd1f5	-0.057817418
18	0x3d386ff4	0.04502864
19	0xbd2409f4	-0.040048555
20	0xbca893f4	-0.020578362
21	0x3d5eaad9	0.05436215
22	0xbd0d1609	-0.034444842
23	0xbe1abfa8	-0.15112174
24	0x3cb5045c	0.022096805
25	0x37d5950b	2.5460982e-05
26	0xbdb0667c	-0.08613297
27	0x3ce291f8	0.027657494
28	0xbd0ecece	-0.034865193
29	0xbd956166	-0.07293968
30	0x3bada33f	0.0052990015
31	0xbde6b144	-0.112642795

acce_gyro_TCN.0.network.2.net.0.weight_g f4 [32, 1, 1]
0	0x3f10dec0	0.5658989
1	0x3f1ab5cb	0.60433644
2	0x3f2c1ae9	0.6722856
3	0x3f241343	0.6409189
4	0x3f354976	0.7081522
5	0x3f2bb240	0.6706886
6	0x3f2d922f	0.67801183
7	0x3f21e722	0.63243306
8	0x3f1d1e39	0.6137424
9	0x3f314070	0.6923895
10	0x3f31c122	0.6943532
11	0x3f26f001	0.65209967
12	0x3f1a3c89	0.6024862
13	0x3f2973df	0.6619243
14	0x3f1c0c80	0.60956573
15	0x3f1aab09	0.6041723
16	0x3f216796	0.63048685
17	0x3f250ceb	0.64472836
18	0x3f17cc2e	0.5929593
19	0x3f242678	0.641212
20	0x3f2de6a0	0.6793003
21	0x3f2c6922	0.6734792
22	0x3f259425	0.64679176
23	0x3f18fafd	0.5975798
24	0x3f1a4dca	0.60274947
25	0x3f1e358a	0.61800444
26	0x3f178556	0.5918783
27	0x3f405975	0.751365
28	0x3f014e90	0.505105
29	0x3f1ecf7c	0.62035346
30	0x3f2c9e6f	0.6742925
31	0x3f1856ec	0.5950763
