results/models/deep/deep_multi_tcn_checkpoint.pt (torch_old, 847827 bytes, 78 tensors)

audio_TCN.network.0.conv.bias f4 [32]
0.028613985 -0.05528221 -0.09464502 0.038220868 -0.045482047 -0.12547295 -0.082829684 -0.0014251564
-0.09581505 -0.07188892 0.021302447 0.062151194 0.07095934 0.004292521 -0.0068353624 -0.04676729
-0.100466564 -0.09248648 -0.06021377 -0.028489565 -0.030754844 -0.047540333 0.03730517 -0.0052997298
-0.10091855 -0.015351504 -0.083139926 -0.03397355 0.0049028643 -0.02803492 -0.12407867 -0.08235756
00000000: e067 ea3c 996f 62bd 40d5 c1bd 7c8d 1c3d
00000010: 624b 3abd fb7b 00be 9ca2 a9bd 50cc baba
00000020: ae3a c4bd 803a 93bd 7882 ae3c 4092 7e3d
00000030: 2153 913d 47a8 8c3b 2dfb dfbb 0f8f 3fbd
00000040: 6ac1 cdbd 8d69 bdbd b7a2 76bd f362 e9bc
00000050: 95f1 fbbc a7b9 42bd 4ecd 183d 5ba9 adbb
00000060: 62ae cebd e084 7bbc 4445 aabd d927 0bbd
00000070: 35a8 a03b 7da9 e5bc f51c febd 15ab a8bd

audio_TCN.network.0.conv.weight_g f4 [32, 1, 1]
0.60920036 0.511962 0.6041078 0.58088076 0.5735235 0.531869 0.569509 0.59532803
0.5951295 0.5769605 0.5909366 0.59678537 0.5776911 0.584307 0.52892566 0.5548273
0.56140405 0.55946994 0.64198285 0.524568 0.5201297 0.6293404 0.5426084 0.556317
0.51447433 0.5842836 0.579519 0.5946463 0.55626184 0.7593516 0.5525227 0.534047
00000000: 8ef4 1b3f f10f 033f cfa6 1a3f 9ab4 143f
00000010: 70d2 123f 9128 083f 58cb 113f 6b67 183f
00000020: 685a 183f afb3 133f 9f47 173f edc6 183f
00000030: 90e3 133f 2595 153f ac67 073f 2909 0e3f
00000040: 2db8 0f3f 6c39 0f3f fd58 243f 174a 063f
00000050: 3827 053f 741c 213f 62e8 0a3f ca6a 0e3f
00000060: 97b4 033f 9c93 153f 5b5b 143f bd3a 183f
00000070: 2d67 0e3f de64 423f 2172 0d3f 4eb7 083f

audio_TCN.network.0.conv.weight_v f4 [32, 32, 3]
0.0225043 -0.06295197 0.06996775 -0.016868152 0.10136734 0.077316016 -0.048997805 -0.03086622
0.02255851 -0.064818956 -0.043370064 -0.031552114 0.014357641 0.049816474 -0.06925668 0.0702676
-0.032161348 0.07891786 -0.069077715 0.0574819 -0.056328222 0.06284082 0.023167834 0.057528377
-0.014828384 -0.050736602 0.07020363 0.05856414 0.08133969 0.08486311 -0.036189847 0.058026552
-0.005999632 -0.055499654 -0.0868798 -0.060643084 -0.0992478 -0.04376553 -0.037317738 -0.09306766
-0.074680015 -0.04772695 0.09256965 0.074814856 0.0050721467 -0.052194934 -0.09092439 0.09862657
-0.02233664 -0.07598229 0.018106297 -0.051935952 -0.099001825 -0.019206978 -0.009390771 0.031291887
-0.03617742 0.0052161366 0.090565965 -0.0072361752 0.07298845 -0.0929774 -0.07591212 -0.009489603
0.08857559 0.08586627 0.011522979 0.10024814 0.028326228 0.099934325 0.05891165 -0.076439954
0.07561433 0.06029682 -0.06955695 -0.047096446 -0.0954974 -0.0064014643 0.058522254 -0.010405295
0.076040775 0.079591274 0.07160643 0.05975333 -0.023840584 -0.049158283 -0.066391096 0.008511819
-0.055492233 0.009847209 0.094083965 -0.08255225 0.061915368 -0.06813085 0.07968095 -0.021777429
-0.0012336036 0.038599133 -0.03305207 0.06456695 0.036415484 0.06131361 0.017957702 -0.09124746
-0.06537479 0.08827058 0.011248425 -0.05406878 0.03426837 0.07441134 -0.027063742 -0.076453276
0.052211322 0.108406864 -0.09637157 0.10252746 0.06468714 -0.031724308 -0.0013329203 0.059797164
0.014047112 0.0042870054 -0.09075016 -0.026744235 -0.10808428 -0.00034381283 -0.018006405 0.003550885
-0.0950519 -0.05942494 0.083648376 0.101279184 -0.17693155 -0.24534139 -0.10648626 0.085692525
-0.026076533 0.05346469 0.046697494 -0.031119829 -0.057822526 -0.034465957 -0.096170194 -0.04209448
0.07482273 0.1071215 -0.035005864 -0.07694798 0.022601817 -0.08109201 0.029059077 0.11692438
0.10641314 -0.046271432 -0.11134717 0.012901384 0.08600382 0.06909657 0.07272125 -0.08025478
-0.0960345 0.021139076 0.039123844 0.047833394 -0.04489359 -0.01262903 0.052969746 -0.06390487
0.076964885 -0.1077297 -0.016890533 0.060848735 0.08901655 0.03048294 0.01830947 -0.037817124
-0.09579332 -0.033148892 0.030169548 0.043971196 -0.062328566 0.009080148 -0.111485295 0.054916084
-0.051190335 0.003918752 -0.07328218 0.01432878 -0.07937969 -0.01500521 0.05434551 0.08235159
0.09853772 -0.098661415 0.011399123 -0.005081757 -0.06671142 -0.021198409 -0.08834271 0.117976345
0.01432977 -0.070943624 0.08360724 0.049198557 0.13619922 0.02170573 0.038888738 0.034010474
-0.09558687 0.011252 0.07679144 0.048455838 0.07249057 0.000804799 0.02251065 -0.04824685
0.014389161 0.015863819 -0.09735642 -0.13237461 0.037725747 -0.0067941314 -0.041259862 0.10637699
-0.08299353 -0.021266423 -0.010815482 0.049473543 -0.07526346 0.006904906 0.04391125 -0.0829783
-0.11647041 -0.044939503 -0.12413984 -0.047494773 0.03320983 0.03231614 -0.029494517 -0.09960845
-0.039699215 0.042518854 0.03399462 -0.091034986 -0.09486838 -0.0741548 -0.13646698 0.030613394
0.031001762 0.056031574 0.10197255 0.021311961 -0.06780465 -0.061958738 0.029537553 -0.058863554
00000000: f05a b83c f6ec 80bd 404b 8f3d 142f 8abc
00000010: ae99 cf3d dc57 9e3d ecb1 48bd 28db fcbc
00000020: a0cc b83c cdbf 84bd cfa4 31bd ca3c 01bd
00000030: 503c 6b3c 5c0c 4c3d 72d6 8dbd 76e8 8f3d
00000040: 9ebb 03bd b09f a13d 9e78 8dbd 2472 6b3d
00000050: 6cb8 66bd b0b2 803d 78ca bd3c e0a2 6b3d
00000060: c0f2 72bc 2fd1 4fbd ecc6 8f3d f4e0 6f3d
00000070: 6c95 a63d b6cc ad3d ce3b 14bd 40ad 6d3d
00000080: 9098 c4bb 9b53 63bd 09ee b1bd e264 78bd
00000090: 6e42 cbbd 7c43 33bd 7cda 18bd 429a bebd
000000a0: d6f1 98bd 567d 43bd 2895 bd3d 8838 993d
000000b0: 4034 a63b 5bca 55bd 9136 babd bafc c93d
000000c0: 54fb b6bc 9a9c 9bbd a853 943c cbba 54bd
000000d0: 78c1 cabd f457 9dbc c0db 19bc ec2b 003d
000000e0: c62e 14bd 20ec aa3b a67a b93d 701d edbb
000000f0: f87a 953d ef6a bebd d077 9bbd 487a 1bbc
00000100: 1e67 b53d a8da af3d e0ca 3c3c e64e cd3d
00000110: 680c e83c 5eaa cc3d 584d 713d 8d8c 9cbd
00000120: b0db 9a3d ccf9 763d e073 8ebd 34e8 40bd
00000130: 2494 c3bd 60c3 d1bb 08b5 6f3d f87a 2abc
00000140: 44bb 9b3d c000 a33d 64a6 923d e8bf 743d
00000150: 544d c3bc 325a 49bd 0ef8 87bd 2875 0b3c
00000160: d34b 63bd 3056 213c 18af c03d 2711 a9bd
00000170: f89a 7d3d 3088 8bbd c42f a33d 9466 b2bc
00000180: deb0 a1ba 201a 1e3d 9b61 07bd ad3b 843d
00000190: 6728 153d fb23 7b3d 081c 933c f3df babd
000001a0: 38e3 85bd 35c7 b43d 504b 383c 3a77 5dbd
000001b0: fe5c 0c3d f964 983d c8b4 ddbc 8993 9cbd
000001c0: 8adb 553d 6b04 de3d 755e c5bd ebf9 d13d
000001d0: b17a 843d 59f1 01bd 62b5 aeba dfed 743d
000001e0: dc25 663c 027a 8c3b 38db b9bd ba16 dbbc
000001f0: 4a5b ddbd c741 b4b9 2b82 93bc f7b5 683b
00000200: 92aa c2bd 9167 73bd d74f ab3d 766b cf3d
00000210: 8b2d 35be c63a 7bbe 7815 dabd 907f af3d
00000220: 749e d5bc cafd 5a3d df45 3f3d 03ef febc
00000230: 50d7 6cbd 2d2c 0dbd e1f4 c4bd 436b 2cbd
00000240: a93c 993d 8462 db3d 4f62 0fbd e796 9dbd
00000250: 7227 b93c 9113 a6bd 4d0d ee3c 0d76 ef3d
00000260: 22ef d93d 1d87 3dbd fc09 e4bd 5460 533c
00000270: c522 b03d 8182 8d3d e1ee 943d 9e5c a4bd
00000280: bcad c4bd db2b ad3c 5340 203d f3ec 433d
00000290: 57e2 37bd fee9 4ebc cef6 583d 8ee0 82bd
000002a0: c49f 9d3d 64a1 dcbd 045e 8abc 863c 793d
000002b0: 4f4e b63d 5cb7 f93c befd 953c 21e6 1abd
000002c0: 4a2f c4bd 22c7 07bd 2126 f73c 241b 343d
000002d0: 3d4c 7fbd e7c4 143c 6752 e4bd b0ef 603d
000002e0: f5ac 51bd e068 803b f814 96bd 42c3 6a3c
000002f0: d291 a2bd 6ad8 75bc 6699 5e3d f3a7 a83d
00000300: 25ce c93d ff0e cabd 63c3 3a3c de84 a6bb
00000310: ff9f 88bd 49a8 adbc 06ed b4bd 959d f13d
00000320: 69c7 6a3c e44a 91bd 463a ab3d 6d84 493d
00000330: cf77 0b3e 37d0 b13c cc49 1f3d 914e 0b3d
00000340: 0dc3 c3bd 4f5a 383c d544 9d3d a179 463d
00000350: f075 943d 26f9 523a 4168 b83c 7d9e 45bd
00000360: 84c0 6b3c d7f4 813c cd62 c7bd 368d 07be
00000370: 5086 1a3d 4ea1 debb 1a00 29bd 2edc d93d
00000380: 83f8 a9bd ec36 aebc 6b33 31bc c5a4 4a3d
00000390: bb23 9abd 8d42 e23b 48dc 333d 87f0 a9bd
000003a0: 0a88 eebd 7c12 38bd 073d febd e189 42bd
000003b0: 0807 083d ee5d 043d 7c9e f1bc 84ff cbbd
000003c0: a59b 22bd 4028 2e3d f13d 0b3d 8d70 babd
000003d0: 5a4a c2bd 79de 97bd 00be 0bbe f1c8 fa3c
000003e0: 68f7 fd3c 5d81 653d fcd6 d03d 6c96 ae3c
000003f0: 2add 8abd 72c8 7dbd bdf8 f13c e91a 71bd

audio_TCN.network.0.net.0.bias f4 [32]
0.028613985 -0.05528221 -0.09464502 0.038220868 -0.045482047 -0.12547295 -0.082829684 -0.0014251564
-0.09581505 -0.07188892 0.021302447 0.062151194 0.07095934 0.004292521 -0.0068353624 -0.04676729
-0.100466564 -0.09248648 -0.06021377 -0.028489565 -0.030754844 -0.047540333 0.03730517 -0.0052997298
-0.10091855 -0.015351504 -0.083139926 -0.03397355 0.0049028643 -0.02803492 -0.12407867 -0.08235756
00000000: e067 ea3c 996f 62bd 40d5 c1bd 7c8d 1c3d
00000010: 624b 3abd fb7b 00be 9ca2 a9bd 50cc baba
00000020: ae3a c4bd 803a 93bd 7882 ae3c 4092 7e3d
00000030: 2153 913d 47a8 8c3b 2dfb dfbb 0f8f 3fbd
00000040: 6ac1 cdbd 8d69 bdbd b7a2 76bd f362 e9bc
00000050: 95f1 fbbc a7b9 42bd 4ecd 183d 5ba9 adbb
00000060: 62ae cebd e084 7bbc 4445 aabd d927 0bbd
00000070: 35a8 a03b 7da9 e5bc f51c febd 15ab a8bd

audio_TCN.network.0.net.0.weight_g f4 [32, 1, 1]
0.60920036 0.511962 0.6041078 0.58088076 0.5735235 0.531869 0.569509 0.59532803
0.5951295 0.5769605 0.5909366 0.59678537 0.5776911 0.584307 0.52892566 0.5548273
0.56140405 0.55946994 0.64198285 0.524568 0.5201297 0.6293404 0.5426084 0.556317
0.51447433 0.5842836 0.579519 0.5946463 0.55626184 0.7593516 0.5525227 0.534047
00000000: 8ef4 1b3f f10f 033f cfa6 1a3f 9ab4 143f
00000010: 70d2 123f 9128 083f 58cb 113f 6b67 183f
00000020: 685a 183f afb3 133f 9f47 173f edc6 183f
00000030: 90e3 133f 2595 153f ac67 073f 2909 0e3f
00000040: 2db8 0f3f 6c39 0f3f fd58 243f 174a 063f
00000050: 3827 053f 741c 213f 62e8 0a3f ca6a 0e3f
00000060: 97b4 033f 9c93 153f 5b5b 143f bd3a 183f
00000070: 2d67 0e3f de64 423f 2172 0d3f 4eb7 083f

audio_TCN.network.0.net.0.weight_v f4 [32, 32, 3]
0.0225043 -0.06295197 0.06996775 -0.016868152 0.10136734 0.077316016 -0.048997805 -0.03086622
0.02255851 -0.064818956 -0.043370064 -0.031552114 0.014357641 0.049816474 -0.06925668 0.0702676
-0.032161348 0.07891786 -0.069077715 0.0574819 -0.056328222 0.06284082 0.023167834 0.057528377
-0.014828384 -0.050736602 0.07020363 0.05856414 0.08133969 0.08486311 -0.036189847 0.058026552
-0.005999632 -0.055499654 -0.0868798 -0.060643084 -0.0992478 -0.04376553 -0.037317738 -0.09306766
-0.074680015 -0.04772695 0.09256965 0.074814856 0.0050721467 -0.052194934 -0.09092439 0.09862657
-0.02233664 -0.07598229 0.018106297 -0.051935952 -0.099001825 -0.019206978 -0.009390771 0.031291887
-0.03617742 0.0052161366 0.090565965 -0.0072361752 0.07298845 -0.0929774 -0.07591212 -0.009489603
0.08857559 0.08586627 0.011522979 0.10024814 0.028326228 0.099934325 0.05891165 -0.076439954
0.07561433 0.06029682 -0.06955695 -0.047096446 -0.0954974 -0.0064014643 0.058522254 -0.010405295
0.076040775 0.079591274 0.07160643 0.05975333 -0.023840584 -0.049158283 -0.066391096 0.008511819
-0.055492233 0.009847209 0.094083965 -0.08255225 0.061915368 -0.06813085 0.07968095 -0.021777429
-0.0012336036 0.038599133 -0.03305207 0.06456695 0.036415484 0.06131361 0.017957702 -0.09124746
-0.06537479 0.08827058 0.011248425 -0.05406878 0.03426837 0.07441134 -0.027063742 -0.076453276
0.052211322 0.108406864 -0.09637157 0.10252746 0.06468714 -0.031724308 -0.0013329203 0.059797164
0.014047112 0.0042870054 -0.09075016 -0.026744235 -0.10808428 -0.00034381283 -0.018006405 0.003550885
-0.0950519 -0.05942494 0.083648376 0.101279184 -0.17693155 -0.24534139 -0.10648626 0.085692525
-0.026076533 0.05346469 0.046697494 -0.031119829 -0.057822526 -0.034465957 -0.096170194 -0.04209448
0.07482273 0.1071215 -0.035005864 -0.07694798 0.022601817 -0.08109201 0.029059077 0.11692438
0.10641314 -0.046271432 -0.11134717 0.012901384 0.08600382 0.06909657 0.07272125 -0.08025478
-0.0960345 0.021139076 0.039123844 0.047833394 -0.04489359 -0.01262903 0.052969746 -0.06390487
0.076964885 -0.1077297 -0.016890533 0.060848735 0.08901655 0.03048294 0.01830947 -0.037817124
-0.09579332 -0.033148892 0.030169548 0.043971196 -0.062328566 0.009080148 -0.111485295 0.054916084
-0.051190335 0.003918752 -0.07328218 0.01432878 -0.07937969 -0.01500521 0.05434551 0.08235159
0.09853772 -0.098661415 0.011399123 -0.005081757 -0.06671142 -0.021198409 -0.08834271 0.117976345
0.01432977 -0.070943624 0.08360724 0.049198557 0.13619922 0.02170573 0.038888738 0.034010474
-0.09558687 0.011252 0.07679144 0.048455838 0.07249057 0.000804799 0.02251065 -0.04824685
0.014389161 0.015863819 -0.09735642 -0.13237461 0.037725747 -0.0067941314 -0.041259862 0.10637699
-0.08299353 -0.021266423 -0.010815482 0.049473543 -0.07526346 0.006904906 0.04391125 -0.0829783
-0.11647041 -0.044939503 -0.12413984 -0.047494773 0.03320983 0.03231614 -0.029494517 -0.09960845
-0.039699215 0.042518854 0.03399462 -0.091034986 -0.09486838 -0.0741548 -0.13646698 0.030613394
0.031001762 0.056031574 0.10197255 0.021311961 -0.06780465 -0.061958738 0.029537553 -0.058863554
00000000: f05a b83c f6ec 80bd 404b 8f3d 142f 8abc
00000010: ae99 cf3d dc57 9e3d ecb1 48bd 28db fcbc
00000020: a0cc b83c cdbf 84bd cfa4 31bd ca3c 01bd
00000030: 503c 6b3c 5c0c 4c3d 72d6 8dbd 76e8 8f3d
00000040: 9ebb 03bd b09f a13d 9e78 8dbd 2472 6b3d
00000050: 6cb8 66bd b0b2 803d 78ca bd3c e0a2 6b3d
00000060: c0f2 72bc 2fd1 4fbd ecc6 8f3d f4e0 6f3d
00000070: 6c95 a63d b6cc ad3d ce3b 14bd 40ad 6d3d
00000080: 9098 c4bb 9b53 63bd 09ee b1bd e264 78bd
00000090: 6e42 cbbd 7c43 33bd 7cda 18bd 429a bebd
000000a0: d6f1 98bd 567d 43bd 2895 bd3d 8838 993d
000000b0: 4034 a63b 5bca 55bd 9136 babd bafc c93d
000000c0: 54fb b6bc 9a9c 9bbd a853 943c cbba 54bd
000000d0: 78c1 cabd f457 9dbc c0db 19bc ec2b 003d
000000e0: c62e 14bd 20ec aa3b a67a b93d 701d edbb
000000f0: f87a 953d ef6a bebd d077 9bbd 487a 1bbc
00000100: 1e67 b53d a8da af3d e0ca 3c3c e64e cd3d
00000110: 680c e83c 5eaa cc3d 584d 713d 8d8c 9cbd
00000120: b0db 9a3d ccf9 763d e073 8ebd 34e8 40bd
00000130: 2494 c3bd 60c3 d1bb 08b5 6f3d f87a 2abc
00000140: 44bb 9b3d c000 a33d 64a6 923d e8bf 743d
00000150: 544d c3bc 325a 49bd 0ef8 87bd 2875 0b3c
00000160: d34b 63bd 3056 213c 18af c03d 2711 a9bd
00000170: f89a 7d3d 3088 8bbd c42f a33d 9466 b2bc
00000180: deb0 a1ba 201a 1e3d 9b61 07bd ad3b 843d
00000190: 6728 153d fb23 7b3d 081c 933c f3df babd
000001a0: 38e3 85bd 35c7 b43d 504b 383c 3a77 5dbd
000001b0: fe5c 0c3d f964 983d c8b4 ddbc 8993 9cbd
000001c0: 8adb 553d 6b04 de3d 755e c5bd ebf9 d13d
000001d0: b17a 843d 59f1 01bd 62b5 aeba dfed 743d
000001e0: dc25 663c 027a 8c3b 38db b9bd ba16 dbbc
000001f0: 4a5b ddbd c741 b4b9 2b82 93bc f7b5 683b
00000200: 92aa c2bd 9167 73bd d74f ab3d 766b cf3d
00000210: 8b2d 35be c63a 7bbe 7815 dabd 907f af3d
00000220: 749e d5bc cafd 5a3d df45 3f3d 03ef febc
00000230: 50d7 6cbd 2d2c 0dbd e1f4 c4bd 436b 2cbd
00000240: a93c 993d 8462 db3d 4f62 0fbd e796 9dbd
00000250: 7227 b93c 9113 a6bd 4d0d ee3c 0d76 ef3d
00000260: 22ef d93d 1d87 3dbd fc09 e4bd 5460 533c
00000270: c522 b03d 8182 8d3d e1ee 943d 9e5c a4bd
00000280: bcad c4bd db2b ad3c 5340 203d f3ec 433d
00000290: 57e2 37bd fee9 4ebc cef6 583d 8ee0 82bd
000002a0: c49f 9d3d 64a1 dcbd 045e 8abc 863c 793d
000002b0: 4f4e b63d 5cb7 f93c befd 953c 21e6 1abd
000002c0: 4a2f c4bd 22c7 07bd 2126 f73c 241b 343d
000002d0: 3d4c 7fbd e7c4 143c 6752 e4bd b0ef 603d
000002e0: f5ac 51bd e068 803b f814 96bd 42c3 6a3c
000002f0: d291 a2bd 6ad8 75bc 6699 5e3d f3a7 a83d
00000300: 25ce c93d ff0e cabd 63c3 3a3c de84 a6bb
00000310: ff9f 88bd 49a8 adbc 06ed b4bd 959d f13d
00000320: 69c7 6a3c e44a 91bd 463a ab3d 6d84 493d
00000330: cf77 0b3e 37d0 b13c cc49 1f3d 914e 0b3d
00000340: 0dc3 c3bd 4f5a 383c d544 9d3d a179 463d
00000350: f075 943d 26f9 523a 4168 b83c 7d9e 45bd
00000360: 84c0 6b3c d7f4 813c cd62 c7bd 368d 07be
00000370: 5086 1a3d 4ea1 debb 1a00 29bd 2edc d93d
00000380: 83f8 a9bd ec36 aebc 6b33 31bc c5a4 4a3d
00000390: bb23 9abd 8d42 e23b 48dc 333d 87f0 a9bd
000003a0: 0a88 eebd 7c12 38bd 073d febd e189 42bd
000003b0: 0807 083d ee5d 043d 7c9e f1bc 84ff cbbd
000003c0: a59b 22bd 4028 2e3d f13d 0b3d 8d70 babd
000003d0: 5a4a c2bd 79de 97bd 00be 0bbe f1c8 fa3c
000003e0: 68f7 fd3c 5d81 653d fcd6 d03d 6c96 ae3c
000003f0: 2add 8abd 72c8 7dbd bdf8 f13c e91a 71bd

audio_TCN.network.1.conv.bias f4 [32]
0.015877962 -0.049917776 -0.08913195 0.026151795 0.047380395 0.05405349 0.048387706 0.058788486
-0.013727544 -0.055791333 -0.057838805 -0.07873414 -0.061077017 -0.037981126 -0.056087993 -0.075158544
0.09302299 0.039211046 -0.018795395 0.059355646 0.06398883 -0.019269986 0.05440657 0.025905078
-0.05760691 0.009763158 0.0628037 -0.055870526 0.00972022 -0.0995363 0.048314434 -0.08211333
00000000: 8012 823c 9576 4cbd d08a b6bd 4a3c d63c
00000010: f211 423d 3167 5d3d 3032 463d 32cc 703d
00000020: 7ee9 60bc 7485 64bd 62e8 6cbd 5d3f a1bd
00000030: e52b 7abd 1992 1bbd 86bc 65bd b9ec 99bd
00000040: d682 be3d c39b 203d cdf8 99bc e81e 733d
00000050: 930c 833d 17dc 9dbc 6cd9 5e3d e336 d43c
00000060: 39f5 6bbd a7f5 1f3c 3a9f 803d 7ed8 64bd
00000070: 8f41 1f3c b0d9 cbbd 5be5 453d 092b a8bd

audio_TCN.network.1.conv.weight_g f4 [32, 1, 1]
0.57663596 0.5375079 0.6880589 0.5436251 0.60645735 0.581129 0.5510917 0.58824813
0.6155271 0.5951536 0.62565094 0.51245797 0.50695366 0.54480106 0.5342532 0.5628264
0.5666563 0.59931874 0.6327972 0.5379589 0.5561234 0.62244475 0.6025088 0.58895576
0.5588389 0.5535888 0.6492304 0.54598063 0.55360746 0.5723539 0.5236876 0.5373205
00000000: 6a9e 133f 1e9a 093f a124 303f 042b 0b3f
00000010: ca40 1b3f dfc4 143f 5814 0d3f 6e97 163f
00000020: 2f93 1d3f fd5b 183f a92a 203f 7230 033f
00000030: b7c7 013f 1578 0b3f d1c4 083f 6415 103f
00000040: 6310 113f f46c 193f fffe 213f adb7 093f
00000050: 1a5e 0e3f 8a58 1f3f 043e 1a3f cec5 163f
00000060: 1110 0f3f ffb7 0d3f f733 263f 63c5 0b3f
00000070: 38b9 0d3f c985 123f 6410 063f d68d 093f

audio_TCN.network.1.conv.weight_v f4 [32, 32, 3]
0.030137004 0.03945644 0.018726327 0.0052038445 -0.02883201 0.073973596 -0.03673246 -0.008327359
-0.03958973 -0.05138574 -0.05815926 0.0043731257 -0.042268407 0.1022086 0.061933067 0.025595836
0.027963314 0.07281497 0.0053906157 -0.03225189 -0.018847693 0.064707525 -0.056589052 0.06942391
-0.043463893 -0.057073567 0.0462962 -0.086655475 -0.007107463 0.118189625 -0.07642773 -0.10195667
-0.075512305 -0.020521324 -0.066099845 0.111188315 0.07400206 0.09773862 -0.021393497 -0.05734598
0.030603329 0.06408722 -0.105129525 0.04857554 -0.00036243143 -0.10477507 0.0612586 0.012710968
-0.012507189 -0.096918836 -0.0073732655 0.06198925 -0.058821235 -0.09787786 0.059263244 0.09948415
-0.017757926 -0.0536783 -0.054614123 0.030584462 0.09389168 -0.045796286 -0.10239964 0.084151715
-0.06529152 -0.04238728 0.052641504 0.088563 -0.08548686 -0.11645723 -0.06279309 -0.05998342
0.089428164 -0.07923991 -0.063860476 0.0053941677 0.07007867 -0.052897397 -0.10248615 -0.102671705
-0.0800219 -0.08671145 0.089073755 0.07597751 0.020753618 0.07922839 0.040165927 -0.040684205
0.105957456 0.13109362 -0.098798156 0.061617788 -0.08255852 -0.062169276 0.052795175 -0.015936473
0.109677754 0.06732982 -0.03752097 0.024504201 -0.08067317 -0.02118973 0.021320302 -0.08236354
0.041314036 0.055947468 -0.100009166 0.034519017 0.07077758 0.0011224541 -0.07342878 -0.05309921
-0.07251768 -0.025168914 0.006644268 0.062318865 -0.020194681 0.03530604 -0.08650557 0.050183658
0.023723757 0.030632908 -0.04713821 -0.037987377 0.073084705 0.060538825 0.07048702 -0.086936586
-0.06351577 0.08116212 -0.06922708 -0.08565575 -0.013211646 0.0843783 0.03081918 0.06536809
-0.08331515 -0.098031774 -0.10982951 0.07330147 -0.047312185 0.057067446 -0.036884822 0.088692546
0.043142032 0.020750977 0.061801556 0.034465805 -0.10531155 0.011134792 -0.008017198 -0.0004543098
-0.032850735 -0.060042653 0.025203696 -0.035559185 -0.053772468 0.06942479 -0.052668344 -0.076779105
0.014599499 0.088096395 0.048102353 0.028977886 -0.07533532 -0.023530079 0.06496134 0.044023626
-0.09955127 0.008876692 0.06852749 0.00097426976 0.030832686 0.090937965 -0.035639625 -0.040768746
0.0884095 -0.04665295 0.015081143 0.060866904 -0.06451577 -0.06299446 -0.08093333 -0.024572214
0.06260855 -0.09985853 -0.047895093 -0.04428234 0.043445505 -0.068432465 0.044563767 -0.013604311
0.010351683 -0.012070197 -0.032420285 0.09198954 0.027788112 -0.060937338 0.21452461 0.116071515
0.15701441 -0.027792916 -0.10137719 -0.061713208 0.22150901 0.088404246 0.1487169 0.0031779155
-0.09293777 -0.093160376 0.055497386 0.014692556 0.069225706 0.009261566 -0.0703335 0.03888207
-0.038703658 0.023723902 0.014612369 0.051667675 0.0044785696 0.0140717225 -0.02072572 0.074413985
0.07671992 0.075884596 0.07649179 -0.02102553 0.0028611165 -0.017610857 -0.05521817 -0.05944397
-0.017579783 0.009861821 -0.09840069 -0.07753658 -0.07338436 -0.01577917 -0.1041643 -0.02977883
-0.032648202 0.08588476 0.09582844 -0.036957562 -0.14440507 -0.120579414 0.025787938 0.040265746
-0.013151528 0.08444073 0.06985242 0.021817127 0.048214916 -0.06847132 -0.070952095 0.0012782128
00000000: e1e1 f63c 139d 213d f467 993c 0385 aa3b
00000010: 1c31 ecbc 787f 973d c774 16bd 7a6f 08bc
00000020: d728 22bd db79 52bd 6738 6ebd 704c 8f3b
00000030: a321 2dbd be52 d13d 87ad 7d3d 5cae d13c
00000040: 5213 e53c 0420 953d c3a3 b03b 8f1a 04bd
00000050: 7a66 9abc 6185 843d ecc9 67bd 1f2e 8e3d
00000060: 3207 32bd f9c5 69bd 16a1 3d3d 6d78 b1bd
00000070: b9e5 e8bb 670d f23d 2486 9cbd a9ce d0bd
00000080: 32a6 9abd 561c a8bc 5b5f 87bd b3b6 e33d
00000090: 648e 973d 302b c83d 6a41 afbc 9ee3 6abd
000000a0: d5b3 fa3c 2940 833d 264e d7bd 25f7 463d
000000b0: b904 beb9 5094 d6bd 4cea 7a3d aa41 503c
000000c0: f4ea 4cbc 627d c6bd 6f9b f1bb 71e8 7d3d
000000d0: 89ee 70bd 3074 c8bd 04be 723d 59be cb3d
000000e0: 1279 91bc c7dd 5bbd 0fb3 5fbd 448c fa3c
000000f0: 484a c03d e394 3bbd e7b6 d1bd bc57 ac3d
00000100: 8fb7 85bd 499e 2dbd 9e9e 573d 8560 b53d
00000110: bc13 afbd 2181 eebd aa99 80bd 2db1 75bd
00000120: 1d26 b73d 8948 a2bd 48c9 82bd 8fc1 b03b
00000130: 6885 8f3d f1aa 58bd 42e4 d1bd 8b45 d2bd
00000140: 86e2 a3bd c695 b1bd 4d6c b63d 199a 9b3d
00000150: 7e03 aa3c 7e42 a23d 0785 243d 7ba4 26bd
00000160: 3900 d93d 683d 063e b056 cabd ef62 7c3d
00000170: 7114 a9bd 36a5 7ebd c13f 583d 358d 82bc
00000180: bb9e e03d 37e4 893d 97af 19bd 09bd c83c
00000190: fa37 a5bd 1696 adbc eaa7 ae3c 37ae a8bd
000001a0: e838 293d 2c29 653d 9bd1 ccbd d063 0d3d
000001b0: d6f3 903d 4f1f 933a d461 96bd 8f7e 59bd
000001c0: 2684 94bd 0a2f cebc 29b8 d93b 1142 7f3d
000001d0: 516f a5bc 119d 103d d529 b1bd 618d 4d3d
000001e0: 5358 c23c ddf1 fa3c ff13 41bd a798 1bbd
000001f0: 6fad 953d 8ff7 773d 805b 903d cf0b b2bd
00000200: 8e14 82bd 5338 a63d edc6 8dbd 486c afbd
00000210: a975 58bc 88ce ac3d 8178 fc3c b5df 853d
00000220: 22a1 aabd e2c4 c8bd 4bee e0bd 151f 963d
00000230: 6cca 41bd 8ebf 693d 8a14 17bd 70a4 b53d
00000240: b3b5 303d f4fd a93c a123 7d3d 042c 0d3d
00000250: 95ad d7bd b46e 363c 915a 03bc 6e30 eeb9
00000260: 7e8e 06bd 49ef 75bd fb77 ce3c 82a6 11bd
00000270: 8540 5cbd 962e 8e3d c3ba 57bd 5d3e 9dbd
00000280: bd32 6f3c e26b b43d f906 453d 0863 ed3c
00000290: 6749 9abd 27c2 c0bc 730a 853d 1e52 343d
000002a0: 89e1 cbbd 8b6f 113c 2458 8c3d 2366 7f3a
000002b0: d494 fc3c af3d ba3d dbfa 11bd 21fd 26bd
000002c0: 0a10 b53d 2a17 3fbd e616 773c 934f 793d
000002d0: d820 84bd 3d03 81bd 60c0 a5bd ab4b c9bc
000002e0: e938 803d a182 ccbd a52d 44bd 6661 35bd
000002f0: eaf3 313d 5226 8cbd 7f88 363d 9ee4 5ebc
00000300: 1b9a 293c 13c2 45bc 22cb 04bd 0365 bc3d
00000310: e5a3 e33c 6e99 79bd 57ac 5b3e e7b6 ed3d
00000320: 63c8 203e f8ad e3bc d89e cfbd fdc6 7cbd
00000330: 42d3 623e 490d b53d 3e49 183e 9344 503b
00000340: 2856 bebd deca bebd 3a51 633d 0cb9 703c
00000350: 35c6 8d3d d3bd 173c 030b 90bd ce42 1f3d
00000360: ba87 1ebd a158 c23c b868 6f3c 7ca1 533d
00000370: f7c0 923b 158d 663c fcc8 a9bc 5c66 983d
00000380: 551f 9d3d 6269 9b3d baa7 9c3d bb3d acbc
00000390: 9281 3b3b a544 90bc 732c 62bd 857b 73bd
000003a0: 7a03 90bc 7a93 213c 4d86 c9bd 80cb 9ebd
000003b0: 8a4a 96bd 5143 81bc 1854 d5bd bcf2 f3bc
000003c0: 1fba 05bd 59e4 af3d b341 c43d d060 17bd
000003d0: ecde 13be 57f2 f6bd 3a41 d33c b2ed 243d
000003e0: 8279 57bc 43ef ac3d c90e 8f3d d5b9 b23c
000003f0: 017d 453d b13a 8cbd 554f 91bd b489 a73a

audio_TCN.network.1.net.0.bias f4 [32]
0.015877962 -0.049917776 -0.08913195 0.026151795 0.047380395 0.05405349 0.048387706 0.058788486
-0.013727544 -0.055791333 -0.057838805 -0.07873414 -0.061077017 -0.037981126 -0.056087993 -0.075158544
0.09302299 0.039211046 -0.018795395 0.059355646 0.06398883 -0.019269986 0.05440657 0.025905078
-0.05760691 0.009763158 0.0628037 -0.055870526 0.00972022 -0.0995363 0.048314434 -0.08211333
00000000: 8012 823c 9576 4cbd d08a b6bd 4a3c d63c
00000010: f211 423d 3167 5d3d 3032 463d 32cc 703d
00000020: 7ee9 60bc 7485 64bd 62e8 6cbd 5d3f a1bd
00000030: e52b 7abd 1992 1bbd 86bc 65bd b9ec 99bd
00000040: d682 be3d c39b 203d cdf8 99bc e81e 733d
00000050: 930c 833d 17dc 9dbc 6cd9 5e3d e336 d43c
00000060: 39f5 6bbd a7f5 1f3c 3a9f 803d 7ed8 64bd
00000070: 8f41 1f3c b0d9 cbbd 5be5 453d 092b a8bd

audio_TCN.network.1.net.0.weight_g f4 [32, 1, 1]
0.57663596 0.5375079 0.6880589 0.5436251 0.60645735 0.581129 0.5510917 0.58824813
0.6155271 0.5951536 0.62565094 0.51245797 0.50695366 0.54480106 0.5342532 0.5628264
0.5666563 0.59931874 0.6327972 0.5379589 0.5561234 0.62244475 0.6025088 0.58895576
0.5588389 0.5535888 0.6492304 0.54598063 0.55360746 0.5723539 0.5236876 0.5373205
00000000: 6a9e 133f 1e9a 093f a124 303f 042b 0b3f
00000010: ca40 1b3f dfc4 143f 5814 0d3f 6e97 163f
00000020: 2f93 1d3f fd5b 183f a92a 203f 7230 033f
00000030: b7c7 013f 1578 0b3f d1c4 083f 6415 103f
00000040: 6310 113f f46c 193f fffe 213f adb7 093f
00000050: 1a5e 0e3f 8a58 1f3f 043e 1a3f cec5 163f
00000060: 1110 0f3f ffb7 0d3f f733 263f 63c5 0b3f
00000070: 38b9 0d3f c985 123f 6410 063f d68d 093f

audio_TCN.network.1.net.0.weight_v f4 [32, 32, 3]
0.030137004 0.03945644 0.018726327 0.0052038445 -0.02883201 0.073973596 -0.03673246 -0.008327359
-0.03958973 -0.05138574 -0.05815926 0.0043731257 -0.042268407 0.1022086 0.061933067 0.025595836
0.027963314 0.07281497 0.0053906157 -0.03225189 -0.018847693 0.064707525 -0.056589052 0.06942391
-0.043463893 -0.057073567 0.0462962 -0.086655475 -0.007107463 0.118189625 -0.07642773 -0.10195667
-0.075512305 -0.020521324 -0.066099845 0.111188315 0.07400206 0.09773862 -0.021393497 -0.05734598
0.030603329 0.06408722 -0.105129525 0.04857554 -0.00036243143 -0.10477507 0.0612586 0.012710968
-0.012507189 -0.096918836 -0.0073732655 0.06198925 -0.058821235 -0.09787786 0.059263244 0.09948415
-0.017757926 -0.0536783 -0.054614123 0.030584462 0.09389168 -0.045796286 -0.10239964 0.084151715
-0.06529152 -0.04238728 0.052641504 0.088563 -0.08548686 -0.11645723 -0.06279309 -0.05998342
0.089428164 -0.07923991 -0.063860476 0.0053941677 0.07007867 -0.052897397 -0.10248615 -0.102671705
-0.0800219 -0.08671145 0.089073755 0.07597751 0.020753618 0.07922839 0.040165927 -0.040684205
0.105957456 0.13109362 -0.098798156 0.061617788 -0.08255852 -0.062169276 0.052795175 -0.015936473
0.109677754 0.06732982 -0.03752097 0.024504201 -0.08067317 -0.02118973 0.021320302 -0.08236354
0.041314036 0.055947468 -0.100009166 0.034519017 0.07077758 0.0011224541 -0.07342878 -0.05309921
-0.07251768 -0.025168914 0.006644268 0.062318865 -0.020194681 0.03530604 -0.08650557 0.050183658
0.023723757 0.030632908 -0.04713821 -0.037987377 0.073084705 0.060538825 0.07048702 -0.086936586
-0.06351577 0.08116212 -0.06922708 -0.08565575 -0.013211646 0.0843783 0.03081918 0.06536809
-0.08331515 -0.098031774 -0.10982951 0.07330147 -0.047312185 0.057067446 -0.036884822 0.088692546
0.043142032 0.020750977 0.061801556 0.034465805 -0.10531155 0.011134792 -0.008017198 -0.0004543098
-0.032850735 -0.060042653 0.025203696 -0.035559185 -0.053772468 0.06942479 -0.052668344 -0.076779105
0.014599499 0.088096395 0.048102353 0.028977886 -0.07533532 -0.023530079 0.06496134 0.044023626
-0.09955127 0.008876692 0.06852749 0.00097426976 0.030832686 0.090937965 -0.035639625 -0.040768746
0.0884095 -0.04665295 0.015081143 0.060866904 -0.06451577 -0.06299446 -0.08093333 -0.024572214
0.06260855 -0.09985853 -0.047895093 -0.04428234 0.043445505 -0.068432465 0.044563767 -0.013604311
0.010351683 -0.012070197 -0.032420285 0.09198954 0.027788112 -0.060937338 0.21452461 0.116071515
0.15701441 -0.027792916 -0.10137719 -0.061713208 0.22150901 0.088404246 0.1487169 0.0031779155
-0.09293777 -0.093160376 0.055497386 0.014692556 0.069225706 0.009261566 -0.0703335 0.03888207
-0.038703658 0.023723902 0.014612369 0.051667675 0.0044785696 0.0140717225 -0.02072572 0.074413985
0.07671992 0.075884596 0.07649179 -0.02102553 0.0028611165 -0.017610857 -0.05521817 -0.05944397
-0.017579783 0.009861821 -0.09840069 -0.07753658 -0.07338436 -0.01577917 -0.1041643 -0.02977883
-0.032648202 0.08588476 0.09582844 -0.036957562 -0.14440507 -0.120579414 0.025787938 0.040265746
-0.013151528 0.08444073 0.06985242 0.021817127 0.048214916 -0.06847132 -0.070952095 0.0012782128
00000000: e1e1 f63c 139d 213d f467 993c 0385 aa3b
00000010: 1c31 ecbc 787f 973d c774 16bd 7a6f 08bc
00000020: d728 22bd db79 52bd 6738 6ebd 704c 8f3b
00000030: a321 2dbd be52 d13d 87ad 7d3d 5cae d13c
00000040: 5213 e53c 0420 953d c3a3 b03b 8f1a 04bd
00000050: 7a66 9abc 6185 843d ecc9 67bd 1f2e 8e3d
00000060: 3207 32bd f9c5 69bd 16a1 3d3d 6d78 b1bd
00000070: b9e5 e8bb 670d f23d 2486 9cbd a9ce d0bd
00000080: 32a6 9abd 561c a8bc 5b5f 87bd b3b6 e33d
00000090: 648e 973d 302b c83d 6a41 afbc 9ee3 6abd
000000a0: d5b3 fa3c 2940 833d 264e d7bd 25f7 463d
000000b0: b904 beb9 5094 d6bd 4cea 7a3d aa41 503c
000000c0: f4ea 4cbc 627d c6bd 6f9b f1bb 71e8 7d3d
000000d0: 89ee 70bd 3074 c8bd 04be 723d 59be cb3d
000000e0: 1279 91bc c7dd 5bbd 0fb3 5fbd 448c fa3c
000000f0: 484a c03d e394 3bbd e7b6 d1bd bc57 ac3d
00000100: 8fb7 85bd 499e 2dbd 9e9e 573d 8560 b53d
00000110: bc13 afbd 2181 eebd aa99 80bd 2db1 75bd
00000120: 1d26 b73d 8948 a2bd 48c9 82bd 8fc1 b03b
00000130: 6885 8f3d f1aa 58bd 42e4 d1bd 8b45 d2bd
00000140: 86e2 a3bd c695 b1bd 4d6c b63d 199a 9b3d
00000150: 7e03 aa3c 7e42 a23d 0785 243d 7ba4 26bd
00000160: 3900 d93d 683d 063e b056 cabd ef62 7c3d
00000170: 7114 a9bd 36a5 7ebd c13f 583d 358d 82bc
00000180: bb9e e03d 37e4 893d 97af 19bd 09bd c83c
00000190: fa37 a5bd 1696 adbc eaa7 ae3c 37ae a8bd
000001a0: e838 293d 2c29 653d 9bd1 ccbd d063 0d3d
000001b0: d6f3 903d 4f1f 933a d461 96bd 8f7e 59bd
000001c0: 2684 94bd 0a2f cebc 29b8 d93b 1142 7f3d
000001d0: 516f a5bc 119d 103d d529 b1bd 618d 4d3d
000001e0: 5358 c23c ddf1 fa3c ff13 41bd a798 1bbd
000001f0: 6fad 953d 8ff7 773d 805b 903d cf0b b2bd
00000200: 8e14 82bd 5338 a63d edc6 8dbd 486c afbd
00000210: a975 58bc 88ce ac3d 8178 fc3c b5df 853d
00000220: 22a1 aabd e2c4 c8bd 4bee e0bd 151f 963d
00000230: 6cca 41bd 8ebf 693d 8a14 17bd 70a4 b53d
00000240: b3b5 303d f4fd a93c a123 7d3d 042c 0d3d
00000250: 95ad d7bd b46e 363c 915a 03bc 6e30 eeb9
00000260: 7e8e 06bd 49ef 75bd fb77 ce3c 82a6 11bd
00000270: 8540 5cbd 962e 8e3d c3ba 57bd 5d3e 9dbd
00000280: bd32 6f3c e26b b43d f906 453d 0863 ed3c
00000290: 6749 9abd 27c2 c0bc 730a 853d 1e52 343d
000002a0: 89e1 cbbd 8b6f 113c 2458 8c3d 2366 7f3a
000002b0: d494 fc3c af3d ba3d dbfa 11bd 21fd 26bd
000002c0: 0a10 b53d 2a17 3fbd e616 773c 934f 793d
000002d0: d820 84bd 3d03 81bd 60c0 a5bd ab4b c9bc
000002e0: e938 803d a182 ccbd a52d 44bd 6661 35bd
000002f0: eaf3 313d 5226 8cbd 7f88 363d 9ee4 5ebc
00000300: 1b9a 293c 13c2 45bc 22cb 04bd 0365 bc3d
00000310: e5a3 e33c 6e99 79bd 57ac 5b3e e7b6 ed3d
00000320: 63c8 203e f8ad e3bc d89e cfbd fdc6 7cbd
00000330: 42d3 623e 490d b53d 3e49 183e 9344 503b
00000340: 2856 bebd deca bebd 3a51 633d 0cb9 703c
00000350: 35c6 8d3d d3bd 173c 030b 90bd ce42 1f3d
00000360: ba87 1ebd a158 c23c b868 6f3c 7ca1 533d
00000370: f7c0 923b 158d 663c fcc8 a9bc 5c66 983d
00000380: 551f 9d3d 6269 9b3d baa7 9c3d bb3d acbc
00000390: 9281 3b3b a544 90bc 732c 62bd 857b 73bd
000003a0: 7a03 90bc 7a93 213c 4d86 c9bd 80cb 9ebd
000003b0: 8a4a 96bd 5143 81bc 1854 d5bd bcf2 f3bc
000003c0: 1fba 05bd 59e4 af3d b341 c43d d060 17bd
000003d0: ecde 13be 57f2 f6bd 3a41 d33c b2ed 243d
000003e0: 8279 57bc 43ef ac3d c90e 8f3d d5b9 b23c
000003f0: 017d 453d b13a 8cbd 554f 91bd b489 a73a

audio_TCN.network.2.conv.bias f4 [32]
-0.09196105 -0.054509703 0.068355195 -0.03530203 0.01380216 -0.07562675 -0.045714226 -0.01426991
0.058107648 -0.053375453 -0.083729446 -0.026423434 -0.05881689 0.043234184 0.03017955 -0.0045790724
0.020233672 0.046669442 -0.0038461527 -0.06313115 -0.05957796 0.023047673 -0.07217965 0.012889179
0.01430766 0.036143456 0.0065127956 -0.022335641 0.047719203 0.07590945 -0.07192172 -0.055318326
00000000: 1356 bcbd 9145 5fbd cffd 8b3d dd98 10bd
00000010: 7422 623c 33e2 9abd d73e 3bbd 57cc 69bc
00000020: 4902 6e3d 38a0 5abd 587a abbd f575 d8bc
00000030: fbe9 70bd 5416 313d 1b3b f73c 0b0c 96bb
00000040: 16c1 a53c 7528 3f3d bc0f 7cbb e84a 81bd
00000050: 0508 74bd 79ce bc3c edd2 93bd 232d 533c
00000060: ad6a 6a3c 290b 143d 4a69 d53b 3cf9 b6bc
00000070: 3675 433d 6a76 9b3d b24b 93bd 7895 62bd

audio_TCN.network.2.conv.weight_g f4 [32, 1, 1]
0.6274217 0.60187167 0.5838466 0.5838499 0.6040746 0.5380277 0.5580346 0.5820097
0.6375593 0.5553938 0.5802082 0.5694514 0.5922378 0.53039855 0.54659176 0.58376867
0.6000567 0.59287286 0.57073534 0.60832465 0.57530546 0.54852444 0.5629206 0.598639
0.5840994 0.56483215 0.5784151 0.59726924 0.58132064 0.67992556 0.55439097 0.582873
00000000: b59e 203f 4314 1a3f f976 153f 3077 153f
00000010: a2a4 1a3f 2fbc 093f 5bdb 0e3f 96fe 143f
00000020: 1637 233f 4a2e 0e3f 8688 143f 91c7 113f
00000030: e59c 173f 33c8 073f 70ed 0b3f dd71 153f
00000040: 519d 193f 84c6 173f b61b 123f 2abb 1b3f
00000050: 3847 133f 196c 0c3f 901b 103f 6840 193f
00000060: 8a87 153f d798 103f 0313 143f a3e6 183f
00000070: 6ed1 143f 9a0f 2e3f 91ec 0d3f 2a37 153f

audio_TCN.network.2.conv.weight_v f4 [32, 32, 3]
-0.015566639 0.014542671 0.00940684 -0.042831667 -0.09663103 0.073677786 0.13272142 0.10453561
-0.092834696 -0.0048441594 -0.049095877 -0.04589479 -0.08491233 0.04031884 0.060615405 -0.053412136
-0.042575013 0.025047537 -0.07613115 0.07250997 -0.0081023285 -0.10625016 0.028270382 0.08394366
-0.047580797 -0.10021528 -0.03423657 0.048643127 -0.0033300703 -0.014364551 -0.08019236 -0.10937304
-0.082426324 -0.044891357 0.052487373 -0.09889651 0.09342113 -0.09903526 0.025211465 0.07730317
0.0907685 0.08597711 -0.046835877 -0.10263709 -0.05009153 0.03774546 -0.109977014 0.060266122
-0.046941668 0.004361121 -0.107745215 0.049088504 0.07246562 0.06721658 0.06646634 0.05340622
0.049787074 0.0915458 -0.019009486 0.012896375 0.05999782 0.11259748 -0.014092065 -0.03377668
0.09303204 0.12352124 -0.07997278 0.074805245 0.047279984 0.07457145 0.0695056 -0.0060043056
-0.08424539 0.05321067 0.055495832 -0.109590136 -0.058626644 0.05333375 0.11098316 0.09068335
0.051738758 -0.02838048 -0.04532105 0.05406791 0.075041376 -0.08116967 -0.019016543 -0.009591462
0.08495873 0.084517844 0.07984506 0.012751243 -0.10883512 0.074414566 0.083684064 -0.06436038
0.06251806 0.060815424 0.026196701 -0.06036419 0.09557918 0.022236649 0.0068164747 -0.050317384
0.06862602 -0.056856442 0.10068101 -0.11096513 0.06934174 -0.10845342 0.057291254 -0.06935944
0.006439912 -0.09783795 -0.008381053 0.0073209223 -0.003662783 -0.0035596734 -0.015962478 -0.053865932
-0.09128055 -0.03141398 -0.07557938 0.004981609 -0.055135395 0.08046999 0.010497753 -0.03747913
-0.098324604 0.072009884 0.070115484 0.012632878 0.10488101 0.09940736 -0.06537641 0.058594976
-0.012465641 -0.0799053 0.03811931 -0.038245995 0.08678702 -0.04754376 -0.0637222 0.06285488
0.06863918 0.076924376 -0.05366264 0.068827055 -0.09082582 -0.060019255 0.11407073 -0.056275453
-0.026187133 -0.013823863 0.0014426677 0.014200538 -0.09762525 -0.064797625 0.0902433 -0.06304741
0.09976847 -0.113354415 -0.041728184 0.051157825 -0.11341068 -0.009096196 -0.03411659 -0.10893493
0.038189787 -0.102407165 0.059702825 0.07695478 0.00021279097 0.022005891 0.015549925 -0.06325983
-0.048392374 0.025127279 0.018836742 -0.11405565 0.010182192 0.034249853 0.04902523 -0.07906865
0.058058776 0.030501537 -0.1092212 0.078083284 -0.027795225 0.057398986 -0.020329518 0.06025652
0.055070553 0.03897625 -0.04140003 -0.037548397 0.08521842 -0.08234841 0.05475324 0.17981486
0.13356663 -0.023863997 -0.00054142595 -0.10180588 0.075482555 0.053015623 0.006347876 0.056148477
-0.05579673 0.002637501 0.03676139 0.017897135 -0.037016094 0.04684924 0.08896314 -0.058231812
0.07382961 0.04574716 -0.002063761 -0.0149579 0.0183356 0.03514743 0.06304015 0.09570036
0.0011777186 -0.06591807 0.043702427 -0.051622532 0.07592953 -0.015248703 0.010947549 -0.05229514
-0.048361577 0.0023379074 0.0085660545 0.01988303 0.058800995 -0.066697985 0.07253972 -0.06413837
0.11253817 -0.01726939 0.10533326 -0.059119422 -0.016901143 -0.052046616 -0.016354624 0.07134283
0.074532226 -0.034353986 0.072829366 0.03715988 -0.063839965 -0.06876731 0.021286696 0.056921665
00000000: 370b 7fbc 6244 6e3c 261f 1a3c 4270 2fbd
00000010: 7de6 c5bd 61e4 963d 20e8 073e c416 d63d
00000020: 1e20 bebd c1bb 9ebb c218 49bd 2dfc 3bbd
00000030: 84e6 adbd 5e25 253d dc47 783d afc6 5abd
00000040: 2363 2ebd 7e30 cd3c a6ea 9bbd 1b80 943d
00000050: a1bf 04bc af99 d9bd 4a97 e73c a7ea ab3d
00000060: 15e4 42bd ab3d cdbd a53b 0cbd 043e 473d
00000070: 4f3d 5abb 4b59 6bbc e43b a4bd f9fe dfbd
00000080: 22cf a8bd 00e0 37bd 00fd 563d 418a cabd
00000090: 9453 bf3d 00d3 cabd 4688 ce3c 2051 9e3d
000000a0: d6e4 b93d c414 b03d fad6 3fbd 6533 d2bd
000000b0: c72c 4dbd fc9a 1a3d a13b e1bd 9cd9 763d
000000c0: e845 40bd bce7 8e3b 86a9 dcbd 0711 493d
000000d0: db68 943d d9a8 893d 811f 883d 7bc0 5a3d
000000e0: 88ed 4b3d 5d7c bb3d c8b9 9bbc 514b 533c
000000f0: 46c0 753d 8299 e63d 68e2 66bc 6a59 0abd
00000100: 9587 be3d b4f8 fc3d c5c8 a3bd 7e33 993d
00000110: a8a8 413d ebb8 983d f458 8e3d c4bf c4bb
00000120: d988 acbd 6ef3 593d 994f 633d cb70 e0bd
00000130: 7e22 70bd 7e74 5a3d 244b e33d 31b8 b93d
00000140: 05ec 533d 2e7e e8bc 91a2 39bd 5076 5d3d
00000150: 4baf 993d 493c a6bd 95c8 9bbc 8225 1dbc
00000160: d8fe ad3d b117 ad3d cf85 a33d 97ea 503c
00000170: f3e4 debd aa66 983d 8d62 ab3d 60cf 83bd
00000180: 7809 803d 9819 793d 779a d63c 7140 77bd
00000190: 04bf c33d a229 b63c bc5c df3b 9a19 4ebd
000001a0: cc8b 8c3d 4de2 68bd d831 ce3d b041 e3bd
000001b0: 0b03 8e3d d41c debd 3caa 6a3d 520c 8ebd
000001c0: e605 d33b 435f c8bd af50 09bc 59e4 ef3b
000001d0: 4d0b 70bb 6949 69bb bec3 82bc 86a2 5cbd
000001e0: 4cf1 babd f2ab 00bd 5dc9 9abd c43c a33b
000001f0: a7d5 61bd 73cd a43d c4fe 2b3c b783 19bd
00000200: 695e c9bd eb79 933d b598 8f3d 21fa 4e3c
00000210: dbcb d63d 1696 cb3d 11e4 85bd 4901 703d
00000220: b03c 4cbc 64a5 a3bd fe22 1c3d d5a7 1cbd
00000230: 65bd b13d 3fbd 42bd c980 82bd 0fba 803d
00000240: b392 8c3d 878a 9d3d 5bcd 5bbd 33f5 8c3d
00000250: e302 babd c0d6 75bd ea9d e93d 1781 66bd
00000260: 6686 d6bc 7c7d 62bc e517 bd3a 60a9 683c
00000270: bfef c7bd 9eb4 84bd 7bd1 b83d 001f 81bd
00000280: 6953 cc3d 5c26 e8bd 2ceb 2abd de8a 513d
00000290: dc43 e8bd 3608 15bc d6bd 0bbd 4719 dfbd
000002a0: e56c 1c3d d9ba d1bd f38a 743d 789a 9d3d
000002b0: a420 5f39 b345 b43c 1dc5 7e3c 5f8e 81bd
000002c0: 1537 46bd b9d7 cd3c 834f 9a3c 0296 e9bd
000002d0: 35d3 263c 9349 0c3d aece 483d bfee a1bd
000002e0: 0acf 6d3d 5cde f93c 5daf dfbd 21ea 9f3d
000002f0: d0b2 e3bc 331b 6b3d 178a a6bc 8acf 763d
00000300: a991 613d 8fa5 1f3d 1493 29bd 59cc 19bd
00000310: ff86 ae3d 48a6 a8bd ef44 603d 6321 383e
00000320: b1c5 083e 6e7e c3bc 7bee 0dba 9a7f d0bd
00000330: 9996 9a3d e926 593d d801 d03b f2fb 653d
00000340: 1d8b 64bd edd9 2c3b 1c93 163d 039d 923c
00000350: 309e 17bd fde4 3f3d 4f32 b63d 7b84 6ebd
00000360: fb33 973d 6061 3b3d 2a40 07bb fb11 75bc
00000370: 8a34 963c c0f6 0f3d 321b 813d 8dfe c33d
00000380: ae5d 9a3a 0e00 87bd 5101 333d 2672 53bd
00000390: f180 9b3d b2d5 79bc 595d 333c 6e33 56bd
000003a0: ca16 46bd 9437 193b a358 0c3c bce1 a23c
000003b0: 50d9 703d f498 88bd b48f 943d fa5a 83bd
000003c0: 697a e63d 8978 8dbc f7b8 d73d 3527 72bd
000003d0: 4474 8abc d52e 55bd 22fa 85bc 311c 923d
000003e0: 5aa4 983d c4b6 0cbd 9027 953d f534 183d
000003f0: 87be 82bd e0d5 8cbd 7061 ae3c b126 693d

audio_TCN.network.2.net.0.bias f4 [32]
-0.09196105 -0.054509703 0.068355195 -0.03530203 0.01380216 -0.07562675 -0.045714226 -0.01426991
0.058107648 -0.053375453 -0.083729446 -0.026423434 -0.05881689 0.043234184 0.03017955 -0.0045790724
0.020233672 0.046669442 -0.0038461527 -0.06313115 -0.05957796 0.023047673 -0.07217965 0.012889179
0.01430766 0.036143456 0.0065127956 -0.022335641 0.047719203 0.07590945 -0.07192172 -0.055318326
00000000: 1356 bcbd 9145 5fbd cffd 8b3d dd98 10bd
00000010: 7422 623c 33e2 9abd d73e 3bbd 57cc 69bc
00000020: 4902 6e3d 38a0 5abd 587a abbd f575 d8bc
00000030: fbe9 70bd 5416 313d 1b3b f73c 0b0c 96bb
00000040: 16c1 a53c 7528 3f3d bc0f 7cbb e84a 81bd
00000050: 0508 74bd 79ce bc3c edd2 93bd 232d 533c
00000060: ad6a 6a3c 290b 143d 4a69 d53b 3cf9 b6bc
00000070: 3675 433d 6a76 9b3d b24b 93bd 7895 62bd

audio_TCN.network.2.net.0.weight_g f4 [32, 1, 1]
0.6274217 0.60187167 0.5838466 0.5838499 0.6040746 0.5380277 0.5580346 0.5820097
0.6375593 0.5553938 0.5802082 0.5694514 0.5922378 0.53039855 0.54659176 0.58376867
0.6000567 0.59287286 0.57073534 0.60832465 0.57530546 0.54852444 0.5629206 0.598639
0.5840994 0.56483215 0.5784151 0.59726924 0.58132064 0.67992556 0.55439097 0.582873
00000000: b59e 203f 4314 1a3f f976 153f 3077 153f
00000010: a2a4 1a3f 2fbc 093f 5bdb 0e3f 96fe 143f
00000020: 1637 233f 4a2e 0e3f 8688 143f 91c7 113f
00000030: e59c 173f 33c8 073f 70ed 0b3f dd71 153f
00000040: 519d 193f 84c6 173f b61b 123f 2abb 1b3f
00000050: 3847 133f 196c 0c3f 901b 103f 6840 193f
00000060: 8a87 153f d798 103f 0313 143f a3e6 183f
00000070: 6ed1 143f 9a0f 2e3f 91ec 0d3f 2a37 153f

audio_TCN.network.2.net.0.weight_v f4 [32, 32, 3]
-0.015566639 0.014542671 0.00940684 -0.042831667 -0.09663103 0.073677786 0.13272142 0.10453561
-0.092834696 -0.0048441594 -0.049095877 -0.04589479 -0.08491233 0.04031884 0.060615405 -0.053412136
-0.042575013 0.025047537 -0.07613115 0.07250997 -0.0081023285 -0.10625016 0.028270382 0.08394366
-0.047580797 -0.10021528 -0.03423657 0.048643127 -0.0033300703 -0.014364551 -0.08019236 -0.10937304
-0.082426324 -0.044891357 0.052487373 -0.09889651 0.09342113 -0.09903526 0.025211465 0.07730317
0.0907685 0.08597711 -0.046835877 -0.10263709 -0.05009153 0.03774546 -0.109977014 0.060266122
-0.046941668 0.004361121 -0.107745215 0.049088504 0.07246562 0.06721658 0.06646634 0.05340622
0.049787074 0.0915458 -0.019009486 0.012896375 0.05999782 0.11259748 -0.014092065 -0.03377668
0.09303204 0.12352124 -0.07997278 0.074805245 0.047279984 0.07457145 0.0695056 -0.0060043056
-0.08424539 0.05321067 0.055495832 -0.109590136 -0.058626644 0.05333375 0.11098316 0.09068335
0.051738758 -0.02838048 -0.04532105 0.05406791 0.075041376 -0.08116967 -0.019016543 -0.009591462
0.08495873 0.084517844 0.07984506 0.012751243 -0.10883512 0.074414566 0.083684064 -0.06436038
0.06251806 0.060815424 0.026196701 -0.06036419 0.09557918 0.022236649 0.0068164747 -0.050317384
0.06862602 -0.056856442 0.10068101 -0.11096513 0.06934174 -0.10845342 0.057291254 -0.06935944
0.006439912 -0.09783795 -0.008381053 0.0073209223 -0.003662783 -0.0035596734 -0.015962478 -0.053865932
-0.09128055 -0.03141398 -0.07557938 0.004981609 -0.055135395 0.08046999 0.010497753 -0.03747913
-0.098324604 0.072009884 0.070115484 0.012632878 0.10488101 0.09940736 -0.06537641 0.058594976
-0.012465641 -0.0799053 0.03811931 -0.038245995 0.08678702 -0.04754376 -0.0637222 0.06285488
0.06863918 0.076924376 -0.05366264 0.068827055 -0.09082582 -0.060019255 0.11407073 -0.056275453
-0.026187133 -0.013823863 0.0014426677 0.014200538 -0.09762525 -0.064797625 0.0902433 -0.06304741
0.09976847 -0.113354415 -0.041728184 0.051157825 -0.11341068 -0.009096196 -0.03411659 -0.10893493
0.038189787 -0.102407165 0.059702825 0.07695478 0.00021279097 0.022005891 0.015549925 -0.06325983
-0.048392374 0.025127279 0.018836742 -0.11405565 0.010182192 0.034249853 0.04902523 -0.07906865
0.058058776 0.030501537 -0.1092212 0.078083284 -0.027795225 0.057398986 -0.020329518 0.06025652
0.055070553 0.03897625 -0.04140003 -0.037548397 0.08521842 -0.08234841 0.05475324 0.17981486
0.13356663 -0.023863997 -0.00054142595 -0.10180588 0.075482555 0.053015623 0.006347876 0.056148477
-0.05579673 0.002637501 0.03676139 0.017897135 -0.037016094 0.04684924 0.08896314 -0.058231812
0.07382961 0.04574716 -0.002063761 -0.0149579 0.0183356 0.03514743 0.06304015 0.09570036
0.0011777186 -0.06591807 0.043702427 -0.051622532 0.07592953 -0.015248703 0.010947549 -0.05229514
-0.048361577 0.0023379074 0.0085660545 0.01988303 0.058800995 -0.066697985 0.07253972 -0.06413837
0.11253817 -0.01726939 0.10533326 -0.059119422 -0.016901143 -0.052046616 -0.016354624 0.07134283
0.074532226 -0.034353986 0.072829366 0.03715988 -0.063839965 -0.06876731 0.021286696 0.056921665
00000000: 370b 7fbc 6244 6e3c 261f 1a3c 4270 2fbd
00000010: 7de6 c5bd 61e4 963d 20e8 073e c416 d63d
00000020: 1e20 bebd c1bb 9ebb c218 49bd 2dfc 3bbd
00000030: 84e6 adbd 5e25 253d dc47 783d afc6 5abd
00000040: 2363 2ebd 7e30 cd3c a6ea 9bbd 1b80 943d
00000050: a1bf 04bc af99 d9bd 4a97 e73c a7ea ab3d
00000060: 15e4 42bd ab3d cdbd a53b 0cbd 043e 473d
00000070: 4f3d 5abb 4b59 6bbc e43b a4bd f9fe dfbd
00000080: 22cf a8bd 00e0 37bd 00fd 563d 418a cabd
00000090: 9453 bf3d 00d3 cabd 4688 ce3c 2051 9e3d
000000a0: d6e4 b93d c414 b03d fad6 3fbd 6533 d2bd
000000b0: c72c 4dbd fc9a 1a3d a13b e1bd 9cd9 763d
000000c0: e845 40bd bce7 8e3b 86a9 dcbd 0711 493d
000000d0: db68 943d d9a8 893d 811f 883d 7bc0 5a3d
000000e0: 88ed 4b3d 5d7c bb3d c8b9 9bbc 514b 533c
000000f0: 46c0 753d 8299 e63d 68e2 66bc 6a59 0abd
00000100: 9587 be3d b4f8 fc3d c5c8 a3bd 7e33 993d
00000110: a8a8 413d ebb8 983d f458 8e3d c4bf c4bb
00000120: d988 acbd 6ef3 593d 994f 633d cb70 e0bd
00000130: 7e22 70bd 7e74 5a3d 244b e33d 31b8 b93d
00000140: 05ec 533d 2e7e e8bc 91a2 39bd 5076 5d3d
00000150: 4baf 993d 493c a6bd 95c8 9bbc 8225 1dbc
00000160: d8fe ad3d b117 ad3d cf85 a33d 97ea 503c
00000170: f3e4 debd aa66 983d 8d62 ab3d 60cf 83bd
00000180: 7809 803d 9819 793d 779a d63c 7140 77bd
00000190: 04bf c33d a229 b63c bc5c df3b 9a19 4ebd
000001a0: cc8b 8c3d 4de2 68bd d831 ce3d b041 e3bd
000001b0: 0b03 8e3d d41c debd 3caa 6a3d 520c 8ebd
000001c0: e605 d33b 435f c8bd af50 09bc 59e4 ef3b
000001d0: 4d0b 70bb 6949 69bb bec3 82bc 86a2 5cbd
000001e0: 4cf1 babd f2ab 00bd 5dc9 9abd c43c a33b
000001f0: a7d5 61bd 73cd a43d c4fe 2b3c b783 19bd
00000200: 695e c9bd eb79 933d b598 8f3d 21fa 4e3c
00000210: dbcb d63d 1696 cb3d 11e4 85bd 4901 703d
00000220: b03c 4cbc 64a5 a3bd fe22 1c3d d5a7 1cbd
00000230: 65bd b13d 3fbd 42bd c980 82bd 0fba 803d
00000240: b392 8c3d 878a 9d3d 5bcd 5bbd 33f5 8c3d
00000250: e302 babd c0d6 75bd ea9d e93d 1781 66bd
00000260: 6686 d6bc 7c7d 62bc e517 bd3a 60a9 683c
00000270: bfef c7bd 9eb4 84bd 7bd1 b83d 001f 81bd
00000280: 6953 cc3d 5c26 e8bd 2ceb 2abd de8a 513d
00000290: dc43 e8bd 3608 15bc d6bd 0bbd 4719 dfbd
000002a0: e56c 1c3d d9ba d1bd f38a 743d 789a 9d3d
000002b0: a420 5f39 b345 b43c 1dc5 7e3c 5f8e 81bd
000002c0: 1537 46bd b9d7 cd3c 834f 9a3c 0296 e9bd
000002d0: 35d3 263c 9349 0c3d aece 483d bfee a1bd
000002e0: 0acf 6d3d 5cde f93c 5daf dfbd 21ea 9f3d
000002f0: d0b2 e3bc 331b 6b3d 178a a6bc 8acf 763d
00000300: a991 613d 8fa5 1f3d 1493 29bd 59cc 19bd
00000310: ff86 ae3d 48a6 a8bd ef44 603d 6321 383e
00000320: b1c5 083e 6e7e c3bc 7bee 0dba 9a7f d0bd
00000330: 9996 9a3d e926 593d d801 d03b f2fb 653d
00000340: 1d8b 64bd edd9 2c3b 1c93 163d 039d 923c
00000350: 309e 17bd fde4 3f3d 4f32 b63d 7b84 6ebd
00000360: fb33 973d 6061 3b3d 2a40 07bb fb11 75bc
00000370: 8a34 963c c0f6 0f3d 321b 813d 8dfe c33d
00000380: ae5d 9a3a 0e00 87bd 5101 333d 2672 53bd
00000390: f180 9b3d b2d5 79bc 595d 333c 6e33 56bd
000003a0: ca16 46bd 9437 193b a358 0c3c bce1 a23c
000003b0: 50d9 703d f498 88bd b48f 943d fa5a 83bd
000003c0: 697a e63d 8978 8dbc f7b8 d73d 3527 72bd
000003d0: 4474 8abc d52e 55bd 22fa 85bc 311c 923d
000003e0: 5aa4 983d c4b6 0cbd 9027 953d f534 183d
000003f0: 87be 82bd e0d5 8cbd 7061 ae3c b126 693d

audio_TCN.network.3.conv.bias f4 [32]
-0.0024644502 -0.045544915 -0.09856402 -0.09718552 -0.026812285 0.07261897 -0.06972111 -0.108820975
-0.059153877 -0.09229455 0.010620102 -0.08054089 -0.09665851 -0.067591295 -0.046577767 -0.020652143
-0.0011751424 0.082167976 0.0061675296 -0.029215427 0.06344965 -0.07850461 0.03806678 0.09238438
-0.013277873 -0.06442682 0.04988136 0.060307432 0.003516853 0.014234056 0.08170292 -0.08828333
00000000: 9d82 21bb 4e8d 3abd efdb c9bd 3409 c7bd
00000010: 70a5 dbbc 41b9 943d f1c9 8ebd 88dd debd
00000020: 564b 72bd ed04 bdbd f0ff 2d3c 9ff2 a4bd
00000030: e6f4 c5bd 4e6d 8abd 54c8 3ebd af2e a9bc
00000040: 3c07 9aba af47 a83d fd18 ca3b 3155 efbc
00000050: e4f1 813d 06c7 a0bd e9eb 1b3d 0634 bd3d
00000060: 708b 59bc 35f2 83bd 6650 4c3d ed04 773d
00000070: 017b 663b f535 693c dc53 a73d e4cd b4bd

audio_TCN.network.3.conv.weight_g f4 [32, 1, 1]
0.56013757 0.5933805 0.581323 0.5128986 0.5668272 0.5588695 0.6697641 0.57062507
0.5668235 0.55457467 0.5613581 0.68468755 0.5656117 0.5186911 0.56816155 0.54880124
0.5735056 0.59472674 0.5578102 0.64624906 0.5825265 0.59503746 0.5804855 0.58254886
0.5100826 0.5864085 0.5734135 0.62327754 0.61662894 0.5591802 0.5124382 0.5477523
00000000: 2d65 0f3f c9e7 173f 96d1 143f 534d 033f
00000010: 961b 113f 1212 0f3f a975 2b3f 7c14 123f
00000020: 581b 113f 9bf8 0d3f 2ab5 0f3f af47 2f3f
00000030: eecb 103f f1c8 043f 0973 113f 3d7e 0c3f
00000040: 43d1 123f 0340 183f a6cc 0e3f 9470 253f
00000050: 7520 153f 6054 183f b39a 143f ec21 153f
00000060: c694 023f de1e 163f 3acb 123f 1e8f 1f3f
00000070: 65db 1d3f 6f26 0f3f 262f 033f 7f39 0c3f
