results/models/deep/deep_audio_cnn-lstm_checkpoint.pt (torch_old, 378467 bytes, 8 tensors)

audio_layers.0.weight f4 [32, 32, 8]
0.041484423 0.006348133 0.02994334 0.035257347 0.047297537 0.06053727 -0.031862035 -0.004990816
0.0044534057 0.027591296 0.014038779 0.04933908 -0.0021267831 -0.038012065 0.03041146 0.059060752
0.015070781 0.02789165 -0.037897833 0.005269699 -0.0045102686 0.037570775 0.044642493 0.029951744
0.022978477 -0.005691886 -0.049158186 0.025748491 0.041470118 -0.04338146 0.0037319064 -0.010295525
0.06145735 -0.0088163465 -0.03413567 -0.03114228 -0.051650345 -0.013376541 0.010285616 -0.008727632
-0.034601666 -0.04974182 -0.057550862 -0.026525952 0.03141783 -0.020002052 0.005682789 -0.040698275
-0.02680742 -0.03478516 -0.054626897 0.056203477 -0.03238313 0.05148843 0.035192855 -0.0075683743
0.04763543 -0.033111386 0.041639417 -0.04022304 -0.05904399 0.04143092 0.046508104 -0.05712524
-0.03825689 -0.05065602 0.025296785 0.0555493 0.049709238 0.053119548 -0.02757407 0.010862485
-0.021495841 0.030308887 0.024207182 -0.013113096 -0.03563015 -0.039121665 -0.037523 0.02634687
-0.05239149 0.060742266 0.012823224 -0.053631015 0.04977698 0.026512638 -0.024201296 0.05861491
-0.0061646625 0.008248478 -0.05410885 -0.054834053 -0.003638707 -0.014303066 0.012593538 -0.025960118
0.03882107 0.0072482005 0.02207376 -0.03632877 0.024765246 -0.050781675 -0.06247682 -0.02321174
0.01201535 -0.04723911 0.003528528 -0.02458606 -0.00858333 -0.03538172 0.0015055388 0.0042425245
0.036938347 -0.015598007 0.030058026 -0.034660533 -0.016519263 0.026504233 -0.018045284 0.020394914
-0.049224027 0.0031992272 -0.026694633 0.056046113 -0.0012368411 0.0037266389 -0.012221955 -0.04796584
0.044800185 0.011640072 -0.059327953 -0.02168309 0.007849529 0.0033730492 0.016132459 0.0071604103
0.057881624 0.01929427 -0.0003438443 0.025997244 0.026342884 0.011941686 -0.048625134 -0.041988492
-0.05155336 -0.01363723 0.036097094 0.03126862 0.060253873 -0.014746867 -0.039859965 -0.056615025
0.0042539313 -0.034768924 0.0042238235 -0.011619262 -0.042769484 -0.04196354 0.050177634 0.021423407
0.016052812 0.0493152 -0.06244187 -0.05637048 -0.023122251 -0.060779348 0.05606614 0.046637706
-0.014403917 0.034124322 -0.0377431 -0.049786568 0.012248628 -0.008735128 0.03396835 0.018972069
-0.053307556 0.052340336 -0.017164923 -0.06090024 -0.041884273 -0.029082403 0.049176455 -0.0130947605
0.053625748 0.026439138 -0.046748005 0.012053773 -0.0616474 -0.0035511106 -0.051248975 -0.015680216
0.043467 -0.019861877 0.062088527 -0.041677974 -0.029967107 -0.024481833 -0.03281945 -0.0006740615
0.054997385 -0.03907574 -0.0006376207 0.030011766 0.0028242022 0.034452386 0.024141826 0.042592168
0.0033062473 -0.008442134 0.058027923 -0.020264715 -0.0055899546 0.05999539 -0.031619497 -0.03799431
-0.03698776 -0.052905858 0.032565653 -0.037269004 -0.053822063 0.026971534 -0.054052614 0.0057825968
-0.005106963 -0.02944547 0.0289687 0.035323396 -0.062101282 -0.032302767 -0.052800305 0.014353417
-0.04723262 0.05091621 0.036066636 -0.026170284 0.03426794 -0.003677845 0.043251276 -0.029618368
0.041212507 -0.011708781 0.013509579 -0.040824696 0.006423436 0.0026585832 0.02137424 -0.03298465
0.015573181 -0.044577494 0.04510306 -0.017035589 -0.03587784 0.018762015 -0.04575737 0.040162772
00000000: 92eb 293d 0004 d03b bc4b f53c 026a 103d
00000010: 10bb 413d eef5 773d c481 02bd 008a a3bb
00000020: e0ed 913b 2407 e23c e802 663c c617 4a3d
00000030: 8061 0bbb 8ab2 1bbd 7421 f93c b0e9 713d
00000040: 70eb 763c 087d e43c c23a 1bbd 70ad ac3b
00000050: e0ca 93bb d0e3 193d 0cdb 363d 5c5d f53c
00000060: 5c3d bc3c 0083 babb 185a 49bd 80ee d23c
00000070: 92dc 293d c2b0 31bd 0093 743b 90ae 28bc
00000080: b4ba 7b3d 7072 10bc d8d1 0bbd 181e ffbc
00000090: 508f 53bd 4829 5bbc 0085 283c 58fe 0ebc
000000a0: 7aba 0dbd 14be 4bbd 74ba 6bbd f44c d9bc
000000b0: fcaf 003d 58db a3bc b036 ba3b 3cb3 26bd
000000c0: 3c9b dbbc e27a 0ebd 74c0 5fbd 9e35 663d
000000d0: 2ca4 04bd 88e5 523d 6226 103d 2000 f8bb
000000e0: 5e1d 433d ce9f 07bd 188e 2a3d eac0 24bd
000000f0: 1cd8 71bd 78b3 293d 487f 3e3d 28fc 69bd
00000100: 42b3 1cbd b07c 4fbd 343b cf3c aa87 633d
00000110: ea9b 4b3d e293 593d 04e3 e1bc 90f8 313c
00000120: 0c18 b0bc 584a f83c 244e c63c 50d8 56bc
00000130: ecf0 11bd 0a3e 20bd b8b1 19bd 64d5 d73c
00000140: 7698 56bd e2cc 783d 8018 523c 32ac 5bbd
00000150: f2e2 4b3d 0831 d93c cc41 c6bc 3016 703d
00000160: f000 cabb a024 073c 3ea1 5dbd ac99 60bd
00000170: 6077 6ebb 6857 6abc 2055 4e3c 50aa d4bc
00000180: d802 1f3d 5082 ed3b 08d4 b43c 7acd 14bd
00000190: 7ce0 ca3c 7200 50bd b2e7 7fbd 8c26 bebc
000001a0: 08dc 443c cc7d 41bd e03e 673b b468 c9bc
000001b0: 18a1 0cbc 6cec 10bd 8055 c53a e004 8b3b
000001c0: aa4c 173d c88e 7fbc 403c f63c 34f8 0dbd
000001d0: 6853 87bc 681f d93c b4d3 93bc 3c13 a73c
000001e0: 229f 49bd 20aa 513b b4ae dabc 9c90 653d
000001f0: 801d a2ba a03a 743b 983e 48bc d477 44bd
00000200: 6680 373d 00b6 3e3c de01 73bd bca0 b1bc
00000210: 509b 003c 600e 5d3b 3828 843c e0a1 ea3b
00000220: 4815 6d3d 040f 9e3c 0046 b4b9 2cf8 d43c
00000230: 08cd d73c 10a7 433c 262b 47bd 20fc 2bbd
00000240: 9e29 53bd b06e 5fbc 8cda 133d 8613 003d
00000250: c4cc 763d d89c 71bc 3444 23bd 28e5 67bd
00000260: 9064 8b3b dc69 0ebd 0068 8a3b b85e 3ebc
00000270: 0e2f 2fbd f6e1 2bbd 1087 4d3d 2480 af3c
00000280: 3081 833c bcfe 493d 0cc3 7fbd bce4 66bd
00000290: e06a bdbc c4f3 78bd 9ca5 653d 2e07 3f3d
000002a0: 68fe 6bbc f2c5 0b3d 8298 1abd 00ed 4bbd
000002b0: 78ae 483c c81d 0fbc 6622 0b3d 506b 9b3c
000002c0: 0659 5abd d262 563d 749d 8cbc 8872 79bd
000002d0: d88e 2bbd 383e eebc 406d 493d 688b 56bc
000002e0: aca6 5b3d e496 d83c d67a 3fbd 307d 453c
000002f0: fc81 7cbd c0b9 68bb 72ea 51bd cc73 80bc
00000300: 740a 323d 60b5 a2bc 8a50 7e3d 86b6 2abd
00000310: 947d f5bc 208e c8bc b06d 06bd 80b3 30ba
00000320: f044 613d e20d 20bd 0026 27ba 3cdb f53c
00000330: 4016 393b f21d 0d3d 14c5 c53c 2075 2e3d
00000340: a0ad 583b e050 0abc b0ae 6d3d 3002 a6bc
00000350: f02b b7bb babd 753d 7283 01bd ec9f 1bbd
00000360: 7a80 17bd d0b3 58bd 9063 053d 62a7 18bd
00000370: 8674 5cbd 68f3 dc3c 4666 5dbd f07b bd3b
00000380: 5058 a7bb a037 f1bc c44f ed3c 44af 103d
00000390: ea5d 7ebd e84f 04bd 2245 58bd 982a 6b3c
000003a0: fe76 41bd 848d 503d 9cba 133d 1063 d6bc
000003b0: 8a5c 0c3d 0008 71bb 4028 313d 38a2 f2bc
000003c0: 72ce 283d 30d6 3fbc 4857 5d3c cc37 27bd
000003d0: b07b d23b a03b 2e3b 0819 af3c ea1a 07bd
000003e0: a826 7f3c e496 36bd fcbd 383d 388e 8bbc
000003f0: a4f4 12bd ccb2 993c 146c 3bbd b881 243d

audio_layers.0.bias f4 [32]
0.013098128 -0.0528052 0.02573311 0.046269737 0.04604341 0.0015987307 -0.023246022 0.060175203
0.035249725 -0.06254112 -0.036498312 0.025869636 -0.026698552 0.07841975 -0.05411652 0.041827507
-0.031616695 -0.03865294 0.0413403 0.0030828957 -0.038365573 0.04209894 -0.061553694 -0.008354438
-0.054283142 -0.013807468 0.004716611 0.023632422 0.04797929 -0.025860518 0.05478468 0.02576253
00000000: 8899 563c 444a 58bd 3ece d23c 5685 3d3d
00000010: 0498 3c3d 808c d13a 716e bebc 467a 763d
00000020: 0462 103d 8f15 80bd 417f 15bd 8fec d33c
00000030: ecb6 dabc 899a a03d 49a9 5dbd 5253 2b3d
00000040: 8280 01bd 8c52 1ebd 7254 293d 680a 4a3b
00000050: 3825 1dbd f06f 2c3d ba1f 7cbd 0de1 08bc
00000060: 0058 5ebd b838 62bc cd8d 9a3b c898 c13c
00000070: ef85 443d 70d9 d3bc e765 603d f10b d33c

lstm.weight_ih_l0 f4 [512, 32]
-0.0738562 0.10031879 -0.03874637 -0.012146331 0.05331068 0.008298062 -0.005950026 0.06645233
-0.06503892 0.08076193 0.06948444 -0.041943394 0.01685743 -0.105669186 0.050857514 -0.07689442
0.064344965 -0.011850417 0.06336404 -0.012073682 -0.027205652 0.033848494 -0.006215371 -0.021775756
-0.052038707 -0.006701559 -0.021958616 -0.049147733 0.029920045 0.050077338 0.015036459 0.007858255
0.008527264 0.0074523087 -0.020260304 -0.06983625 0.0600946 -0.07409452 0.021881659 -0.058923874
0.08105079 0.0029880535 0.13689175 -0.042971574 0.05968105 0.037921984 0.0388972 0.07396861
-0.050839297 0.014514908 -0.0659167 0.102193065 -0.065758295 0.029481791 0.007912189 0.07011572
0.11432575 -0.03357302 0.057315245 -0.061892077 0.048878532 0.057593223 0.04644013 0.014991903
-0.038324244 0.060071547 0.109961495 0.04923714 -0.04462533 0.018854953 -0.023186151 -0.026608348
-0.00775145 -0.02490226 -0.062180374 -0.042760264 -0.0075290725 0.03822533 -0.071849324 -0.052988008
0.047571562 -0.06866991 0.019104727 -0.021350669 0.058494788 0.026222728 0.030257478 0.06132447
0.08182351 0.07485365 -0.044579625 -0.012315899 0.052706175 -0.0006447816 -0.014142351 0.09147571
0.03542368 -0.007133388 -0.06898445 -0.08127241 -0.021527715 0.05673208 0.08426257 0.021514796
-0.052494142 -0.05011786 -0.0383654 0.071715534 0.07431356 0.07008274 0.084033504 -0.023187816
-0.072227135 -0.06789318 -0.057484098 -0.042474482 -0.017834267 -0.0029285923 0.06996877 0.035345066
0.019038988 -0.04611514 0.059077024 0.019571573 0.10094156 -0.033912003 0.025583914 0.038154922
0.08187667 -0.0016106796 0.0362916 0.04985281 -0.0830312 0.05240936 -0.0012394877 0.016180456
-0.07604711 0.020624792 -0.028395243 -0.04444467 0.06169852 -0.15713263 0.016339997 0.04963974
0.0040423498 0.048120506 0.019639164 -0.046118893 -0.0013570748 0.058516107 0.07862037 0.012542038
0.052276302 -0.04010806 -0.030989699 -0.06201796 0.064164735 -0.028425474 0.21005271 0.12228176
0.024821974 0.044039506 -0.10352367 0.031654432 -0.013129991 0.05896259 -0.026967173 -0.02015581
0.04474645 -0.05621176 -0.060039345 -0.03591747 -0.04638935 0.08469455 0.051046293 -0.06783177
0.022685803 0.044481166 0.027433984 0.09802609 -0.036886126 0.04012523 0.016587943 0.024194017
0.008189343 -0.05110887 0.013100735 -0.07653641 0.004197454 0.0356723 -0.05553757 -0.0101934085
0.05263553 -0.051000107 0.078780256 0.02823583 -0.064906165 -0.028602116 0.08323035 -0.02785816
0.08832077 0.08765293 0.04667452 0.040884517 -0.08436227 0.051220085 0.008935125 -0.010905899
0.031213649 -0.048003826 -0.030575927 0.072708204 -0.0042247977 0.033386692 -0.05811378 -0.0040285047
0.0962509 -0.0531722 0.08623577 0.00093992054 -0.08029818 -0.061157156 -0.021211779 -0.008866122
0.08280348 0.018231116 0.06675974 -0.07819503 -0.02052096 -0.05732277 0.041183896 0.011118151
-0.08234008 0.00892435 -0.05180346 0.0031529814 -0.047368493 -0.038649473 0.030197034 -0.009242982
-0.023453824 -0.06632892 0.007264212 0.040461354 -0.075504 0.040262617 -0.05109374 0.07798683
0.014771414 -0.005523853 0.009241583 -0.021854848 -0.07667094 -0.089490086 -0.054088455 0.049038973
00000000: eb41 97bd f073 cd3d 83b4 1ebd 6801 47bc
00000010: 4d5c 5a3d 98f4 073c 70f8 c2bb 2918 883d
00000020: 2033 85bd 8366 a53d dc4d 8e3d d6cc 2bbd
00000030: 9818 8a3c 1669 d8bd f84f 503d d27a 9dbd
00000040: 4bc7 833d 4028 42bc 01c5 813d b1d0 45bc
00000050: 63de debc b8a4 0a3d 50aa cbbb 1263 b2bc
00000060: 8a26 55bd c098 dbbb 8ee2 b3bc 224f 49bd
00000070: e21a f53c e51d 4d3d 7b5b 763c e9bf 003c
00000080: f0b5 0b3c 7f32 f43b f0f8 a5bc 4f06 8fbd
00000090: c125 763d debe 97bd 2a41 b33c 295a 71bd
000000a0: f5fd a53d 38d3 433b 5a2d 0c3e f602 30bd
000000b0: 1e74 743d 1554 1b3d ac52 1f3d db7c 973d
000000c0: de3c 50bd f0cf 6d3c 56ff 86bd 994a d13d
000000d0: 49ac 86bd cc83 f13c 20a2 013c d598 8f3d
000000e0: 9e23 ea3d dd83 09bd 64c3 6a3d 8c82 7dbd
000000f0: db34 483d dfe6 6b3d 0138 3e3d 99a0 753c
00000100: e2f9 1cbd 950d 763d 7e33 e13d e2ac 493d
00000110: 0dc9 36bd b475 9a3c e2f0 bdbc c0f9 d9bc
00000120: e0ff fdbb d3ff cbbc d9b0 7ebd 6325 2fbd
00000130: 70b6 f6bb 2a92 1c3d bd25 93bd f409 59bd
00000140: 66da 423d cfa2 8cbd 8481 9c3c 99e7 aebc
00000150: 3b98 6f3d 0cd1 d63c 88de f73c 5e2f 7b3d
00000160: 1693 a73d df4c 993d 2099 36bd a0c8 49bc
00000170: 6ee2 573d 9006 29ba 52b5 67bc 9e57 bb3d
00000180: 6c18 113d 32bf e9bb b847 8dbd 2672 a6bd
00000190: e45a b0bc e65f 683d db91 ac3d cc3f b03c
000001a0: 1904 57bd 6348 4dbd 0a25 1dbd 98df 923d
000001b0: b531 983d 8a87 8f3d c219 ac3d 60f4 bdbc
000001c0: d2eb 93bd 940b 8bbd 7274 6bbd b9f9 2dbd
000001d0: 2b19 92bc a0ed 3fbb c94b 8f3d fdc5 103d
000001e0: a7f7 9b3c 3be3 3cbd c0fa 713d 9054 a03c
000001f0: 73ba ce3d 50e7 0abd 5b95 d13c 5648 1c3d
00000200: f5ae a73d 701d d3ba 80a6 143d 7632 4c3d
00000210: 430c aabd 32ab 563d 4e76 a2ba e08c 843c
00000220: 96be 9bbd 53f5 a83c 249d e8bc 9d0b 36bd
00000230: 96b7 7c3d 60e7 20be 75db 853c 0a53 4b3d
00000240: b075 843b 021a 453d 50e2 a03c 2ae7 3cbd
00000250: e0df b1ba 96ae 6f3d b703 a13d 1f7d 4d3c
00000260: ad1f 563d 5948 24bd 1cde fdbc 8b06 7ebd
00000270: cd68 833d 8adc e8bc 0f18 573e dc6e fa3d
00000280: 7457 cb3c c562 343d 3804 d4bd 14a8 013d
00000290: 2c1f 57bc c282 713d 43ea dcbc cc1d a5bc
000002a0: 0e48 373d 4d3e 66bd d1eb 75bd 321e 13bd
000002b0: c202 3ebd 5674 ad3d eb15 513d 62eb 8abd
000002c0: 94d7 b93c e231 363d 3cbd e03c e7c1 c83d
000002d0: e815 17bd 5a5a 243d 70e3 873c 8832 c63c
000002e0: 982c 063c 8957 51bd 77a4 563c 1fbf 9cbd
000002f0: cc8a 893b 1e1d 123d 5d7b 63bd 4102 27bc
00000300: 5a98 573d 7de5 50bd 8b57 a13d d44e e73c
00000310: 86ed 84bd fc4e eabc ac74 aa3d cc36 e4bc
00000320: 85e1 b43d 6183 b33d c82d 3f3d 8676 273d
00000330: 20c6 acbd 27cc 513d a164 123c a8ae 32bc
00000340: c4b3 ff3c a99f 44bd 5e7a fabc 0ae8 943d
00000350: 2c70 8abb 7cc0 083d b708 6ebd 8c01 84bb
00000360: 311f c53d 18cb 59bd 619c b03d 0065 763a
00000370: 5f73 a4bd ed7f 7abd 53c4 adbc 3643 11bc
00000380: df94 a93d 6c59 953c 55b9 883d b724 a0bd
00000390: 931b a8bc 48cb 6abd 72b0 283d e828 363c
000003a0: eaa1 a8bd 7037 123c dd2f 54bd 40a2 4e3b
000003b0: 7705 42bd e94e 1ebd c55f f73c e06f 17bc
000003c0: 3c22 c0bc 75d7 87bd a008 ee3b ceba 253d
000003d0: d7a1 9abd 6aea 243d ab47 51bd 8fb7 9f3d
000003e0: cd03 723c 7001 b5bb 026a 173c f008 b3bc
000003f0: a705 9dbd 9446 b7bd db8b 5dbd 17dd 483d

lstm.weight_hh_l0 f4 [512, 128]
-0.0067290147 0.08832429 -0.05472476 0.05151142 0.024169168 -0.08030664 -0.07821578 -0.06704219
-0.00041221117 0.041609693 0.061853755 -0.041753378 -0.043357126 -0.03238492 0.016430609 0.08571343
-0.07873046 0.041397 -0.067442186 -0.05497746 0.019112498 0.037327006 0.035453018 -0.05011314
0.022093806 -0.044696603 -0.015552004 -0.053391676 -0.050401792 -0.039386254 0.080962464 -0.09232074
0.01692459 -0.06835138 -0.02592597 -0.015025244 -0.060343254 -0.09943329 0.00048035005 0.103600085
0.10336152 -0.030757198 -0.044095647 0.020565256 0.094629586 0.03483261 -0.10548693 0.06517851
0.044265863 0.06305927 0.011170548 -0.10367644 0.06621023 -0.041262224 -0.05547552 0.05518649
0.0009116183 -0.0009531594 -0.03344564 -0.037029825 -0.06862723 -0.07552358 -0.040440872 0.025678298
-0.08100376 0.005640685 -0.055311665 0.009420153 -0.04015635 -0.010238124 0.06343642 -0.052825946
0.036529627 0.0075430507 0.016747948 -0.06474296 -0.020416686 0.00021074737 0.0075741196 -0.04869818
0.011767933 0.009662688 -0.026204938 0.025993653 -0.049042746 0.0094598215 -0.012481935 -0.0025397916
-0.07013253 0.061702803 -0.04200174 0.021958055 0.0053280857 -0.07615847 -0.02772034 -0.022388604
0.011531561 0.03278465 0.03784266 -0.05050321 -0.007689414 -0.020545926 -0.037156347 0.043678746
-0.000892503 0.018838663 0.0905761 0.04794589 -0.042995553 0.025926225 0.043125913 -0.018176423
0.001291529 -0.006945615 -0.0059695756 0.058308512 -0.08522014 -0.03209714 -0.101354554 0.07731923
0.029192915 0.009387861 -0.04153657 -0.038803738 -0.09990706 0.06582278 0.07108464 -0.070053004
0.062063217 0.03988026 -0.006806244 0.07472009 -0.065317824 0.013078321 0.015357306 -0.061524313
0.08393652 -0.0142934825 0.021670965 -0.025678564 0.079667516 -0.01691604 0.016279988 0.09016365
-0.03355081 0.016600633 0.0046027726 -0.0028878455 -0.07452904 0.030421883 -0.037670363 -0.08836335
0.024565334 -0.07121639 -0.040849235 -0.03068703 -0.02812388 0.06933936 -0.017600005 -0.056552242
-0.019066177 -0.052836 -0.057343062 0.085129045 0.03547189 -0.048851553 -0.057529397 0.079197004
0.007778949 0.059423264 -0.0017610453 -0.08763365 0.043078724 0.039447267 -0.020278947 0.04172861
0.082369044 -0.038781323 0.03273055 -0.02750738 -0.028734226 0.050580855 -0.00013652997 0.0791797
0.07200538 -0.07986187 -0.042144764 -0.010267209 0.004062275 0.05774138 -0.057164893 0.041365806
-0.030378347 -0.00511286 -0.055486534 -0.051991478 0.04816787 0.01611874 0.032549325 -0.031952526
-0.084090434 0.012772937 -0.0105552375 0.03394622 -0.06656974 0.051706553 0.052476764 -0.0074433563
-0.034701277 -0.0663983 0.029372357 0.07681455 -0.025192443 0.049474247 0.045861345 0.06037361
-0.0011113506 0.07131424 0.045163896 0.0128357485 0.07969498 0.040711306 -0.05172754 -0.06250028
-0.01843434 -0.079038665 0.05989196 -0.05966706 0.03279458 -0.06882534 0.04744974 0.064366266
-0.014843951 -0.086874135 -0.06074152 0.0059702694 -0.013500006 0.062226012 -0.04922414 0.016162924
0.023909098 0.07800175 -0.044755176 -0.04437426 -0.060084816 -0.008722899 -0.07623352 -0.08180898
0.04015687 0.055315267 0.007531611 0.009983088 0.023332674 -0.06904193 -0.005870984 0.05798884
00000000: 117f dcbb 5ee3 b43d 1227 60bd a4fd 523d
00000010: 6bfe c53c cf77 a4bd 982f a0bd 6a4d 89bd
00000020: 0c1e d8b9 ed6e 2a3d 5d5a 7d3d 9705 2bbd
00000030: 3e97 31bd 0da6 04bd 7c99 863c 868a af3d
00000040: 6f3d a1bd e78f 293d 211f 8abd 0c30 61bd
00000050: d091 9c3c 34e4 183d 2f37 113d 7043 4dbd
00000060: 12fe b43c c913 37bd d5cd 7ebc 3bb1 5abd
00000070: 1c72 4ebd 7b53 21bd a6cf a53d a812 bdbd
00000080: 70a5 8a3c cffb 8bbd b362 d4bc 712c 76bc
00000090: 7d2a 77bd aea3 cbbd 7ed7 fb39 482c d43d
000000a0: 34af d33d 85f6 fbbc a39d 34bd 7878 a83c
000000b0: 28cd c13d a4ac 0e3d 8809 d8bd 507c 853d
000000c0: 1f50 353d 3825 813d ad04 373c 5054 d4bd
000000d0: 3b99 873d 9402 29bd 4d3a 63bd 3b0b 623d
000000e0: abf9 6e3a 72dd 79ba 4cfe 08bd 96ac 17bd
000000f0: 6f8c 8cbd 1bac 9abd 54a5 25bd 4b5b d23c
00000100: 4de5 a5bd 7fd5 b83b 7c8e 62bd fc56 1a3c
00000110: fc7a 24bd cebd 27bc f4ea 813d 0560 58bd
00000120: 17a0 153d b22b f73b fe32 893c f597 84bd
00000130: e540 a7bc 11fc 5c39 5230 f83b be77 47bd
00000140: 4ace 403c 4050 1e3c bdab d6bc a4f0 d43c
00000150: 0ce1 48bd 5efd 1a3c 0881 4cbc a272 26bb
00000160: a5a1 8fbd 14bc 7c3d 040a 2cbd 61e1 b33c
00000170: 3997 ae3b f9f8 9bbd c415 e3bc 4e68 b7bc
00000180: dfee 3c3c 3249 063d e800 1b3d 74dc 4ebd
00000190: 7bf7 fbbb ee4f a8bc 4131 18bd 7ce8 323d
000001a0: ddf6 69ba 8a53 9a3c f67f b93d e962 443d
000001b0: 1b1c 30bd 3c63 d43c cca4 303d b9e6 94bc
000001c0: 8648 a93a 0b98 e3bb 6e9c c3bb e8d4 6e3d
000001d0: e687 aebd 4a78 03bd fa92 cfbd 8b59 9e3d
000001e0: fb25 ef3c 8bcf 193c 4022 2abd abf0 1ebd
000001f0: 139c ccbd 18ce 863d d394 913d f377 8fbd
00000200: 0036 7e3d 7c59 233d ea06 dfbb d906 993d
00000210: 5ac5 85bd 7446 563c 369d 7b3c eb00 7cbd
00000220: e9e6 ab3d 362f 6abc 4f87 b13c da5b d2bc
00000230: b928 a33d 8293 8abc 9c5d 853c b8a7 b83d
00000240: 936c 09bd 0dfe 873c dbd2 963b 0242 3dbb
00000250: aea2 98bd 5037 f93c 3d4c 1abd d8f7 b4bd
00000260: 3d3d c93c e6d9 91bd 8751 27bd 5e63 fbbc
00000270: 0d64 e6bc cb01 8e3d e32d 90bc 53a3 67bd
00000280: ac30 9cbc 906a 58bd 8fe0 6abd 2358 ae3d
00000290: f94a 113d 9118 48bd f2a3 6bbd 0a32 a23d
000002a0: 8ee6 fe3b cf65 733d e0d2 e6ba 4579 b3bd
000002b0: 5173 303d 7593 213d 0920 a6bc 9eeb 2a3d
000002c0: 1ab1 a83d 2ad9 1ebd 7810 063d 2857 e1bc
000002d0: 0a64 ebbc df2d 4f3d 7c29 0fb9 f728 a23d
000002e0: 8f77 933d 9f8e a3bd fd9f 2cbd cc37 28bc
000002f0: d51c 853b 3a82 6c3d bc25 6abd 316f 293d
00000300: 03dc f8bc c789 a7bb d945 63bd 04f5 54bd
00000310: ac4b 453d 730b 843c 7152 053d a7e0 02bd
00000320: 9b37 acbd 9545 513c e0ef 2cbc 310b 0b3d
00000330: b755 88bd 40ca 533d e0f1 563d 66e7 f3bb
00000340: ed22 0ebd d5fb 87bd 4c9e f03c f250 9d3d
00000350: 6260 cebc 82a5 4a3d 1bd9 3b3d 524a 773d
00000360: bdaa 91ba 330d 923d c7fd 383d 084d 523c
00000370: 1f37 a33d e6c0 263d 42e0 53bd 2600 80bd
00000380: 9d03 97bc 06df a1bd 4651 753d 7265 74bd
00000390: 9c53 063d 4df4 8cbd a95a 423d 76d2 833d
000003a0: 0b34 73bc 11eb b1bd 1acc 78bd 40a2 c33b
000003b0: 212f 5dbc b4e0 7e3d 409f 49bd 1c68 843c
000003c0: 03dd c33c 62bf 9f3d 3451 37bd c9c1 35bd
000003d0: 7f1b 76bd 7dea 0ebc 5220 9cbd 778b a7bd
000003e0: 887b 243d 4392 623d bbcb f63b 1b90 233c
000003f0: 2a24 bf3c db65 8dbd 6261 c0bb b585 6d3d

lstm.bias_ih_l0 f4 [512]
-0.03188345 0.090535164 -0.0755726 0.04278998 0.10317443 -0.05227434 0.079574004 0.027960846
-0.0007839577 0.10783049 0.06481104 -0.084116586 0.09431764 0.10839608 -0.038574733 0.050948992
-0.040297765 -0.012862442 0.052855458 0.011320328 0.04607819 0.004450281 0.06763268 -0.05260328
0.10857573 0.0012205943 0.08683889 0.031049307 0.09590961 0.037342925 0.019505791 0.12708889
-0.08374466 -0.018510902 -0.08828628 0.054781552 -0.027766729 -0.055435114 -0.046948757 0.051823232
0.062336713 0.038964402 0.09118131 -0.06292508 -0.06677155 -0.0279191 0.011004076 0.042490065
-0.041328683 -0.012735196 0.023350053 -0.01288497 -0.077759765 0.036564223 0.012932944 0.099057145
-0.0696734 0.009619223 -0.083826296 -0.040013593 -0.06119261 0.056328136 -0.018016074 0.067337856
0.092614144 -0.0073389644 0.06430941 -0.017100452 -0.04711616 0.04841962 -0.048491832 -0.06301333
-0.01656047 0.018714916 0.045347653 -0.021901587 0.07634461 0.09343342 -0.07137055 -0.011564291
-0.02200797 -0.101759054 0.101493105 0.006585604 0.09520456 -0.06592837 -0.09016673 -0.0045234654
0.07842185 0.013474293 -0.013900523 -0.02143819 0.08430828 0.046841018 -0.074137434 0.07767653
-0.02365607 -0.048670765 0.057286322 -0.06856584 0.077179424 -0.035536807 -0.024157861 -0.039145533
-0.028787384 0.003818023 0.028387675 0.0067614694 -0.05106621 -0.04171662 0.077193305 0.12330952
0.07346276 0.085080415 0.097252116 -0.04368233 -0.06293257 0.033313826 -0.016255403 0.008820549
-0.04252685 0.08596138 0.032212898 0.013355812 -0.05975743 0.01996163 0.05342724 0.09784718
0.035129003 -0.010073634 -0.062961094 -0.052116975 0.051824916 -0.028738009 -0.05158588 0.082779184
0.057155807 -0.026329678 -0.019365082 -0.03981264 0.09529089 0.045384433 0.054396413 -0.03383405
0.008961097 0.0019445682 0.045835976 -0.022915984 -0.014899085 -0.040051613 0.0044983765 -0.01827897
-0.057824194 0.058541756 0.092537306 -0.008370916 0.027332306 0.058375493 0.06761909 0.018189257
0.047569532 -0.078036875 -0.08348359 0.0956912 0.01415709 0.09940176 -0.030430729 0.07957357
0.07560691 -0.022346187 0.017419154 0.06343119 -0.041643612 0.05226647 0.030966213 0.026345415
0.0829348 0.04928542 0.093539424 -0.03738619 0.116921216 -0.029914616 0.007914059 0.11566547
0.028926801 0.07876106 0.0011587027 0.08870808 0.06306287 0.083063275 0.014063811 -0.069567256
0.054853283 -0.07747413 0.010327533 -0.0899832 -0.015135719 0.024439631 -0.022608142 -0.06434
-0.056767713 -0.0039566606 -0.053431638 -0.0067420397 0.031386904 -0.059798073 -0.04351832 0.08264104
-0.026327822 -0.07262089 0.0452867 -0.0463899 0.00066971075 -0.027265273 0.01752885 -0.010484992
-0.037829135 -0.001926236 -0.015898718 0.074401855 -0.0061615594 0.020609014 -0.011633394 -0.07028675
0.048483856 0.03406773 0.048640385 -0.03218033 -0.06516304 -0.012020185 -0.044999633 0.03881683
0.10280647 0.013461218 0.06508292 0.117843084 -0.052357037 -0.07940955 0.074910745 -0.061082736
-0.030151697 -0.038262405 0.054943103 0.0972715 0.086972855 0.017636508 -0.04609366 -0.023067124
-0.028322162 0.026619446 0.13639322 0.09291955 0.028748801 -0.023287702 0.019196337 0.0929808
00000000: 3898 02bd 806a b93d cfc5 9abd 8c44 2f3d
00000010: 1e4d d33d 9e1d 56bd b2f7 a23d 250e e53c
00000020: 8382 4dba 3bd6 dc3d a7bb 843d 5145 acbd
00000030: 9b29 c13d c4fe dd3d 8a00 1ebd e4af 503d
00000040: 450f 25bd febc 52bc f77e 583d e678 393c
00000050: 7cbc 3c3d aad3 913b 0183 8a3d 8976 57bd
00000060: f45c de3d 59fc 9f3a 97d8 b13d 1e5b fe3c
00000070: 426c c43d e5f4 183d 9cca 9f3c 9723 023e
00000080: 5282 abbd 2da4 97bc 70cf b4bd 9f62 603d
00000090: 0d77 e3bc ee0f 63bd 574d 40bd 9944 543d
000000a0: c854 7f3d 2399 1f3d 44bd ba3d ddde 80bd
000000b0: 86bf 88bd 99b6 e4bc 714a 343c 100a 2e3d
000000c0: 4448 29bd 49a7 50bc 9c48 bf3c 7b1b 53bc
000000d0: 8340 9fbd 5ec4 153d b3e4 533c 79de ca3d
000000e0: edb0 8ebd f299 1d3c 1fad abbd 4be5 23bd
000000f0: 1aa5 7abd 55b8 663d 7296 93bc 6ee8 893d
00000100: 7cac bd3d b27b f0bb a7b4 833d 3f16 8cbc
00000110: e0fc 40bd a753 463d 5f9f 46bd 220d 81bd
00000120: d3a9 87bc 0650 993c 76be 393d f56a b3bc
00000130: 905a 9c3d 055a bf3d b92a 92bd 2778 3dbc
00000140: 0f4a b4bc 0d67 d0bd 9edb cf3d 0dcc d73b
00000150: 9cfa c23d 7405 87bd 56a9 b8bd 9439 94bb
00000160: a39b a03d 48c3 5c3c 05bf 63bc 259f afbc
00000170: d2a9 ac3d 5edc 3f3d 5ed5 97bd df14 9f3d
00000180: 60ca c1bc ff5a 47bd 10a5 6a3d 3f6c 8cbd
00000190: 3f10 9e3d 0b8f 11bd b5e6 c5bc 1157 20bd
000001a0: 85d3 ebbc cc37 7a3b 458d e83c 518f dd3b
000001b0: cd2a 51bd 0cdf 2abd 8617 9e3d b489 fc3d
000001c0: a573 963d a43e ae3d 1e2c c73d 3eec 32bd
000001d0: cbe2 80bd 1474 083d 0d2a 85bc 1084 103c
000001e0: a230 2ebd 850c b03d acf1 033d 56d2 5a3c
000001f0: 35c4 74bd 9386 a33c 86d6 5a3d 1a64 c83d
00000200: 6ee3 0f3d e20b 25bc bff1 80bd 9c78 55bd
00000210: 5d46 543d f96b ebbc b74b 53bd 2288 a93d
00000220: 351c 6a3d 56b1 d7bc 85a3 9ebc 9412 23bd
00000230: df27 c33d 07e5 393d c6ce 5e3d 9395 0abd
00000240: 91d1 123c e2e0 fe3a 81be 3b3d 4dba bbbc
00000250: 4b1b 74bc 290d 24bd 1e67 933b c7bd 95bc
00000260: 10d9 6cbd 7bc9 6f3d 3384 bd3d 2b26 09bc
00000270: 00e8 df3c 241b 6f3d e17b 8a3d a301 953c
00000280: 45d8 423d ccd1 9fbd 72f9 aabd bff9 c33d
00000290: 24f3 673c 2693 cb3d dd49 f9bc 78f7 a23d
000002a0: ccd7 9a3d 5a0f b7bc 9db2 8e3c 36e8 813d
000002b0: 7e92 2abd 5e15 563d dbac fd3c 57d2 d73c
000002c0: b8d9 a93d 82df 493d 9991 bf3d 4322 19bd
000002d0: 6474 ef3d 7f0f f5bc f8a9 013c 05e2 ec3d
000002e0: e6f7 ec3c 7b4d a13d 9cdf 973a 95ac b53d
000002f0: 1b27 813d 141d aa3d e66b 663c 4779 8ebd
00000300: d6ad 603d c2aa 9ebd d034 293c 1d49 b8bd
00000310: cffb 77bc 9f35 c83c b634 b9bc b1c4 83bd
00000320: 4385 68bd e0a6 81bb 22db 5abd 54ec dcbb
00000330: 8e8f 003d d3ee 74bd 4440 32bd b53f a93d
00000340: 72ad d7bc 43ba 94bd 8c7e 393d 5603 3ebd
00000350: 878f 2f3a 6c5b dfbc aa98 8f3c 3ec9 2bbc
00000360: b9f2 1abd c179 fcba 073e 82bc 0060 983d
00000370: e8e6 c9bb 3cd4 a83c fe99 3ebc 80f2 8fbd
00000380: 0297 463d 9b8a 0b3d 243b 473d 86cf 03bd
00000390: 3374 85bd 4ff0 44bc 8951 38bd 65fe 1e3d
000003a0: 338c d23d 718c 5c3c 324a 853d b757 f13d
000003b0: 5574 56bd 79a1 a2bd ce6a 993d e431 7abd
000003c0: b100 f7bc 0ab9 1cbd 050c 613d 4836 c73d
000003d0: d31e b23d 707a 903c b5cc 3cbd 44f7 bcbc
000003e0: e103 e8bc 0611 da3c aaaa 0b3e 9b4c be3d
000003f0: 9b82 eb3c dac5 bebc a341 9d3c b86c be3d

lstm.bias_hh_l0 f4 [512]
0.09394777 0.022317972 0.013614969 0.009103855 0.015899163 -0.0840866 -0.06909109 -0.088486664
-0.03406308 0.07727121 0.056393232 -0.02634927 0.11690037 0.014152224 0.040912982 0.06627595
-0.03110858 -0.0925851 -0.035475206 0.009294277 0.11178314 -0.02890853 0.02266398 0.11300266
-0.007225926 0.054429233 0.0032839 0.047393978 0.052756466 0.04556689 0.038794354 0.1207287
-0.022931986 0.12438974 0.005701556 0.013286308 0.095166385 -0.07179863 0.09908802 0.09414326
0.026536392 0.0010954392 -0.00086088775 -0.010734418 0.07240447 0.071304694 -0.026801554 0.019346671
-0.09048204 -0.0013336481 -0.047652584 -0.01566266 -0.02181283 0.005407392 -0.013615008 0.08741592
-0.006875234 0.010235066 -0.08492971 -0.0025973727 -0.010445591 -0.041697234 0.004112669 -0.06930673
-0.015130449 0.09674681 -0.025953695 -0.0655192 0.021818122 -0.019839175 -0.05409255 0.06014487
0.005670701 0.062387805 0.033760495 0.005421708 0.047139615 0.058663554 0.030255236 -0.025137385
-0.04164109 0.04428643 -0.008244226 0.034630895 -0.031420574 -0.02307795 0.00024251845 0.059908766
0.06690874 0.1084877 0.08284846 -0.07314768 0.11246555 -0.048851654 -0.04753549 -0.018106895
0.027659513 0.045860104 0.07449214 0.03079066 -0.047320303 0.047925454 0.042499784 -0.025060043
-0.042510297 0.08594001 0.069104515 -0.052820075 0.073470786 -0.0960363 -0.035024155 0.10251576
0.05261736 0.028394887 0.02655012 -0.024140453 -0.0017222778 0.0084140245 0.041585628 -0.050618723
-0.014399509 -0.062598094 0.05945943 0.019954039 0.042096764 0.051278204 0.028822208 -0.010270291
0.043300435 -0.050810885 0.0202815 0.043187093 0.07729112 0.0070651863 0.0048736488 -0.03977989
-0.03141063 0.010271855 -0.041524254 0.023330858 0.062702656 -0.06480369 0.058012124 0.024648098
0.07984496 -0.018047178 0.07062306 -0.012790284 0.005103254 0.09762102 0.041574057 -0.0057927957
-0.09341035 0.05966622 -0.06500904 -0.060030613 -0.03383314 0.0682668 0.045823157 -0.06973457
0.04938444 0.083567455 0.024795422 0.11341442 0.075353436 -0.033722848 -0.059159998 0.108612806
0.02485848 0.106558464 0.01210391 0.079260424 0.021221293 -0.041294243 -0.034155913 0.035979446
0.0098512415 0.008690938 0.033125162 0.091837 0.09880903 0.11051404 -0.043989033 0.11382454
-0.034678783 -0.00515719 -0.058812212 -0.0005521981 0.057098333 0.09662136 0.029319055 -0.046488848
0.081213556 -0.031319577 0.031344574 0.053682175 -0.053291563 0.0700365 -0.053409908 0.018566465
-0.05951329 -0.017828796 -0.044643875 0.09653352 0.09484154 -0.040170055 0.044420823 0.0748913
-0.035331383 0.008199586 0.11221544 -0.023604682 0.06305056 -0.056816224 -0.01751527 0.022355253
0.036116544 0.008324608 0.013444731 -0.0727089 0.076724716 -0.06875627 0.051849507 0.06953432
0.0037982324 0.05315908 0.036121454 -0.042779323 -0.06944226 0.030933144 0.007988134 0.10742752
0.10494185 -0.03965481 -0.036455918 0.03477457 -0.01819849 0.00042075486 0.083417416 -0.0006556051
0.03740555 0.07837387 0.10392923 0.03018335 -0.023027012 0.021937871 0.05133696 0.0033271895
-0.017240139 0.03724454 0.0108053405 -0.048770253 0.0077682096 -0.0823677 -0.018000849 0.053879716
00000000: b067 c03d 2ed4 b63c 5211 5f3c 5628 153c
00000010: f63e 823c 9835 acbd a17f 8dbd 7f38 b5bd
00000020: ba85 0bbd 5e40 9e3d 97fc 663d 6dda d7bc
00000030: 7669 ef3d bbde 673c 5f94 273d afbb 873d
00000040: 6cd7 febc 429d bdbd 734e 11bd 0647 183c
00000050: 8fee e43d 95d1 ecbc d0a9 b93c f06d e73d
00000060: 76c7 ecbb 30f1 5e3d b336 573b 3020 423d
00000070: 2a17 583d 59a4 3a3d d4e6 1e3d 9c40 f73d
00000080: dcdb bbbc 0cc0 fe3d 1ed4 ba3b d1ae 593c
00000090: 98e6 c23d 290b 93bd a9ee ca3d 2ece c03d
000000a0: d962 d93c d794 8f3a 33ad 61ba 6adf 2fbc
000000b0: cb48 943d 3208 923d ef8e dbbc e97c 9e3c
000000c0: a64e b9bd cecd aeba 5b2f 43bd fb4e 80bc
000000d0: d2b0 b2bc 7e30 b13b 7c11 5fbc 1e07 b33d
000000e0: a549 e1bb fab0 273c a1ef adbd af38 2abb
000000f0: fc23 2bbc b8ca 2abd 91c3 863b b0f0 8dbd
00000100: b4e5 77bc 3123 c63d d89c d4bc ee2e 86bd
00000110: ebbb b23c c485 a2bc 2690 5dbd 785a 763d
00000120: 4ad1 b93b 5b8a 7f3d 7248 0a3d 95a8 b13b
00000130: 7815 413d 3249 703d d4d9 f73c ebec cdbc
00000140: d98f 2abd b065 353d ca12 07bc 20d9 0d3d
00000150: dcb2 00bd f80d bdbc 8d4c 7e39 e562 753d
00000160: 7307 893d cd2e de3d 74ac a93d 73ce 95bd
00000170: 5754 e63d ac18 48bd 93b4 42bd e954 94bc
00000180: 3496 e23c ced7 3b3d 568f 983d b23c fc3c
00000190: efd2 41bd 7b4d 443d 4114 2e3d b84a cdbc
000001a0: 471f 2ebd 5101 b03d ab86 8d3d dd59 58bd
000001b0: da77 963d aeae c4bd 7d75 0fbd c8f3 d13d
000001c0: 4d85 573d 659c e83c a37f d93c 33c2 c5bc
000001d0: 0ebe e1ba fada 093c b155 2a3d 9455 4fbd
000001e0: ebeb 6bbc 6e33 80bd bb8b 733d a776 a33c
000001f0: a86d 2c3d 1809 523d 8d1c ec3c b944 28bc
00000200: cc5b 313d 131f 50bd 6325 a63c f3e4 303d
00000210: cf4a 9e3d 1483 e73b 21b3 9f3b 3df0 22bd
00000220: 6fa8 00bd 484b 283c 5615 2abd 5b20 bf3c
00000230: 406a 803d ccb7 84bd 1f9e 6d3d cfea c93c
00000240: c185 a33d add7 93bc d3a2 903d 578e 51bc
00000250: 3339 a73b 88ed c73d 8f49 2a3d 7ed1 bdbb
00000260: ed4d bfbd 9164 743d 7623 85bd a9e2 75bd
00000270: 9e94 0abd 77cf 8b3d 10b1 3b3d 00d1 8ebd
00000280: 5747 4a3d 6a25 ab3d c51f cb3c d245 e83d
00000290: e752 9a3d f820 0abd c151 72bd 6470 de3d
000002a0: 03a4 cb3c 533b da3d 7a4f 463c 4a53 a23d
000002b0: 47d8 ad3c 2724 29bd 12e7 0bbd 2f5f 133d
000002c0: 1a67 213c 7064 0e3c 40ae 073d 0915 bc3d
000002d0: 645c ca3d 2f55 e23d d82d 34bd d71c e93d
000002e0: 570b 0ebd a5fd a8bb 13e5 70bd 63c1 10ba
000002f0: f1df 693d 6be1 c53d 842e f03c 176b 3ebd
00000300: 4b53 a63d f548 00bd 2b63 003d d7e1 5b3d
00000310: 4148 5abd 4c6f 8f3d 59c4 5abd b318 983c
00000320: 35c4 73bd b20d 92bc 7fdc 36bd 5eb3 c53d
00000330: 483c c23d 5b89 24bd 9cf2 353d 9c60 993d
00000340: a4b7 10bd 8e57 063c 35d1 e53d 9b5e c1bc
00000350: a720 813d 21b8 68bd 2f7c 8fbc 5d22 b73c
00000360: f1ee 133d f063 083c 4a47 5c3c 67e8 94bd
00000370: d921 9d3d 16d0 8cbd 2660 543d 0268 8e3d
00000380: c4eb 783b 56bd 593d 17f4 133d 5f39 2fbd
00000390: be37 8ebd 8167 fd3c aae0 023c f602 dc3d
000003a0: c1eb d63d 156d 22bd cd52 15bd c86f 0e3d
000003b0: 0015 95bc c398 dc39 c0d6 aa3d eadc 2bba
000003c0: 9036 193d 7b82 a03d d9d8 d43d 1343 f73c
000003d0: 25a3 bcbc 0db7 b33c b446 523d fa0c 5a3b
000003e0: 313b 8dbc bb8d 183d e208 313c 51c3 47bd
000003f0: 778c fe3b 66b0 a8bd 8476 93bc fab0 5c3d

fc.weight f4 [24, 128]
0.16680339 0.08100735 0.11227982 -0.31390566 -0.17941429 -0.051900458 0.083973944 0.37894386
-0.30462012 -0.08716399 0.0445855 -0.4032621 0.41642118 0.3964251 -0.13366766 -0.3276754
-0.022018146 0.08624679 0.21341908 0.0565835 0.5405919 0.026432432 0.00558897 -0.3500489
0.007859698 -0.04542705 -0.0076969936 0.21208458 -0.037780847 0.24434857 -0.05188811 -0.21726675
0.07164764 0.40164968 0.21446943 -0.36855504 -0.050788924 0.033262577 0.35948932 0.0350422
-0.41415384 -0.12438888 0.20732251 0.027062928 0.4648089 -0.023580821 -0.56309295 0.04543352
0.23492086 0.045999493 0.06817278 -0.026958277 0.47895896 0.27639169 -0.4703618 -0.024347723
0.16290078 0.4183439 0.08119761 -0.026500432 0.35672182 -0.09980453 -0.101482496 0.27109364
0.07270435 -0.13506296 0.059621785 -0.27934888 0.05669135 0.3209454 -0.61887205 -0.03126614
0.07787 0.43824568 -0.20588684 0.02900695 0.029717194 -0.365662 0.022963377 -0.19931479
0.33565533 0.25250423 -0.06440397 -0.0018622916 -0.02073423 0.082494855 -0.015288506 -0.055796552
0.092981175 0.05600029 -0.0018111966 -0.015673276 0.40765974 0.06885425 -0.2887656 -0.18447997
0.021022616 -0.045028355 0.081601344 0.030403696 0.006844874 -0.060820322 -0.10372694 -0.40804142
-0.006774453 -0.082238145 0.052124947 0.04044701 -0.08495057 0.32286105 -0.010488927 -0.348546
0.5692698 0.39381012 0.08284596 0.5111758 -0.02590612 -0.018783556 0.322802 0.06741862
0.35022476 -0.034002256 0.03067768 0.08740592 0.32391152 -0.3318068 -0.073480956 0.4122916
-0.06965639 -0.018480241 0.014189726 -0.39121822 0.23963135 0.13805258 0.10232875 -0.10091085
0.44943964 0.002125377 0.047805812 0.0033021807 -0.6661913 -0.21259846 0.21519539 0.11840797
0.06299888 -0.24264988 -0.44658414 -0.027919857 0.47098678 0.05657911 0.095199235 -0.36985075
0.018125959 -0.025439126 -0.009884634 0.18798883 0.021278283 -0.2742568 0.06600167 -0.21153872
0.0017691742 -0.30332062 -0.10397051 0.24837816 0.039890576 0.034609582 -0.2732419 -0.020101007
-0.22704965 0.31635913 0.030109847 0.0071195117 0.20683211 0.028928615 -0.43535808 -0.03213441
-0.34407645 -0.09482382 -0.06082791 0.12314906 -0.20789257 -0.13821779 0.44401747 -0.015695367
0.1495248 -0.21306098 0.04258519 0.0044476255 -0.3398012 0.18372299 0.16490339 -0.4740631
-4.060504e-05 0.10057494 -0.050445512 -0.10024888 -0.15020846 -0.120741144 -0.6604927 0.014609561
-0.034090992 0.5212357 -0.021122122 0.02688772 0.037267443 0.31484827 0.085167095 0.25903875
-0.27114013 -0.31761906 0.07168091 -0.064286664 -0.07849617 -0.08745114 -0.037553344 -0.0019006714
0.024036035 0.11405305 0.023211325 -0.68556714 0.18676013 0.016362036 0.44103163 0.24947044
-0.00021160452 -0.03843828 0.2831979 0.0054391995 -0.09094992 0.09313008 0.06837911 -0.23631366
0.13007632 -0.023076437 -0.075142905 -0.065056264 0.016698869 -0.14076519 -0.07546751 0.1146101
-0.45618767 -0.0712814 -0.05013503 -0.03002082 -0.007413838 0.02009563 0.25542954 -0.045531854
-0.49170452 -0.0026769068 -0.06439447 -0.11078215 -0.060779847 -0.41434637 0.084688574 -0.21085006
00000000: 82ce 2a3e 2ee7 a53d f6f2 e53d 3eb8 a0be
00000010: 61b8 37be 9395 54bd 88fa ab3d ee04 c23e
00000020: 2bf7 9bbe 0983 b2bd 499f 363d 5f78 cebe
00000030: 2835 d53e 3bf8 ca3e 2de0 08be 12c5 a7be
00000040: 665f b4bc 28a2 b03d 888a 5a3e 1ac4 673d
00000050: 3b64 0a3f d488 d83c ae23 b73b 9c39 b3be
00000060: f6c5 003c b711 3abd 1037 fcbb b32c 593e
00000070: 17c0 1abd 8336 7a3e a088 54bd 2d7b 5ebe
00000080: ffbb 923d 07a5 cd3e e09d 5b3e 3fb3 bcbe
00000090: 0c08 50bd 573e 083d fc0e b83e 6988 0f3d
000000a0: f90b d4be 99bf febd 5a4c 543e 13b3 dd3c
000000b0: 6ffb ed3e 912c c1bc dc26 10bf 8018 3a3d
000000c0: 188f 703e f769 3c3d 2c9e 8b3d 9bd7 dcbc
000000d0: 1c3a f53e 3683 8d3e 43d3 f0be e074 c7bc
000000e0: 76cf 263e 2c31 d63e ef4a a63d 6f17 d9bc
000000f0: 3ea4 b63e 5166 ccbd 0ed6 cfbd c9cc 8a3e
00000100: 05e6 943d f24d 0abe f935 743d d106 8fbe
00000110: 3035 683d f552 a43e 666e 1ebf ed10 00bd
00000120: 4e7a 9f3d bd61 e03e 00d4 52be fc9f ed3c
00000130: 7971 f33c 0d38 bbbe b11d bc3c 2d19 4cbe
00000140: 04db ab3e 3c48 813e 3be6 83bd 2318 f4ba
00000150: d5da a9bc 10f3 a83d a47c 7abc ed8a 64bd
00000160: ea6c be3d 8f60 653d ac65 edba 3e65 80bc
00000170: c7b8 d03e 7503 8d3d 16d9 93be 51e8 3cbe
00000180: 9f37 ac3c a76f 38bd 9b1e a73d 2c11 f93c
00000190: f74a e03b bb1e 79bd ca6e d4bd ceea d0be
000001a0: 3bfc ddbb 796c a8bd f880 553d c4ab 253d
000001b0: 90fa adbd 0b4e a53e c0d9 2bbc 9f74 b2be
000001c0: aabb 113f 7ba1 c93e 25ab a93d 6bdc 023f
000001d0: 1239 d4bc f9df 99bc 4e46 a53e c612 8a3d
000001e0: a950 b33e f345 0bbd c24f fb3c e001 b33d
000001f0: bbd7 a53e 95e2 a9be 2f7d 96bd e217 d33e
00000200: 02a8 8ebd e063 97bc 067c 683c c14d c8be
00000210: ec61 753e a85d 0d3e bc91 d13d 59aa cebd
00000220: f41c e63e e949 0b3b 07d0 433d 6669 583b
00000230: 838b 2abf 69b3 59be 2e5c 5c3e e17f f23d
00000240: 8f05 813d 3679 78be ada6 e4be 2fb8 e4bc
00000250: 2e25 f13e 7fbf 673d d1f7 c23d 145d bdbe
00000260: e47c 943c b765 d0bc 29f3 21bc 2580 403e
00000270: cb4f ae3c 636b 8cbe e22b 873d 9b9d 58be
00000280: a3e3 e73a d74c 9bbe 7eee d4bd d856 7e3e
00000290: 4d64 233d c7c2 0d3d 5de6 8bbe deaa a4bc
000002a0: b47f 68be d3f9 a13e eda8 f63c cb4a e93b
000002b0: cccb 533e b4fb ec3c 41e7 debe 5f9f 03bd
000002c0: ca2a b0be fe32 c2bd b026 79bd 9335 fc3d
000002d0: cae1 54be f788 0dbe 4256 e33e 9293 80bc
000002e0: 071d 193e a82c 5abe cf6d 2e3d 63bd 913b
000002f0: 6cfa adbe e121 3c3e 6fdc 283e 66b8 f2be
00000300: 544f 2ab8 3cfa cd3d f49f 4ebd 494f cdbd
00000310: 3fd0 19be 2247 f7bd 0d16 29bf f15c 6f3c
00000320: ffa2 0bbd b46f 053f 4d08 adbc a343 dc3c
00000330: bfa5 183d cb33 a13e 166c ae3d baa0 843e
00000340: e1d2 8abe f79e a2be 71cd 923d baa8 83bd
00000350: 9ac2 a0bd 9519 b3bd 89d1 19bd f31f f9ba
00000360: 38e7 c43c a594 e93d ad25 be3c 5481 2fbf
00000370: 0c3e 3f3e ad09 863c e6ce e13e 2e75 7f3e
00000380: 28e2 5db9 7571 1dbd 51ff 903e 503b b23b
00000390: f443 babd fcba be3d 590a 8c3d 35fc 71be
000003a0: ba32 053e cc0a bdbc 86e4 99bd 383c 85bd
000003b0: 11cc 883c c024 10be b68e 9abd b3b8 ea3d
000003c0: 6e91 e9be fcfb 91bd 645a 4dbd 39ee f5bc
000003d0: c8ef f2bb 979f a43c a9c7 823e 9c7f 3abd
000003e0: b2c0 fbbe 0b6f 2fbb 3fe1 83bd c0e1 e2bd
000003f0: 4af4 78bd 3525 d4be 3471 ad3d 14e9 57be

fc.bias f4 [24]
-0.017457468 -0.11523814 0.05614809 -0.09446457 0.01684028 0.058633644 -0.03179857 0.044026393
-0.080010615 0.117299825 -0.07183897 0.023157297 -0.02009185 -0.046084024 -0.070906684 -0.026472919
-0.04268562 -0.060728613 -0.0784783 0.04980571 -0.14214979 -0.006884803 -0.011415856 -0.0847712
00000000: f702 8fbc f901 ecbd 8afb 653d a476 c1bd
00000010: a0f4 893c d529 703d 383f 02bd 0555 343d
00000020: 9bdc a3bd e43a f03d 4f20 93bd 5fb4 bd3c
00000030: aa97 a4bc 9ac2 3cbd 8637 91bd bcdd d8bc
00000040: 1ed7 2ebd 91be 78bd 3bb9 a0bd 1201 4c3d
00000050: b78f 11be ea99 e1bb 9209 3bbc 869c adbd
