results/models/deep/deep_acce-gyro_tcn_0_checkpoint.pt (torch_old, 726716 bytes, 54 tensors)

acce_gyro_TCN.0.network.0.conv.bias f4 [32]
-0.0015663479 0.06824059 -0.069367655 0.0035738598 0.12013497 0.1621521 0.030679237 0.17173943
0.18355988 0.17763847 -0.0015198935 0.068509825 -0.038373433 -0.070732996 -0.112933554 0.14432038
-0.030622184 0.10445723 -0.034002542 -0.18649362 0.09957366 0.032374516 0.22731188 0.061857957
0.16329098 0.051962916 -0.029498518 -0.006828889 -0.06529735 -0.064201854 -0.1447076 -0.13941003
00000000: ea4d cdba b9c1 8b3d a110 8ebd 6b37 6a3b
00000010: 5309 f63d 330b 263e 0653 fb3c 76dc 2f3e
00000020: 1ff7 3b3e dce6 353e 2a37 c7ba e14e 8c3d
00000030: 762d 1dbd 76dc 90bd b549 e7bd b9c8 133e
00000040: 60db fabc aced d53d 4046 0bbd 2ff8 3ebe
00000050: 46ed cb3d 249b 043d 72c4 683e c55e 7d3d
00000060: c035 273e 11d7 543d e0a6 f1bc dfc4 dfbb
00000070: 9eba 85bd 437c 83bd 3b2e 14be 81c1 0ebe

acce_gyro_TCN.0.network.0.conv.weight_g f4 [32, 1, 1]
0.56022656 0.62141114 0.6039465 0.6656815 0.6344017 0.6503774 0.48337814 0.6649365
0.655165 0.64882904 0.68279004 0.74748576 0.51157606 0.56193316 0.64040357 0.66473067
0.6935568 0.5886626 0.6049961 0.65070486 0.6121584 0.75702465 0.67929983 0.6644842
0.577874 0.68332195 0.6540736 0.6464207 0.602646 0.561723 0.5644155 0.5679561
00000000: 026b 0f3f cd14 1f3f 3d9c 1a3f 1a6a 2a3f
00000010: 2668 223f 227f 263f 577d f73e 4739 2a3f
00000020: e5b8 273f a919 263f 54cb 2e3f 3a5b 3f3f
00000030: a6f6 023f dada 0f3f 7df1 233f ca2b 2a3f
00000040: f08c 313f 98b2 163f 06e1 1a3f 9894 263f
00000050: 6ab6 1c3f 5ecc 413f 98e6 2d3f a31b 2a3f
00000060: 8def 133f 30ee 2e3f 5e71 273f d47b 253f
00000070: 0247 1a3f 14cd 0f3f 897d 103f 9265 113f

acce_gyro_TCN.0.network.0.conv.weight_v f4 [32, 6, 3]
-0.11559058 -0.07032903 -0.05348791 0.13705298 0.05006834 -0.10224023 0.0040537636 -0.005625249
-0.09819741 0.16396618 0.220421 0.12668613 -0.0025000183 -0.17638344 -0.056748584 0.12665388
-0.17350206 -0.17911668 -0.043680098 0.08452787 0.08709068 -0.11944504 0.023690196 -0.18261537
-0.187788 0.08858813 -0.17581816 0.119061045 0.19697669 0.14881338 -0.11573013 -0.13745554
-0.16650327 0.053230453 -0.08519097 -0.118705265 -0.06384602 0.09409252 -0.15422349 0.20259476
0.26466677 0.19789575 -0.12313839 0.07916652 -0.09267252 -0.04726159 0.0034427138 0.0124138575
0.08261228 0.034564774 0.031163849 -0.0022676217 -0.115403384 -0.16697687 0.1236055 -0.1741926
0.17707896 0.018222326 -0.15862739 0.20705828 -0.074275844 0.07844195 -0.157503 0.22976801
0.23771538 0.27487725 -0.2069275 -0.08171737 -0.15628614 -0.091650404 -0.09170662 -0.047495216
-0.024663199 -0.12942731 -0.008968976 0.16636181 -0.106923655 -0.09204623 0.17349543 -0.10649581
0.08114939 0.13530812 -0.19908367 -0.02737494 -0.23022737 -0.056514576 -0.011317662 -0.22931096
-0.23689272 0.057668526 -0.10660617 -0.13729154 -0.22389638 -0.026099496 0.054366317 -0.1781274
-0.14935826 -0.059904452 0.06478396 0.15404505 0.120120466 -0.0652209 -0.2519386 0.1077728
-0.25735104 -0.1062322 -0.10700726 -0.14879854 0.12507503 0.057173334 0.15006386 -0.044374768
-0.16244088 0.071863405 -0.17118564 -0.10845501 -0.122801974 -0.13977486 -0.08489284 -0.12526119
-0.019377701 0.073960476 -0.08110926 -0.04476181 0.01417014 -0.041738175 0.21344475 0.21699452
0.11435407 -0.048233785 0.2643531 0.044534784 0.053724524 -0.18948029 -0.0019246504 0.17790885
0.22588494 0.014456434 0.13447756 0.12149786 0.052085303 -0.1778465 0.058909703 -0.15893888
0.10388486 -0.23635842 0.081584476 -0.177457 -0.25161818 -0.117486596 0.10578602 -0.22956619
0.10371536 0.16241476 -0.017183028 0.2073916 0.107128225 -0.11094844 0.0111027 0.1286891
-0.17042866 0.016072435 -0.07249687 -0.2360971 -0.024980556 0.055548035 0.044227153 0.22168347
-0.15421052 0.0111038545 0.15474115 0.042023953 0.001557092 -0.19891591 0.18588632 0.09709676
-0.12782764 -0.15556651 -0.17441921 -0.15940581 0.111867696 -0.22536047 -0.24905871 0.031224666
0.09642312 0.06220757 -0.05255929 -0.07723338 -0.06193157 -0.18914442 -0.13066998 -0.1959487
-0.1639644 0.14712131 -0.26275575 -0.1275728 -0.07705318 0.18740077 0.20291696 -0.1899092
0.13242011 0.23723608 0.20215286 0.26770917 0.048531838 -0.19642563 0.13671674 -0.14696182
-0.01013585 0.111786336 -0.013771961 0.18170854 0.13911387 -0.16485123 0.07035522 0.06060917
-0.04085725 -0.24534357 0.02828841 0.069876336 0.05341654 0.008947311 -0.05608097 0.05076456
0.023718908 -0.26004544 0.036041666 -0.040165562 0.15618683 0.016947497 -0.24585125 -0.073244
-0.033238385 0.019547466 -0.18151784 -0.065921485 -0.1686404 0.024548627 0.13688503 -0.02059884
-0.07708534 0.05583354 -0.020302886 -0.09214916 -0.09622516 -0.1651819 -0.22915545 -0.10835406
-0.23147985 -0.027717903 -0.13858233 -0.0634091 0.20248511 0.21504833 -0.032963324 0.21911281
00000000: c1ba ecbd ab08 90bd 2416 5bbd 9e57 0c3e
00000010: 7614 4d3d 5363 d1bd 6fd5 843b 0254 b8bb
00000020: b91b c9bd c0e6 273e 0bb6 613e 02ba 013e
00000030: 59d7 23bb dc9d 34be 3471 68bd 8eb1 013e
00000040: 86aa 31be 5d6a 37be e7e9 32bd f31c ad3d
00000050: 995c b23d 9a9f f4bd f111 c23c 86ff 3abe
00000060: 7f4b 40be b26d b53d ad09 34be 47d6 f33d
00000070: 42b4 493e 8962 183e eb03 edbd 25c1 0cbe
00000080: d57f 2abe 2d08 5a3d 9a78 aebd bf1b f3bd
00000090: b4c1 82bd 94b3 c03d c3ec 1dbe 0075 4f3e
000000a0: 6782 873e 2fa5 4a3e fb2f fcbd 0e22 a23d
000000b0: 17cb bdbd 5e95 41bd 279f 613b 7e63 4b3c
000000c0: a130 a93d cb93 0d3d 544b ff3c 619c 14bb
000000d0: 9c58 ecbd fcfb 2abe e124 fd3d 8c5f 32be
000000e0: 3054 353e fd46 953c 386f 22be 1607 543e
000000f0: ef1d 98bd 2ca6 a03d 7748 21be 4e48 6b3e
00000100: a96b 733e b6bc 8c3e cde4 53be 705b a7bd
00000110: 7909 20be 35b3 bbbd aed0 bbbd 588a 42bd
00000120: 7a0a cabc 9888 04be 9df2 12bc c05a 2a3e
00000130: cafa dabd bc82 bcbd c9a8 313e 7a1a dabd
00000140: a731 a63d 368e 0a3e 97dc 4bbe 6941 e0bc
00000150: b9c0 6bbe d47b 67bd b76d 39bc 7ed0 6abe
00000160: 0194 72be d535 6c3d 5654 dabd 2796 0cbe
00000170: 1845 65be 9cce d5bc 37af 5e3d 0767 36be
00000180: 5ff1 18be 5f5e 75bd 74ad 843d fcbd 1d3e
00000190: b801 f63d 8992 85bd 19fe 80be fcb7 dc3d
000001a0: 84c3 83be 4590 d9bd 9f26 dbbd a55e 18be
000001b0: ab13 003e 962e 6a3d 57aa 193e 51c2 35bd
000001c0: e756 26be 1f2d 933d 4a4b 2fbe a91d debd
000001d0: 9a7f fbbd 2421 0fbe 4cdc adbd 7844 00be
000001e0: fcbd 9ebc 9778 973d 9d1c a6bd 2958 37bd
000001f0: e029 683c a6f5 2abd 4391 5a3e d033 5e3e
00000200: 7732 ea3d ca90 45bd 4a59 873e 1b6a 363d
00000210: 3f0e 5c3d 1f07 42be 8d44 fcba bd2d 363e
00000220: 624e 673e aeda 6c3c 7cb4 093e dfd3 f83d
00000230: 6657 553d 651d 36be 4d4b 713d e0c0 22be
00000240: 96c1 d43d f107 72be c315 a73d 4ab7 35be
00000250: 19d4 80be d09c f0bd 57a6 d83d 6613 6bbe
00000260: b868 d43d 0e50 263e 6cc3 8cbc 775e 543e
00000270: 0b66 db3d f038 e3bd 19e8 353c 13c7 033e
00000280: da84 2ebe 57aa 833c 3d79 94bd 70c3 71be
00000290: 06a4 ccbc 5686 633d 8827 353d fe00 633e
000002a0: 5de9 1dbe f1ec 353c 7774 1e3e 4f21 2c3d
000002b0: 5617 cc3a 9db0 4bbe fc58 3e3e abda c63d
000002c0: 40e5 02be d44c 1fbe f39a 32be 473b 23be
000002d0: e41a e53d e5c4 66be 3f09 7fbe dfca ff3c
000002e0: 7c79 c53d 5dcd 7e3d 6948 57bd 892c 9ebd
000002f0: f5ab 7dbd 13af 41be 5ace 05be c7a6 48be
00000300: 49e6 27be f8a6 163e ec87 86be 72a2 02be
00000310: 0fce 9dbd fde5 3f3e 77c9 4f3e 8f77 42be
00000320: 2399 073e 04ee 723e 2901 4f3e 2d11 893e
00000330: 52c9 463d cd23 49be 79ff 0b3e 297d 16be
00000340: d610 26bc 3cf0 e43d cba3 61bc ce11 3a3e
00000350: de73 0e3e c3ce 28be 6616 903d 5241 783d
00000360: ef59 27bd 583b 7bbe 18bd e73c 531b 8f3d
00000370: 4dcb 5a3d be97 123c 29b5 65bd 80ee 4f3d
00000380: 284e c23c ad24 85be 6da0 133d a584 24bd
00000390: 71ef 1f3e 7ad5 8a3c 6ec0 7bbe f300 96bd
000003a0: f924 08bd 0222 a03c d0df 39be d801 87bd
000003b0: 12b0 2cbe 341a c93c 972b 0c3e e6be a8bc
000003c0: ebde 9dbd b6b1 643d 3d52 a6bc b3b8 bcbd
000003d0: b211 c5bd 7225 29be baa7 6abe bce8 ddbd
000003e0: 0e09 6dbe a810 e3bc 87e8 0dbe a1dc 81bd
000003f0: 4258 4f3e a135 5c3e 8d04 07bd 1c5f 603e

acce_gyro_TCN.0.network.0.net.0.bias f4 [32]
-0.0015663479 0.06824059 -0.069367655 0.0035738598 0.12013497 0.1621521 0.030679237 0.17173943
0.18355988 0.17763847 -0.0015198935 0.068509825 -0.038373433 -0.070732996 -0.112933554 0.14432038
-0.030622184 0.10445723 -0.034002542 -0.18649362 0.09957366 0.032374516 0.22731188 0.061857957
0.16329098 0.051962916 -0.029498518 -0.006828889 -0.06529735 -0.064201854 -0.1447076 -0.13941003
00000000: ea4d cdba b9c1 8b3d a110 8ebd 6b37 6a3b
00000010: 5309 f63d 330b 263e 0653 fb3c 76dc 2f3e
00000020: 1ff7 3b3e dce6 353e 2a37 c7ba e14e 8c3d
00000030: 762d 1dbd 76dc 90bd b549 e7bd b9c8 133e
00000040: 60db fabc aced d53d 4046 0bbd 2ff8 3ebe
00000050: 46ed cb3d 249b 043d 72c4 683e c55e 7d3d
00000060: c035 273e 11d7 543d e0a6 f1bc dfc4 dfbb
00000070: 9eba 85bd 437c 83bd 3b2e 14be 81c1 0ebe

acce_gyro_TCN.0.network.0.net.0.weight_g f4 [32, 1, 1]
0.56022656 0.62141114 0.6039465 0.6656815 0.6344017 0.6503774 0.48337814 0.6649365
0.655165 0.64882904 0.68279004 0.74748576 0.51157606 0.56193316 0.64040357 0.66473067
0.6935568 0.5886626 0.6049961 0.65070486 0.6121584 0.75702465 0.67929983 0.6644842
0.577874 0.68332195 0.6540736 0.6464207 0.602646 0.561723 0.5644155 0.5679561
00000000: 026b 0f3f cd14 1f3f 3d9c 1a3f 1a6a 2a3f
00000010: 2668 223f 227f 263f 577d f73e 4739 2a3f
00000020: e5b8 273f a919 263f 54cb 2e3f 3a5b 3f3f
00000030: a6f6 023f dada 0f3f 7df1 233f ca2b 2a3f
00000040: f08c 313f 98b2 163f 06e1 1a3f 9894 263f
00000050: 6ab6 1c3f 5ecc 413f 98e6 2d3f a31b 2a3f
00000060: 8def 133f 30ee 2e3f 5e71 273f d47b 253f
00000070: 0247 1a3f 14cd 0f3f 897d 103f 9265 113f

acce_gyro_TCN.0.network.0.net.0.weight_v f4 [32, 6, 3]
-0.11559058 -0.07032903 -0.05348791 0.13705298 0.05006834 -0.10224023 0.0040537636 -0.005625249
-0.09819741 0.16396618 0.220421 0.12668613 -0.0025000183 -0.17638344 -0.056748584 0.12665388
-0.17350206 -0.17911668 -0.043680098 0.08452787 0.08709068 -0.11944504 0.023690196 -0.18261537
-0.187788 0.08858813 -0.17581816 0.119061045 0.19697669 0.14881338 -0.11573013 -0.13745554
-0.16650327 0.053230453 -0.08519097 -0.118705265 -0.06384602 0.09409252 -0.15422349 0.20259476
0.26466677 0.19789575 -0.12313839 0.07916652 -0.09267252 -0.04726159 0.0034427138 0.0124138575
0.08261228 0.034564774 0.031163849 -0.0022676217 -0.115403384 -0.16697687 0.1236055 -0.1741926
0.17707896 0.018222326 -0.15862739 0.20705828 -0.074275844 0.07844195 -0.157503 0.22976801
0.23771538 0.27487725 -0.2069275 -0.08171737 -0.15628614 -0.091650404 -0.09170662 -0.047495216
-0.024663199 -0.12942731 -0.008968976 0.16636181 -0.106923655 -0.09204623 0.17349543 -0.10649581
0.08114939 0.13530812 -0.19908367 -0.02737494 -0.23022737 -0.056514576 -0.011317662 -0.22931096
-0.23689272 0.057668526 -0.10660617 -0.13729154 -0.22389638 -0.026099496 0.054366317 -0.1781274
-0.14935826 -0.059904452 0.06478396 0.15404505 0.120120466 -0.0652209 -0.2519386 0.1077728
-0.25735104 -0.1062322 -0.10700726 -0.14879854 0.12507503 0.057173334 0.15006386 -0.044374768
-0.16244088 0.071863405 -0.17118564 -0.10845501 -0.122801974 -0.13977486 -0.08489284 -0.12526119
-0.019377701 0.073960476 -0.08110926 -0.04476181 0.01417014 -0.041738175 0.21344475 0.21699452
0.11435407 -0.048233785 0.2643531 0.044534784 0.053724524 -0.18948029 -0.0019246504 0.17790885
0.22588494 0.014456434 0.13447756 0.12149786 0.052085303 -0.1778465 0.058909703 -0.15893888
0.10388486 -0.23635842 0.081584476 -0.177457 -0.25161818 -0.117486596 0.10578602 -0.22956619
0.10371536 0.16241476 -0.017183028 0.2073916 0.107128225 -0.11094844 0.0111027 0.1286891
-0.17042866 0.016072435 -0.07249687 -0.2360971 -0.024980556 0.055548035 0.044227153 0.22168347
-0.15421052 0.0111038545 0.15474115 0.042023953 0.001557092 -0.19891591 0.18588632 0.09709676
-0.12782764 -0.15556651 -0.17441921 -0.15940581 0.111867696 -0.22536047 -0.24905871 0.031224666
0.09642312 0.06220757 -0.05255929 -0.07723338 -0.06193157 -0.18914442 -0.13066998 -0.1959487
-0.1639644 0.14712131 -0.26275575 -0.1275728 -0.07705318 0.18740077 0.20291696 -0.1899092
0.13242011 0.23723608 0.20215286 0.26770917 0.048531838 -0.19642563 0.13671674 -0.14696182
-0.01013585 0.111786336 -0.013771961 0.18170854 0.13911387 -0.16485123 0.07035522 0.06060917
-0.04085725 -0.24534357 0.02828841 0.069876336 0.05341654 0.008947311 -0.05608097 0.05076456
0.023718908 -0.26004544 0.036041666 -0.040165562 0.15618683 0.016947497 -0.24585125 -0.073244
-0.033238385 0.019547466 -0.18151784 -0.065921485 -0.1686404 0.024548627 0.13688503 -0.02059884
-0.07708534 0.05583354 -0.020302886 -0.09214916 -0.09622516 -0.1651819 -0.22915545 -0.10835406
-0.23147985 -0.027717903 -0.13858233 -0.0634091 0.20248511 0.21504833 -0.032963324 0.21911281
00000000: c1ba ecbd ab08 90bd 2416 5bbd 9e57 0c3e
00000010: 7614 4d3d 5363 d1bd 6fd5 843b 0254 b8bb
00000020: b91b c9bd c0e6 273e 0bb6 613e 02ba 013e
00000030: 59d7 23bb dc9d 34be 3471 68bd 8eb1 013e
00000040: 86aa 31be 5d6a 37be e7e9 32bd f31c ad3d
00000050: 995c b23d 9a9f f4bd f111 c23c 86ff 3abe
00000060: 7f4b 40be b26d b53d ad09 34be 47d6 f33d
00000070: 42b4 493e 8962 183e eb03 edbd 25c1 0cbe
00000080: d57f 2abe 2d08 5a3d 9a78 aebd bf1b f3bd
00000090: b4c1 82bd 94b3 c03d c3ec 1dbe 0075 4f3e
000000a0: 6782 873e 2fa5 4a3e fb2f fcbd 0e22 a23d
000000b0: 17cb bdbd 5e95 41bd 279f 613b 7e63 4b3c
000000c0: a130 a93d cb93 0d3d 544b ff3c 619c 14bb
000000d0: 9c58 ecbd fcfb 2abe e124 fd3d 8c5f 32be
000000e0: 3054 353e fd46 953c 386f 22be 1607 543e
000000f0: ef1d 98bd 2ca6 a03d 7748 21be 4e48 6b3e
00000100: a96b 733e b6bc 8c3e cde4 53be 705b a7bd
00000110: 7909 20be 35b3 bbbd aed0 bbbd 588a 42bd
00000120: 7a0a cabc 9888 04be 9df2 12bc c05a 2a3e
00000130: cafa dabd bc82 bcbd c9a8 313e 7a1a dabd
00000140: a731 a63d 368e 0a3e 97dc 4bbe 6941 e0bc
00000150: b9c0 6bbe d47b 67bd b76d 39bc 7ed0 6abe
00000160: 0194 72be d535 6c3d 5654 dabd 2796 0cbe
00000170: 1845 65be 9cce d5bc 37af 5e3d 0767 36be
00000180: 5ff1 18be 5f5e 75bd 74ad 843d fcbd 1d3e
00000190: b801 f63d 8992 85bd 19fe 80be fcb7 dc3d
000001a0: 84c3 83be 4590 d9bd 9f26 dbbd a55e 18be
000001b0: ab13 003e 962e 6a3d 57aa 193e 51c2 35bd
000001c0: e756 26be 1f2d 933d 4a4b 2fbe a91d debd
000001d0: 9a7f fbbd 2421 0fbe 4cdc adbd 7844 00be
000001e0: fcbd 9ebc 9778 973d 9d1c a6bd 2958 37bd
000001f0: e029 683c a6f5 2abd 4391 5a3e d033 5e3e
00000200: 7732 ea3d ca90 45bd 4a59 873e 1b6a 363d
00000210: 3f0e 5c3d 1f07 42be 8d44 fcba bd2d 363e
00000220: 624e 673e aeda 6c3c 7cb4 093e dfd3 f83d
00000230: 6657 553d 651d 36be 4d4b 713d e0c0 22be
00000240: 96c1 d43d f107 72be c315 a73d 4ab7 35be
00000250: 19d4 80be d09c f0bd 57a6 d83d 6613 6bbe
00000260: b868 d43d 0e50 263e 6cc3 8cbc 775e 543e
00000270: 0b66 db3d f038 e3bd 19e8 353c 13c7 033e
00000280: da84 2ebe 57aa 833c 3d79 94bd 70c3 71be
00000290: 06a4 ccbc 5686 633d 8827 353d fe00 633e
000002a0: 5de9 1dbe f1ec 353c 7774 1e3e 4f21 2c3d
000002b0: 5617 cc3a 9db0 4bbe fc58 3e3e abda c63d
000002c0: 40e5 02be d44c 1fbe f39a 32be 473b 23be
000002d0: e41a e53d e5c4 66be 3f09 7fbe dfca ff3c
000002e0: 7c79 c53d 5dcd 7e3d 6948 57bd 892c 9ebd
000002f0: f5ab 7dbd 13af 41be 5ace 05be c7a6 48be
00000300: 49e6 27be f8a6 163e ec87 86be 72a2 02be
00000310: 0fce 9dbd fde5 3f3e 77c9 4f3e 8f77 42be
00000320: 2399 073e 04ee 723e 2901 4f3e 2d11 893e
00000330: 52c9 463d cd23 49be 79ff 0b3e 297d 16be
00000340: d610 26bc 3cf0 e43d cba3 61bc ce11 3a3e
00000350: de73 0e3e c3ce 28be 6616 903d 5241 783d
00000360: ef59 27bd 583b 7bbe 18bd e73c 531b 8f3d
00000370: 4dcb 5a3d be97 123c 29b5 65bd 80ee 4f3d
00000380: 284e c23c ad24 85be 6da0 133d a584 24bd
00000390: 71ef 1f3e 7ad5 8a3c 6ec0 7bbe f300 96bd
000003a0: f924 08bd 0222 a03c d0df 39be d801 87bd
000003b0: 12b0 2cbe 341a c93c 972b 0c3e e6be a8bc
000003c0: ebde 9dbd b6b1 643d 3d52 a6bc b3b8 bcbd
000003d0: b211 c5bd 7225 29be baa7 6abe bce8 ddbd
000003e0: 0e09 6dbe a810 e3bc 87e8 0dbe a1dc 81bd
000003f0: 4258 4f3e a135 5c3e 8d04 07bd 1c5f 603e

acce_gyro_TCN.0.network.0.downsample.weight f4 [32, 6, 1]
-0.013648379 -0.016132249 -0.018279074 0.11686419 -0.07580479 -0.05721621 0.028564349 -0.06281143
-0.06624662 0.102233015 -0.074169874 -0.0654992 0.015021173 0.06160803 -0.021208834 0.027329631
0.027473 -0.08484473 0.0117085315 0.055183873 -0.033131648 0.11958043 -0.071784645 -0.06181459
-0.022898287 -0.048696257 0.0041690934 -0.068094425 -0.06270819 -0.055256724 -0.0026394026 -0.059435885
-0.011737929 0.06492073 -0.0720879 -0.05594793 0.036102694 -0.047178127 -0.09097676 -0.13785419
0.008149443 0.065024644 0.047533203 0.08342525 -0.048563834 0.035620432 0.06641798 -0.020549964
-0.047211077 -0.048944425 -0.028420221 0.029657261 -0.006138676 -0.052079737 -0.029377751 0.05742893
0.036889043 -0.11248733 -0.0019701219 -0.07226334 -0.024547417 -0.009085297 -0.025784064 -0.09893861
-0.044298857 -0.014613463 0.0225153 0.07722398 -0.01494988 0.013640875 0.041337788 -0.07255343
-0.019526163 -0.009213063 0.021195717 -0.14498006 -0.04362039 -0.07689785 -0.019624393 0.0051387646
0.010882542 -0.0897406 -0.047820088 -0.05016042 0.026981642 0.05535879 -0.04556548 0.11170423
0.009860032 -0.027770171 -0.052551813 -0.050981406 0.0035835959 0.09681639 -0.08507804 -0.04578213
-0.008887181 0.05313237 0.047422715 -0.11742409 -0.017069342 -0.042027958 -0.037353963 0.0152417
0.018824095 -0.12990388 -0.048099544 0.0010602481 -0.018834854 0.08840125 -0.026325226 0.0594949
-0.048929352 -0.11128045 -0.034060504 -0.002516022 0.042867336 -0.122703314 0.05159738 0.009317138
-0.0045674215 0.034356575 0.028048288 0.04112589 -0.038650133 -0.09066164 0.060782056 0.027438827
-0.08204961 0.05303416 -0.055916023 -0.034608215 0.013670354 0.045750618 0.033013575 -0.15673044
-0.050564848 -0.030938808 -0.037809987 -0.023573961 0.0019051455 -0.12380675 -0.057308618 0.104555964
-0.03234234 -0.047269817 0.049382344 0.06232627 -0.0139845805 -0.060309745 0.10066489 -0.053566575
-0.09769997 -0.13248564 -0.09490689 0.105105475 -0.0267906 -0.06578471 0.061020948 0.010293397
0.0022694455 -0.04712906 -0.041199323 -0.036587205 -0.008162701 0.025444161 -0.04673829 -0.02748346
-0.011849541 -0.035921346 -0.051032472 0.082384825 -0.035240576 -0.06836849 -0.02830843 0.046948656
0.041991416 -0.079713084 -0.0018164787 -0.06666242 -0.010137503 -0.06520213 0.030828547 0.06981291
0.011636598 -0.05210865 -0.014761558 0.0019394611 0.01585574 -0.057278585 0.036082584 -0.03143228
00000000: 739d 5fbc c727 84bc ffbd 95bc 7e56 ef3d
00000010: 8b3f 9bbd 8b5b 6abd c8ff e93c 47a3 80bd
00000020: 4fac 87bd 8b5f d13d 60e6 97bd 7224 86bd
00000030: 5e1b 763c b458 7c3d 26be adbc 64e2 df3c
00000040: 0f0f e13c 13c3 adbd 24d5 3f3c 7c08 623d
00000050: 0db5 07bd 96e6 f43d d403 93bd 4c31 7dbd
00000060: 3095 bbbc ba75 47bd e49c 883b 1775 8bbd
00000070: 276d 80bd e054 62bd d4f9 2cbb 0b73 73bd
00000080: 7150 40bc 29f5 843d d2a2 93bd a829 65bd
00000090: 6be0 133d da3d 41bd 0652 babd a629 0dbe
000000a0: 3e85 053c a42b 853d 2db2 423d dcda aa3d
000000b0: dfea 46bd bbe6 113d 2606 883d 6658 a8bc
000000c0: 6760 41bd f379 48bd 86d1 e8bc c9f3 f23c
000000d0: f226 c9bb 9051 55bd 9ca9 f0bc 993a 6b3d
000000e0: f718 173d c25f e6bd 291d 01bb cdfe 93bd
000000f0: aa17 c9bc 7fda 14bc 1a39 d3bc 53a0 cabd
00000100: b872 35bd 4e6d 6fbc 0272 b83c 9b27 9e3d
00000110: 57f0 74bc fa7d 5f3c d051 293d e596 94bd
00000120: 55f5 9fbc 63f2 16bc a4a2 ad3c a775 14be
00000130: 4bab 32bd 9f7c 9dbd 56c3 a0bc 1563 a83b
00000140: b04c 323c ebc9 b7bd ffde 43bd 0375 4dbd
00000150: 9b08 dd3c e6bf 623d dea2 3abd 30c5 e43d
00000160: f98b 213c 457e e3bc 9240 57bd e1d1 50bd
00000170: c3da 6a3b ac47 c63d 653d aebd 0b86 3bbd
00000180: 8a9b 11bc 54a1 593d 523e 423d 0b7c f0bd
00000190: 01d5 8bbc 8225 2cbd 7800 19bd 53b8 793c
000001a0: fd34 9a3c 8605 05be 0704 45bd 06f8 8a3a
000001b0: 8d4b 9abc b70b b53d 00a8 d7bc edb0 733d
000001c0: 256a 48bd 01e7 e3bd 0783 0bbd d8e3 24bb
000001d0: a995 2f3d e04b fbbd c657 533d e9a6 183c
000001e0: 4faa 95bb 7bb9 0c3d 86c5 e53c 9f73 283d
000001f0: 9a4f 1ebd cfac b9bd 9bf6 783d 64c7 e03c
00000200: a009 a8bd 593a 593d 3308 65bd 58c1 0dbd
00000210: 9ff9 5f3c 0065 3b3d 3e39 073d f27d 20be
00000220: 161d 4fbd 6273 fdbc a5de 1abd 2e1e c1bc
00000230: 13b6 f93a 658e fdbd 71bc 6abd 7021 d63d
00000240: 6779 04bd ff9d 41bd 2445 4a3d d549 7f3d
00000250: 951f 65bc 5a07 77bd 6529 ce3d a068 5bbd
00000260: ec16 c8bd 51aa 07be 8b5e c2bd 8a41 d73d
00000270: f677 dbbc 22ba 86bd 1af1 793d a3a5 283c
00000280: faba 143b 670a 41bd 9fc0 28bd 77dc 15bd
00000290: d9bc 05bc 4670 d03c a670 3fbd fe24 e1bc
000002a0: 9424 42bc 4322 13bd 6d07 51bd 60b9 a83d
000002b0: 6c58 10bd c704 8cbd 15e7 e7bc 3c4d 403d
000002c0: 31ff 2b3d 9d40 a3bd e916 eeba 4f86 88bd
000002d0: c517 26bc b288 85bd 268c fc3c 12fa 8e3d
000002e0: 6ea7 3e3c e16f 55bd 76da 71bc 8435 fe3a
000002f0: e6e3 813c f39c 6abd 55cb 133d 22bf 00bd

acce_gyro_TCN.0.network.0.downsample.bias f4 [32]
0.004229049 -0.06510439 -0.12833132 -0.25535968 -0.035137855 -0.31057715 0.28688693 0.31574544
0.15694492 0.0968682 -0.16986762 0.22268948 0.19435224 0.031240037 0.30867958 -0.3193513
-0.038929954 -0.11103409 -0.1520213 0.18859471 -0.110613346 -0.26619324 -0.2038117 0.0030509846
-0.33717483 -0.118964374 0.29066843 -0.16153812 -0.13782126 -0.31318477 0.0824704 -0.28530017
00000000: d693 8a3b 7355 85bd 4969 03be 81be 82be
00000010: b6ec 0fbd f803 9fbe d8e2 923e 63a9 a13e
00000020: 2bb6 203e d662 c63d c7f1 2dbe b608 643e
00000030: 4604 473e 1beb ff3c 400b 9e3e 0382 a3be
00000040: 0475 1fbd d765 e3bd 79ab 1bbe f91e 413e
00000050: 4089 e2bd 7b4a 88be 04b4 50be 07f3 473b
00000060: 2ea2 acbe 98a3 f3bd 7ed2 943e 406a 25be
00000070: 0421 0dbe c159 a0be 3ee6 a83d dd12 92be

acce_gyro_TCN.0.network.1.conv.bias f4 [32]
-0.07400499 -0.119501114 0.05585023 -0.0808704 0.06825877 0.013932291 -0.094854616 0.041094124
-0.01360265 0.03092243 0.04014659 0.059881754 0.03205089 0.05092033 -0.10139865 -0.041693304
0.029782686 -0.06258518 0.026752444 0.017156791 0.0608634 -0.10330481 -0.016839774 0.050909538
-0.086504646 -0.028970538 0.03192314 -0.10478823 -0.011164769 0.065085836 0.06568156 0.055306613
00000000: ee8f 97bd 00bd f4bd 36c3 643d 619f a5bd
00000010: 41cb 8b3d 4444 643c 2343 c2bd 5052 283d
00000020: a6dd 5ebc 0951 fd3c c070 243d 9246 753d
00000030: cb47 033d d691 503d 18aa cfbd 99c6 2abd
00000040: d2fa f33c a92c 80bd f127 db3c 668c 8c3c
00000050: e74b 793d 7991 d3bd 91f3 89bc 8586 503d
00000060: 5929 b1bd 9f53 edbc d7c1 023d 369b d6bd
00000070: 6fec 36bc b94b 853d 0e84 863d 3089 623d

acce_gyro_TCN.0.network.1.conv.weight_g f4 [32, 1, 1]
0.6634118 0.5425618 0.66619176 0.5809401 0.5937285 0.56684893 0.5542032 0.5983549
0.51877135 0.6479751 0.64366025 0.58332723 0.6287045 0.5465792 0.6099423 0.55047286
0.6337097 0.571112 0.57515347 0.6209113 0.5873636 0.5429331 0.60703593 0.6475824
0.61881113 0.61424994 0.615663 0.5753041 0.64788836 0.6483994 0.60085726 0.59450155
00000000: 5bd5 293f 55e5 0a3f 8b8b 2a3f 7eb8 143f
00000010: 97fe 173f 031d 113f 43e0 0d3f c92d 193f
00000020: 33ce 043f b2e1 253f ebc6 243f ef54 153f
00000030: c7f2 203f 9dec 0b3f 2e25 1c3f caeb 0c3f
00000040: cd3a 223f 6534 123f 423d 133f 0bf4 1e3f
00000050: 765d 163f aafd 0a3f b566 1b3f f6c7 253f
00000060: 686a 1e3f 7c3f 1d3f 179c 1d3f 2147 133f
00000070: 03dc 253f 81fd 253f c8d1 193f 4131 183f

acce_gyro_TCN.0.network.1.conv.weight_v f4 [32, 32, 3]
0.115413 0.050791007 0.110327475 0.014461608 0.13265234 0.13097964 -0.07236199 -0.021259453
-0.054162547 0.11170359 0.07814068 0.118364505 -0.058246408 0.070096314 0.02978151 0.11195427
0.12154067 0.0112861125 -0.0712451 0.06533763 0.059072796 -0.08545146 0.03806488 -0.033664964
0.089291826 0.12829798 -0.06079308 0.10034039 -0.050368562 0.09589337 0.07021804 0.017498337
-0.05259794 -0.032059826 -0.08325749 0.08510899 0.08557532 0.08142134 0.060235027 0.019660637
0.07153996 -0.07110218 0.052564565 -0.050134998 0.07746193 0.088669 -0.019743592 -0.04883288
-0.024249718 -0.015876703 -0.0960803 0.018648664 -0.028375775 0.0067710774 -0.018876163 -0.045304388
0.046109695 0.04992496 -0.06881308 -0.07829933 -0.01230696 -0.024270102 0.11887681 -0.011293358
0.041564457 -0.03180712 -0.026820207 -0.09465348 0.020457052 -0.0014482873 -0.087340906 -0.08439522
0.07646332 0.081843294 0.054478165 -0.09284989 -0.09833193 -0.04315332 0.0018272032 0.014097224
-0.012638634 -0.008368809 -0.07456255 -0.019503418 0.07934979 0.00068819 0.04744639 0.033850785
-0.04643709 0.0023689605 0.031620465 0.03107978 -0.0659167 -0.02841185 0.011040863 -0.063209236
-0.08729815 -0.05311746 -0.009402988 -0.0016992949 -0.101610705 -0.09709968 -0.044250444 -0.09319571
0.068795174 -0.09445417 -0.032969423 0.012015389 -0.03595448 0.02738744 -0.0920465 0.012324258
0.06541592 0.036615614 -0.11381404 0.021941502 -0.05344148 -0.0012051305 -0.058830556 0.040801115
0.058748987 0.012653896 -0.096884534 0.07727689 -0.066579595 -0.08233222 -0.0795356 -0.041264642
0.009990394 -0.052346636 0.022078544 0.061694533 -0.06594704 0.040410567 0.0080461195 0.053456735
0.019696655 0.036060262 0.07186144 -0.06824529 -0.016319178 -0.08340888 0.090478316 -0.09916866
6.7153116e-05 -0.057154898 -0.09556787 0.06626613 -0.05889495 -0.06647093 -0.05629789 -0.013792238
-0.021407055 -0.10523752 0.056690004 -0.12128617 -0.097175516 -0.08824188 -0.005844809 0.056460958
-0.11600677 -0.0015826687 -0.08204384 -0.01742104 0.05189981 0.072383024 0.054147 -0.021120345
0.074030034 0.0128688635 0.031917214 -0.0010855393 -0.030157896 0.033449154 0.068719216 0.008586514
-0.08201364 -0.0540059 0.08249696 -0.073217414 0.07420093 0.06845509 -0.0023995982 -0.06596103
-0.014480452 0.09425786 -0.07153765 -0.08805363 -0.014753397 -0.065077156 0.028867748 -0.049448293
0.081232615 0.0493411 -0.04292945 -0.020513136 -0.08457088 0.047565192 0.11044427 0.10243529
0.14140105 -0.039273925 0.12448907 0.11622046 -0.07851486 -0.045175113 -0.06516032 -0.05795252
-0.012021674 -0.060431257 -0.002623637 -0.044011883 0.0018313881 0.105023734 0.059501056 0.036021158
-0.058807503 0.050122667 0.033464205 -0.036436785 0.038084947 -0.041649856 -0.036990725 0.03516005
0.10262745 0.0027073326 -0.035383157 0.07440933 0.10294699 -0.057966217 0.017820505 0.057789832
0.032740362 -0.0010401976 0.099678695 0.026701884 -0.045691732 0.01263962 0.0052374625 -0.034038916
-0.03717164 0.098325014 0.031992093 -0.015398046 -0.06338814 0.12221834 0.0014426508 0.00040859272
0.024625197 -0.034307353 0.044382714 -0.06344702 0.074259974 0.08383166 -0.027205793 -0.019699093
00000000: a75d ec3d 3b0a 503d 5ff3 e13d 61f0 6c3c
00000010: 04d6 073e 871f 063e 8632 94bd 4e28 aebc
00000020: 8cd9 5dbd dac4 e43d 3908 a03d 1769 f23d
00000030: c993 6ebd a88e 8f3d 5af8 f33c 4848 e53d
00000040: 51ea f83d 63e9 383c f3e8 91bd bccf 853d
00000050: 51f6 713d 2d01 afbd ebe9 1b3d 46e4 09bd
00000060: a2de b63d 8c60 033e 2a02 79bd 437f cd3d
00000070: 444f 4ebd be63 c43d 7ace 8f3d ac58 8f3c
00000080: f070 57bd 2a51 03bd e782 aabd 9f4d ae3d
00000090: 1d42 af3d 3bc0 a63d 01b9 763d 580f a13c
000000a0: 8b83 923d 059e 91bd f14d 573d 5b5a 4dbd
000000b0: 5ca4 9e3d 1898 b53d 50bd a1bc fc04 48bd
000000c0: 58a7 c6bc dc0f 82bc c0c5 c4bd 15c5 983c
000000d0: 5074 e8bc eadf dd3b 2fa2 9abc 1891 39bd
000000e0: 85dd 3c3d 1d7e 4c3d dfed 8cbd 665b a0bd
000000f0: 22a3 49bc 18d2 c6bc af75 f33d c707 39bc
00000100: 7e3f 2a3d 2f48 02bd 0db6 dbbc afd9 c1bd
00000110: 8c95 a73c 75d4 bdba cadf b2bd 67d7 acbd
00000120: cd98 9c3d 759d a73d 7f24 5f3d 1528 bebd
00000130: 4062 c9bd 89c1 30bd c47e ef3a 0bf8 663c
00000140: 4612 4fbc 541d 09bc 40b4 98bd a2c5 9fbc
00000150: 2582 a23d a667 343a 2557 423d 1fa7 0a3d
00000160: d134 3ebd 9040 1b3b 7684 013d 069b fe3c
00000170: 56ff 86bd f8bf e8bc bce4 343c d873 81bd
00000180: 5fc9 b2bd b291 59bd fd0e 1abc e0ba deba
00000190: 4619 d0bd 32dc c6bd f43f 35bd 64dd bebd
000001a0: 7ce4 8c3d 3071 c1bd f20a 07bd 32dc 443c
000001b0: 0145 13bd a05b e03c e082 bcbd afeb 493c
000001c0: c8f8 853d 41fa 153d 5617 e9bd aabe b33c
000001d0: 74e5 5abd 78f5 9dba 4ff8 70bd 121f 273d
000001e0: c7a2 703d 4952 4f3c 666b c6bd 5943 9e3d
000001f0: e25a 88bd cc9d a8bd 90e3 a2bd 1d05 29bd
00000200: c0ae 233c 6d69 56bd 10de b43c 68b3 7c3d
00000210: 3e0f 87bd 8d85 253d dfd3 033c 73f5 5a3d
00000220: e15a a13c edb3 133d 172c 933d 30c4 8bbd
00000230: ccaf 85bc 46d2 aabd b24c b93d f018 cbbd
00000240: 8ed4 8c38 411b 6abd 16b9 c3bd 89b6 873d
00000250: d53b 71bd e921 88bd 9e98 66bd d7f8 61bc
00000260: d95d afbc c586 d7bd c733 683d e264 f8bd
00000270: f503 c7bd 29b8 b4bd d085 bfbb 9b43 673d
00000280: f594 edbd 8d71 cfba 9a06 a8bd 92b6 8ebc
00000290: e594 543d 8d3d 943d 3fc9 5d3d 9304 adbc
000002a0: 0f9d 973d edd7 523c a0bb 023d a848 8eba
000002b0: b10d f7bc fb01 093d a9bc 8c3d 73ae 0c3c
000002c0: c4f6 a7bd 4a35 5dbd 2bf4 a83d 03f3 95bd
000002d0: a8f6 973d 2f32 8c3d 9442 1dbb 9416 87bd
000002e0: 6b3f 6dbc 440a c13d 5582 92bd 7655 b4bd
000002f0: 3bb8 71bc 2c47 85bd 0e7c ec3c 4b8a 4abd
00000300: 495d a63d e519 4a3d cad6 2fbd 2a0b a8bc
00000310: 7f33 adbd b8d3 423d 9b30 e23d 98c9 d13d
00000320: 70cb 103e b2dd 20bd 20f4 fe3d fe04 ee3d
00000330: 66cc a0bd 8a09 39bd c672 85bd 9f5f 6dbd
00000340: 8ef6 44bc c486 77bd 53f1 2bbb ce45 34bd
00000350: 300b f03a af16 d73d 61b7 733d ec8a 133d
00000360: 23e0 70bd 6d4d 4d3d c311 093d bd3e 15bd
00000370: f6fe 1b3d 0a99 2abd 9683 17bd fc03 103d
00000380: 572e d23d 816d 313b eeed 10bd eb63 983d
00000390: dfd5 d23d fc6d 6dbd 4ffc 913c 08b5 6c3d
000003a0: c21a 063d 3d57 88ba 5824 cc3d e9bd da3c
000003b0: 4127 3bbd 6916 4f3c 059f ab3b 646c 0bbd
000003c0: 4a41 18bd a05e c93d 240a 033d 1648 7cbc
000003d0: a4d1 81bd 9c4d fa3d 5417 bd3a 6338 d639
000003e0: c8ba c93c de85 0cbd a6ca 353d 83f0 81bd
000003f0: 9d15 983d efaf ab3d afde debc fe5f a1bc

acce_gyro_TCN.0.network.1.net.0.bias f4 [32]
-0.07400499 -0.119501114 0.05585023 -0.0808704 0.06825877 0.013932291 -0.094854616 0.041094124
-0.01360265 0.03092243 0.04014659 0.059881754 0.03205089 0.05092033 -0.10139865 -0.041693304
0.029782686 -0.06258518 0.026752444 0.017156791 0.0608634 -0.10330481 -0.016839774 0.050909538
-0.086504646 -0.028970538 0.03192314 -0.10478823 -0.011164769 0.065085836 0.06568156 0.055306613
00000000: ee8f 97bd 00bd f4bd 36c3 643d 619f a5bd
00000010: 41cb 8b3d 4444 643c 2343 c2bd 5052 283d
00000020: a6dd 5ebc 0951 fd3c c070 243d 9246 753d
00000030: cb47 033d d691 503d 18aa cfbd 99c6 2abd
00000040: d2fa f33c a92c 80bd f127 db3c 668c 8c3c
00000050: e74b 793d 7991 d3bd 91f3 89bc 8586 503d
00000060: 5929 b1bd 9f53 edbc d7c1 023d 369b d6bd
00000070: 6fec 36bc b94b 853d 0e84 863d 3089 623d

acce_gyro_TCN.0.network.1.net.0.weight_g f4 [32, 1, 1]
0.6634118 0.5425618 0.66619176 0.5809401 0.5937285 0.56684893 0.5542032 0.5983549
0.51877135 0.6479751 0.64366025 0.58332723 0.6287045 0.5465792 0.6099423 0.55047286
0.6337097 0.571112 0.57515347 0.6209113 0.5873636 0.5429331 0.60703593 0.6475824
0.61881113 0.61424994 0.615663 0.5753041 0.64788836 0.6483994 0.60085726 0.59450155
00000000: 5bd5 293f 55e5 0a3f 8b8b 2a3f 7eb8 143f
00000010: 97fe 173f 031d 113f 43e0 0d3f c92d 193f
00000020: 33ce 043f b2e1 253f ebc6 243f ef54 153f
00000030: c7f2 203f 9dec 0b3f 2e25 1c3f caeb 0c3f
00000040: cd3a 223f 6534 123f 423d 133f 0bf4 1e3f
00000050: 765d 163f aafd 0a3f b566 1b3f f6c7 253f
00000060: 686a 1e3f 7c3f 1d3f 179c 1d3f 2147 133f
00000070: 03dc 253f 81fd 253f c8d1 193f 4131 183f

acce_gyro_TCN.0.network.1.net.0.weight_v f4 [32, 32, 3]
0.115413 0.050791007 0.110327475 0.014461608 0.13265234 0.13097964 -0.07236199 -0.021259453
-0.054162547 0.11170359 0.07814068 0.118364505 -0.058246408 0.070096314 0.02978151 0.11195427
0.12154067 0.0112861125 -0.0712451 0.06533763 0.059072796 -0.08545146 0.03806488 -0.033664964
0.089291826 0.12829798 -0.06079308 0.10034039 -0.050368562 0.09589337 0.07021804 0.017498337
-0.05259794 -0.032059826 -0.08325749 0.08510899 0.08557532 0.08142134 0.060235027 0.019660637
0.07153996 -0.07110218 0.052564565 -0.050134998 0.07746193 0.088669 -0.019743592 -0.04883288
-0.024249718 -0.015876703 -0.0960803 0.018648664 -0.028375775 0.0067710774 -0.018876163 -0.045304388
0.046109695 0.04992496 -0.06881308 -0.07829933 -0.01230696 -0.024270102 0.11887681 -0.011293358
0.041564457 -0.03180712 -0.026820207 -0.09465348 0.020457052 -0.0014482873 -0.087340906 -0.08439522
0.07646332 0.081843294 0.054478165 -0.09284989 -0.09833193 -0.04315332 0.0018272032 0.014097224
-0.012638634 -0.008368809 -0.07456255 -0.019503418 0.07934979 0.00068819 0.04744639 0.033850785
-0.04643709 0.0023689605 0.031620465 0.03107978 -0.0659167 -0.02841185 0.011040863 -0.063209236
-0.08729815 -0.05311746 -0.009402988 -0.0016992949 -0.101610705 -0.09709968 -0.044250444 -0.09319571
0.068795174 -0.09445417 -0.032969423 0.012015389 -0.03595448 0.02738744 -0.0920465 0.012324258
0.06541592 0.036615614 -0.11381404 0.021941502 -0.05344148 -0.0012051305 -0.058830556 0.040801115
0.058748987 0.012653896 -0.096884534 0.07727689 -0.066579595 -0.08233222 -0.0795356 -0.041264642
0.009990394 -0.052346636 0.022078544 0.061694533 -0.06594704 0.040410567 0.0080461195 0.053456735
0.019696655 0.036060262 0.07186144 -0.06824529 -0.016319178 -0.08340888 0.090478316 -0.09916866
6.7153116e-05 -0.057154898 -0.09556787 0.06626613 -0.05889495 -0.06647093 -0.05629789 -0.013792238
-0.021407055 -0.10523752 0.056690004 -0.12128617 -0.097175516 -0.08824188 -0.005844809 0.056460958
-0.11600677 -0.0015826687 -0.08204384 -0.01742104 0.05189981 0.072383024 0.054147 -0.021120345
0.074030034 0.0128688635 0.031917214 -0.0010855393 -0.030157896 0.033449154 0.068719216 0.008586514
-0.08201364 -0.0540059 0.08249696 -0.073217414 0.07420093 0.06845509 -0.0023995982 -0.06596103
-0.014480452 0.09425786 -0.07153765 -0.08805363 -0.014753397 -0.065077156 0.028867748 -0.049448293
0.081232615 0.0493411 -0.04292945 -0.020513136 -0.08457088 0.047565192 0.11044427 0.10243529
0.14140105 -0.039273925 0.12448907 0.11622046 -0.07851486 -0.045175113 -0.06516032 -0.05795252
-0.012021674 -0.060431257 -0.002623637 -0.044011883 0.0018313881 0.105023734 0.059501056 0.036021158
-0.058807503 0.050122667 0.033464205 -0.036436785 0.038084947 -0.041649856 -0.036990725 0.03516005
0.10262745 0.0027073326 -0.035383157 0.07440933 0.10294699 -0.057966217 0.017820505 0.057789832
0.032740362 -0.0010401976 0.099678695 0.026701884 -0.045691732 0.01263962 0.0052374625 -0.034038916
-0.03717164 0.098325014 0.031992093 -0.015398046 -0.06338814 0.12221834 0.0014426508 0.00040859272
0.024625197 -0.034307353 0.044382714 -0.06344702 0.074259974 0.08383166 -0.027205793 -0.019699093
00000000: a75d ec3d 3b0a 503d 5ff3 e13d 61f0 6c3c
00000010: 04d6 073e 871f 063e 8632 94bd 4e28 aebc
00000020: 8cd9 5dbd dac4 e43d 3908 a03d 1769 f23d
00000030: c993 6ebd a88e 8f3d 5af8 f33c 4848 e53d
00000040: 51ea f83d 63e9 383c f3e8 91bd bccf 853d
00000050: 51f6 713d 2d01 afbd ebe9 1b3d 46e4 09bd
00000060: a2de b63d 8c60 033e 2a02 79bd 437f cd3d
00000070: 444f 4ebd be63 c43d 7ace 8f3d ac58 8f3c
00000080: f070 57bd 2a51 03bd e782 aabd 9f4d ae3d
00000090: 1d42 af3d 3bc0 a63d 01b9 763d 580f a13c
000000a0: 8b83 923d 059e 91bd f14d 573d 5b5a 4dbd
000000b0: 5ca4 9e3d 1898 b53d 50bd a1bc fc04 48bd
000000c0: 58a7 c6bc dc0f 82bc c0c5 c4bd 15c5 983c
000000d0: 5074 e8bc eadf dd3b 2fa2 9abc 1891 39bd
000000e0: 85dd 3c3d 1d7e 4c3d dfed 8cbd 665b a0bd
000000f0: 22a3 49bc 18d2 c6bc af75 f33d c707 39bc
00000100: 7e3f 2a3d 2f48 02bd 0db6 dbbc afd9 c1bd
00000110: 8c95 a73c 75d4 bdba cadf b2bd 67d7 acbd
00000120: cd98 9c3d 759d a73d 7f24 5f3d 1528 bebd
00000130: 4062 c9bd 89c1 30bd c47e ef3a 0bf8 663c
00000140: 4612 4fbc 541d 09bc 40b4 98bd a2c5 9fbc
00000150: 2582 a23d a667 343a 2557 423d 1fa7 0a3d
00000160: d134 3ebd 9040 1b3b 7684 013d 069b fe3c
00000170: 56ff 86bd f8bf e8bc bce4 343c d873 81bd
00000180: 5fc9 b2bd b291 59bd fd0e 1abc e0ba deba
00000190: 4619 d0bd 32dc c6bd f43f 35bd 64dd bebd
000001a0: 7ce4 8c3d 3071 c1bd f20a 07bd 32dc 443c
000001b0: 0145 13bd a05b e03c e082 bcbd afeb 493c
000001c0: c8f8 853d 41fa 153d 5617 e9bd aabe b33c
000001d0: 74e5 5abd 78f5 9dba 4ff8 70bd 121f 273d
000001e0: c7a2 703d 4952 4f3c 666b c6bd 5943 9e3d
000001f0: e25a 88bd cc9d a8bd 90e3 a2bd 1d05 29bd
00000200: c0ae 233c 6d69 56bd 10de b43c 68b3 7c3d
00000210: 3e0f 87bd 8d85 253d dfd3 033c 73f5 5a3d
00000220: e15a a13c edb3 133d 172c 933d 30c4 8bbd
00000230: ccaf 85bc 46d2 aabd b24c b93d f018 cbbd
00000240: 8ed4 8c38 411b 6abd 16b9 c3bd 89b6 873d
00000250: d53b 71bd e921 88bd 9e98 66bd d7f8 61bc
00000260: d95d afbc c586 d7bd c733 683d e264 f8bd
00000270: f503 c7bd 29b8 b4bd d085 bfbb 9b43 673d
00000280: f594 edbd 8d71 cfba 9a06 a8bd 92b6 8ebc
00000290: e594 543d 8d3d 943d 3fc9 5d3d 9304 adbc
000002a0: 0f9d 973d edd7 523c a0bb 023d a848 8eba
000002b0: b10d f7bc fb01 093d a9bc 8c3d 73ae 0c3c
000002c0: c4f6 a7bd 4a35 5dbd 2bf4 a83d 03f3 95bd
000002d0: a8f6 973d 2f32 8c3d 9442 1dbb 9416 87bd
000002e0: 6b3f 6dbc 440a c13d 5582 92bd 7655 b4bd
000002f0: 3bb8 71bc 2c47 85bd 0e7c ec3c 4b8a 4abd
00000300: 495d a63d e519 4a3d cad6 2fbd 2a0b a8bc
00000310: 7f33 adbd b8d3 423d 9b30 e23d 98c9 d13d
00000320: 70cb 103e b2dd 20bd 20f4 fe3d fe04 ee3d
00000330: 66cc a0bd 8a09 39bd c672 85bd 9f5f 6dbd
00000340: 8ef6 44bc c486 77bd 53f1 2bbb ce45 34bd
00000350: 300b f03a af16 d73d 61b7 733d ec8a 133d
00000360: 23e0 70bd 6d4d 4d3d c311 093d bd3e 15bd
00000370: f6fe 1b3d 0a99 2abd 9683 17bd fc03 103d
00000380: 572e d23d 816d 313b eeed 10bd eb63 983d
00000390: dfd5 d23d fc6d 6dbd 4ffc 913c 08b5 6c3d
000003a0: c21a 063d 3d57 88ba 5824 cc3d e9bd da3c
000003b0: 4127 3bbd 6916 4f3c 059f ab3b 646c 0bbd
000003c0: 4a41 18bd a05e c93d 240a 033d 1648 7cbc
000003d0: a4d1 81bd 9c4d fa3d 5417 bd3a 6338 d639
000003e0: c8ba c93c de85 0cbd a6ca 353d 83f0 81bd
000003f0: 9d15 983d efaf ab3d afde debc fe5f a1bc

acce_gyro_TCN.0.network.2.conv.bias f4 [32]
-0.03695739 0.034271933 0.07691131 0.031150833 0.07138088 0.083782956 -0.03704546 0.058727924
0.058351368 -0.07172932 0.07492771 0.06419983 -0.07481388 -0.075184345 -0.0809359 0.026905544
-0.09431208 0.0921287 0.007642134 0.021502914 0.021428777 0.028522315 -0.029945351 -0.10093332
-0.01331108 0.021103224 -0.09632483 0.025777033 -0.077042975 -0.081756316 0.017547166 -0.016981095
00000000: a260 17bd ba60 0c3d ad83 9d3d 0830 ff3c
00000010: 2430 923d 6696 ab3d fbbc 17bd b18c 703d
00000020: d801 6f3d d2e6 92bd b373 993d 337b 833d
00000030: 0538 99bd 40fa 99bd b9c1 a5bd 0469 dc3c
00000040: b126 c1bd f9ad bc3d de6a fa3b e126 b03c
00000050: 678b af3c a1a7 e93c f44f f5bc 21b6 cebd
00000060: b716 5abc abe0 ac3c f445 c5bd 5b2a d33c
00000070: b5c8 9dbd db6f a7bd 13bf 8f3c f01b 8bbc

acce_gyro_TCN.0.network.2.conv.weight_g f4 [32, 1, 1]
0.57113075 0.5916811 0.6278503 0.5861505 0.57205623 0.6419653 0.5793388 0.613819
0.59325594 0.6547515 0.5706702 0.63209647 0.5578236 0.5728779 0.5756735 0.615771
0.62248546 0.69211084 0.59011155 0.653448 0.6350511 0.58225876 0.5856671 0.56963426
0.5664996 0.61057556 0.54898494 0.57402563 0.63365 0.6117664 0.63460493 0.6142472
00000000: a035 123f 6a78 173f ccba 203f f60d 163f
00000010: 4772 123f d757 243f 8c4f 143f 3e23 1d3f
00000020: 9fdf 173f cb9d 273f 7117 123f 13d1 213f
00000030: 87cd 0e3f 20a8 123f 575f 133f 2ba3 1d3f
00000040: 355b 1f3f 2d2e 313f 8d11 173f 5e48 273f
00000050: b592 223f e90e 153f 47ee 153f 8dd3 113f
00000060: 1e06 113f ae4e 1c3f 478a 0c3f 58f3 123f
00000070: e336 223f b99c 1c3f 7875 223f 4e3f 1d3f

acce_gyro_TCN.0.network.2.conv.weight_v f4 [32, 32, 3]
-0.026044529 -0.05691106 0.049220663 0.020791123 0.048796277 0.06610524 -0.04442667 0.03327075
-0.02845221 0.06474859 -0.016186973 0.12075578 0.013019714 0.060427222 0.069462895 0.10257461
0.06500119 -0.05182368 0.028013252 9.394059e-05 -0.039641783 0.05976683 0.06908374 -0.08366877
0.0057509295 0.07664588 -0.0018139848 0.029345233 0.017254872 -0.072758794 -0.096724235 0.094729155
0.058660805 0.04057778 -0.03363016 0.062002547 -0.07949822 -0.08508873 -0.063778244 0.11033972
0.099135295 0.006074598 -0.08018079 0.056915432 -0.02908055 -0.020024458 0.10344173 0.11667153
-0.062538385 -0.050959677 -0.015213843 0.031676814 0.032995574 0.02686831 -0.080202684 -0.008695761
0.06010018 -0.02180482 -0.09578734 0.007946196 0.100433186 0.0053330646 0.04045381 0.029231047
-0.013667826 -0.02595286 -0.015769197 0.047581147 -0.009161144 0.02876169 0.029685495 0.044066627
0.04839299 0.026693644 0.10502159 -0.045523856 -0.0758664 -0.096438445 0.04871302 -0.020404924
0.012067914 -0.024155099 0.03317606 0.004554563 0.10567593 0.107817866 0.03239785 0.044931017
0.044102777 -0.05287171 -0.06423551 0.020585325 -0.08556556 -0.058515396 -0.0573724 0.010598374
0.051176973 -0.05685699 -0.022014799 0.05323671 -0.0130624045 -0.102823995 0.019984212 -0.10746143
0.04520156 -0.039445993 -0.097810574 0.09187677 -0.10343527 0.060389377 0.051005058 -0.08879474
-0.07878918 -0.03734098 0.052871805 0.07040387 0.012977505 0.02251232 0.007589944 -0.076105244
0.05870583 -0.040812206 -0.04482116 -0.04726481 -0.08100504 0.06958132 -0.038341783 -0.05545335
0.06349548 -0.076244965 0.0898656 0.007987273 -0.056454673 -0.07263384 -0.09677776 0.06164404
-0.055069137 -0.10941996 -0.047515 -0.082296625 -0.12041136 -0.029309371 -0.03238806 -0.11649561
0.07150543 0.07212534 -0.01601436 -0.0516161 -0.10745137 -0.00363848 -0.048592396 0.07695813
-0.08469106 -0.051026564 -0.053043827 0.036894266 0.058096852 -0.049120232 0.031126322 -0.06790095
-0.015103825 0.023015782 0.07058918 -0.065843314 -0.088012114 -0.09609728 0.028134804 -0.08448565
-0.101603374 0.0016991942 -0.099054575 0.028384112 -0.0048576584 0.09892397 -0.028763821 -0.06267185
-0.014018715 -0.07317704 -0.03160239 -0.03483154 -0.03427313 -0.036533393 -0.050396785 -0.0848403
-0.005735031 0.03250103 -0.0628775 0.01832899 0.031311255 -0.0076614204 -0.077952586 0.07827011
-0.029566549 -0.051641904 -0.003917561 -0.055933267 -0.0031852168 -0.017654931 0.02751013 -0.03675195
0.10595717 -0.03745712 -0.07477513 0.08670188 0.038376436 0.0297683 0.06328055 -0.07421835
-0.013068925 0.020215075 -0.0651789 0.0063012266 -0.08832774 0.051034097 0.073873006 0.075085916
0.056589145 -0.04523514 -0.0019897926 0.084369905 -0.012494938 0.021688279 -0.058614213 0.0058048647
0.050685007 0.11442577 -0.033505905 0.12177241 0.066692434 -0.04738652 0.1098695 0.005858481
-0.08004207 0.030833507 -0.06625082 0.093481764 0.061145138 -0.054857854 -0.07046731 -0.068040706
0.013592995 -0.02559713 0.067971945 -0.062160835 -0.058913082 0.021702232 -0.016529078 0.031050498
0.10104714 0.086941525 0.06851647 0.089471534 0.066959575 -0.079415575 -0.046972275 -0.10796765
00000000: 565b d5bc 921b 69bd 9b9b 493d 2552 aa3c
00000010: 9bde 473d 2f62 873d bdf8 35bd e946 083d
00000020: 9c14 e9bc e99a 843d 8b9a 84bc ce4e f73d
00000030: a350 553c 8982 773d 9042 8e3d a312 d23d
00000040: 581f 853d 1145 54bd 0c7c e53c f801 c538
00000050: 6c5f 22bd 10ce 743d c77b 8d3d 885a abbd
00000060: 4b72 bc3b 84f8 9c3d 3bc3 edba 6a65 f03c
00000070: 175a 8d3c 9002 95bd 5b17 c6bd 5c01 c23d
00000080: 5046 703d e334 263d c7bf 09bd 62f6 7d3d
00000090: f6cf a2bd 0043 aebd 2b9e 82bd cbf9 e13d
000000a0: 7207 cb3d 6c0d c73b d335 a4bd 2820 693d
000000b0: 553a eebc 550a a4bc 42d9 d33d 7cf1 ee3d
000000c0: 2014 80bd 18bb 50bd 7c43 79bc 8cbf 013d
000000d0: 5e26 073d ee1a dc3c 4e41 a4bd aa78 0ebc
000000e0: 9b2b 763d 06a0 b2bc 272c c4bd c330 023c
000000f0: eaaf cd3d fdc0 ae3b e5b2 253d f375 ef3c
00000100: 04ef 5fbc 189b d4bc 672e 81bc 73e4 423d
00000110: 9f18 16bc a39d eb3c ff2e f33c 357f 343d
00000120: ba37 463d a1ac da3c 8f15 d73d 3977 3abd
00000130: d85f 9bbd 8581 c5bd 4e87 473d 3a28 a7bc
00000140: 80b8 453c eae0 c5bc 9fe3 073d 723e 953b
00000150: 9f6c d83d 9dcf dc3d 9cb3 043d 9609 383d
00000160: 1da5 343d 0290 58bd e88d 83bd 8ea2 a83c
00000170: ff3c afbd d7ad 6fbd 52ff 6abd cda4 2d3c
00000180: f29e 513d e0e2 68bd 6158 b4bc bd0e 5a3d
00000190: b203 56bc 6395 d2bd eeb5 a33c bd14 dcbd
000001a0: 4525 393d 1f92 21bd e950 c8bd e329 bc3d
000001b0: dfd5 d3bd da5a 773d aeea 503d 04da b5bd
000001c0: 395c a1bd dbf2 18bd 1b90 583d e72f 903d
000001d0: 9a9f 543c c26b b83c 11b5 f83b 11dd 9bbd
000001e0: 8675 703d b32a 27bd 6596 37bd bf98 41bd
000001f0: f8e5 a5bd a780 8e3d 460c 1dbd 0d23 63bd
00000200: eb09 823d 5226 9cbd 750b b83d 0ddd 023c
00000210: 043d 67bd 0dc1 94bd 6b33 c6bd 767e 7c3d
00000220: 2d90 61bd 9217 e0bd 179f 42bd 228b a8bd
00000230: 3b9a f6bd 351a f0bc 58a9 04bd 4095 eebd
00000240: 7071 923d 73b6 933d 8c30 83bc 676b 53bd
00000250: 770f dcbd 9173 6ebb d208 47bd 399c 9d3d
00000260: 8272 adbd 3b01 51bd 7c44 59bd 711e 173d
00000270: f7f6 6d3d 4c32 49bd a1fc fe3c a70f 8bbd
00000280: 0976 77bc 988b bc3c 0f91 903d dcd8 86bd
00000290: b23f b4bd a7ce c4bd f67a e63c d006 adbd
000002a0: 6e15 d0bd 7fb7 de3a 20dd cabd cc85 e83c
000002b0: fe2c 9fbb a698 ca3d 1ba2 ebbc 195a 80bd
000002c0: c1ae 65bc d8dd 95bd 8271 01bd 84ab 0ebd
000002d0: fb61 0cbd 0aa4 15bd dc6c 4ebd c0c0 adbd
000002e0: edec bbbb cd1f 053d ebc5 80bd ae26 963c
000002f0: 3b40 003d a70c fbbb 9ba5 9fbd 144c a03d
00000300: 8c35 f2bc 7686 53bd e25e 80bb 481a 65bd
00000310: 12bf 50bb 13a1 90bc ed5c e13c 3689 16bd
00000320: 1300 d93d a36c 19bd b423 99bd c190 b13d
00000330: 9c30 1d3d a6dc f33c 3c99 813d caff 97bd
00000340: 0b1f 56bc 169a a53c 847c 85bd 857a ce3b
00000350: 2de5 b4bd 2109 513d bb4a 973d a5c6 993d
00000360: 05ca 673d 7b48 39bd 2e67 02bb 21ca ac3d
00000370: 92b7 4cbc 9eab b13c 7515 70bd bc36 be3b
00000380: 159b 4f3d 0f58 ea3d 7d3d 09bd d063 f93d
00000390: 0b96 883d 5e18 42bd 4303 e13d 80f8 bf3b
000003a0: 19ed a3bd 8d96 fc3c 83ae 87bd 5e73 bf3d
000003b0: 5373 7a3d a1b2 60bd 2a51 90bd ed58 8bbd
000003c0: 27b5 5e3c 13b1 d1bc e034 8b3d 5c9c 7ebd
000003d0: d84e 71bd e1c8 b13c fd67 87bc 9d5d fe3c
000003e0: cef1 ce3d 660e b23d 5d52 8c3d da3c b73d
000003f0: 1a22 893d a2a4 a2bd 0066 40bd 251e ddbd

acce_gyro_TCN.0.network.2.net.0.bias f4 [32]
-0.03695739 0.034271933 0.07691131 0.031150833 0.07138088 0.083782956 -0.03704546 0.058727924
0.058351368 -0.07172932 0.07492771 0.06419983 -0.07481388 -0.075184345 -0.0809359 0.026905544
-0.09431208 0.0921287 0.007642134 0.021502914 0.021428777 0.028522315 -0.029945351 -0.10093332
-0.01331108 0.021103224 -0.09632483 0.025777033 -0.077042975 -0.081756316 0.017547166 -0.016981095
00000000: a260 17bd ba60 0c3d ad83 9d3d 0830 ff3c
00000010: 2430 923d 6696 ab3d fbbc 17bd b18c 703d
00000020: d801 6f3d d2e6 92bd b373 993d 337b 833d
00000030: 0538 99bd 40fa 99bd b9c1 a5bd 0469 dc3c
00000040: b126 c1bd f9ad bc3d de6a fa3b e126 b03c
00000050: 678b af3c a1a7 e93c f44f f5bc 21b6 cebd
00000060: b716 5abc abe0 ac3c f445 c5bd 5b2a d33c
00000070: b5c8 9dbd db6f a7bd 13bf 8f3c f01b 8bbc

acce_gyro_TCN.0.network.2.net.0.weight_g f4 [32, 1, 1]
0.57113075 0.5916811 0.6278503 0.5861505 0.57205623 0.6419653 0.5793388 0.613819
0.59325594 0.6547515 0.5706702 0.63209647 0.5578236 0.5728779 0.5756735 0.615771
0.62248546 0.69211084 0.59011155 0.653448 0.6350511 0.58225876 0.5856671 0.56963426
0.5664996 0.61057556 0.54898494 0.57402563 0.63365 0.6117664 0.63460493 0.6142472
00000000: a035 123f 6a78 173f ccba 203f f60d 163f
00000010: 4772 123f d757 243f 8c4f 143f 3e23 1d3f
00000020: 9fdf 173f cb9d 273f 7117 123f 13d1 213f
00000030: 87cd 0e3f 20a8 123f 575f 133f 2ba3 1d3f
00000040: 355b 1f3f 2d2e 313f 8d11 173f 5e48 273f
00000050: b592 223f e90e 153f 47ee 153f 8dd3 113f
00000060: 1e06 113f ae4e 1c3f 478a 0c3f 58f3 123f
00000070: e336 223f b99c 1c3f 7875 223f 4e3f 1d3f
