results/models/deep/deep_multi_cnn-lstm_checkpoint.pt (torch_old, 450682 bytes, 10 tensors)

audio_layers.0.weight f4 [32, 32, 8]
000000 98 a6 7e bc 7e 7d 32 3d c0 94 2f 3b da 4a 3c 3d
       -0.015542649 0.04357671 0.0026791543 0.04596982
000010 f0 b8 46 bc 20 26 d1 bb 88 c8 53 3c 00 a0 fb 38
       -0.0121290535 -0.0063827187 0.012926228 0.00011998415
000020 e8 b8 15 bc c6 c1 02 bd d4 44 b2 bc 2e d1 57 3d
       -0.009138323 -0.031923078 -0.021761335 0.052689724
000030 b8 94 5e bc c8 0e cb 3c 70 97 37 3c c2 a8 19 bd
       -0.013585262 0.024787322 0.011205539 -0.037514456
000040 90 3a 9f 3c d4 d8 e8 bc e6 2f 41 bd b0 91 ed 3b
       0.019437104 -0.028423704 -0.04716482 0.0072500333
000050 b0 cd 55 bc 74 52 28 3d 9c 3a 7c 3d 80 90 5c 3b
       -0.013049528 0.04109426 0.06157933 0.0033655465
000060 18 fc a2 bc b6 7a 51 bd c0 a3 11 3d 28 61 9a 3c
       -0.019895598 -0.051142417 0.035556555 0.018845156
000070 72 b3 4b 3d ec 05 60 3d 1a ed 39 3d ac 58 05 bd
       0.04973168 0.054693148 0.045392133 -0.032555267
000080 e0 4f 09 3c 50 72 07 bd 10 4a b6 bc 2c 36 04 3d
       0.00838086 -0.033068 -0.022252113 0.032278225
000090 e0 cf d9 bc f6 88 34 bd 52 5a 4f bd f4 8d bf 3c
       -0.02658838 -0.04407593 -0.050623246 0.023383118
0000a0 7c a5 77 3d d2 55 4b 3d d8 67 3d 3d 60 32 47 bc
       0.060460553 0.04964239 0.04624161 -0.012158006
0000b0 c0 b4 00 bc e8 30 09 bd 40 dc cf bc e2 64 3c bd
       -0.007855594 -0.033493906 -0.025373578 -0.045994647
0000c0 10 9b c6 bc 36 df 42 3d 00 c8 e4 3a 3c 4f f3 3c
       -0.024243861 0.04757615 0.0017454624 0.029700868
0000d0 90 db c1 3b 00 cf 37 bc 3c d1 e4 bc 80 ba c7 bb
       0.0059160665 -0.011218786 -0.027931802 -0.0060952306
0000e0 00 a0 26 bb 20 15 89 3b 58 1f 07 bc c6 e8 45 bd
       -0.0025424957 0.0041834265 -0.008247219 -0.048317693
0000f0 d0 87 b4 bc 60 84 4e bc c0 1d 2f 3c 30 fe 9b bc
       -0.022037417 -0.012604803 0.010688245 -0.019042104
000100 e4 9f d0 bc f8 4c 6f 3c 68 03 b7 3c d0 1d c3 bb
       -0.025466867 0.014605753 0.022340491 -0.0059544817
000110 28 13 71 bd 90 0e 54 bc d6 f8 63 3d 8c 40 14 3d
       -0.05885616 -0.012942925 0.05565723 0.03619437
000120 50 c4 fb 3c 50 eb 08 bd 26 7a 33 bd 30 e7 fe bc
       0.030733258 -0.033427536 -0.04381766 -0.031116098
000130 b0 1a ca 3c 74 f6 c1 3c a0 8d a9 bc a2 32 27 bd
       0.024670929 0.023677088 -0.020697415 -0.04081977
000140 e8 fe 67 bd d2 3e 2b 3d b0 85 1a 3d 20 6c 75 bc
       -0.056639582 0.041807957 0.03772515 -0.014979392
000150 18 38 ea bc 5e 31 03 bd 96 91 7d 3d 00 6d 77 bd
       -0.0285912 -0.032029502 0.06190642 -0.060406685
000160 d0 2d 6d 3c 98 96 c1 bc a0 34 5e bc dc 00 5f 3d
       0.014476255 -0.023631379 -0.013562351 0.05444418
000170 c0 61 82 3b 10 cb ce bb 82 4e 71 3d 60 fb 24 bb
       0.003978938 -0.006310828 0.05891276 -0.0025174245
000180 4a f7 77 3d b8 a5 42 bd 7c d2 cf 3c fe 6d 77 3d
       0.060538568 -0.047521323 0.025368921 0.06040763
000190 12 a7 5f 3d 72 13 58 3d d0 b6 d3 3b dc 6a ac 3c
       0.05460269 0.05275292 0.006461002 0.021047048
0001a0 50 93 0d 3c 5c 03 60 3d 24 78 ff bc 00 51 93 3c
       0.008641079 0.054690704 -0.031185217 0.01798296
0001b0 70 d4 1b 3d ca 27 3b bd c6 5d 08 bd a4 d8 53 3d
       0.038044393 -0.045692243 -0.033292554 0.051720276
0001c0 10 6f 5f bd 80 99 8e 3b c4 8e 93 3c b8 01 3d 3d
       -0.054549277 0.0043517947 0.018012412 0.046144217
0001d0 38 ea 0c bd 44 f6 d7 3c 28 8b 51 3c 64 a4 c8 3c
       -0.034403056 0.026362546 0.012789525 0.02449245
0001e0 98 47 96 3c 00 2d e5 3a 38 f9 26 bd ac 39 6a bd
       0.018344685 0.0017484725 -0.040765017 -0.057183906
0001f0 40 e6 5d 3c 40 df b6 3c 88 c5 3e 3d 38 fd 8e bc
       0.013543665 0.02232325 0.0465751 -0.017454728
000200 fa 8a 10 3d 60 ae af 3c 78 63 9f 3c 48 97 2f 3c
       0.03528879 0.021445453 0.01945661 0.010717221
000210 fc ac 18 3d 6c fc f7 3c 02 98 48 bd e8 84 1e 3c
       0.037274346 0.030271731 -0.04897309 0.009675242
000220 f4 74 e0 3c a0 6f 06 3b 08 0b c3 bc ec 7f 91 bc
       0.027399518 0.002051331 -0.023808971 -0.017761193
000230 7c d1 a9 3c 2e eb 56 3d 80 70 2a bb d0 c6 cd 3c
       0.020729773 0.05247038 -0.0026006997 0.025119215
000240 10 ae 24 bd a4 d3 f1 3c 00 0f 1c bb c0 e2 7b bb
       -0.04020506 0.029519863 -0.0023812652 -0.0038434714
000250 60 5f fd 3b c8 cb b2 bc 56 ae 73 3d 28 4e 48 bd
       0.007732317 -0.021825686 0.05949243 -0.04890266
000260 58 fb c4 3c 60 50 9e bc d8 7d 79 3c e0 d8 09 3c
       0.024045631 -0.019325435 0.015227757 0.008413523
000270 68 07 a9 3c c4 90 31 bd 30 08 e0 3c 60 5c 6a bc
       0.020633414 -0.04335095 0.027347654 -0.0143042505
000280 90 3c e5 bc e0 ef 7a bb c0 a5 4a bc 94 29 77 bd
       -0.02798298 -0.003828995 -0.012368619 -0.060342386
000290 64 cf d2 bc 58 fa 72 3c 20 a2 f2 3b e8 e6 d0 3c
       -0.025733657 0.014830194 0.0074045807 0.02550073
0002a0 f0 b6 68 3d 3c 62 8d 3c 40 fc 9f 3c 4c dd 16 bd
       0.056815088 0.017258756 0.019529462 -0.03683214
0002b0 10 fc 66 bc dc 46 0d 3d f0 57 87 bb 60 3e 12 3c
       -0.014098182 0.034491405 -0.004130356 0.008926004
0002c0 1c 37 f9 bc 0a 89 0e bd 50 3e cb bb a0 2f 96 3c
       -0.030421786 -0.03479866 -0.0062024966 0.018333256
0002d0 aa 7e 1b 3d 58 a6 a2 3c 40 4f 97 ba 30 3f 99 3c
       0.037962593 0.01985471 -0.0011544004 0.018706888
0002e0 80 a1 33 bb ea 9c 5c 3d 74 5f fa 3c 3a 2b 14 bd
       -0.0027409494 0.053860582 0.030563094 -0.036174037
0002f0 ba 70 41 bd de 90 7c 3d 52 70 43 bd e8 94 d1 bc
       -0.047226645 0.061661594 -0.04771454 -0.0255837
000300 00 19 e1 bc d6 53 65 bd 10 8f a6 bb 20 59 4e bd
       -0.027477741 -0.055988155 -0.0050829723 -0.050377965
000310 28 b2 04 bc 28 fe 74 bc 78 29 52 bc f4 30 8b bc
       -0.008099116 -0.014953174 -0.01282727 -0.016991116
000320 f8 e9 27 bd 46 49 5a bd 68 70 83 bc 68 97 1e 3c
       -0.040994614 -0.053292535 -0.01604481 0.009679653
000330 d0 a5 78 3d 24 f7 27 3d 8a a8 08 bd f4 40 65 3d
       0.060705006 0.041007176 -0.033363856 0.055970147
000340 a6 8d 40 bd 48 cf 13 bd 3c 54 49 3d 08 d8 fd bc
       -0.047010086 -0.03608635 0.049152598 -0.0309868
000350 68 4c 2e 3d a8 75 e6 bc 26 fd 08 bd 20 c9 81 bb
       0.042553335 -0.028132275 -0.033444546 -0.0039607435
000360 4e 60 73 bd ec 49 51 bd ac 9c 1f 3d a8 99 8b bc
       -0.059418015 -0.051095888 0.038967773 -0.017041042
000370 d0 6e f4 bc ea 48 1b bd 40 2c 3e bb 2c f3 8e bc
       -0.029837996 -0.037911333 -0.0029018074 -0.017449938
000380 30 f7 99 3b d0 2d e7 bc 9e c3 02 3d 04 61 72 3d
       0.0046986565 -0.028220087 0.031924836 0.059174553
000390 d0 5b d5 bc b8 98 1d bc dc d7 6c 3d 3c 4f 13 bd
       -0.026044756 -0.0096189305 0.057823047 -0.035964236
0003a0 46 74 2b 3d 92 db 6a 3d 80 35 f0 3c 00 47 36 bd
       0.041858934 0.057338305 0.029322386 -0.044501305
0003b0 aa bf 79 3d 18 2d 1a bd 80 37 75 3c 8a 69 73 bd
       0.0609738 -0.03764066 0.0149668455 -0.05942682
0003c0 d2 a5 62 bd b8 d5 04 bd ba 93 25 3d 2c 05 65 3d
       -0.05533392 -0.03243038 0.040424086 0.055913135
0003d0 7a 0b 11 3d 0c 7f c2 bc 7c 62 57 bd e8 13 a9 3c
       0.035411336 -0.023742221 -0.052584156 0.020639375
0003e0 ea 45 5a 3d 3c a4 98 bc e2 96 39 bd c2 00 31 3d
       0.05328933 -0.018633 -0.04530991 0.043213613
0003f0 42 b4 1c bd d0 ac ba 3c 48 dc 96 3c 34 00 47 3d
       -0.038257845 0.022787482 0.018415585 0.048584178

audio_layers.0.bias f4 [32]
000000 f0 40 a8 bb 23 7d 34 3d e4 d8 44 bd 8c a1 87 bc
       -0.0051346943 0.044064652 -0.048058406 -0.016556524
000010 79 5e 56 bd 77 72 b4 bb 7e 19 5b 3c 8d 1c 41 3d
       -0.05233619 -0.0055068093 0.013372777 0.04714637
000020 d7 48 87 bd 38 82 38 bd 78 1a d2 bc 9b 89 53 bd
       -0.0660569 -0.04504606 -0.025647387 -0.051644903
000030 c1 7f 1b bd d1 d4 c2 3c 27 95 af bc 9f f6 d6 3c
       -0.037963632 0.02378312 -0.021433426 0.026240645
000040 1f f7 fb bc 9e 8a db bc 56 e2 46 bb 82 84 46 bd
       -0.030757485 -0.026799496 -0.003034731 -0.048466213
000050 c9 35 fc 3c 14 3c f2 bc 3e f0 42 bc 92 cf 06 3d
       0.030787366 -0.029569663 -0.0118980985 0.0329128
000060 32 d9 56 bd 30 05 1d 3d 79 ca 64 3d 88 28 0f 3c
       -0.052453227 0.038335025 0.055857155 0.008737691
000070 40 41 8d 3a 50 a8 d8 bb 73 d0 9f 3c e6 3a b5 b9
       0.0010776892 -0.0066118613 0.019508576 -0.00034566893

acce_gyro_layers.0.weight f4 [32, 6, 8]
000000 29 66 9e bc 47 91 0b 3e 32 6d 86 bd 8a ee 4c 3d
       -0.019335823 0.13629638 -0.06563796 0.050032176
000010 b7 79 18 3e 92 a0 cb 3d 6a 79 91 3d 7f fc 13 ba
       0.1489018 0.09942736 0.07103236 -0.000564523
000020 88 e9 f6 bd 06 0d 64 bd a3 3f a9 3d 96 78 2c 3e
       -0.12056261 -0.055676483 0.08264091 0.16842875
000030 c5 39 32 3d 2f 9d 61 3e c1 a6 23 3e 44 56 06 3d
       0.043512125 0.22032617 0.1598158 0.032797113
000040 9f 51 13 3e b6 ed 44 3e 94 2c 4f 3e 40 0f 43 3d
       0.14386605 0.19231305 0.20231849 0.047621965
000050 07 2b 2e 3e 72 9a 11 3e c3 5b c4 3d ff 22 50 3e
       0.17008601 0.14219072 0.09587815 0.2032585
000060 86 b9 c0 be 09 56 2a be 0f b8 4f be c1 5c 47 be
       -0.37641543 -0.16634382 -0.20285057 -0.19468977
000070 95 da a8 be 50 e6 c6 be 93 07 9e be 99 71 51 be
       -0.32979265 -0.3884759 -0.30865154 -0.2045349
000080 78 b4 0b 3e d5 19 c6 3d cc 1d 2c 3d 9d 91 8f 3e
       0.13643062 0.09672896 0.042020604 0.28040782
000090 ad 37 ef 3d 69 d6 53 3e ed 54 3f 3e d5 a9 1d 3c
       0.11680541 0.2068726 0.1868474 0.009623011
0000a0 2c aa 92 bd 6c 2d 1c be ff ba 47 3d a8 c2 9d 3d
       -0.07161364 -0.15251702 0.048762318 0.07703143
0000b0 4a 96 7a 3d 3b 79 04 bd fb d1 94 bc 5c 7e 56 be
       0.061178483 -0.032342177 -0.018166533 -0.2094664
0000c0 73 93 60 bc b2 7c 89 3c d2 b0 bb 3b 8e d6 05 3e
       -0.01370703 0.016783092 0.0057278657 0.13070127
0000d0 a3 3d 20 bd 28 2f 37 3e cf ed 20 3e 28 c9 35 3d
       -0.03912128 0.17889082 0.15715717 0.04438129
0000e0 39 ed 24 3e 34 58 fd 3c 30 0c 7b 3d cf fd 54 3e
       0.16106118 0.030925848 0.06129092 0.20799945
0000f0 28 be 69 3d 1d 8c 4f 3e a1 b7 4e 3d 6d 95 48 3e
       0.057066113 0.20268293 0.05046809 0.19588251
000100 9a f6 cc 3d a2 37 a5 bd 41 ef f2 3d f9 d5 ad bd
       0.10007973 -0.08067252 0.1186204 -0.08488078
000110 b4 c7 01 be b2 cc 0d 3d ce 47 54 3d 3a 9e 7e bd
       -0.12673837 0.03461904 0.05182629 -0.062162615
000120 9d 42 11 3d 66 63 c6 3c aa d8 88 bd 4e 1c 18 bd
       0.035463918 0.024217319 -0.066819504 -0.03713637
000130 36 82 96 3d 8e 65 25 3d 88 b5 c8 3d d2 ae 54 bd
       0.073490545 0.040380053 0.09800249 -0.051924534
000140 7a fd 07 bd 25 88 aa bc d9 38 81 3b 8f c3 ae 3d
       -0.03320072 -0.020816872 0.0039435443 0.085333936
000150 f3 66 62 bd 73 f6 6b bd 90 07 67 3c 6b af d6 bd
       -0.05527396 -0.05760808 0.014100924 -0.10482677
000160 da d1 1b be 75 a6 46 be 10 48 2b bc 32 c0 22 be
       -0.15216771 -0.19399436 -0.010454193 -0.15893629
000170 36 72 ab bd 83 52 0f be 8f cd 21 be cb 77 2d 3d
       -0.083713934 -0.1399632 -0.1580107 0.04235057
000180 65 4e 8a 3d ef d0 0b 3e 42 5e 0e 3e c2 95 6a bd
       0.06753234 0.1365392 0.13903144 -0.057271726
000190 a6 d5 17 3e 93 0d 90 bd f0 dc f8 3d 51 08 28 3e
       0.14827594 -0.07033839 0.121515155 0.16409422
0001a0 33 02 49 bc e1 41 ae 3b e5 2d 92 bd 3c 33 f0 bd
       -0.012268591 0.005317912 -0.0713766 -0.11728522
0001b0 8d 24 77 3d da 68 cf bd 6e 95 f1 bd 25 56 84 bc
       0.060337592 -0.10127421 -0.117960796 -0.016154358
0001c0 88 22 9e be a6 f3 79 be c8 51 80 be 33 2d 6c be
       -0.3088572 -0.24409351 -0.25062394 -0.23064117
0001d0 39 af 91 be fe c8 f5 bc b7 7a 97 be 55 dd 29 be
       -0.28453997 -0.030003067 -0.29585811 -0.16588338
0001e0 d3 2e 8c be 61 69 b9 be f4 3e 5d be f4 1f b2 be
       -0.27379474 -0.3621321 -0.21606046 -0.34790003
0001f0 53 74 94 be ab 9c b9 be 83 e8 b1 be f9 6b 3a be
       -0.28994998 -0.3625234 -0.34747705 -0.18205251
000200 e6 ba 43 be 01 92 39 be a0 a5 39 be 7d 3b 36 3c
       -0.19114265 -0.18122102 -0.18129587 0.011122582
000210 6e 95 fc bd 1c 63 75 3c 96 4c 36 be 78 bc 7c bd
       -0.12333189 0.014977243 -0.17802653 -0.061703175
000220 f6 25 36 be 3b e3 0f bb ad dd 5d bd c9 4e e6 3b
       -0.17787918 -0.0021955508 -0.054166485 0.007028435
000230 ff 66 0a bd ad 42 50 be 23 88 4f be 7b 8c 3c 3d
       -0.03378963 -0.20337935 -0.20266776 0.04603241
000240 b8 4c 3c 3c c1 65 07 bd a5 4e b1 bb 8e 23 61 3c
       0.011492901 -0.033056024 -0.0054109865 0.013741387
000250 05 9a c7 bc 0c e2 8a 3c 45 90 01 be ad 7b 91 3d
       -0.024365434 0.01695349 -0.1265269 0.071036674
000260 58 e8 93 bc 12 dc 89 bd f2 9d 60 3d 1e 51 0c be
       -0.018055126 -0.06731428 0.05483813 -0.13702819
000270 97 40 a6 bb ee 47 43 3d e6 c8 9e bd 79 13 20 be
       -0.0050736177 0.04767602 -0.07753162 -0.15632428
000280 d0 75 ba bc 6e 3c 00 be 63 f4 4f bd c5 bf 96 bd
       -0.022761256 -0.12523052 -0.050770175 -0.07360796
000290 e4 fe 62 3d 2a 45 45 be 9b a8 4c be b1 95 03 be
       0.055418864 -0.19264665 -0.19986193 -0.12850071
0002a0 a9 98 7a 3e bc 9c 56 3e 42 6f a6 3e 37 56 d3 3e
       0.24472298 0.20958227 0.32506758 0.41276714
0002b0 2e a6 98 3e df 70 e5 3e 06 e0 d2 3e 0c 4d a9 3e
       0.29814285 0.44812676 0.4118654 0.33066595
0002c0 a6 18 54 be e5 00 0f be 31 5d 3f 3d ee 08 fd bd
       -0.20712528 -0.13965185 0.046719734 -0.12355219
0002d0 69 b8 72 3d fe e4 5d 3d 5a 12 25 3d ef b9 3c be
       0.0592579 0.054173462 0.040300705 -0.18430303
0002e0 f1 60 e2 bd 63 7e 4e be 74 5b 20 bd ff 03 92 3d
       -0.11053646 -0.201654 -0.039149716 0.071296684
0002f0 69 d2 0e be fa 08 b5 bd b5 f3 79 bd 84 4c 42 3c
       -0.13947453 -0.08839603 -0.061023433 0.011859063
000300 f5 07 83 3d 31 6b 83 bd 8a 0a e1 bd 44 37 02 3e
       0.06398002 -0.064169295 -0.10988338 0.12716395
000310 a8 71 e9 3d 14 0d 5a bd 4c 02 2e 3c 96 89 65 bb
       0.11398631 -0.05323513 0.010620665 -0.0035024635
000320 8e 9d 78 3d e5 a9 42 3e 67 a9 21 3e b1 58 ee 3d
       0.06069713 0.19010122 0.15787278 0.1163801
000330 32 e5 5d 3e 7d 1c cb 3d e0 97 14 3e e7 61 2d 3e
       0.21669462 0.09917543 0.1451106 0.16931878
000340 45 ca 0d 3e 83 06 b6 3d 2a fa 66 3d ca cd d7 3c
       0.13846691 0.08887961 0.05639092 0.026343245
000350 7d d7 21 3e 8a 6c d1 3d 19 d9 50 3e b2 8c c6 3d
       0.15804859 0.1022578 0.20395316 0.09694804
000360 06 59 d0 be 18 d2 fe be 9a 25 b9 be 53 63 f5 be
       -0.4069292 -0.49769664 -0.361615 -0.4792734
000370 40 02 89 be 49 89 07 bf 37 97 8c be 6c c1 c4 be
       -0.2675953 -0.52943856 -0.27459118 -0.3842882
000380 d6 32 3a 3e 48 06 2c 3e d9 6b 2b bc b6 e8 d7 3d
       0.18183455 0.16799271 -0.010462725 0.10542433
000390 47 47 39 3e 56 4f 83 3d f6 77 a4 3d 41 06 fe 3d
       0.18093596 0.064116165 0.08030693 0.124035366
0003a0 a6 16 12 3d f9 73 e6 bb 99 8a 87 3d e3 31 8f 3d
       0.03566613 -0.007032868 0.06618232 0.06991937
0003b0 4c da 16 be 63 52 07 3e 5f 00 94 3d f0 67 df bb
       -0.14731711 0.13215022 0.07226633 -0.0068178102
0003c0 fb e3 c1 bc 4f eb 57 b8 af c6 cf bd 84 68 2a 3a
       -0.02366828 -5.1479143e-05 -0.10145318 0.00065005594
0003d0 d5 75 d5 3c 04 da 0d be f0 ec 12 bd 43 29 7a bd
       0.026057163 -0.13852698 -0.035870492 -0.061074506
0003e0 d2 81 22 bc aa e0 f2 3c ca cd 9f bd b4 3b 0d bd
       -0.009918647 0.029648144 -0.07802923 -0.034480765
0003f0 ad 2b 31 bd d7 af 05 be 20 21 57 3d d6 72 05 be
       -0.043254543 -0.13055359 0.052521825 -0.13032088

acce_gyro_layers.0.bias f4 [32]
000000 35 ea ed 3c f7 8f d6 bd ba 00 08 3e 5d b2 4b 3e
       0.029042343 -0.10476678 0.13281527 0.19892259
000010 64 f6 5a bc 3d 3e 8e bd e5 73 39 3c a0 a1 bd bc
       -0.013364408 -0.06945465 0.011319135 -0.023148358
000020 59 68 81 3c a3 e6 33 3d 38 64 3d bd 6c ff b2 3d
       0.015796827 0.043921124 -0.046238154 0.08740124
000030 55 1f 14 3d 3e ba b1 3d b7 70 3a 3e 54 d9 8a 3b
       0.036162693 0.08678101 0.1820706 0.0042373333
000040 8e 10 bd bc 23 ea c8 3d 7d e6 f3 3d d1 81 da 3d
       -0.023079183 0.09810283 0.119091965 0.10669292
000050 db e9 cc 3d cf 5b ba 3d 3e 9a 49 3d 54 33 e7 bc
       0.10005542 0.09099542 0.049219362 -0.028222717
000060 76 10 3e 3e a8 b7 45 3d 76 4e f6 3d c4 13 b5 bc
       0.18560967 0.04827085 0.12026684 -0.022104152
000070 2c 19 07 bd 00 48 57 3e 9c f7 1b 3e 27 42 2d 3e
       -0.03298299 0.2102356 0.15231174 0.16919766

lstm.weight_ih_l0 f4 [512, 64]
000000 7c 0a 6c bc 77 66 e0 3c 53 5d f2 3c 44 51 8a 3d
       -0.014406797 0.027392609 0.029585516 0.067537814
000010 2c e6 45 3d 90 e9 aa bd 53 08 83 bd 03 ff f2 3c
       0.048315212 -0.0834533 -0.06398072 0.029662615
000020 70 f1 a5 bc 84 f6 76 3d e0 0f f4 bc 00 ac a3 bd
       -0.020256728 0.06029369 -0.029792726 -0.07991791
000030 c1 c3 fa 3c 71 14 26 3d 69 e0 c3 bb 2b c2 8e bd
       0.03061092 0.04054684 -0.0059776795 -0.06970628
000040 51 c7 52 3c e6 bd 95 3d 10 97 c5 3b 99 cb 2c ba
       0.012864904 0.07311611 0.006029971 -0.0006591618
000050 06 a3 ff bb 11 6e 96 3d d9 a3 d1 bb 30 1f 3c 3c
       -0.0078014163 0.07345212 -0.006397706 0.011482045
000060 5a d6 a6 bd 95 02 30 bd a5 08 91 bd ff 50 70 3d
       -0.08146353 -0.042971212 -0.07081727 0.058670994
000070 15 2e ea 3c bc 05 50 bc 20 57 24 3d 6b 86 51 bd
       0.028586427 -0.01269668 0.04012215 -0.05115358
000080 79 29 93 3d 7a cc 68 3c 89 09 b8 3d 68 e0 0d 3c
       0.07185645 0.014208907 0.08986194 0.00865946
000090 5b 14 8a 3d c7 f9 ce 3d db f5 bb 3d 58 fe 28 bd
       0.06742164 0.10106235 0.091777526 -0.041258186
0000a0 b3 a7 b6 3d 80 aa f4 bc ca ac 26 bd 92 58 a5 3d
       0.08918705 -0.029866457 -0.04069213 0.08073534
0000b0 87 0b 51 3d a6 f8 9c 3d 0a a1 63 3d 9b d9 0e bd
       0.051036384 0.076646134 0.0555735 -0.034875493
0000c0 97 43 86 3c 51 a8 8d 3d e0 c1 10 bd 82 e1 14 bd
       0.016389651 0.069168694 -0.035341144 -0.036347874
0000d0 6f 6f 46 3b 7c 84 8e bd e6 9f 71 bc d0 a6 d4 3b
       0.0030278822 -0.06958863 -0.014747595 0.006489612
0000e0 57 3b 5b bd ba 65 8d 3d ed 0b a3 3d ff bd 9e 3d
       -0.053523388 0.069041684 0.07961259 0.07751083
0000f0 c0 89 22 3c 1c b5 d3 bc b7 58 f3 3d 43 83 3b 3d
       0.0099205375 -0.025843196 0.118821554 0.045779478
000100 84 a1 3b bc ae 2f 07 3e a3 3a 36 3e ee 71 3a bd
       -0.011452083 0.13201782 0.17795806 -0.045518808
000110 42 38 34 3e 3a d3 32 be 36 b7 99 3d ea df 8a bc
       0.17599586 -0.17463389 0.07505648 -0.016952474
000120 f0 3b 21 bd 5e b1 b0 3d f8 9d bc 3d 1a d0 fa 3d
       -0.0393638 0.0862758 0.09209818 0.122467235
000130 22 85 a2 bc 96 c7 36 3d e4 58 29 3e b0 dd b8 3d
       -0.019838873 0.044623934 0.16537815 0.090266585
000140 51 49 52 3c c5 72 72 bc d8 6b c0 bd 8b e1 06 be
       0.012834863 -0.014797871 -0.093955696 -0.13171975
000150 c9 dd 46 3d 71 7d 5b 3d c1 0d f3 3d 65 c6 97 bd
       0.048551355 0.053586427 0.11867858 -0.07410888
000160 9f cf fd 3b 19 b7 dd bc 1e 78 c0 3c b7 c6 31 3d
       0.0077456976 -0.027064847 0.023494776 0.0434024
000170 cd 73 d3 3c 57 fd 37 3d 82 d8 6b bc ee c5 91 3b
       0.025812054 0.044919338 -0.014394881 0.004448644
000180 fc 26 92 3c df 9f 62 bd cb 02 3a 3b 80 7a 4c bc
       0.017840855 -0.055328246 0.0028383012 -0.012480378
000190 52 12 86 bd 73 b1 22 3d 80 b6 e6 3c 1a 2e d0 bd
       -0.06546463 0.03972001 0.028163195 -0.10165043
0001a0 a1 b3 c0 3c 04 49 16 bd 30 70 36 3c 82 7b 5b bd
       0.023523154 -0.036690727 0.011135146 -0.053584583
0001b0 25 e4 57 3d eb 29 80 3e 31 46 ae bd f7 56 f1 bd
       0.05270781 0.2503198 -0.08509482 -0.11784165
0001c0 a2 f6 3a bd 5e 91 64 bc 24 24 9d bd c4 30 a0 3c
       -0.045645364 -0.013950674 -0.07672909 0.019554503
0001d0 0d 22 c4 3b 17 54 9c bd 26 d6 8d bc 50 74 c8 bc
       0.0059855045 -0.07633226 -0.017314028 -0.024469525
0001e0 28 65 a4 bc 1a b3 0f 3d 71 4e 41 3e c9 fe 8b bd
       -0.020067766 0.035082914 0.1887758 -0.06835706
0001f0 a1 96 a7 3d c0 fa f2 bb 92 55 eb 3c d9 73 f7 bd
       0.08183027 -0.0074151456 0.028727327 -0.12082643
000200 d8 58 78 3d 7f e6 ba bc 9d 9d f8 bc 30 4a 83 bc
       0.060631603 -0.022814987 -0.030348593 -0.016026586
000210 a7 08 87 bd 01 ac 79 3d c3 60 3a bc 4c 25 b3 3d
       -0.06593447 0.06095505 -0.011375609 0.08747348
000220 d3 6e 7f bd af 1b ab 3d b9 03 0e 3d fd 29 0a 3d
       -0.06236155 0.083548896 0.03467152 0.03373145
000230 4a b2 e5 bc a9 8a a0 3d 11 38 9c 3d 6d cd a9 bb
       -0.028039116 0.07838947 0.07627881 -0.0051819594
000240 68 89 21 3d 31 0b 41 bd 3d 30 21 bc 38 13 2c bd
       0.03943768 -0.047129814 -0.009838161 -0.042010516
000250 65 cb 12 3d 63 80 d9 bc 8a d0 4d 3d b5 c3 87 bd
       0.035838503 -0.026550477 0.050247706 -0.06629125
000260 1f 4e 78 3d 63 2d ff 3c 60 6b e0 3c 54 b1 25 3d
       0.060621377 0.031149572 0.02739495 0.040452316
000270 bc 8c df bc 86 f0 89 3d 38 76 93 3d 4c ee 24 3d
       -0.027288787 0.06735329 0.07200283 0.04026632
000280 b0 fe a4 bc 9a 7f 7b 3a 15 d7 16 bd 01 a2 99 3d
       -0.020140976 0.0009593904 -0.036826212 0.07501603
000290 7e d0 5c 3b d6 9f 48 3d d1 ef 9e 3d 7a 8e 7a 3d
       0.0033693607 0.048980556 0.07760585 0.061171032
0002a0 eb 83 1a 3b 7d 30 18 bd a1 13 55 bd 14 01 a0 3d
       0.0023577164 -0.037155617 -0.052020673 0.07812706
0002b0 87 5a a1 3c 15 77 2b 3d e5 7d 2e 3d f0 3c 85 3d
       0.019696487 0.041861612 0.04260053 0.065057635
0002c0 23 1a fe 3c 94 1e 9d 3c 06 4e 49 3d b9 44 b3 bd
       0.031018322 0.01917962 0.049146675 -0.08753342
0002d0 fa af 8c 3d c8 db b4 3c 80 a9 4d 3d 4b 6d 37 bd
       0.06869502 0.022077456 0.050210476 -0.044781964
0002e0 d8 46 b1 3c d3 cd 7b 3d ee a2 a5 3d e3 8a 66 bd
       0.021640226 0.061475586 0.08087717 -0.056284796
0002f0 f2 a7 28 3d bc 88 40 bd b0 f6 00 bd 9b 9a 4e bd
       0.04117579 -0.0470054 -0.03148526 -0.050440412
000300 8d 83 6b 3c 2d 53 bf 3d 98 84 17 3e c2 18 28 3d
       0.014374626 0.093420364 0.14796674 0.041039236
000310 79 81 08 3e 83 04 09 be a1 b3 8a bd bb 11 8a 3d
       0.1333064 -0.13380627 -0.06772543 0.06741663
000320 82 31 64 3d d0 fd 56 be 3d 76 13 3d 8a 11 0b be
       0.055711277 -0.2099526 0.036001433 -0.1358091
000330 0d 40 c6 3d ea 3f 18 3d cf a7 27 bd 60 1d 00 3e
       0.096801855 0.03717033 -0.04093152 0.12511206
000340 6a e2 1c 3e 36 f7 08 3d 05 a8 30 3e 52 43 59 bc
       0.15320745 0.033438884 0.17251594 -0.013260679
000350 dd c5 70 3d 92 cc 17 3d 6e 61 8e bd db ae 18 bd
       0.058782447 0.037060328 -0.06952177 -0.03727613
000360 f2 88 b5 3d 94 29 7f bd 2e cc 9e 3e 6e f9 91 3c
       0.08864011 -0.06229551 0.31015152 0.017819133
000370 a6 6d 7f 3d be b9 2c bd 63 74 14 3d b8 b2 fa 3d
       0.06236043 -0.042169325 0.036243808 0.12241119
000380 b0 ff d1 3c e2 38 4a 3d 12 ce 97 bd ab 48 28 bd
       0.025634617 0.049370654 -0.07412352 -0.041084927
000390 68 13 30 bd ae 59 1e be 54 ae 36 bd c5 4c 41 be
       -0.042987257 -0.15463898 -0.044599846 -0.18876942
0003a0 0a c0 6f bd fd 9d 85 3d 48 cd 22 bc f5 da bc 3d
       -0.058532752 0.065242745 -0.009936638 0.0922145
0003b0 79 0c 1b 3d 01 a9 95 bd 3f df 22 3d 94 fc a9 3c
       0.03785369 -0.073076256 0.039763685 0.020750321
0003c0 5d 81 b6 3b bd 95 d6 3d 25 12 84 3c a4 ae 38 bd
       0.0055696205 0.10477779 0.016121933 -0.045088425
0003d0 24 2b 05 3c ef d1 92 bd b2 03 cb 3c 1e c3 9f bd
       0.008127961 -0.07168948 0.024782035 -0.078008875
0003e0 90 1b 70 bc 77 60 ec 3b d8 f9 66 3e 76 84 a5 bd
       -0.014655009 0.007213648 0.22556245 -0.080819055
0003f0 2f b9 b1 bd db 4e 98 3d 2c 16 a2 3c 79 4c 5c 3d
       -0.08677899 0.074369155 0.019785963 0.053783868

lstm.weight_hh_l0 f4 [512, 128]
000000 e5 ac 23 bd 9b 8f cd bc 12 29 c2 bb f2 ba c6 bb
       -0.039959807 -0.02509289 -0.005925306 -0.006064766
000010 29 87 14 bd ca bc 7c 3c 10 07 72 3c e2 49 99 3b
       -0.03626171 0.01542587 0.014772192 0.004677997
000020 a0 f8 6e 3d b7 81 a8 3c c8 e1 8f 3d ba a8 0c 3d
       0.058342576 0.020569665 0.07025486 0.034340598
000030 06 f4 87 3c 1b ab 2f bc e0 98 55 bc bf d5 19 3d
       0.016595852 -0.010721947 -0.0130369365 0.03755736
000040 0b 36 74 3d db 50 b2 3d cf 2e b9 bc b6 d9 ab bd
       0.059621852 0.08706828 -0.022605328 -0.083911344
000050 fd 26 8e bd 09 83 4d bd 0a 96 85 bd 41 57 2d bd
       -0.0694103 -0.050173793 -0.06522758 -0.04231954
000060 a8 97 b1 bd 3a c5 80 3d 50 01 4b 3d f7 50 b9 3d
       -0.08671504 0.06287618 0.0495618 0.09048646
000070 cb 7b 8d 3d bc a5 9e bd 49 f7 75 3d ef 09 44 bd
       0.06908377 -0.07746455 0.060050283 -0.047861036
000080 83 61 81 bc 77 63 54 3b a1 2b 9f 3d dd 3d 69 3c
       -0.015793568 0.0032407918 0.077719934 0.014235941
000090 99 1a 92 bb d7 c0 79 3c 59 5f 9f 3d cc 5f 45 3d
       -0.004458737 0.0152437305 0.07781858 0.048187062
0000a0 02 94 90 3d a2 2c 84 3b 3f 01 76 bd a8 cf af 3d
       0.0705948 0.004033641 -0.060059782 0.08584529
0000b0 66 5e a2 3d 46 03 43 bb a0 af 00 3d 48 3c 55 3b
       0.07928161 -0.002975659 0.03141749 0.003253715
0000c0 4b 0f 43 bc f2 24 b0 3d be 0c 32 bd 77 d3 bd 3b
       -0.011905502 0.08600797 -0.043469183 0.005793031
0000d0 27 14 8c 3d a7 20 80 bd 6c 12 82 bd e4 70 a5 bc
       0.06839781 -0.06256228 -0.0635117 -0.020195432
0000e0 18 00 82 3d 58 14 3d 3d d9 31 4a 3d 97 e6 81 bd
       0.06347674 0.04616198 0.049363945 -0.0634281
0000f0 b7 f6 84 3d 74 54 1d 3d 66 b4 ad bc 4d 13 92 bc
       0.064923696 0.03841062 -0.021204185 -0.017831469
000100 78 dc 48 3d 23 de 95 bd 17 b6 55 3d 1e 65 18 3d
       0.04903838 -0.0731776 0.052175608 0.037205808
000110 aa 1a a7 bb cf f5 a5 bd c4 fc a0 bb ef df 93 3d
       -0.005099614 -0.08103525 -0.0049129445 0.07220446
000120 27 a2 5d 3d 67 65 9a bc e5 96 26 bd 00 46 0c 3d
       0.05410972 -0.01884718 -0.040671248 0.034246445
000130 c7 e9 1f 3d 31 76 4b 3d fd e1 7d 3d 72 11 b4 3d
       0.039041307 0.049673263 0.061983097 0.0879239
000140 ba 73 a3 3d 71 cb 10 bd 11 99 c0 3c 28 63 8c 3d
       0.079810575 -0.035350267 0.023510488 0.0685485
000150 51 f3 b2 bd d6 97 9d 3d f0 e4 b4 bd 7a 5c a5 bd
       -0.08737815 0.07694976 -0.08832729 -0.08074279
000160 a7 a3 91 bd be e4 75 bd 19 bd 9f bc b3 5b fb 3c
       -0.07111292 -0.0600326 -0.019499348 0.030683374
000170 e4 58 1f 3d 6c 0f 50 3c 5e 44 ad 3d d2 91 da bb
       0.038903132 0.012698989 0.08460306 -0.006670215
000180 84 26 d7 3c d1 92 3c 3b c8 a2 34 3d c3 7b a8 3d
       0.026263483 0.0028774033 0.044100553 0.08226731
000190 7e 1d 38 3c f1 bf 8b 3d 9d 79 a4 bd 62 53 22 bc
       0.0112375 0.06823719 -0.080310084 -0.009907575
0001a0 19 f8 b3 bd 96 87 83 bd c2 71 47 3c 10 e4 9b 3c
       -0.08787555 -0.06422345 0.012173118 0.019029647
0001b0 39 84 b0 3d c4 12 5b bd e1 0e ad 3d 3d f4 8f 3d
       0.086189695 -0.053484693 0.084501036 0.07029007
0001c0 53 46 9e 3d fe 8b 62 bd bc a5 95 3c 8c 8c 7c bd
       0.07728257 -0.05530929 0.018267505 -0.061657473
0001d0 c3 65 ea 3c 8a 2d 29 bd 46 f2 18 bc 52 ea 18 3d
       0.028612977 -0.041303195 -0.009335106 0.03733284
0001e0 af be a3 bc 56 e2 14 bd 8f fc dc 3c 16 26 69 bd
       -0.019988386 -0.036348663 0.026975898 -0.056921087
0001f0 bc 05 d3 bc 5e 72 8f 3d 6e a7 2b bd d8 64 22 bd
       -0.02575957 0.07004236 -0.04190772 -0.039646953
000200 a7 26 26 3d d6 5a ab 3e 61 7a cc bd b3 a7 e2 3e
       0.040564205 0.3346774 -0.099842794 0.4426857
000210 65 84 8e be 0c 31 8d 3d ba cb be 3e 47 5a 3b be
       -0.27835384 0.068941206 0.37264806 -0.18296157
000220 34 6d 41 be 08 72 b5 be da b7 35 3e 8d ea 3b be
       -0.18889314 -0.3543856 0.17745915 -0.18351193
000230 6f ab 9c 3e 19 61 3b 3d 32 a5 9c 3d cc 59 37 3e
       0.30599543 0.045746896 0.07648696 0.17905349
000240 1b 7e bc 3e da df 04 3f 57 a2 b3 3d fd 92 cc 3a
       0.3681496 0.5190407 0.08771198 0.0015607771
000250 cb 01 de be 5f 0c 41 3d 88 d7 8c be 0c 19 ac 3c
       -0.43360743 0.04713094 -0.27508187 0.021008037
000260 26 8f d0 bd 8a c5 d4 3e 0f b6 00 3e be 35 92 3d
       -0.101835534 0.4155696 0.1256945 0.07139157
000270 11 d4 d7 bd cc ee 84 be 47 ab 68 be cb f4 d2 bd
       -0.10538495 -0.25963438 -0.22721587 -0.10300597
000280 4e d4 93 bd e6 bf 87 be f2 56 1a be 86 10 00 bc
       -0.07218228 -0.26513594 -0.1507223 -0.0078164395
000290 a5 e4 5e be 23 90 a3 be 5d 7e 92 bd 08 d4 83 bd
       -0.21766908 -0.31945905 -0.07153008 -0.06436926
0002a0 3f 9f 90 bc b3 62 ca bd e1 9a 6e 3e 0a 26 5e 3c
       -0.01765406 -0.09882107 0.23301269 0.013558874
0002b0 df e7 b1 3d e1 cd de 3d a3 58 55 be df 51 3c be
       0.08686804 0.10879112 -0.20834593 -0.18390606
0002c0 54 74 65 3d 22 89 d4 3d 71 4d 33 3e 45 4b 41 bd
       0.056019142 0.103777185 0.1751001 -0.047190923
0002d0 af 69 28 bc e6 5d 84 bd 49 33 a3 3d 87 22 fc 3d
       -0.010279103 -0.06463222 0.07968766 0.12311273
0002e0 61 0b 0d 3e ad 5e 5f 3e 7b d8 17 be f3 5e 12 bb
       0.13773872 0.2181346 -0.14828674 -0.0022334426
0002f0 7e ee ff 3d 45 4d af 3d c9 70 2d 3e 3d 0a a5 3e
       0.12496661 0.0855966 0.16937555 0.32234374
000300 51 3f 8b bd d9 5e 6e 3e e4 d1 d7 3c a5 c0 27 bc
       -0.06799186 0.23278369 0.0263452 -0.010238801
000310 d9 f1 06 3e dd ca b2 bd 10 91 96 bd f7 66 3f 3d
       0.13178195 -0.08730099 -0.07351887 0.046729054
000320 c4 95 bc 3e 26 f3 20 bd 39 43 03 b9 8f 0a 09 3f
       0.36833012 -0.039294384 -0.00012518176 0.53531736
000330 5b ee 59 3d 2d 58 b3 bc 64 1c 8f 3d 1a f5 99 3e
       0.05320583 -0.021892631 0.06987837 0.3006981
000340 2d 7b 29 bd b1 61 3d bd c5 b0 06 bd c5 32 ac be
       -0.041377235 -0.046235744 -0.032883424 -0.33632484
000350 05 e7 d0 3c 3a 8e 94 be c5 24 2e be 64 f8 82 be
       0.025500784 -0.2901476 -0.17006214 -0.25580132
000360 d2 1e 74 3e 74 cb 1a bd 27 03 0b 3e 48 9f 95 bd
       0.23839882 -0.037791684 0.13575421 -0.07305771
000370 cf b0 84 3b 19 03 72 bd 38 95 7a bc 6e 3b 83 bc
       0.0040493975 -0.059084985 -0.015294366 -0.01601955
000380 71 b8 14 bc 1d 6b 3c be c4 ac 6e be a0 69 52 be
       -0.009077177 -0.18400235 -0.23308092 -0.20548105
000390 2f 4c 70 3e 98 75 1c 3e 12 a7 23 3d 00 10 92 be
       0.23466562 0.15279233 0.039954253 -0.28527832
0003a0 92 11 9c 3e 19 04 1c be 90 12 55 bd 96 21 c9 bd
       0.30482155 -0.15235938 -0.052019656 -0.09820859
0003b0 9f 8b 58 bd 2b ee 87 3d ca 6b 36 bd 39 f4 4c 3e
       -0.052867528 0.06637224 -0.04453639 0.20015039
0003c0 e1 20 31 3e b1 72 fe 3c 88 63 78 3e bf d6 2a bd
       0.17297699 0.031060548 0.24256718 -0.041708704
0003d0 28 d5 4c be 5e 25 cd bd c0 46 c8 3e 05 ff 36 be
       -0.20003188 -0.10016893 0.39116478 -0.1787072
0003e0 49 c5 26 bd a1 4c 6f 3e 9d b2 90 bc 95 15 2c bd
       -0.04071549 0.23369075 -0.017663294 -0.04201277
0003f0 55 c9 cc bb 26 0e 5e be a9 ca f5 bd 46 03 30 bd
       -0.0062495866 -0.21685085 -0.12001545 -0.04297187

lstm.bias_ih_l0 f4 [512]
000000 c3 17 29 3d 51 96 8b 3d b4 c7 7f bd 8a 64 20 bc
       0.041282427 0.0681578 -0.06244631 -0.009789595
000010 75 a7 04 3e 99 d6 84 bd a3 bd 9b 3d c5 bb 27 3d
       0.12954505 -0.06486244 0.0760453 0.040950555
000020 de 32 f0 3c 0c 84 7f 3d 78 db 90 3d 70 4c 2c 3a
       0.02932113 0.06238179 0.0707311 0.00065726694
000030 41 13 56 3d a2 7a c5 3d 1c c7 a7 bc 61 8d d5 b9
       0.052264456 0.09642531 -0.020480685 -0.0004073186
000040 95 ba 10 3d ba e5 09 bc 62 65 95 3d 74 a6 4f 3d
       0.03533419 -0.0084165875 0.07294728 0.05069585
000050 f0 6c 92 3d fe 8b c1 bc 4a 24 ff bb 5b ac fb 3c
       0.071496844 -0.023626324 -0.0077863084 0.030721834
000060 5b 8b 11 3d 87 7d 21 bc b9 06 87 3d 27 19 f0 3c
       0.03553329 -0.009856588 0.06593079 0.029308869
000070 f4 5f cc bc a7 65 03 3d 8d e5 a4 bd 9d a6 42 bd
       -0.024948098 0.032079365 -0.08051596 -0.047522176
000080 75 97 87 3c 78 b3 7f bd 0b 79 da bb cd e7 1d 3d
       0.016551713 -0.062427014 -0.0066672615 0.03855114
000090 06 89 1a 3d 6a 4e 3b bd eb ff 41 bd 3b c6 1c 3d
       0.037728332 -0.04572908 -0.047363203 0.038274985
0000a0 6f 6d 1a 3d 80 ab 0e 3c 6c 5d ad bc 5e e7 3c bd
       0.03770202 0.008707881 -0.021162711 -0.046119086
0000b0 68 4f 45 bd 65 3d a9 bc 2b 05 2d 3c 17 3d b9 bc
       -0.04817143 -0.020659158 0.010560314 -0.022612138
0000c0 1e bf ef bc 90 a2 86 bd 81 ba 57 bd 78 6e ac 3c
       -0.029265936 -0.06573975 -0.0526681 0.02104877
0000d0 a5 47 7e 3d 00 49 8a 3d ea fe 4a 3d 50 b8 9f 3d
       0.062080044 0.06752205 0.04955951 0.07798827
0000e0 69 fa 8e bc 31 5b 80 3d 21 bc 91 bd f3 4f 02 3c
       -0.01745339 0.062673934 -0.07115961 0.007953632
0000f0 93 10 11 bd 18 2a a0 3c dc 6a 74 3c 39 7b f0 3c
       -0.035416197 0.019551322 0.014918055 0.029355632
000100 47 64 66 3c 73 0f cb bc 60 2f a3 bd 56 76 58 bd
       0.014061994 -0.02478764 -0.079680204 -0.05284723
000110 8d ff 74 3d 9c e5 5e bc a3 05 d0 3c db ff 15 bc
       0.059814025 -0.013604548 0.025393313 -0.009155239
000120 46 42 d7 3d 83 0c 9d bd 91 a5 b4 bd 8f df 89 3d
       0.105106875 -0.07668402 -0.08820642 0.067320935
000130 e5 57 3d bd bb 01 de 3c 63 46 c2 3d 91 e3 0d 3d
       -0.0462264 0.027100435 0.094860815 0.034640852
000140 7d a2 aa bd 8f 62 d6 3d d9 42 28 bd 63 89 6b 3d
       -0.083317734 0.10468017 -0.041079376 0.05750407
000150 3d a1 9b bb 64 67 08 bc 2c 3a 2e 3d 4d e9 3f bd
       -0.0047494457 -0.0083254315 0.042535946 -0.046853352
000160 21 58 2c bd aa 6b cc 3d 04 8e b8 3b 47 18 8f bd
       -0.042076234 0.09981473 0.005632164 -0.069870524
000170 32 97 8e 3d d4 4a 91 3b d9 e9 5f bc 41 3b 10 3c
       0.06962432 0.004433969 -0.0136665935 0.00880319
000180 a5 62 85 bd f1 e6 d9 3d 69 06 81 3d 8e 34 20 3c
       -0.065129556 0.10639752 0.06300051 0.009778155
000190 aa 8b ca 3d bc d4 03 3c 25 19 18 bc a0 20 8e bd
       0.0988992 0.008046325 -0.009283339 -0.069398165
0001a0 d1 80 99 bd b0 d7 03 3d cb 7c c1 3c bf 46 d0 3d
       -0.07495273 0.032188118 0.023619076 0.10169744
0001b0 ab 97 d4 bd 35 17 c4 bc 14 cd 01 bd 1a 72 8e 3d
       -0.10380491 -0.023936847 -0.03168972 0.06955357
0001c0 ff 11 89 bd 0e ff 6f 3d 36 9a 09 bd db d2 86 3d
       -0.066928856 0.05859285 -0.033594333 0.06583186
0001d0 01 8b 9e bd f5 a5 79 bd ce d7 03 3d 2c 4c f8 3c
       -0.07741357 -0.060949285 0.03218823 0.03030976
0001e0 04 4c 0f 3d 39 a1 9d 3c 79 49 5c bd 7d 72 8f 3c
       0.034984604 0.019241916 -0.053781006 0.017510647
0001f0 d6 6a 3a bd 67 60 cd 3d 97 89 a5 3d d9 55 e6 3b
       -0.045512043 0.10028153 0.08082884 0.007029277
000200 f5 ac 1d 3d c9 79 36 bc c1 e7 99 3d 7d 1d c5 3d
       0.038495023 -0.011137434 0.07514907 0.09624765
000210 6c bf 31 3d 25 ee 15 bd 5c 9b 0a 3d 1a 73 57 3d
       0.043395445 -0.036604065 0.03383957 0.052600004
000220 0a f0 b9 3d 98 0d d8 bc 3c 99 85 3d f5 46 33 bd
       0.09078987 -0.02637367 0.06523368 -0.04376884
000230 8b cd d0 bc 93 27 00 3b 0f 86 2a bd ca ad 90 bd
       -0.025488636 0.0019554838 -0.041631754 -0.07064398
000240 1f 7a a7 3d 25 7f c9 3d ab 38 84 bd c9 32 71 bd
       0.081775896 0.09838704 -0.06456121 -0.058886323
000250 b0 0d b2 bc 8f 33 bc 3c b2 a8 41 bc 1c 2a ce bc
       -0.021735042 0.022973804 -0.011820005 -0.025166564
000260 8b 0e 8a 3c a1 09 24 bd e3 8a 97 bc bb cd f0 3b
       0.016852638 -0.040048245 -0.018498844 0.0073487437
000270 32 d7 b0 3c 4e cc 69 bc 8c 3a aa 3d 19 77 81 3d
       0.021586988 -0.014269901 0.08311948 0.06321544
000280 84 85 39 bd 4a ba a4 3d 15 b9 e3 bb 5e 11 a0 3d
       -0.045293346 0.08043344 -0.0069495537 0.078158125
000290 eb a3 f5 3a 2e 9d 96 3c a2 49 99 bd 58 d6 eb 3c
       0.0018740868 0.018385496 -0.074847475 0.02878873
0002a0 6f b0 d4 3d 2f 29 99 3d dc 95 6f 3d 56 23 95 3d
       0.103852145 0.07478558 0.058492526 0.072821304
0002b0 17 02 95 bc d0 04 96 3d 4f 97 6c 3d 63 4a b0 3d
       -0.018189473 0.07325137 0.057761487 0.08607938
0002c0 07 ce 5e 3d 35 f8 9c 3d b5 3a f9 3b 4a b9 84 bd
       0.0543957 0.07664529 0.0076058754 -0.064806536
0002d0 15 f4 55 3d 81 44 41 bc 6a 59 80 3d 96 25 31 3d
       0.052234728 -0.011796118 0.062670544 0.043248735
0002e0 00 b7 bd 3b 30 28 ee 3d 06 26 ea 3d 4b b1 0c bd
       0.0057896376 0.11628759 0.11433034 -0.034348767
0002f0 68 7d 1e bd 25 f3 e8 3d 33 9b a5 3d 94 4c 0b 3d
       -0.038693815 0.11374501 0.080862425 0.034008577
000300 ce e1 2a 3c 93 88 71 bd 0c a5 d5 3b b2 e7 8d 3d
       0.010429813 -0.058968138 0.0065199193 0.06928958
000310 e0 8b 94 bc d4 13 8c bd 4a b2 9d bd fd fb 03 3d
       -0.018133104 -0.068397194 -0.077000216 0.032222737
000320 0e cc 98 bc 7e f5 cf 3b ce f4 ac 3d 90 3b 7b ba
       -0.018651988 0.0063464036 0.0844513 -0.00095837656
000330 15 86 21 3d 95 7e 94 3d 4a 8d 95 3c 26 68 87 bd
       0.03943451 0.07250706 0.018255848 -0.066116616
000340 9a 47 8c 3d 3a 6c ba 3d 61 2f 11 bd df 70 73 bd
       0.068495944 0.09102674 -0.035445575 -0.059433814
000350 3b e0 8d bc 7e 88 c2 bc a1 eb 14 3c e3 9e 89 bd
       -0.017318835 -0.023746725 0.009089381 -0.06719758
000360 a6 44 28 bd 37 89 65 bd 41 11 be bc cf 86 5f bb
       -0.041081093 -0.05603906 -0.023201587 -0.0034107452
000370 eb 67 60 bd 32 cc fb 3a 23 06 77 3d 0b 22 31 bd
       -0.054786604 0.0019210635 0.060308587 -0.043245357
000380 f6 68 96 bd 0a 74 ca bc 14 26 84 3b e3 fe a5 bd
       -0.073442385 -0.024713535 0.0040328596 -0.081052564
000390 6e 96 94 3d 38 71 68 bd 10 d6 5e 3d 14 b0 af 3d
       0.07255255 -0.0567486 0.054403365 0.08578506
0003a0 92 d4 89 3d 8d 1c 31 bd e7 68 63 ba 85 b9 b4 bc
       0.06729998 -0.04324012 -0.00086749945 -0.022061119
0003b0 0a fd bc bd f6 b0 a1 3c d5 27 2b 3d b0 77 95 bb
       -0.09227951 0.019737702 0.041786034 -0.004561387
0003c0 64 7a 8c 3c 92 6c 67 3d 7d e9 25 3d 7c e2 cf 3d
       0.017148204 0.056500025 0.040505875 0.1015062
0003d0 2d 1d 7e bd 0d 82 a0 3d ee 6f 0a bc da c8 c0 3d
       -0.062039543 0.07837305 -0.008449538 0.094133094
0003e0 f7 63 81 3d 4c a7 d2 3d c9 01 92 3d 03 ab 4f bd
       0.06317895 0.102858156 0.07129247 -0.0507002
0003f0 0d c8 f2 3c 52 2f 92 3d 56 29 81 3c 2c 33 4a 3d
       0.029636407 0.07137932 0.01576678 0.049365208

lstm.bias_hh_l0 f4 [512]
000000 eb 60 30 3d 14 d0 d0 3c 85 5a b5 3c 6a eb 41 3d
       0.04306118 0.025489844 0.02213789 0.04734365
000010 7d 50 71 3d a1 1b 40 3c 01 d5 fc 3d c1 bf 20 3d
       0.05891465 0.011725337 0.12345315 0.03924537
000020 fb 9a d8 3c f9 6e c0 bd e2 95 1a 3c 97 74 8f 3c
       0.026441088 -0.09396166 0.009435149 0.017511649
000030 5e 9f 19 3d 88 f2 9f 3d 05 b5 b1 bd d8 f6 9a 3d
       0.0375055 0.07809931 -0.08677105 0.07566613
000040 a7 c2 7e 3d 38 96 19 3d a8 70 9b 3c 85 95 c1 3d
       0.062197354 0.037496775 0.018974617 0.09452347
000050 34 20 84 bd 06 05 87 bc cd ab 43 bd 0e 06 9c bd
       -0.06451455 -0.016481888 -0.047771264 -0.07618342
000060 8f 97 b4 3c 69 b8 3c 3d 3c 2c 90 bc fa 8a de 3b
       0.022044925 0.046074305 -0.017599218 0.0067914696
000070 ee da 06 bd b1 9a 96 bd 0b c8 4b 3d 8a 2b 9e bd
       -0.03292363 -0.07353724 0.049751323 -0.07723148
000080 da cc 48 bd 2d a8 f6 bb 4e ba 8c 3d b2 d7 15 bc
       -0.049023487 -0.0075273723 0.06871472 -0.009145664
000090 67 02 8b 3d ed d4 ff 3b 6a 37 62 bd e3 ae 8b bd
       0.067875676 0.007807365 -0.05522863 -0.06820466
0000a0 df 7f e0 3d 4f 5d 60 bd b3 16 84 bd ce a9 c7 3c
       0.109618895 -0.054776486 -0.06449642 0.024372961
0000b0 34 46 a2 bd 9d e0 35 3c 14 be ba 3c cc 54 08 bb
       -0.079235464 0.011100915 0.022795714 -0.0020802496
0000c0 8e b8 5d bd 03 b7 c1 bc 02 fd 3c 3d 40 60 93 3d
       -0.054131083 -0.023646837 0.046139725 0.071960926
0000d0 51 2d cf 3d 04 a9 94 bd 26 0b c6 3c 54 0f a5 3d
       0.10116065 -0.072588 0.024175238 0.08059564
0000e0 7c 62 a8 3d 65 e9 77 3d 32 7b 8a 3d 8c ae 4f bd
       0.082219094 0.060525317 0.06761779 -0.05070357
0000f0 75 95 9f 3c 2b 39 d4 bb 15 ac d4 3d b2 a9 29 3d
       0.019480446 -0.0064765415 0.103843845 0.0414216
000100 40 5a 05 3c 37 7b e0 3b ce 29 4c bc 76 e7 9b 3d
       0.008139193 0.006850626 -0.012461139 0.07612507
000110 f3 ad 97 3d 85 c6 78 3d 0d fa 82 3d 9c ce b2 3c
       0.07406225 0.060736198 0.0639535 0.021827035
000120 2f b0 09 3c 86 64 95 3d 02 c2 29 bd dc 00 2c 3d
       0.008403822 0.07294564 -0.041444786 0.041993007
000130 b4 6f fe 3b 64 39 f2 bc 30 0e 47 bd 3a e4 2b 3d
       0.007764781 -0.029568382 -0.048597515 0.0419657
000140 37 6a 2f 3c af 93 d2 3d dc b9 33 3d 3a 8c 81 3d
       0.010706476 0.10282075 0.04387842 0.06325574
000150 65 f4 da bc e5 9d fb 3c b7 fe 85 bd 66 7c eb bc
       -0.026727865 0.030714938 -0.065427236 -0.028745841
000160 99 8f 8d 3d 0f 57 1a bd 51 6a 2a bc df 08 93 bd
       0.06912155 -0.03768068 -0.010401324 -0.071794264
000170 4e 64 52 3d 47 e7 2b bd 7e e0 cd 3d b5 bc 8c bd
       0.05136519 -0.04196861 0.10052584 -0.068719305
000180 03 95 88 3c b4 49 55 bc 6e ae 2b 3c 7b 6a c6 bb
       0.016672617 -0.0130180605 0.010478599 -0.006055174
000190 6b 89 d7 bb 45 0f 8f bb ed 76 9e bb 5e be 4b 3d
       -0.006577661 -0.004365834 -0.0048359544 0.049742095
0001a0 43 8b d2 3c 4e 6f 9c bd 47 41 c3 3d 2b 84 9f bc
       0.02570117 -0.07638417 0.09533935 -0.019472202
0001b0 d5 b3 8c bd e4 c8 6c 3d b5 3b c9 bd 4d f0 84 3d
       -0.06870238 0.05780877 -0.09825841 0.06491146
0001c0 fc fe 38 3d ac 4d b7 bd 00 2c 8c 3d 0c f8 f9 bc
       0.045165047 -0.089503616 0.0684433 -0.030513786
0001d0 2b eb 39 bd f3 dd cb 38 67 03 75 3d 6f e2 4e 3d
       -0.04539029 9.7211356e-05 0.059817698 0.050508913
0001e0 b9 ff f1 3d 38 38 95 bd 61 5c 36 3d 8f 8e 0c 3d
       0.11816353 -0.072861135 0.044521693 0.034315642
0001f0 a4 2e 56 bd d3 18 9f bc 7f 19 b2 3d 5b e2 89 bd
       -0.052290574 -0.019421017 0.08696269 -0.06732627
000200 fd 8b 43 bd 1a c8 a7 3d e9 4d 31 bd 62 c3 4b 3c
       -0.047740925 0.08192463 -0.04328719 0.01243672
000210 9f 25 29 3d d8 e3 18 3d 7f 7b 81 bb 64 1a 04 3d
       0.041295644 0.037326664 -0.0039514895 0.03225173
000220 50 50 ce bc 37 f8 27 bc 36 dc 91 3d bd 74 d6 3c
       -0.02518478 -0.01025205 0.0712208 0.026178712
000230 d5 6a d2 bc 33 60 99 3c 84 94 3b 3a 31 1e 73 bb
       -0.025685707 0.01872263 0.00071556144 -0.0037096853
000240 31 05 50 bc 03 a3 89 bd 46 6d 92 bd b7 b6 db 3c
       -0.01269655 -0.06720545 -0.071497485 0.026820524
000250 bf 97 ce bc 73 60 9e 3d b1 9a ab bd c6 49 81 3d
       -0.025218843 0.0773324 -0.083791144 0.06312899
000260 de 58 c3 3d 60 8d ed 3b fb 84 eb bc ad 38 b9 3d
       0.095384344 0.007249519 -0.028749933 0.09044013
000270 1a 1a 9c bd ef 50 6f bc 21 4a 27 3d e3 37 8f bd
       -0.07622166 -0.014606698 0.04084218 -0.069930814
000280 a0 0a f7 bb 4f ba 49 3b 75 93 e2 bb 41 5b 84 bd
       -0.0075391084 0.0030781215 -0.006914551 -0.06462718
000290 ae 41 95 bd 5e 41 30 bd f7 7f d0 bc db c8 9d bd
       -0.07287918 -0.04303109 -0.025451643 -0.07704326
0002a0 a1 7a 8c 3d 62 a6 54 bd 63 f4 65 3d c2 27 89 3d
       0.06859327 -0.051916488 0.05614127 0.06697036
0002b0 f1 be 24 bd f8 8a 31 3c a8 02 4f 3d 26 09 2b bc
       -0.04022116 0.010836355 0.050539643 -0.010439193
0002c0 e0 b6 6e bd 8f 66 20 3d 9f b9 cd 3d f8 f6 85 bd
       -0.058279872 0.039160307 0.1004517 -0.06541246
0002d0 b6 4c c9 3d 1a 17 bd 3d 72 2b 44 bb f0 49 08 3e
       0.098290846 0.09232922 -0.0029933122 0.13309455
0002e0 a8 c0 f4 bc 32 06 12 bc 7a ab 5a bd 37 78 a7 3d
       -0.029877022 -0.00891261 -0.05338619 0.08177226
0002f0 78 b6 76 bd 80 54 02 3d ae 56 9e 3c 0b b1 46 3d
       -0.06023261 0.031818867 0.019328441 0.048508685
000300 cc 3e c7 3c 3b 2c 81 bd 2e f6 ce 3d 72 eb 5e bb
       0.024321936 -0.063072644 0.10105549 -0.0034014848
000310 38 fc 5e bd e8 d4 3a 3d 69 86 c2 3a d9 45 04 3d
       -0.054439753 0.0456132 0.0014841083 0.032293174
000320 db c6 95 3c 35 4c 66 bd 78 89 55 3c eb b9 02 3d
       0.018283298 -0.05622502 0.013033263 0.031915586
000330 4c c2 1c bd da 29 98 3d 44 5c 1e bc 87 23 2e 3d
       -0.038271233 0.074298576 -0.0096655525 0.04251435
000340 ec 1c af 3c 5f 52 98 3d 49 75 c1 3b cb db d2 3c
       0.021376096 0.07437586 0.005903874 0.025739571
000350 3a b9 0b bd 56 59 ba 3c df 52 9b bd 21 3b f8 bb
       -0.034112193 0.022747677 -0.07584166 -0.007575408
000360 f4 9d a4 bd c7 af ee bc 7d 7d 73 bd 2e 92 5a 3c
       -0.0803794 -0.029136552 -0.059445847 0.013340516
000370 27 31 8b bc a9 6c 33 3c 66 ab 19 3d 35 96 c2 3d
       -0.016991211 0.0109512 0.037516974 0.09501306
000380 d9 6e 9f bd 5f aa af 3b 4d 57 54 3d b1 c9 95 3d
       -0.077848144 0.005360886 0.05184107 0.0731386
000390 ae d8 2b 3c 41 47 a9 bd a5 ef 52 bc 6b 35 a6 bd
       0.010488672 -0.08265544 -0.0128745185 -0.081156574
0003a0 e2 be ac 3d 27 35 5a bd fd 48 7c bd 7d a4 05 bd
       0.084348455 -0.053273346 -0.061593045 -0.03262757
0003b0 11 b3 6d bd b7 5a f9 3a 25 de c2 3c b5 01 5c bd
       -0.0580321 0.0019024228 0.023787567 -0.053712565
0003c0 8b e3 6b bd 7c 84 9a 3d 0b bc 51 3d 88 e1 af 3d
       -0.05759005 0.07544801 0.051204722 0.085879385
0003d0 ff f6 17 bd 5a 1f 84 3d 4f cc 7e bd 58 50 98 3d
       -0.03710079 0.06451292 -0.062206563 0.07437199
0003e0 60 28 66 bd c2 11 b4 3d 0c 6f a1 bd b3 8e 69 3b
       -0.05619085 0.087924495 -0.07882509 0.0035638034
0003f0 71 88 a7 3a 75 c9 bc 3c 29 69 e8 3c a3 63 8d 3d
       0.0012781752 0.023045281 0.028370457 0.0690377
