results/models/deep/deep_audio_tcn_0_checkpoint.pt (torch_old, 734834 bytes, 52 tensors)

audio_TCN.0.network.0.conv.bias f4 [32]
00000000: 702f f5bc 4a2d debd 5c0b bbbd 2316 8a3c
00000010: c689 99bd 38e2 8cbd 8126 9f3b c0ea 37bd
00000020: 60b5 c7bd 2c36 ddbd a827 e23c 44e2 2bbd
00000030: face 3dbd 86c0 923d c87d 05be 3d81 53bc
00000040: 840e 2c3d 4f67 abbd 9953 8cbd 7309 3f3a
00000050: 0066 923a 4360 d8bd 43da 2c3d 7eb0 e93d
00000060: 7ced 85bc d2af 62bd 78e1 a23c 46f0 953d
00000070: 870a 9ebd 2384 53bd d4ed 883d 0812 983d
-0.029929847 -0.10848482 -0.09133026 0.016856259 -0.07496981 -0.06879085 0.004856885 -0.04490161
-0.097513914 -0.10801348 0.0276068 -0.04196383 -0.046339966 0.07165627 -0.13036263 -0.012909231
0.04200603 -0.08369314 -0.068518825 0.000728748 0.0011169314 -0.105652355 0.042200338 0.11410616
-0.016348593 -0.055343457 0.019882903 0.07321219 -0.07716852 -0.051639687 0.06685987 0.07425314

audio_TCN.0.network.0.conv.weight_g f4 [32, 1, 1]
00000000: fa67 0d3f 7ba5 0e3f 955a 093f d06f 443f
00000010: 9689 193f e2df 2b3f 3658 203f b9e5 fe3e
00000020: 48a1 013f e78d 0e3f ff9c 273f c6da 1a3f
00000030: ce8c f03e 4207 233f 1579 0d3f 0099 163f
00000040: 0831 123f 864c 123f 4a28 2b3f 3e61 173f
00000050: 76a1 0c3f ec3e 163f 5e84 0b3f f7a2 333f
00000060: 27f1 153f 8dbf 3d3f f36b 063f cab3 103f
00000070: 445a 133f 149a 183f 69ce 0e3f 8027 223f
0.5523678 0.55721253 0.5365384 0.7673311 0.59975564 0.67138493 0.626346 0.4978464
0.5063672 0.55685276 0.6547393 0.6049007 0.46982425 0.6368295 0.5526288 0.5882721
0.57106066 0.57148015 0.6685835 0.59132755 0.5493387 0.5868976 0.5449885 0.7017054
0.58571094 0.7412041 0.5250847 0.56524336 0.5755961 0.59610105 0.55783707 0.6334152

audio_TCN.0.network.0.conv.weight_v f4 [32, 32, 3]
00000000: c4d1 3d3d f2f1 a6bd 289a 6c3d fc31 8abd
00000010: 5012 933b b0b2 6cbd 74ec 0b3d 6546 cebd
00000020: 8834 583c ac86 8c3d a8f8 0c3d 50bc 4a3d
00000030: c06a 4f3d 2466 80bd 6061 673b e11b 83bd
00000040: 1ce6 bc3d 40e2 f0ba 82fb 08bd 8083 233d
00000050: 7fd3 cebd 2ad2 963d 2a24 14bd 1086 0ebc
00000060: 7404 1b3d e04b 30bd e0b3 a23d 616b b8bd
00000070: c090 2b3d 827e cb3d 4058 9abd c0a7 0c3d
00000080: d838 d03c a06a 333c f094 023d 6906 6fbd
00000090: e8bf 4c3c 5257 90bd 7435 dbbc 3c11 b43d
000000a0: 8223 02bd 7040 2e3c f83f ffbc 9cda 613d
000000b0: b05f 403d c09a 54bc 306e 743d 1862 dfbc
000000c0: 1044 adbb 8e3f a73d 6ad7 c5bd f883 aabd
000000d0: f4b1 ab3c d03b acbd 2210 c93d f11f 41bd
000000e0: b4a3 cd3d 688a 0d3d c4ac 613d e21f b83d
000000f0: e219 ab3d 45de 35bd 7ca9 c43d 1af5 913d
00000100: 0094 6f39 2aaa 83bd ecc3 31bd e0c4 8cbb
00000110: 346c 1c3d cc03 22bd c4da 07bd 24ef 233d
00000120: 00c4 5e3a a094 ffbc 9815 633c b834 883c
00000130: 2057 8c3d e4e1 023d 8842 713d dcc8 a93d
00000140: d21c a33d 9660 a03d f0d4 3a3c 9096 a53c
00000150: 3cd7 663d b002 dd3c 4a58 27bd aca9 8bbc
00000160: 2acb a23d 0068 b23a 5b9c 4fbd d0c3 a83d
00000170: d0db 133c bc49 2b3d 1869 563d e451 6a3d
00000180: c643 443d 514e b7bd f33b 4e3d 7950 d93d
00000190: 4f0e 8fbd 1684 e5bd 11ca 01bd b911 19bd
000001a0: 43d3 733d 2574 873b 1240 c93c c325 a2bd
000001b0: 6852 773d ce84 efbc ed2e c23c bc71 c0bc
000001c0: 7e18 fa3c 9537 433c 91b8 c83d f0b0 413d
000001d0: 9284 36bd 33d0 c9bd b061 dabd fdd7 193d
000001e0: 0efa 4fbd d86f a73d 7de0 37bd ec72 edbc
000001f0: 685f 493d 669d 713d 0c61 813d 27b9 ac3d
00000200: 0091 b23d d648 1dbd 5507 9a3c 9ecb 8c3d
00000210: 988f d63d 63ad cc3c 0096 a1bd 3ac1 623d
00000220: 35b1 3b3d a902 50bc bde5 2e3d a2a9 ce3d
00000230: 18ff 413d b99b 743d da16 213d 3582 a6bd
00000240: 342e 16bd 53c1 31bd 57a8 94bd a1f3 d7bd
00000250: 37e9 afbd c3f7 6e3d 7040 bb3c ed74 293d
00000260: aebd b4bd f09d 58bd 5bc8 3b3d 6a79 a7bb
00000270: 18e6 c43d 7a06 0fbd 6e52 2dbd 65a7 a1bd
00000280: 2031 9cbd cc74 d6bd 0604 ccbd e574 d9bd
00000290: 8698 5abd 80c6 18bd c6d5 fc3b 50a9 6b3d
000002a0: 1b20 afbd eb2b a2bd db88 8a3d 97a0 0e3d
000002b0: ba80 33bd 94b6 bbbd 76e3 02bd 9ce5 92bd
000002c0: d5cc 98bd 8faa de3d 6a88 9e3c 15a6 40bd
000002d0: 6d11 dc3c b594 a33d 4853 0c3d 9709 983d
000002e0: 6434 da3d e0e4 d33d 0f02 23bd 4b58 763d
000002f0: a9ba b8bc 08f6 b1bd a4c1 31bb 8d4d 913d
00000300: 2707 4b3d 622a 29bd f98d 42bc 6e3e 803d
00000310: d0d8 983d 4d21 f33c 9910 84bc 37ec e4bc
00000320: 60fe 0a3e 6d34 bd3d 8543 663d 129e 8ebd
00000330: 2bfb c73d e065 df3d 94dd c83d 5662 06be
00000340: c9e9 b43c a35c fa3b 495e 11bd 43e2 9d3d
00000350: 413d ee3d 1d73 88bd 3a4c a2bd a953 af3d
00000360: 898e 54bc f2da 93bd 5f89 11bd 38e5 8a3c
00000370: 9779 59bd 578a 973d 3172 c93d 691b d63d
00000380: c6fe 1b3d a412 983d fd0b e83c ff84 4a3d
00000390: faaf 5a3c d44d 44bd 3b3c d0bd 6992 a43d
000003a0: f49a acbd a394 ad3d 7f82 f8bd d04a 1cbe
000003b0: c4a6 2dbd 62ed a03d 9e10 463d 4be2 c2bd
000003c0: 0e07 e33b 8471 d93d de45 933d 21c2 60bc
000003d0: 8f57 0b3d 7867 14be 5951 dbbd 671a e3bd
000003e0: 9382 9fbc 95f0 efbd 17a9 92bd 51a4 523d
000003f0: 0590 4abd 221d ec3d 7b23 aebb 7539 8cbd
0.046342626 -0.08151616 0.057764202 -0.06747815 0.004488267 -0.057787597 0.034161046 -0.100720204
0.013196118 0.06861624 0.034416825 0.049495995 0.050638914 -0.06269482 0.0035305843 -0.06401802
0.092235774 -0.0018377975 -0.03344298 0.03992033 -0.100989334 0.07364304 -0.0361673 -0.008698955
0.037846044 -0.04304111 0.07944465 -0.09004856 0.04188609 0.09936239 -0.075363636 0.034339666
0.02541773 0.010950714 0.03188032 -0.058355723 0.012496926 -0.07047905 -0.026758887 0.0879235
-0.031772144 0.01063548 -0.031158432 0.055140123 0.046966255 -0.012976348 0.059675395 -0.027268454
-0.0052876547 0.08166419 -0.096602276 -0.08325952 0.020958878 -0.08409846 0.0981753 -0.047149602
0.100409895 0.034555823 0.055096403 0.08990456 0.08354546 -0.044401426 0.09602639 0.071268275
0.0002284795 -0.064289406 -0.043399736 -0.0042959303 0.038189128 -0.039554402 -0.033167616 0.040022984
0.0008497834 -0.0311988 0.013860129 0.0166267 0.06852555 0.031953707 0.05890134 0.08290264
0.079644814 0.07830922 0.011403307 0.020213395 0.056357607 0.02697882 -0.040855683 -0.01704868
0.07948907 0.0013611317 -0.05068622 0.08240473 0.009024575 0.041818365 0.05234632 0.057207003
0.047916196 -0.089504845 0.05035014 0.10611052 -0.06985151 -0.11206834 -0.031686846 -0.037370417
0.059527647 0.0041337186 0.024566684 -0.07917359 0.060381323 -0.02923813 0.023704017 -0.023491733
0.030529257 0.011915107 0.09800828 0.04728788 -0.044560023 -0.09854164 -0.10663164 0.037559498
-0.05077558 0.081756294 -0.044891823 -0.028985463 0.049163252 0.058987997 0.06317338 0.084337525
0.08719063 -0.03839954 0.018802324 0.068747744 0.10476607 0.024985021 -0.07889938 0.055360056
0.045823295 -0.012695947 0.042699564 0.10090949 0.047362417 0.05971882 0.039328434 -0.08130304
-0.036665156 -0.04339726 -0.07258671 -0.105445154 -0.08589404 0.058341753 0.022857875 0.041371275
-0.08825241 -0.052884996 0.04584537 -0.005110909 0.096141994 -0.034918286 -0.04231494 -0.07893256
-0.07626557 -0.10471496 -0.09961705 -0.10617999 -0.053368114 -0.03729868 0.0077159135 0.057534516
-0.085510455 -0.07918533 0.06764384 0.03482112 -0.043823935 -0.091656834 -0.031955205 -0.07172701
-0.074609436 0.10872375 0.019352157 -0.04703339 0.026863778 0.07987348 0.03425911 0.07423704
0.10654524 0.10346389 -0.039796885 0.060142796 -0.022549944 -0.08689505 -0.0027123475 0.0709487
0.049567368 -0.041300185 -0.011874669 0.062619075 0.07463229 0.029678965 -0.016121196 -0.027944667
0.13573599 0.09238515 0.056216735 -0.06963743 0.09764703 0.10908103 0.09807888 -0.1312345
0.022084134 0.0076404377 -0.035490308 0.077091716 0.11632777 -0.06662581 -0.07924695 0.08560879
-0.012973436 -0.07219495 -0.035531398 0.016955003 -0.053094473 0.07399433 0.098362334 0.10454447
0.038084768 0.074254304 0.028326029 0.04944324 0.01334762 -0.047925785 -0.10167738 0.08035738
-0.084279925 0.08475616 -0.12134265 -0.15262914 -0.04239537 0.07857777 0.04835569 -0.09515818
0.006928331 0.106173545 0.071910605 -0.013718159 0.03401905 -0.14492595 -0.10708875 -0.1108902
-0.019471442 -0.11715809 -0.071611576 0.051426236 -0.049453754 0.11528994 -0.005314288 -0.068468966

audio_TCN.0.network.0.net.0.bias f4 [32]
00000000: 702f f5bc 4a2d debd 5c0b bbbd 2316 8a3c
00000010: c689 99bd 38e2 8cbd 8126 9f3b c0ea 37bd
00000020: 60b5 c7bd 2c36 ddbd a827 e23c 44e2 2bbd
00000030: face 3dbd 86c0 923d c87d 05be 3d81 53bc
00000040: 840e 2c3d 4f67 abbd 9953 8cbd 7309 3f3a
00000050: 0066 923a 4360 d8bd 43da 2c3d 7eb0 e93d
00000060: 7ced 85bc d2af 62bd 78e1 a23c 46f0 953d
00000070: 870a 9ebd 2384 53bd d4ed 883d 0812 983d
-0.029929847 -0.10848482 -0.09133026 0.016856259 -0.07496981 -0.06879085 0.004856885 -0.04490161
-0.097513914 -0.10801348 0.0276068 -0.04196383 -0.046339966 0.07165627 -0.13036263 -0.012909231
0.04200603 -0.08369314 -0.068518825 0.000728748 0.0011169314 -0.105652355 0.042200338 0.11410616
-0.016348593 -0.055343457 0.019882903 0.07321219 -0.07716852 -0.051639687 0.06685987 0.07425314

audio_TCN.0.network.0.net.0.weight_g f4 [32, 1, 1]
00000000: fa67 0d3f 7ba5 0e3f 955a 093f d06f 443f
00000010: 9689 193f e2df 2b3f 3658 203f b9e5 fe3e
00000020: 48a1 013f e78d 0e3f ff9c 273f c6da 1a3f
00000030: ce8c f03e 4207 233f 1579 0d3f 0099 163f
00000040: 0831 123f 864c 123f 4a28 2b3f 3e61 173f
00000050: 76a1 0c3f ec3e 163f 5e84 0b3f f7a2 333f
00000060: 27f1 153f 8dbf 3d3f f36b 063f cab3 103f
00000070: 445a 133f 149a 183f 69ce 0e3f 8027 223f
0.5523678 0.55721253 0.5365384 0.7673311 0.59975564 0.67138493 0.626346 0.4978464
0.5063672 0.55685276 0.6547393 0.6049007 0.46982425 0.6368295 0.5526288 0.5882721
0.57106066 0.57148015 0.6685835 0.59132755 0.5493387 0.5868976 0.5449885 0.7017054
0.58571094 0.7412041 0.5250847 0.56524336 0.5755961 0.59610105 0.55783707 0.6334152

audio_TCN.0.network.0.net.0.weight_v f4 [32, 32, 3]
00000000: c4d1 3d3d f2f1 a6bd 289a 6c3d fc31 8abd
00000010: 5012 933b b0b2 6cbd 74ec 0b3d 6546 cebd
00000020: 8834 583c ac86 8c3d a8f8 0c3d 50bc 4a3d
00000030: c06a 4f3d 2466 80bd 6061 673b e11b 83bd
00000040: 1ce6 bc3d 40e2 f0ba 82fb 08bd 8083 233d
00000050: 7fd3 cebd 2ad2 963d 2a24 14bd 1086 0ebc
00000060: 7404 1b3d e04b 30bd e0b3 a23d 616b b8bd
00000070: c090 2b3d 827e cb3d 4058 9abd c0a7 0c3d
00000080: d838 d03c a06a 333c f094 023d 6906 6fbd
00000090: e8bf 4c3c 5257 90bd 7435 dbbc 3c11 b43d
000000a0: 8223 02bd 7040 2e3c f83f ffbc 9cda 613d
000000b0: b05f 403d c09a 54bc 306e 743d 1862 dfbc
000000c0: 1044 adbb 8e3f a73d 6ad7 c5bd f883 aabd
000000d0: f4b1 ab3c d03b acbd 2210 c93d f11f 41bd
000000e0: b4a3 cd3d 688a 0d3d c4ac 613d e21f b83d
000000f0: e219 ab3d 45de 35bd 7ca9 c43d 1af5 913d
00000100: 0094 6f39 2aaa 83bd ecc3 31bd e0c4 8cbb
00000110: 346c 1c3d cc03 22bd c4da 07bd 24ef 233d
00000120: 00c4 5e3a a094 ffbc 9815 633c b834 883c
00000130: 2057 8c3d e4e1 023d 8842 713d dcc8 a93d
00000140: d21c a33d 9660 a03d f0d4 3a3c 9096 a53c
00000150: 3cd7 663d b002 dd3c 4a58 27bd aca9 8bbc
00000160: 2acb a23d 0068 b23a 5b9c 4fbd d0c3 a83d
00000170: d0db 133c bc49 2b3d 1869 563d e451 6a3d
00000180: c643 443d 514e b7bd f33b 4e3d 7950 d93d
00000190: 4f0e 8fbd 1684 e5bd 11ca 01bd b911 19bd
000001a0: 43d3 733d 2574 873b 1240 c93c c325 a2bd
000001b0: 6852 773d ce84 efbc ed2e c23c bc71 c0bc
000001c0: 7e18 fa3c 9537 433c 91b8 c83d f0b0 413d
000001d0: 9284 36bd 33d0 c9bd b061 dabd fdd7 193d
000001e0: 0efa 4fbd d86f a73d 7de0 37bd ec72 edbc
000001f0: 685f 493d 669d 713d 0c61 813d 27b9 ac3d
00000200: 0091 b23d d648 1dbd 5507 9a3c 9ecb 8c3d
00000210: 988f d63d 63ad cc3c 0096 a1bd 3ac1 623d
00000220: 35b1 3b3d a902 50bc bde5 2e3d a2a9 ce3d
00000230: 18ff 413d b99b 743d da16 213d 3582 a6bd
00000240: 342e 16bd 53c1 31bd 57a8 94bd a1f3 d7bd
00000250: 37e9 afbd c3f7 6e3d 7040 bb3c ed74 293d
00000260: aebd b4bd f09d 58bd 5bc8 3b3d 6a79 a7bb
00000270: 18e6 c43d 7a06 0fbd 6e52 2dbd 65a7 a1bd
00000280: 2031 9cbd cc74 d6bd 0604 ccbd e574 d9bd
00000290: 8698 5abd 80c6 18bd c6d5 fc3b 50a9 6b3d
000002a0: 1b20 afbd eb2b a2bd db88 8a3d 97a0 0e3d
000002b0: ba80 33bd 94b6 bbbd 76e3 02bd 9ce5 92bd
000002c0: d5cc 98bd 8faa de3d 6a88 9e3c 15a6 40bd
000002d0: 6d11 dc3c b594 a33d 4853 0c3d 9709 983d
000002e0: 6434 da3d e0e4 d33d 0f02 23bd 4b58 763d
000002f0: a9ba b8bc 08f6 b1bd a4c1 31bb 8d4d 913d
00000300: 2707 4b3d 622a 29bd f98d 42bc 6e3e 803d
00000310: d0d8 983d 4d21 f33c 9910 84bc 37ec e4bc
00000320: 60fe 0a3e 6d34 bd3d 8543 663d 129e 8ebd
00000330: 2bfb c73d e065 df3d 94dd c83d 5662 06be
00000340: c9e9 b43c a35c fa3b 495e 11bd 43e2 9d3d
00000350: 413d ee3d 1d73 88bd 3a4c a2bd a953 af3d
00000360: 898e 54bc f2da 93bd 5f89 11bd 38e5 8a3c
00000370: 9779 59bd 578a 973d 3172 c93d 691b d63d
00000380: c6fe 1b3d a412 983d fd0b e83c ff84 4a3d
00000390: faaf 5a3c d44d 44bd 3b3c d0bd 6992 a43d
000003a0: f49a acbd a394 ad3d 7f82 f8bd d04a 1cbe
000003b0: c4a6 2dbd 62ed a03d 9e10 463d 4be2 c2bd
000003c0: 0e07 e33b 8471 d93d de45 933d 21c2 60bc
000003d0: 8f57 0b3d 7867 14be 5951 dbbd 671a e3bd
000003e0: 9382 9fbc 95f0 efbd 17a9 92bd 51a4 523d
000003f0: 0590 4abd 221d ec3d 7b23 aebb 7539 8cbd
0.046342626 -0.08151616 0.057764202 -0.06747815 0.004488267 -0.057787597 0.034161046 -0.100720204
0.013196118 0.06861624 0.034416825 0.049495995 0.050638914 -0.06269482 0.0035305843 -0.06401802
0.092235774 -0.0018377975 -0.03344298 0.03992033 -0.100989334 0.07364304 -0.0361673 -0.008698955
0.037846044 -0.04304111 0.07944465 -0.09004856 0.04188609 0.09936239 -0.075363636 0.034339666
0.02541773 0.010950714 0.03188032 -0.058355723 0.012496926 -0.07047905 -0.026758887 0.0879235
-0.031772144 0.01063548 -0.031158432 0.055140123 0.046966255 -0.012976348 0.059675395 -0.027268454
-0.0052876547 0.08166419 -0.096602276 -0.08325952 0.020958878 -0.08409846 0.0981753 -0.047149602
0.100409895 0.034555823 0.055096403 0.08990456 0.08354546 -0.044401426 0.09602639 0.071268275
0.0002284795 -0.064289406 -0.043399736 -0.0042959303 0.038189128 -0.039554402 -0.033167616 0.040022984
0.0008497834 -0.0311988 0.013860129 0.0166267 0.06852555 0.031953707 0.05890134 0.08290264
0.079644814 0.07830922 0.011403307 0.020213395 0.056357607 0.02697882 -0.040855683 -0.01704868
0.07948907 0.0013611317 -0.05068622 0.08240473 0.009024575 0.041818365 0.05234632 0.057207003
0.047916196 -0.089504845 0.05035014 0.10611052 -0.06985151 -0.11206834 -0.031686846 -0.037370417
0.059527647 0.0041337186 0.024566684 -0.07917359 0.060381323 -0.02923813 0.023704017 -0.023491733
0.030529257 0.011915107 0.09800828 0.04728788 -0.044560023 -0.09854164 -0.10663164 0.037559498
-0.05077558 0.081756294 -0.044891823 -0.028985463 0.049163252 0.058987997 0.06317338 0.084337525
0.08719063 -0.03839954 0.018802324 0.068747744 0.10476607 0.024985021 -0.07889938 0.055360056
0.045823295 -0.012695947 0.042699564 0.10090949 0.047362417 0.05971882 0.039328434 -0.08130304
-0.036665156 -0.04339726 -0.07258671 -0.105445154 -0.08589404 0.058341753 0.022857875 0.041371275
-0.08825241 -0.052884996 0.04584537 -0.005110909 0.096141994 -0.034918286 -0.04231494 -0.07893256
-0.07626557 -0.10471496 -0.09961705 -0.10617999 -0.053368114 -0.03729868 0.0077159135 0.057534516
-0.085510455 -0.07918533 0.06764384 0.03482112 -0.043823935 -0.091656834 -0.031955205 -0.07172701
-0.074609436 0.10872375 0.019352157 -0.04703339 0.026863778 0.07987348 0.03425911 0.07423704
0.10654524 0.10346389 -0.039796885 0.060142796 -0.022549944 -0.08689505 -0.0027123475 0.0709487
0.049567368 -0.041300185 -0.011874669 0.062619075 0.07463229 0.029678965 -0.016121196 -0.027944667
0.13573599 0.09238515 0.056216735 -0.06963743 0.09764703 0.10908103 0.09807888 -0.1312345
0.022084134 0.0076404377 -0.035490308 0.077091716 0.11632777 -0.06662581 -0.07924695 0.08560879
-0.012973436 -0.07219495 -0.035531398 0.016955003 -0.053094473 0.07399433 0.098362334 0.10454447
0.038084768 0.074254304 0.028326029 0.04944324 0.01334762 -0.047925785 -0.10167738 0.08035738
-0.084279925 0.08475616 -0.12134265 -0.15262914 -0.04239537 0.07857777 0.04835569 -0.09515818
0.006928331 0.106173545 0.071910605 -0.013718159 0.03401905 -0.14492595 -0.10708875 -0.1108902
-0.019471442 -0.11715809 -0.071611576 0.051426236 -0.049453754 0.11528994 -0.005314288 -0.068468966

audio_TCN.0.network.1.conv.bias f4 [32]
00000000: e009 2abd e22e 963d 24ec 62bd 1f56 69bd
00000010: 7e47 7f3d a41b 513d 84f1 5b3d 4330 17bd
00000020: db67 b7bc 7f3a ccbc 0be4 51b9 5399 debd
00000030: 014d a83d a278 1a3d 1690 c2bd 5d7a 093d
00000040: 620c a6bc d4aa 5e3c dc7f 503d 3a5f 583d
00000050: 2ad5 9cbc c013 7d3d 034e 953d 76a0 c83c
00000060: 04bb f33d 6ece 3c3d 3a83 ca3c c130 afbd
00000070: 6a4f d93c 9f96 16bc f52d f93c e7b1 a0bd
-0.041513324 0.07333161 -0.055400982 -0.056966897 0.06232404 0.05105175 0.053697124 -0.03691126
-0.02238839 -0.024930237 -0.00020016746 -0.10869088 0.08217812 0.0377127 -0.095001385 0.03356396
-0.020269576 0.013590533 0.050903186 0.05282519 -0.019144613 0.061786413 0.0729027 0.024490576
0.11900905 0.046095304 0.024720777 -0.08554221 0.026527125 -0.009191184 0.030417422 -0.07846432

audio_TCN.0.network.1.conv.weight_g f4 [32, 1, 1]
00000000: a16c 0b3f 5a05 143f 7a9b 113f 6836 0c3f
00000010: 514d 133f ab80 133f 9f9f 243f b165 143f
00000020: a7b2 143f ed2c 1c3f 4764 103f 5701 0d3f
00000030: c4f1 023f 033d 153f 3790 103f f21e 153f
00000040: 1e52 163f 305b 0f3f 71df 153f f65a 0b3f
00000050: 501f 1b3f 4f65 1f3f 8b2f 093f 7e53 1c3f
00000060: 2312 173f 0c34 263f 0b58 183f ef2a 163f
00000070: 10a4 0e3f 5f54 0e3f 7b5a 0f3f 7bd1 193f
0.5446263 0.57820666 0.56877863 0.5477052 0.5753985 0.57618207 0.6430606 0.5796767
0.580851 0.6100605 0.5640301 0.5508017 0.51150155 0.5829622 0.56470054 0.58250344
0.5871905 0.55998516 0.5854407 0.5443567 0.60594654 0.6226396 0.5358817 0.610649
0.5901205 0.6492317 0.5950934 0.5865926 0.5571909 0.5559749 0.5599744 0.60085267

audio_TCN.0.network.1.conv.weight_v f4 [32, 32, 3]
00000000: 71e9 a7bd 9cde 37bd 5e32 7abd f1ec 4ebc
00000010: 420c 94bd 7440 6abd 0b2a 4ebd a5dc 19bd
00000020: 0ddd 233d ee8b d6bd 8ea6 683c 721f 96bc
00000030: 061f 4dbb 7084 22bd d931 c43d a49a 8dbd
00000040: d224 e7bc d5fc 5dbd 954a 1bbd 5198 783d
00000050: 92d6 27bd f691 ec3c 709b 853d c8b4 253d
00000060: 69df 8bbd 2f3c 4f3c 6a8f 533c 0327 aabd
00000070: 1a9d c6bd ef0a b5bd 3b76 bd3d 1ac7 c8bd
00000080: c5f5 a33d 0655 99bd 7c48 92bd cf97 67bd
00000090: b348 943c 4284 623d fde0 33bd 7b86 1ebd
000000a0: c8cb 0abd c3fa af3d 945b 3eb9 5064 a53d
000000b0: 34e9 153d df15 893d 61d8 a33d 4114 043d
000000c0: 2a9a 1d3d 6ebb e33c 39c7 93bd ebfb a13d
000000d0: 6392 d9bc 81c5 b9bb 4caa 083d 4d82 7a3d
000000e0: eda9 6cbd 314b e1bc a5e8 003c 024a 40bd
000000f0: 7edb a83d d9ee 3a3d 3e47 91bd 3a4a c23d
00000100: 774d a43a 4ef9 bebd 5f9b b83d 6edb 513d
00000110: 4bb3 49bd 83af ec3c 8953 dabd 0982 6e3d
00000120: 6397 d43d f837 5b3d 9e88 b03c 6b09 66bd
00000130: c338 9f3d fb6c 27bd b50d 9bbd 0942 41bd
00000140: 7e1c c23d e244 8bbd 5bde 4fbc 892d cc3c
00000150: 4b22 b93d 2170 9fbd 9fad 59bd 4b6d 61bd
00000160: 2ba1 b33b 424b 573d 9b1b ccbc ee35 c13d
00000170: b861 a63d 5eb6 fabc 0fbe 9bbd 0fd2 9ebd
00000180: a4a2 c3bc d4ec 973d 4939 c13c 9413 b6bd
00000190: f85d 5c3c ed59 143d 5518 aabd de30 773d
000001a0: 5104 e7bb a4b7 8dbd ad48 b13c 382e 81bd
000001b0: dc00 67bd 4373 b3bd 2e58 ce3c 7fd1 bd3d
000001c0: 1e35 b03d b296 c0bd ff2c 3fbd 20bb e8bd
000001d0: 0c3b 603d 2f17 acbd 25e5 c3bb 8d3f 72bd
000001e0: bf20 b43d 7eb1 2e3d 012f 9dbd 61f2 a03d
000001f0: 54e1 c93d e0fb b63d dbec 62bd 1f0a 42bd
00000200: c9c2 96bd 6f8c 1b3d 2526 e7bc 2bb0 dd3d
00000210: d315 9bbd fbb0 d2bd 48e1 ab3d 659b e9bc
00000220: 7971 a7bd c71e 2dbd 8032 143d a21f b5bd
00000230: 5af9 753d e64f db3d e0f1 5fbd a66f 8fbd
00000240: 147b 113d 3754 a0bd 2314 cd3c 6182 aebd
00000250: 649b 80bd 0366 0ebd ad2c 2ebd 110f 98bd
00000260: da4b d6bd 5df3 cebd e67a bf3d 9ec1 1fbd
00000270: d569 eebd 0564 29bd 9a04 b8bd 628b 9a3c
00000280: f378 92bc e3fe cd3c a35c 2dbd 275c 913d
00000290: 41a9 a1bd 5d0e 9a3d 54f3 bcbd e782 c53d
000002a0: abdf 173d 3a71 7dbd 8432 513d 20c3 e2bd
000002b0: bade 9ebd 224a 75bd 1371 443d 92dc b5bd
000002c0: 822c 31bd 4473 bbbc f19e 963d 603b ebbc
000002d0: 1917 1b3d 7cf4 b4bd cfda bdbd 53e2 c23c
000002e0: 7c3f 3fbb 8cb4 d4bd 2fa2 1a3d 74f9 9b3d
000002f0: a13b 053d 4fa2 49bd 9d6b 9dbd a688 ba3d
00000300: 02de e0bd 9e14 d63d 5d97 ae3c ed8c ffbb
00000310: d05e 39bd 5f07 08bc 66f2 723d fe54 bbbd
00000320: 1dc4 a53c 5810 f7bd 9c97 18ba 8b4d 903c
00000330: 7210 2a3d 718e 30bd 52a5 a3bb 972c 43bd
00000340: e0d8 203d 9595 693d 5e23 943b fa96 28bd
00000350: 11dc 9bbd 7c15 ebbc 8d81 d0bd ccec a43d
00000360: 3e95 4f3d 399e ff3c 2533 72bd 2521 63bd
00000370: 6624 cdbd c7ef adbd 86e1 49bd 545d 573d
00000380: bcab 913d dc65 a0bc 37ca 00be 8dfa 403d
00000390: beb0 cbbc 13a4 80bd 6b99 a1bc 5ef8 b43c
000003a0: fa09 50bc 4318 a6bd 074a 543c c49a e03c
000003b0: 1d85 3fba 8fea 903d 82ab 5fbb 2d21 0d3d
000003c0: 2389 edbd 7bb7 22bd c372 d1bd 03b8 3aba
000003d0: 0a58 e3bd 1302 a4ba 332c 5dbd cd22 96bd
000003e0: 2be2 9ebd ee34 9e3d 995d 733d 5a34 1d3d
000003f0: ca8f 99bd 7de8 cb3d 47f4 9ebd d76a 4a3d
-0.08198822 -0.04489003 -0.06108319 -0.012629733 -0.072289005 -0.057190374 -0.050333064 -0.03756394
0.040005732 -0.10475908 0.014199866 -0.018325541 -0.003129901 -0.039677083 0.0957982 -0.06914261
-0.0282158 -0.054196198 -0.037912924 0.060692135 -0.040976115 0.028878193 0.06523788 0.04045561
-0.068297215 0.012648626 0.012912611 -0.08308222 -0.096979335 -0.08839976 0.09251066 -0.098036006
0.08005861 -0.0748692 -0.071427315 -0.05654126 0.018101072 0.055301912 -0.043915737 -0.03870247
-0.033885747 0.08592751 -0.00018153928 0.08075774 0.036599353 0.06693625 0.080002554 0.032245878
0.0384771 0.027799334 -0.07215733 0.07909378 -0.02655906 -0.0056692963 0.033365533 0.06115942
-0.05777924 -0.027501674 0.007867967 -0.04694558 0.0824499 0.04563794 -0.070936665 0.09486814
0.0012535293 -0.09324895 0.0901401 0.051234655 -0.049243253 0.028892284 -0.10660464 0.05822948
0.10380437 0.053520173 0.02154952 -0.056161325 0.07774498 -0.040875416 -0.07570974 -0.047182117
0.09478091 -0.06800248 -0.012687291 0.024924057 0.09039744 -0.07785059 -0.053144094 -0.05503587
0.005481859 0.052562006 -0.024915507 0.094341144 0.08124107 -0.030604538 -0.0760461 -0.07754909
-0.023881264 0.07418218 0.023586886 -0.08890453 0.013450138 0.036218572 -0.08305422 0.060349338
-0.007050075 -0.06919792 0.0216411 -0.06307644 -0.056397304 -0.08762219 0.025188532 0.09268474
0.08603881 -0.09403743 -0.04667377 -0.11363816 0.05474381 -0.084028594 -0.005978244 -0.059142638
0.08795308 0.04264974 -0.07674981 0.0785873 0.09857431 0.0893476 -0.055401664 -0.047372933
-0.07361371 0.037975725 -0.02821643 0.10824617 -0.07572522 -0.102876626 0.08392578 -0.02851648
-0.0817594 -0.04226568 0.036180973 -0.08843924 0.060052253 0.10708599 -0.05467403 -0.07003717
0.035517767 -0.07828563 0.025034016 -0.085209616 -0.062796384 -0.034765255 -0.042523075 -0.07424749
-0.10463686 -0.101050116 0.09349613 -0.039003007 -0.116412796 -0.04135515 -0.08985253 0.018865291
-0.017879939 0.025145954 -0.042324673 0.07097655 -0.07893611 0.07522271 -0.09226099 0.09644108
0.03707854 -0.06187556 0.051073566 -0.110723734 -0.077573255 -0.05988515 0.0479594 -0.08879961
-0.043255337 -0.022882111 0.073545344 -0.028714836 0.037863825 -0.08835694 -0.0927025 0.02378956
-0.0029182127 -0.10385999 0.037752327 0.07615939 0.03252757 -0.049227055 -0.07686541 0.09108095
-0.10979845 0.10453151 0.02131241 -0.007798782 -0.045256436 -0.008302539 0.0593132 -0.0914707
0.020235116 -0.12063664 -0.00058209314 0.0176151 0.04151959 -0.043104593 -0.004994073 -0.047649946
0.039269328 0.05702742 0.0045208177 -0.041159607 -0.07610334 -0.028696768 -0.1018096 0.08052978
0.050679438 0.031203376 -0.059130806 -0.05545153 -0.10016708 -0.084929995 -0.04928734 0.05257924
0.07112834 -0.01957982 -0.12577139 0.047113944 -0.02486455 -0.06281295 -0.019726476 0.022091087
-0.012697691 -0.08110096 0.012957103 0.027417548 -0.0007305907 0.070759885 -0.0034129326 0.034455467
-0.115984224 -0.03972576 -0.10226967 -0.0007122757 -0.111007765 -0.0012512825 -0.05399723 -0.073308565
-0.07757982 0.07724939 0.059415434 0.038380004 -0.07498129 0.09956453 -0.07761436 0.049418297

audio_TCN.0.network.1.net.0.bias f4 [32]
00000000: e009 2abd e22e 963d 24ec 62bd 1f56 69bd
00000010: 7e47 7f3d a41b 513d 84f1 5b3d 4330 17bd
00000020: db67 b7bc 7f3a ccbc 0be4 51b9 5399 debd
00000030: 014d a83d a278 1a3d 1690 c2bd 5d7a 093d
00000040: 620c a6bc d4aa 5e3c dc7f 503d 3a5f 583d
00000050: 2ad5 9cbc c013 7d3d 034e 953d 76a0 c83c
00000060: 04bb f33d 6ece 3c3d 3a83 ca3c c130 afbd
00000070: 6a4f d93c 9f96 16bc f52d f93c e7b1 a0bd
-0.041513324 0.07333161 -0.055400982 -0.056966897 0.06232404 0.05105175 0.053697124 -0.03691126
-0.02238839 -0.024930237 -0.00020016746 -0.10869088 0.08217812 0.0377127 -0.095001385 0.03356396
-0.020269576 0.013590533 0.050903186 0.05282519 -0.019144613 0.061786413 0.0729027 0.024490576
0.11900905 0.046095304 0.024720777 -0.08554221 0.026527125 -0.009191184 0.030417422 -0.07846432

audio_TCN.0.network.1.net.0.weight_g f4 [32, 1, 1]
00000000: a16c 0b3f 5a05 143f 7a9b 113f 6836 0c3f
00000010: 514d 133f ab80 133f 9f9f 243f b165 143f
00000020: a7b2 143f ed2c 1c3f 4764 103f 5701 0d3f
00000030: c4f1 023f 033d 153f 3790 103f f21e 153f
00000040: 1e52 163f 305b 0f3f 71df 153f f65a 0b3f
00000050: 501f 1b3f 4f65 1f3f 8b2f 093f 7e53 1c3f
00000060: 2312 173f 0c34 263f 0b58 183f ef2a 163f
00000070: 10a4 0e3f 5f54 0e3f 7b5a 0f3f 7bd1 193f
0.5446263 0.57820666 0.56877863 0.5477052 0.5753985 0.57618207 0.6430606 0.5796767
0.580851 0.6100605 0.5640301 0.5508017 0.51150155 0.5829622 0.56470054 0.58250344
0.5871905 0.55998516 0.5854407 0.5443567 0.60594654 0.6226396 0.5358817 0.610649
0.5901205 0.6492317 0.5950934 0.5865926 0.5571909 0.5559749 0.5599744 0.60085267

audio_TCN.0.network.1.net.0.weight_v f4 [32, 32, 3]
00000000: 71e9 a7bd 9cde 37bd 5e32 7abd f1ec 4ebc
00000010: 420c 94bd 7440 6abd 0b2a 4ebd a5dc 19bd
00000020: 0ddd 233d ee8b d6bd 8ea6 683c 721f 96bc
00000030: 061f 4dbb 7084 22bd d931 c43d a49a 8dbd
00000040: d224 e7bc d5fc 5dbd 954a 1bbd 5198 783d
00000050: 92d6 27bd f691 ec3c 709b 853d c8b4 253d
00000060: 69df 8bbd 2f3c 4f3c 6a8f 533c 0327 aabd
00000070: 1a9d c6bd ef0a b5bd 3b76 bd3d 1ac7 c8bd
00000080: c5f5 a33d 0655 99bd 7c48 92bd cf97 67bd
00000090: b348 943c 4284 623d fde0 33bd 7b86 1ebd
000000a0: c8cb 0abd c3fa af3d 945b 3eb9 5064 a53d
000000b0: 34e9 153d df15 893d 61d8 a33d 4114 043d
000000c0: 2a9a 1d3d 6ebb e33c 39c7 93bd ebfb a13d
000000d0: 6392 d9bc 81c5 b9bb 4caa 083d 4d82 7a3d
000000e0: eda9 6cbd 314b e1bc a5e8 003c 024a 40bd
000000f0: 7edb a83d d9ee 3a3d 3e47 91bd 3a4a c23d
00000100: 774d a43a 4ef9 bebd 5f9b b83d 6edb 513d
00000110: 4bb3 49bd 83af ec3c 8953 dabd 0982 6e3d
00000120: 6397 d43d f837 5b3d 9e88 b03c 6b09 66bd
00000130: c338 9f3d fb6c 27bd b50d 9bbd 0942 41bd
00000140: 7e1c c23d e244 8bbd 5bde 4fbc 892d cc3c
00000150: 4b22 b93d 2170 9fbd 9fad 59bd 4b6d 61bd
00000160: 2ba1 b33b 424b 573d 9b1b ccbc ee35 c13d
00000170: b861 a63d 5eb6 fabc 0fbe 9bbd 0fd2 9ebd
00000180: a4a2 c3bc d4ec 973d 4939 c13c 9413 b6bd
00000190: f85d 5c3c ed59 143d 5518 aabd de30 773d
000001a0: 5104 e7bb a4b7 8dbd ad48 b13c 382e 81bd
000001b0: dc00 67bd 4373 b3bd 2e58 ce3c 7fd1 bd3d
000001c0: 1e35 b03d b296 c0bd ff2c 3fbd 20bb e8bd
000001d0: 0c3b 603d 2f17 acbd 25e5 c3bb 8d3f 72bd
000001e0: bf20 b43d 7eb1 2e3d 012f 9dbd 61f2 a03d
000001f0: 54e1 c93d e0fb b63d dbec 62bd 1f0a 42bd
00000200: c9c2 96bd 6f8c 1b3d 2526 e7bc 2bb0 dd3d
00000210: d315 9bbd fbb0 d2bd 48e1 ab3d 659b e9bc
00000220: 7971 a7bd c71e 2dbd 8032 143d a21f b5bd
00000230: 5af9 753d e64f db3d e0f1 5fbd a66f 8fbd
00000240: 147b 113d 3754 a0bd 2314 cd3c 6182 aebd
00000250: 649b 80bd 0366 0ebd ad2c 2ebd 110f 98bd
00000260: da4b d6bd 5df3 cebd e67a bf3d 9ec1 1fbd
00000270: d569 eebd 0564 29bd 9a04 b8bd 628b 9a3c
00000280: f378 92bc e3fe cd3c a35c 2dbd 275c 913d
00000290: 41a9 a1bd 5d0e 9a3d 54f3 bcbd e782 c53d
000002a0: abdf 173d 3a71 7dbd 8432 513d 20c3 e2bd
000002b0: bade 9ebd 224a 75bd 1371 443d 92dc b5bd
000002c0: 822c 31bd 4473 bbbc f19e 963d 603b ebbc
000002d0: 1917 1b3d 7cf4 b4bd cfda bdbd 53e2 c23c
000002e0: 7c3f 3fbb 8cb4 d4bd 2fa2 1a3d 74f9 9b3d
000002f0: a13b 053d 4fa2 49bd 9d6b 9dbd a688 ba3d
00000300: 02de e0bd 9e14 d63d 5d97 ae3c ed8c ffbb
00000310: d05e 39bd 5f07 08bc 66f2 723d fe54 bbbd
00000320: 1dc4 a53c 5810 f7bd 9c97 18ba 8b4d 903c
00000330: 7210 2a3d 718e 30bd 52a5 a3bb 972c 43bd
00000340: e0d8 203d 9595 693d 5e23 943b fa96 28bd
00000350: 11dc 9bbd 7c15 ebbc 8d81 d0bd ccec a43d
00000360: 3e95 4f3d 399e ff3c 2533 72bd 2521 63bd
00000370: 6624 cdbd c7ef adbd 86e1 49bd 545d 573d
00000380: bcab 913d dc65 a0bc 37ca 00be 8dfa 403d
00000390: beb0 cbbc 13a4 80bd 6b99 a1bc 5ef8 b43c
000003a0: fa09 50bc 4318 a6bd 074a 543c c49a e03c
000003b0: 1d85 3fba 8fea 903d 82ab 5fbb 2d21 0d3d
000003c0: 2389 edbd 7bb7 22bd c372 d1bd 03b8 3aba
000003d0: 0a58 e3bd 1302 a4ba 332c 5dbd cd22 96bd
000003e0: 2be2 9ebd ee34 9e3d 995d 733d 5a34 1d3d
000003f0: ca8f 99bd 7de8 cb3d 47f4 9ebd d76a 4a3d
-0.08198822 -0.04489003 -0.06108319 -0.012629733 -0.072289005 -0.057190374 -0.050333064 -0.03756394
0.040005732 -0.10475908 0.014199866 -0.018325541 -0.003129901 -0.039677083 0.0957982 -0.06914261
-0.0282158 -0.054196198 -0.037912924 0.060692135 -0.040976115 0.028878193 0.06523788 0.04045561
-0.068297215 0.012648626 0.012912611 -0.08308222 -0.096979335 -0.08839976 0.09251066 -0.098036006
0.08005861 -0.0748692 -0.071427315 -0.05654126 0.018101072 0.055301912 -0.043915737 -0.03870247
-0.033885747 0.08592751 -0.00018153928 0.08075774 0.036599353 0.06693625 0.080002554 0.032245878
0.0384771 0.027799334 -0.07215733 0.07909378 -0.02655906 -0.0056692963 0.033365533 0.06115942
-0.05777924 -0.027501674 0.007867967 -0.04694558 0.0824499 0.04563794 -0.070936665 0.09486814
0.0012535293 -0.09324895 0.0901401 0.051234655 -0.049243253 0.028892284 -0.10660464 0.05822948
0.10380437 0.053520173 0.02154952 -0.056161325 0.07774498 -0.040875416 -0.07570974 -0.047182117
0.09478091 -0.06800248 -0.012687291 0.024924057 0.09039744 -0.07785059 -0.053144094 -0.05503587
0.005481859 0.052562006 -0.024915507 0.094341144 0.08124107 -0.030604538 -0.0760461 -0.07754909
-0.023881264 0.07418218 0.023586886 -0.08890453 0.013450138 0.036218572 -0.08305422 0.060349338
-0.007050075 -0.06919792 0.0216411 -0.06307644 -0.056397304 -0.08762219 0.025188532 0.09268474
0.08603881 -0.09403743 -0.04667377 -0.11363816 0.05474381 -0.084028594 -0.005978244 -0.059142638
0.08795308 0.04264974 -0.07674981 0.0785873 0.09857431 0.0893476 -0.055401664 -0.047372933
-0.07361371 0.037975725 -0.02821643 0.10824617 -0.07572522 -0.102876626 0.08392578 -0.02851648
-0.0817594 -0.04226568 0.036180973 -0.08843924 0.060052253 0.10708599 -0.05467403 -0.07003717
0.035517767 -0.07828563 0.025034016 -0.085209616 -0.062796384 -0.034765255 -0.042523075 -0.07424749
-0.10463686 -0.101050116 0.09349613 -0.039003007 -0.116412796 -0.04135515 -0.08985253 0.018865291
-0.017879939 0.025145954 -0.042324673 0.07097655 -0.07893611 0.07522271 -0.09226099 0.09644108
0.03707854 -0.06187556 0.051073566 -0.110723734 -0.077573255 -0.05988515 0.0479594 -0.08879961
-0.043255337 -0.022882111 0.073545344 -0.028714836 0.037863825 -0.08835694 -0.0927025 0.02378956
-0.0029182127 -0.10385999 0.037752327 0.07615939 0.03252757 -0.049227055 -0.07686541 0.09108095
-0.10979845 0.10453151 0.02131241 -0.007798782 -0.045256436 -0.008302539 0.0593132 -0.0914707
0.020235116 -0.12063664 -0.00058209314 0.0176151 0.04151959 -0.043104593 -0.004994073 -0.047649946
0.039269328 0.05702742 0.0045208177 -0.041159607 -0.07610334 -0.028696768 -0.1018096 0.08052978
0.050679438 0.031203376 -0.059130806 -0.05545153 -0.10016708 -0.084929995 -0.04928734 0.05257924
0.07112834 -0.01957982 -0.12577139 0.047113944 -0.02486455 -0.06281295 -0.019726476 0.022091087
-0.012697691 -0.08110096 0.012957103 0.027417548 -0.0007305907 0.070759885 -0.0034129326 0.034455467
-0.115984224 -0.03972576 -0.10226967 -0.0007122757 -0.111007765 -0.0012512825 -0.05399723 -0.073308565
-0.07757982 0.07724939 0.059415434 0.038380004 -0.07498129 0.09956453 -0.07761436 0.049418297

audio_TCN.0.network.2.conv.bias f4 [32]
00000000: 9cfb eb3a 08bb 1fbd 049e 5f3c b790 8bbd
00000010: db47 843c 4f01 26bd afa2 243d 1552 ffbc
00000020: 8bf5 353d 4ac4 873d 1cf8 8cbc 7d30 c5bd
00000030: 0a85 febc 2fe6 f2bb 95e9 0dbc 48b2 b5bd
00000040: b72a 4abd ef81 8e3c 36cd 8e3d 46a2 a1bc
00000050: ed73 6fbd a690 99bb c509 9e3c 1dce 07bc
00000060: de73 69bd ca59 ab3c d020 abbc 4d11 bc3b
00000070: 4e7c bb3b 6dcb 463d 17ef bfbb 8279 6fbd
0.0018004063 -0.038996726 0.013648514 -0.068147115 0.016147545 -0.04052859 0.04019421 -0.03116707
0.04442362 0.06629236 -0.017208152 -0.09628389 -0.031069297 -0.007412694 -0.008661647 -0.08871895
-0.049357142 0.017395942 0.06972735 -0.019730698 -0.058460165 -0.004686433 0.019291768 -0.008288887
-0.056995265 0.020916838 -0.02088967 0.005739367 0.0057216054 0.048533846 -0.005857359 -0.05846549

audio_TCN.0.network.2.conv.weight_g f4 [32, 1, 1]
00000000: 5e74 0d3f 22d9 313f a8f7 1b3f 4ce0 0b3f
00000010: 1d7c 233f f7ee 1e3f c0c9 173f 2b2c 0e3f
00000020: 815b 143f ca91 0c3f b5fe 133f f68d 1e3f
00000030: 292b 1a3f 49c4 073f 89fe 123f 7457 0a3f
00000040: 86e1 143f d407 123f 0756 173f e369 163f
00000050: 56ec 143f 15bf 153f 5ad1 073f 4d61 0c3f
00000060: ce8a 0f3f 92d4 103f 707a f73e a18b 0c3f
00000070: e0fa 0f3f c7b5 1d3f e824 153f e497 123f
0.5525569 0.69471943 0.6092477 0.54639125 0.63861257 0.6208338 0.5929222 0.55536145
0.57952124 0.54909956 0.5781053 0.61935365 0.6022211 0.5303388 0.5741964 0.5403969
0.5815662 0.57043195 0.5911564 0.5875532 0.5817312 0.58494693 0.5305382 0.5483597
0.56071174 0.56574357 0.483356 0.54900557 0.5624218 0.61605495 0.5825944 0.57263017

audio_TCN.0.network.2.conv.weight_v f4 [32, 32, 3]
00000000: f969 963d 5e9f 8a3d dc61 163d b11a 7ebd
00000010: 7eec 9abd 6fc2 403d 7057 69bd 17ff 26bd
00000020: 63f8 f13d 8d5b f0bd 75e3 623b c360 36bd
00000030: b018 b93d b3d6 0a3d c14d 91bd bfa2 cdbc
00000040: 8d41 0f3d 42a9 803d acba f83d 31a9 8a3d
00000050: 7309 903d b36e 043d bd7f 1a3c 5d8c cc3a
00000060: 61ff 35bd 0607 803d a502 4f3c 6842 003d
00000070: 56a9 3c3d 32a9 2fbd 0994 4c3d a4c5 c4bc
00000080: 61c1 823d 8e49 b73d 18a7 03bc c114 563d
00000090: 7dfe 3a3d 1449 ae3d 81f2 093d 788e 693d
000000a0: 91e0 e4bc 4e31 73bd b4aa 4abd 49c3 6e3a
000000b0: 5a91 83bc 592b fdbc d130 da3b 1f14 c3bd
000000c0: 8b58 013c 84d3 89bd 7563 853d 3e52 66bd
000000d0: 6d8f 6b3c 2eff c7bd b107 973d 874e 3dbc
000000e0: 1b6d 023d 2723 f13c fb7f 2a38 186e b63d
000000f0: 284d 273d b446 88bc 84cc 2fbd e6eb a8bc
00000100: af3e 943d 2202 2b3d e5a7 98bd 28e3 51bd
00000110: 758d 83bc 1433 e53d a705 0cbd 29ed 193d
00000120: 23cd b5bd 4852 dcbc 8edd 4c3d 030e b4bd
00000130: 74da 6b3c df1d 6abd d0ae bb3d a419 453d
00000140: 3182 d43d 7a35 61bd 1b74 513d 1b30 cf3c
00000150: b008 4b3d 2a43 83bd c64d 0b3d 108c 703d
00000160: 5a85 d43c b3e2 80bd 705b 8e3b 3e3d 173d
00000170: 71ff ef3c 02c2 80bd 0fb7 2ebd fafc 083d
00000180: 628a e43c 3faa 27bd 5970 3a3d 8b8f 223e
00000190: 3c02 203d cea1 e83d 10a5 97bd a442 303c
000001a0: 847f cb3c 9c75 4cbc a3d7 4a3e 0ed0 993c
000001b0: 8f39 9bbd 5797 9b3c 1c13 9d3d c87c a4bc
000001c0: f7e5 2abd 7b76 a0bc 70df 4f3d d310 41bd
000001d0: 87b1 523d babf 39bd d543 5cbd d749 38bd
000001e0: c91f bebd 20f4 01bd 1fba 24bd baa3 83bd
000001f0: 5174 703d ed06 f13b c3f9 853b 1ea3 b5bd
00000200: 8a5b 0e3d eeb2 1fbd fb97 523d fa1c 10bd
00000210: d693 923d 9787 2abc 9982 9cbd d0e7 c6bd
00000220: cdc1 3abd 1cdb bbbd f692 86bd 2487 ffbc
00000230: 7cfc 97bc 8197 fd3c e8bf 0ebd 4c70 0b3d
00000240: 2ce9 4bbd 502c 82bc be16 ea3b 8844 d43b
00000250: 1a8a 68bd 71ba 3cbb 3be7 bdbb e49d cbbd
00000260: fc7a 86bd aaf1 5a3d 3211 a23d 0881 5e3c
00000270: 86c7 6fbc 6548 19bd ac17 793d ffec bbbc
00000280: e326 d6bd 01ef 17bd 4d3e 89bd fe54 43bc
00000290: 8911 39bd 68cc bfbd ca78 49bc e7b4 35bd
000002a0: e60c 12bb 4bcd 873d 35ff 37bd bee3 043d
000002b0: 763a 2e3e ec62 75bb 0322 1e3d d4d1 443d
000002c0: eb6a a4bc 1be7 6abd 0bec 89bd 553d 973d
000002d0: 658c abbc dbf8 88bd 0e58 023d c2d6 38bd
000002e0: 77ef d8bd 1229 bc3c 2ccb debd 63be a7bd
000002f0: a7eb a33c 4dbe e33b d6a8 9ebd a94a 1d3d
00000300: eb89 233c 45a5 ae3d f868 c2bc eb0f d03d
00000310: b288 203d c8a0 05bd dff5 ac3d e5ca 843d
00000320: 0f75 6d3d f65b e7bc cadd 29bb d115 ac3d
00000330: 6117 263d 6deb d43d 80f8 633d 481d 093e
00000340: d427 f4bc 0025 563d b6f8 933d 912b 963d
00000350: b8a9 8f3a bc2c 92bd 6086 793d e62e 593c
00000360: 584b bfbd 44ab 94bd 736c 99bc ab17 ef3c
00000370: 91a6 6bbd 46c9 41bd 8e89 b8bd 2e93 15bd
00000380: 76ef 15bd 7d02 2d3d 9fdb 8b3d 0540 803d
00000390: f802 143d e3d1 873d 3a36 663d 6ec3 53bd
000003a0: b64c 80bd 81b8 32bd a612 813d f02e 5b3d
000003b0: cf65 363c 6aa8 0f3c 8d01 7cbd 0968 a5bc
000003c0: 7cef 80bd fbdc e8bc 0fa6 6f3d d8a9 92bd
000003d0: b74a b8bd 1402 9fbd 7714 3d3d b215 acbd
000003e0: a568 863c 4eb2 353c a603 f13c f59c 9f3d
000003f0: a340 28bc 4a05 13bd 6964 8e3d edf5 bcbd
0.073444314 0.06768678 0.03671442 -0.062037174 -0.075646386 0.047060426 -0.056968153 -0.040770616
0.11814954 -0.11736212 0.0034620438 -0.044525873 0.09037912 0.03389616 -0.070949085 -0.025102017
0.034974623 0.06282283 0.1214498 0.06770552 0.07033052 0.032332134 0.009429869 0.0015605796
-0.044433 0.062513396 0.012634908 0.03131333 0.04605993 -0.042885967 0.049945865 -0.024020024
0.0638454 0.08949576 -0.008035444 0.052265886 0.045652855 0.08510032 0.033678535 0.057020634
-0.027939113 -0.059373192 -0.0494792 0.0009108079 -0.01606052 -0.030904459 0.0066586514 -0.09525322
0.007894645 -0.067297965 0.065131105 -0.056230776 0.014377457 -0.097654685 0.07374514 -0.011554367
0.031842332 0.029435707 4.065035e-05 0.089077175 0.040845066 -0.016635276 -0.04291965 -0.020620298
0.072385184 0.04175008 -0.07453898 -0.051242024 -0.016058663 0.11191383 -0.034185078 0.03757969
-0.08877017 -0.026894704 0.05001598 -0.08791735 0.014395345 -0.057157394 0.09164202 0.048120156
0.103763945 -0.05498264 0.051136117 0.025291493 0.049568832 -0.06409295 0.034009717 0.058727324
0.025942493 -0.062932394 0.0043443963 0.03692364 0.029296609 -0.06287004 -0.042655047 0.033444382
0.027898017 -0.040933844 0.0455173 0.1587507 0.03906463 0.11358987 -0.0740453 0.010758076
0.024841078 -0.012479212 0.19808821 0.018775966 -0.07579338 0.018993063 0.076696604 -0.020079032
-0.041723218 -0.019587746 0.050750196 -0.047135185 0.051438835 -0.04534886 -0.053775627 -0.044992294
-0.09283406 -0.031726956 -0.04021656 -0.06427713 0.058704678 0.007355562 0.004088612 -0.08869003
0.034755267 -0.038989 0.05141447 -0.035183884 0.07157104 -0.010408304 -0.07642097 -0.097121835
-0.04559498 -0.09172651 -0.06570999 -0.03119237 -0.018553011 0.030956032 -0.034850985 0.03404264
-0.049782917 -0.01589027 0.0071438244 0.006477896 -0.05677233 -0.0028797651 -0.005795387 -0.099422246
-0.06566426 0.053453125 0.07913436 0.013580568 -0.014634972 -0.037422556 0.06081359 -0.022940157
-0.10456636 -0.037093166 -0.06701336 -0.011922119 -0.04518274 -0.09365159 -0.012296865 -0.044361975
-0.002228552 0.066309534 -0.04492112 0.032443754 0.17014489 -0.0037442995 0.038606655 0.04805167
-0.020070514 -0.057349306 -0.06734475 0.07384745 -0.020940969 -0.066880904 0.031822257 -0.045126684
-0.10592549 0.022968803 -0.10878596 -0.0819061 0.020009829 0.006950176 -0.07747047 0.03840128
0.009981613 0.085276164 -0.023731694 0.10159286 0.039192863 -0.032624036 0.08445334 0.064840116
0.057972964 -0.028242093 -0.002591955 0.08402599 0.04054964 0.103964664 0.05565691 0.13390076
-0.029804148 0.05228138 0.07225172 0.073325284 0.0010960614 -0.07137439 0.060919166 0.01325581
-0.093405426 -0.07259229 -0.01872847 0.02918609 -0.057531897 -0.04731109 -0.090106115 -0.036517315
-0.03660532 0.0422387 0.06828999 0.06262211 0.036135644 0.066318296 0.05620406 -0.05170005
-0.062646315 -0.043632988 0.06302385 0.05351156 0.0111326715 0.00876818 -0.061524916 -0.02019121
-0.06295678 -0.028425684 0.058507975 -0.071613014 -0.08998626 -0.07764068 0.046162095 -0.084025756
0.01640732 0.011089874 0.029420685 0.07793609 -0.010269317 -0.035893716 0.069527455 -0.09226594

audio_TCN.0.network.2.net.0.bias f4 [32]
00000000: 9cfb eb3a 08bb 1fbd 049e 5f3c b790 8bbd
00000010: db47 843c 4f01 26bd afa2 243d 1552 ffbc
00000020: 8bf5 353d 4ac4 873d 1cf8 8cbc 7d30 c5bd
00000030: 0a85 febc 2fe6 f2bb 95e9 0dbc 48b2 b5bd
00000040: b72a 4abd ef81 8e3c 36cd 8e3d 46a2 a1bc
00000050: ed73 6fbd a690 99bb c509 9e3c 1dce 07bc
00000060: de73 69bd ca59 ab3c d020 abbc 4d11 bc3b
00000070: 4e7c bb3b 6dcb 463d 17ef bfbb 8279 6fbd
0.0018004063 -0.038996726 0.013648514 -0.068147115 0.016147545 -0.04052859 0.04019421 -0.03116707
0.04442362 0.06629236 -0.017208152 -0.09628389 -0.031069297 -0.007412694 -0.008661647 -0.08871895
-0.049357142 0.017395942 0.06972735 -0.019730698 -0.058460165 -0.004686433 0.019291768 -0.008288887
-0.056995265 0.020916838 -0.02088967 0.005739367 0.0057216054 0.048533846 -0.005857359 -0.05846549

audio_TCN.0.network.2.net.0.weight_g f4 [32, 1, 1]
00000000: 5e74 0d3f 22d9 313f a8f7 1b3f 4ce0 0b3f
00000010: 1d7c 233f f7ee 1e3f c0c9 173f 2b2c 0e3f
00000020: 815b 143f ca91 0c3f b5fe 133f f68d 1e3f
00000030: 292b 1a3f 49c4 073f 89fe 123f 7457 0a3f
00000040: 86e1 143f d407 123f 0756 173f e369 163f
00000050: 56ec 143f 15bf 153f 5ad1 073f 4d61 0c3f
00000060: ce8a 0f3f 92d4 103f 707a f73e a18b 0c3f
00000070: e0fa 0f3f c7b5 1d3f e824 153f e497 123f
0.5525569 0.69471943 0.6092477 0.54639125 0.63861257 0.6208338 0.5929222 0.55536145
0.57952124 0.54909956 0.5781053 0.61935365 0.6022211 0.5303388 0.5741964 0.5403969
0.5815662 0.57043195 0.5911564 0.5875532 0.5817312 0.58494693 0.5305382 0.5483597
0.56071174 0.56574357 0.483356 0.54900557 0.5624218 0.61605495 0.5825944 0.57263017

audio_TCN.0.network.2.net.0.weight_v f4 [32, 32, 3]
00000000: f969 963d 5e9f 8a3d dc61 163d b11a 7ebd
00000010: 7eec 9abd 6fc2 403d 7057 69bd 17ff 26bd
00000020: 63f8 f13d 8d5b f0bd 75e3 623b c360 36bd
00000030: b018 b93d b3d6 0a3d c14d 91bd bfa2 cdbc
00000040: 8d41 0f3d 42a9 803d acba f83d 31a9 8a3d
00000050: 7309 903d b36e 043d bd7f 1a3c 5d8c cc3a
00000060: 61ff 35bd 0607 803d a502 4f3c 6842 003d
00000070: 56a9 3c3d 32a9 2fbd 0994 4c3d a4c5 c4bc
00000080: 61c1 823d 8e49 b73d 18a7 03bc c114 563d
00000090: 7dfe 3a3d 1449 ae3d 81f2 093d 788e 693d
000000a0: 91e0 e4bc 4e31 73bd b4aa 4abd 49c3 6e3a
000000b0: 5a91 83bc 592b fdbc d130 da3b 1f14 c3bd
000000c0: 8b58 013c 84d3 89bd 7563 853d 3e52 66bd
000000d0: 6d8f 6b3c 2eff c7bd b107 973d 874e 3dbc
000000e0: 1b6d 023d 2723 f13c fb7f 2a38 186e b63d
000000f0: 284d 273d b446 88bc 84cc 2fbd e6eb a8bc
00000100: af3e 943d 2202 2b3d e5a7 98bd 28e3 51bd
00000110: 758d 83bc 1433 e53d a705 0cbd 29ed 193d
00000120: 23cd b5bd 4852 dcbc 8edd 4c3d 030e b4bd
00000130: 74da 6b3c df1d 6abd d0ae bb3d a419 453d
00000140: 3182 d43d 7a35 61bd 1b74 513d 1b30 cf3c
00000150: b008 4b3d 2a43 83bd c64d 0b3d 108c 703d
00000160: 5a85 d43c b3e2 80bd 705b 8e3b 3e3d 173d
00000170: 71ff ef3c 02c2 80bd 0fb7 2ebd fafc 083d
00000180: 628a e43c 3faa 27bd 5970 3a3d 8b8f 223e
00000190: 3c02 203d cea1 e83d 10a5 97bd a442 303c
000001a0: 847f cb3c 9c75 4cbc a3d7 4a3e 0ed0 993c
000001b0: 8f39 9bbd 5797 9b3c 1c13 9d3d c87c a4bc
000001c0: f7e5 2abd 7b76 a0bc 70df 4f3d d310 41bd
000001d0: 87b1 523d babf 39bd d543 5cbd d749 38bd
000001e0: c91f bebd 20f4 01bd 1fba 24bd baa3 83bd
000001f0: 5174 703d ed06 f13b c3f9 853b 1ea3 b5bd
00000200: 8a5b 0e3d eeb2 1fbd fb97 523d fa1c 10bd
00000210: d693 923d 9787 2abc 9982 9cbd d0e7 c6bd
00000220: cdc1 3abd 1cdb bbbd f692 86bd 2487 ffbc
00000230: 7cfc 97bc 8197 fd3c e8bf 0ebd 4c70 0b3d
00000240: 2ce9 4bbd 502c 82bc be16 ea3b 8844 d43b
00000250: 1a8a 68bd 71ba 3cbb 3be7 bdbb e49d cbbd
00000260: fc7a 86bd aaf1 5a3d 3211 a23d 0881 5e3c
00000270: 86c7 6fbc 6548 19bd ac17 793d ffec bbbc
00000280: e326 d6bd 01ef 17bd 4d3e 89bd fe54 43bc
00000290: 8911 39bd 68cc bfbd ca78 49bc e7b4 35bd
000002a0: e60c 12bb 4bcd 873d 35ff 37bd bee3 043d
000002b0: 763a 2e3e ec62 75bb 0322 1e3d d4d1 443d
000002c0: eb6a a4bc 1be7 6abd 0bec 89bd 553d 973d
000002d0: 658c abbc dbf8 88bd 0e58 023d c2d6 38bd
000002e0: 77ef d8bd 1229 bc3c 2ccb debd 63be a7bd
000002f0: a7eb a33c 4dbe e33b d6a8 9ebd a94a 1d3d
00000300: eb89 233c 45a5 ae3d f868 c2bc eb0f d03d
00000310: b288 203d c8a0 05bd dff5 ac3d e5ca 843d
00000320: 0f75 6d3d f65b e7bc cadd 29bb d115 ac3d
00000330: 6117 263d 6deb d43d 80f8 633d 481d 093e
00000340: d427 f4bc 0025 563d b6f8 933d 912b 963d
00000350: b8a9 8f3a bc2c 92bd 6086 793d e62e 593c
00000360: 584b bfbd 44ab 94bd 736c 99bc ab17 ef3c
00000370: 91a6 6bbd 46c9 41bd 8e89 b8bd 2e93 15bd
00000380: 76ef 15bd 7d02 2d3d 9fdb 8b3d 0540 803d
00000390: f802 143d e3d1 873d 3a36 663d 6ec3 53bd
000003a0: b64c 80bd 81b8 32bd a612 813d f02e 5b3d
000003b0: cf65 363c 6aa8 0f3c 8d01 7cbd 0968 a5bc
000003c0: 7cef 80bd fbdc e8bc 0fa6 6f3d d8a9 92bd
000003d0: b74a b8bd 1402 9fbd 7714 3d3d b215 acbd
000003e0: a568 863c 4eb2 353c a603 f13c f59c 9f3d
000003f0: a340 28bc 4a05 13bd 6964 8e3d edf5 bcbd
0.073444314 0.06768678 0.03671442 -0.062037174 -0.075646386 0.047060426 -0.056968153 -0.040770616
0.11814954 -0.11736212 0.0034620438 -0.044525873 0.09037912 0.03389616 -0.070949085 -0.025102017
0.034974623 0.06282283 0.1214498 0.06770552 0.07033052 0.032332134 0.009429869 0.0015605796
-0.044433 0.062513396 0.012634908 0.03131333 0.04605993 -0.042885967 0.049945865 -0.024020024
0.0638454 0.08949576 -0.008035444 0.052265886 0.045652855 0.08510032 0.033678535 0.057020634
-0.027939113 -0.059373192 -0.0494792 0.0009108079 -0.01606052 -0.030904459 0.0066586514 -0.09525322
0.007894645 -0.067297965 0.065131105 -0.056230776 0.014377457 -0.097654685 0.07374514 -0.011554367
0.031842332 0.029435707 4.065035e-05 0.089077175 0.040845066 -0.016635276 -0.04291965 -0.020620298
0.072385184 0.04175008 -0.07453898 -0.051242024 -0.016058663 0.11191383 -0.034185078 0.03757969
-0.08877017 -0.026894704 0.05001598 -0.08791735 0.014395345 -0.057157394 0.09164202 0.048120156
0.103763945 -0.05498264 0.051136117 0.025291493 0.049568832 -0.06409295 0.034009717 0.058727324
0.025942493 -0.062932394 0.0043443963 0.03692364 0.029296609 -0.06287004 -0.042655047 0.033444382
0.027898017 -0.040933844 0.0455173 0.1587507 0.03906463 0.11358987 -0.0740453 0.010758076
0.024841078 -0.012479212 0.19808821 0.018775966 -0.07579338 0.018993063 0.076696604 -0.020079032
-0.041723218 -0.019587746 0.050750196 -0.047135185 0.051438835 -0.04534886 -0.053775627 -0.044992294
-0.09283406 -0.031726956 -0.04021656 -0.06427713 0.058704678 0.007355562 0.004088612 -0.08869003
0.034755267 -0.038989 0.05141447 -0.035183884 0.07157104 -0.010408304 -0.07642097 -0.097121835
-0.04559498 -0.09172651 -0.06570999 -0.03119237 -0.018553011 0.030956032 -0.034850985 0.03404264
-0.049782917 -0.01589027 0.0071438244 0.006477896 -0.05677233 -0.0028797651 -0.005795387 -0.099422246
-0.06566426 0.053453125 0.07913436 0.013580568 -0.014634972 -0.037422556 0.06081359 -0.022940157
-0.10456636 -0.037093166 -0.06701336 -0.011922119 -0.04518274 -0.09365159 -0.012296865 -0.044361975
-0.002228552 0.066309534 -0.04492112 0.032443754 0.17014489 -0.0037442995 0.038606655 0.04805167
-0.020070514 -0.057349306 -0.06734475 0.07384745 -0.020940969 -0.066880904 0.031822257 -0.045126684
-0.10592549 0.022968803 -0.10878596 -0.0819061 0.020009829 0.006950176 -0.07747047 0.03840128
0.009981613 0.085276164 -0.023731694 0.10159286 0.039192863 -0.032624036 0.08445334 0.064840116
0.057972964 -0.028242093 -0.002591955 0.08402599 0.04054964 0.103964664 0.05565691 0.13390076
-0.029804148 0.05228138 0.07225172 0.073325284 0.0010960614 -0.07137439 0.060919166 0.01325581
-0.093405426 -0.07259229 -0.01872847 0.02918609 -0.057531897 -0.04731109 -0.090106115 -0.036517315
-0.03660532 0.0422387 0.06828999 0.06262211 0.036135644 0.066318296 0.05620406 -0.05170005
-0.062646315 -0.043632988 0.06302385 0.05351156 0.0111326715 0.00876818 -0.061524916 -0.02019121
-0.06295678 -0.028425684 0.058507975 -0.071613014 -0.08998626 -0.07764068 0.046162095 -0.084025756
0.01640732 0.011089874 0.029420685 0.07793609 -0.010269317 -0.035893716 0.069527455 -0.09226594

audio_TCN.0.network.3.conv.bias f4 [32]
00000000: 60de c83b 2c23 23bc 899b 233a 12e5 c53d
00000010: f356 94bd 7a7b 823d 5ec6 103d 7524 263d
00000020: 22f3 d7bd 9248 1d3a eba3 3e3b a189 1f3d
00000030: 1617 dcbd 0edc 29bc 2dca dabd e5b9 7dbd
00000040: 1268 883d e35f b8bd 3b32 3a3d dc50 5d3d
00000050: 4560 963d 82f8 313c 29c4 90bd 79ca d6bd
00000060: 76d1 9b3d 80c6 69bd 87c7 84bb 602c a8bd
00000070: f9b7 9bbd 0648 6d3d 7623 a1bb a813 0cbd
0.006130025 -0.009957116 0.0006241133 0.09662832 -0.07243147 0.063712075 0.035345428 0.040562112
-0.10544421 0.00059998885 0.0029089402 0.038949613 -0.10746591 -0.0103674065 -0.10683093 -0.06194486
0.06660475 -0.09002664 0.04545806 0.05403219 0.07342581 0.010862472 -0.070686646 -0.10487837
0.07608311 -0.05707407 -0.004052106 -0.08211589 -0.076034494 0.057930015 -0.0049175574 -0.034198433

audio_TCN.0.network.3.conv.weight_g f4 [32, 1, 1]
00000000: 30a7 133f 8874 0f3f 84f3 203f 1dbf 0b3f
00000010: 83b3 083f a80d 133f 2ab2 293f 9180 1d3f
00000020: 1cf3 0c3f 8893 0a3f f89a 243f d249 193f
00000030: 7842 0c3f 27e7 153f 218e 183f ff08 033f
00000040: 5c99 0d3f 2af3 103f ea5a 0e3f be18 0e3f
00000050: 0d7e 113f b62c 0e3f 3723 193f 8f90 093f
00000060: c2c5 2a3f e07e 213f 0772 0b3f 6553 123f
00000070: 70c2 123f 437c 123f 729c 0f3f 0212 063f
0.5767698 0.5603719 0.62871575 0.5458849 0.53398913 0.5744271 0.6628748 0.615243
0.55058455 0.54131365 0.64298964 0.59878266 0.54788923 0.58555835 0.5959187 0.511856
0.5531213 0.5662104 0.55607474 0.55506504 0.56832963 0.55536973 0.5981936 0.53736204
0.66708004 0.6308422 0.54470867 0.571585 0.5732794 0.5722086 0.5609809 0.5237123
