results/models/deep/deep_acce-gyro_cnn-lstm_checkpoint.pt (torch_old, 351866 bytes, 8 tensors)

acce_gyro_layers.0.weight f4 [32, 6, 8]
000000 53 87 d5 3d 1c 57 50 bc b9 c4 39 bd ff 93 58 bb
       0.10426202 -0.012716081 -0.045353625 -0.0033047197
000010 2e 39 32 3c 25 80 5d 3d e6 ea 62 3d 56 01 14 3e
       0.0108778905 0.054077286 0.055399798 0.14453635
000020 f3 60 11 3c f4 7a 85 bb 7c 93 de 3d 33 77 81 bd
       0.008873212 -0.004073495 0.10867974 -0.063215636
000030 96 48 58 3e 6d 5b 4d 3e c6 c8 22 3e ab db 12 3e
       0.2112144 0.20054407 0.15896901 0.14341609
000040 f4 3a d8 3c 35 1e af 3c c9 c9 46 be 2e c7 b5 3c
       0.026395299 0.021376709 -0.19412912 0.022189703
000050 c8 af 3b be 4b 4e a8 3c 42 09 a9 bb 5f b9 45 be
       -0.18328774 0.020545145 -0.0051585743 -0.19308995
000060 a5 46 a9 3e 58 80 d8 3d 89 82 74 3e c0 4d 72 3e
       0.3306171 0.10571355 0.2387792 0.23662472
000070 3d d3 9d 3e 4d 34 9e 3e ac 43 c5 3d e3 43 14 3e
       0.30825225 0.30899277 0.09632048 0.14479022
000080 2c dd f9 bc 2d 01 62 be bc b6 c7 bd 78 17 97 3c
       -0.03050097 -0.22070761 -0.09751651 0.018443808
000090 4c dd 3e bd 9d 2a 08 3d 39 92 7a be a0 d0 4a be
       -0.046597764 0.033243764 -0.24469842 -0.19806147
0000a0 c2 58 83 bd fe b6 e6 bd 42 7f ac bd 7e d5 50 be
       -0.064134136 -0.11265372 -0.0842271 -0.20393941
0000b0 82 c1 39 3c 77 b7 8b bd 72 6c b7 ba 2d f1 f3 bd
       0.01133764 -0.068221025 -0.0013994111 -0.11911235
0000c0 18 2e 22 3e a0 cc 82 bd 61 6a c3 bd 9b 76 0a 3e
       0.15837896 -0.06386685 -0.095417745 0.13521807
0000d0 08 fe 15 3e b1 5a c4 3d 4a a2 d7 3b bc e0 17 3e
       0.14647686 0.095876105 0.0065806257 0.14831823
0000e0 51 52 29 bd c2 41 ca 3c 30 86 9c 3d b5 dc 13 bd
       -0.04133827 0.024689559 0.07642782 -0.036099155
0000f0 80 d9 35 bc a5 af c6 bd b5 a1 00 be 27 2f c1 bd
       -0.011099219 -0.0970147 -0.12561686 -0.09432822
000100 9c 7a b6 3d 27 92 dd bd b0 df ae bd 9a f4 fd bc
       0.08910105 -0.10818892 -0.08538759 -0.031000424
000110 c5 28 a4 bc 45 8c 17 3e 38 76 bc 3c a4 49 c0 3d
       -0.020038972 0.14799602 0.02300559 0.09389046
000120 b7 86 80 3d 9d 8b 84 3d e2 f7 7d bd a5 cd af bd
       0.06275695 0.064719416 -0.062003978 -0.085841455
000130 34 13 3f 3d 20 aa f4 bc a6 58 c9 3d 86 6f 89 bd
       0.046649173 -0.029866278 0.098313615 -0.067107245
000140 70 54 bb bd 46 aa 44 be d7 e1 0e be 17 5e 13 be
       -0.091469646 -0.19205579 -0.13953339 -0.14391361
000150 f7 9d 95 bd 98 f8 cc bd 42 9b a5 3b 46 f0 f8 bd
       -0.0730552 -0.10008353 0.0050539086 -0.121552035
000160 ed 82 d8 bd e5 85 f9 bb 26 56 ef 3c b3 cf 3f 3d
       -0.10571847 -0.0076148384 0.029215883 0.046828937
000170 76 f6 cd bd 7d f6 1d be 8e cb 34 be 54 02 37 be
       -0.10056774 -0.15426059 -0.17655775 -0.17871982
000180 c3 46 ab 3c b2 da cf bd 38 f4 90 bd 90 b3 9e bd
       0.020907765 -0.10149135 -0.07077831 -0.077490926
000190 2e 05 92 bd da d9 da bd a4 c8 10 3d 50 8c 01 be
       -0.07129894 -0.10686083 0.035347596 -0.12651181
0001a0 2a 3c df bd 61 0d d0 3d cc 85 12 be 28 36 fc bc
       -0.10900147 0.10158802 -0.14308852 -0.030787542
0001b0 3f 4e 22 3d be 0f ba 3d d9 4c 08 3d c8 2b bc bd
       0.039625403 0.09085034 0.033276413 -0.09188038
0001c0 39 04 f9 3d 37 e1 44 bd 2e a2 ae ba 0b 62 94 bd
       0.121590085 -0.048066344 -0.001332348 -0.07245263
0001d0 a3 4b e1 3d 46 f2 7e bd ca b6 0a 3e 9b b0 9d bd
       0.11000755 -0.06224277 0.13546291 -0.076997004
0001e0 d2 7a 98 3d 0f 1a 54 3e 2c 12 52 3e 13 23 53 3d
       0.07445301 0.20713066 0.20514745 0.05154712
0001f0 5c e9 a8 3d a4 62 1b 3e 2d 24 49 3e 30 41 b8 3c
       0.08247635 0.15174347 0.19642706 0.022492021
000200 06 ae 09 bc 48 34 ab 3a 94 3b ea 3c 0a 5c b4 3c
       -0.008403307 0.0013061846 0.028592862 0.022016544
000210 5f 26 30 3d f2 cc cb bd f3 09 4d bc 44 ec d8 3d
       0.043005344 -0.099511996 -0.012514579 0.10591939
000220 7a 61 bb 3c a4 ef 2d 3e 32 1c 08 ba 7d 9f 4e 3e
       0.022873629 0.16985947 -0.000519219 0.20178027
000230 a5 26 96 3d 6e 06 da 3d 36 a3 e3 3d d2 20 da bb
       0.073315896 0.106457576 0.111151144 -0.0066567445
000240 aa 06 f0 bd f3 07 d6 bd e3 28 f8 bd 18 8f a1 3d
       -0.11720021 -0.10450735 -0.121171735 0.07888621
000250 a7 dd 01 be 79 62 a8 bd f1 08 de 3c 13 64 46 3d
       -0.1268221 -0.08221907 0.027103873 0.048435282
000260 38 93 16 bd 95 1b a6 bd db 69 cc 3c 6b 1b 01 be
       -0.036761492 -0.081107296 0.02495282 -0.12608115
000270 47 bd 51 be 9e ed 51 3d 42 c9 ad bd 0a e3 d6 bd
       -0.2048236 0.051252 -0.084856525 -0.10492523
000280 83 24 ef bc f1 89 f8 bb 0f c1 13 be 32 51 d3 3d
       -0.029192215 -0.0075848033 -0.14429115 0.10318221
000290 97 39 81 bc 3a a3 a0 3d d1 4e cd 3d d8 f5 73 bd
       -0.015774531 0.07843633 0.10024799 -0.059560627
0002a0 7f e1 62 3c 70 77 17 be 9d 22 d8 3d d3 04 09 be
       0.013847708 -0.14791656 0.10553477 -0.13380747
0002b0 f8 5c a9 3d 41 2a 5e bd 3d 48 bd 3d 9e be 95 bd
       0.082696855 -0.054239515 0.09242294 -0.07311748
0002c0 de 7c 70 bd 78 af 5b bd 60 49 5c be 86 df 57 be
       -0.058712833 -0.053634137 -0.21512365 -0.21081361
0002d0 fe 6a 8c 3d 3f e2 14 be 78 ef 4b be 45 52 cc bd
       0.06856345 -0.14539431 -0.19915569 -0.09976629
0002e0 7a 9b da 3c f4 e1 b9 bd 66 c6 a4 3d dc 92 c8 bd
       0.026685465 -0.090763 0.08045654 -0.09793636
0002f0 3c 65 b7 3d d8 22 72 3c b2 44 d8 bd d1 ba 16 be
       0.08954856 0.014778815 -0.105599776 -0.14719702
000300 b9 81 84 3c 94 d4 ce bd fc 1f a8 bd 94 8d 39 be
       0.016175138 -0.1009914 -0.082092255 -0.18120414
000310 6c 22 af 3c 81 65 6e 3c 62 e3 da bc e3 a7 b9 bc
       0.021378718 0.014550568 -0.026719753 -0.022663062
000320 82 e6 32 3e d5 a7 47 3e 34 73 2c 3e 9e 7c b3 3d
       0.17470744 0.19497617 0.16840822 0.08764003
000330 ac b6 23 bc 3f e8 6a 3c ba 8a a0 3d f8 04 24 3e
       -0.009992283 0.014337598 0.0783896 0.1601752
000340 95 bf be 3c 26 53 a9 bb e2 7f 53 3d 6b 06 28 3c
       0.023284713 -0.005167383 0.05163563 0.010255436
000350 92 08 be 3c 12 26 10 3b 3b f0 cd 3d 33 9a 97 3d
       0.023197446 0.0021995348 0.10055586 0.07402458
000360 5d 5e 1d 3c d0 84 c2 3a ba d1 8d 3d 1f 45 f1 bd
       0.0096050175 0.0014840607 0.06924768 -0.11780762
000370 d0 63 26 be ca 79 92 3d 04 47 94 3c c2 cc 44 bc
       -0.16249013 0.07152136 0.01810027 -0.012011709
000380 c5 a9 ea bd 1c a8 fa bc 1e 40 b1 3c f9 b2 34 3d
       -0.11458162 -0.030597739 0.021637019 0.044115994
000390 00 8f 06 be 16 59 95 3d 3a 83 d1 3d e3 ff 54 3d
       -0.13140488 0.072923824 0.102301076 0.052001845
0003a0 d0 62 97 3d fa d6 23 3e 7d b7 fd 3d d4 79 fe 3d
       0.07391894 0.15999976 0.12388513 0.124255806
0003b0 1a 2a e3 3d 0f 65 80 3e 51 04 62 3e 8e f0 2a 3e
       0.110920146 0.25077102 0.22071959 0.16693327
0003c0 6e 18 cd bc ba e2 72 3c ca 5a 26 be bd 09 2f bd
       -0.025036063 0.014824564 -0.16245571 -0.042733897
0003d0 6a 28 c8 3d a7 cb 58 3d 99 6a 05 be 25 f5 26 be
       0.09773333 0.052928593 -0.13028945 -0.16304453
0003e0 f8 eb 0d be c2 6b d1 3d f3 54 24 be 0a 28 b1 3d
       -0.13859546 0.10225631 -0.1604803 0.08650215
0003f0 62 58 d1 3c 2a ad 11 3c 74 16 c6 3d 3c 09 ed bd
       0.02555484 0.008891383 0.09672251 -0.11574027

acce_gyro_layers.0.bias f4 [32]
000000 19 f0 f4 ba 95 ed 68 bd fd 94 2f 3e 4f 3c 08 bd
       -0.0018687277 -0.0568672 0.17146678 -0.03326064
000010 b6 29 10 3e f3 fa be 3a 0f f8 51 3b fb 06 58 bc
       0.14078411 0.0014570638 0.0032038724 -0.013185258
000020 8d 8e 5b 3e 98 f0 f9 3b 7b 92 34 3e a5 50 a2 bb
       0.21441098 0.007627558 0.17634003 -0.0049534612
000030 27 ab 94 bd 3a f7 29 3e e2 02 61 3e 58 36 4f 3e
       -0.07259207 0.16598216 0.21973756 0.20235574
000040 a0 55 cf 3b a7 dc 3f bb 34 3d 83 bc 35 f0 89 3e
       0.006327346 -0.0029275806 -0.016020395 0.26941076
000050 27 40 ed ba 0c a0 96 3c a2 76 6d bc f3 02 e9 3d
       -0.0018100784 0.018386863 -0.014493616 0.11377516
000060 9f 21 85 3d ea d5 dd 3d cb 2c 5e 39 76 12 fe bb
       0.06500553 0.108318165 0.00021188257 -0.0077536656
000070 dd 30 15 3e a0 bb eb 3d 36 ce 06 3e 59 1d 16 3e
       0.14569421 0.11510396 0.131646 0.14659633

lstm.weight_ih_l0 f4 [512, 32]
000000 11 b4 55 bd 10 cb 32 bd 01 61 86 3d 20 86 af 3c
       -0.052173678 -0.043650687 0.06561471 0.02142626
000010 87 b3 9c 3d 05 5f a9 bd 39 6d 1e be 81 4d 80 bc
       0.076514296 -0.08270077 -0.15471353 -0.015661957
000020 2d bf f1 bc 4a 3e b7 3b 69 19 c4 bd ca be 70 bd
       -0.029510105 0.005592142 -0.09575159 -0.0587757
000030 92 82 00 3d 6f 1d 9d 3d e4 bd ff 3d 43 88 d7 3d
       0.03137452 0.0767163 0.12487391 0.10524037
000040 11 3b dd 3c 62 dd 0c be 23 6f 33 3c 00 14 59 3d
       0.027005704 -0.13756326 0.01095179 0.05299759
000050 80 13 95 3c cf 84 4a 3d 58 b0 ae bd 50 5b a5 bd
       0.018197775 0.049443062 -0.08529729 -0.08074057
000060 ba 19 a0 3d c7 c6 64 bd 59 50 16 be da d5 26 bd
       0.07817407 -0.05585363 -0.14679088 -0.04073129
000070 9c d0 57 3d ec 2a 0e 3e fd c0 22 be c1 29 f9 bb
       0.05268918 0.13883561 -0.15893932 -0.0076038544
000080 0b fc 7e 3c f1 18 8a 3d 2e ef 29 be 99 51 0e bd
       0.015563021 0.067430384 -0.16595146 -0.034745786
000090 e1 a7 e6 bc 59 a8 e2 bc 62 ce ad bc 84 4f 09 be
       -0.028156223 -0.027668165 -0.021216575 -0.13409239
0000a0 c7 37 14 bd 56 cb 78 bd 3a a4 44 be 08 02 70 bd
       -0.036186006 -0.06074079 -0.19203272 -0.058595687
0000b0 d8 2f 8d 3c d1 20 57 bd ef 1c c9 ba ba 4a 63 bc
       0.017234728 -0.05252153 -0.0015343706 -0.013872797
0000c0 f7 75 36 ba fd a2 d4 3d 13 fc 0b be 6d cb 08 be
       -0.0006960327 0.1038265 -0.13670377 -0.13358851
0000d0 4a 28 28 be e0 e0 49 3c bd 2a 39 be 6f d5 48 bd
       -0.16421619 0.012321681 -0.1808271 -0.04903167
0000e0 f5 45 31 bd 63 4b 87 3d d5 06 0f 3d 6f 4c 16 be
       -0.043279607 0.06606176 0.034918625 -0.14677595
0000f0 ad 1e 97 3d 55 ad f1 bd a5 3d 62 bd 0f 36 d4 bd
       0.07378898 -0.118006386 -0.05523457 -0.10361873
000100 da 09 49 bc 2f 82 17 3e 1d d0 f9 3c bb 28 2d 3e
       -0.012270415 0.14795755 0.030494744 0.16910069
000110 f6 87 fa bb 48 60 c8 3d 0b c8 f1 3d 08 b8 f9 bc
       -0.0076456023 0.09783989 0.11805733 -0.03048326
000120 a3 8f ae bc 12 67 26 3d 7a a1 50 3b 62 7f c9 bc
       -0.021308726 0.04062564 0.0031834529 -0.024596874
000130 f8 78 ba 3d e7 bd 29 bd 43 0d 35 bd 26 df 47 3d
       0.09105104 -0.04144087 -0.0442021 0.048796795
000140 ae f4 d2 3d 66 75 dd 3d a1 f8 79 3d a5 46 1e bc
       0.10300575 0.108134076 0.061028127 -0.009660398
000150 dc d0 0f 3e 6a a6 e1 bc c4 82 3b 3d 33 51 45 3d
       0.14044517 -0.027545173 0.045779005 0.04817314
000160 d3 fe 1d bd 90 41 0e 3e 94 92 0a 3e 0a ad f1 3d
       -0.038573097 0.13892198 0.13532478 0.11800583
000170 2c 15 84 bd 1f f7 d5 3c 2e 21 22 3b 65 49 c7 bd
       -0.06449351 0.026118813 0.0024739015 -0.09730796
000180 74 2b 05 be 82 9b cf bd c1 55 0a 3e 7d 32 a6 bd
       -0.13004857 -0.10137083 0.13509275 -0.081150986
000190 65 67 bb 3c 3a ce f9 bd 83 dd d8 bd 09 14 c7 bc
       0.02287645 -0.12197538 -0.10589125 -0.024301546
0001a0 db ef 31 3e db eb c0 3c 27 46 1d bd 27 3a dc 3c
       0.17376654 0.023549965 -0.03839698 0.026883198
0001b0 2d 31 1c bd a7 c2 6f bc 27 33 40 3d 8c 42 ac 3d
       -0.038132835 -0.014633811 0.046923783 0.0841113
0001c0 47 36 d8 bd 1b 8f 16 be 6b dc ed bd 3d a5 4d 3e
       -0.105572276 -0.14703028 -0.11614307 0.20082565
0001d0 28 5e 90 bd dd 46 35 3b cc f1 e6 bc d3 25 b1 3d
       -0.07049209 0.0027660646 -0.02819147 0.086497925
0001e0 4e 09 de 3d 0b a4 8c 3d b6 f2 3a bc 05 b9 10 bc
       0.108416185 0.06867226 -0.011410406 -0.008833175
0001f0 14 b0 5c 3d c1 fd 08 3e 6a 38 ea 3d 4c c0 1b 3e
       0.05387886 0.1337805 0.114365414 0.15210074
000200 f8 fb 2b 3a a8 e0 c8 bd cd a8 0c 3e 38 b7 33 bc
       0.00065606786 -0.09808475 0.13736267 -0.010968976
000210 c9 98 24 3e 72 ee a2 bc 82 19 69 3d 27 f2 bf bd
       0.16073908 -0.01988909 0.05690909 -0.09372359
000220 92 65 3c bd 4e 6e 45 3d b8 19 01 3e 2d 16 bb bd
       -0.045995302 0.048200898 0.12607467 -0.09135089
000230 ad 2d b6 bd 03 43 10 3d 64 1b 9c 3d 77 52 9c 3d
       -0.08895431 0.035220157 0.07622412 0.076329164
000240 64 5e fd bd 51 bd d2 bd 21 1b 8f bd d7 d8 53 3e
       -0.12371519 -0.102900155 -0.06987596 0.20688187
000250 1f 81 7b bd 37 6c a1 3d 7c 4a a5 3c 36 ec 0a 3e
       -0.061402436 0.078819685 0.020177118 0.1356667
000260 dd b1 47 3e 58 19 ae bd 98 9a e8 bd 3a f2 b2 bd
       0.19501443 -0.08500928 -0.113576114 -0.08737607
000270 00 86 35 3e 8c a8 93 3d 38 10 2f bc 70 2f f3 3d
       0.17726898 0.07209882 -0.010685019 0.11874282
000280 4c c1 1b be 55 f1 9b bd 0d 72 be 3d 26 08 9c bd
       -0.15210456 -0.0761439 0.09299097 -0.07618742
000290 cb e2 38 3c 53 2b f3 bd 12 1c ea 3b 35 2a 3d bd
       0.01128454 -0.11873498 0.0071444595 -0.04618283
0002a0 97 a5 28 3e 84 1a a6 3c aa 5f 47 bd f4 a0 d0 3c
       0.16469418 0.020276316 -0.048675217 0.025467373
0002b0 34 a8 40 bc ea d3 82 3c c7 df 92 3d bd a2 d0 3d
       -0.011758853 0.01597019 0.071715884 0.1018729
0002c0 13 99 a4 3b 88 cb aa bd 3f 9d 52 3c 87 16 33 3e
       0.0050231307 -0.08339602 0.012854873 0.17489062
0002d0 94 fd 4c 3c 56 a0 9c bd 01 67 db bd 9e e6 21 3b
       0.01251163 -0.07647769 -0.10713006 0.002470411
0002e0 8a 1b 62 bd 14 0f 1a bc 2d 52 08 3c e7 5d 32 3d
       -0.055202045 -0.009403009 0.0083203735 0.043546584
0002f0 7b 1f 9f bc 08 6c 06 3e 98 31 d0 3d 9c 20 dd bc
       -0.01942419 0.13127148 0.10165709 -0.026993088
000300 6f 03 c5 bd 8a e7 a5 3d e4 72 3c be 13 7f fe bc
       -0.096197955 0.08100803 -0.18403202 -0.031066453
000310 f6 44 14 3c 23 82 13 bd d0 65 44 bc 18 79 ca 3d
       0.009049645 -0.03601278 -0.011987165 0.09886378
000320 59 f8 c3 3b 2b 28 2a 3e fd 9e 1f 3c 01 05 cf 3c
       0.005980533 0.16616885 0.009742496 0.02527094
000330 2a 90 d3 bc a2 55 12 bd 40 b8 fd bd 31 ca 86 3d
       -0.025825579 -0.035726197 -0.123886585 0.06581534
000340 02 6c 05 bd 0e a9 3e 3c 0b 31 ef 3d de 2a 98 bd
       -0.032573707 0.0116369855 0.11679276 -0.07430051
000350 77 17 de 3c d0 06 92 3d 45 72 85 3d 63 e1 fb bc
       0.027110798 0.07130206 0.06515936 -0.030747121
000360 7e 09 97 3d 19 da f6 3d dc 25 f7 3c 96 03 cb bc
       0.07374857 0.120533176 0.03016942 -0.024781983
000370 8b ae 45 3d 4c 37 26 be b1 d8 a3 be 23 a9 0c be
       0.04826216 -0.16232032 -0.3200126 -0.13736396
000380 2b bf 15 bd 48 d7 ca bd 84 28 a1 3d bb ea fb bd
       -0.036559265 -0.09904343 0.07869056 -0.12300631
000390 50 12 ef bc ec a4 be bb 68 07 20 3c 02 9f 71 bd
       -0.029183537 -0.005818 0.009767391 -0.058989532
0003a0 1e ac 70 3c 8b 1c 04 be 19 00 87 ba 4b 72 f8 bd
       0.014689473 -0.12901513 -0.0010299712 -0.12131175
0003b0 31 d3 f1 bd 28 9e a9 bc e2 95 29 3e 00 01 08 3e
       -0.1180786 -0.020705298 0.16561082 0.13281631
0003c0 13 29 a0 3d e7 b5 f3 bd b2 77 81 3d bc e7 30 3e
       0.07820334 -0.118999295 0.06321658 0.172759
0003d0 19 1d a2 bd 06 33 1d 3d 33 c0 e5 bd b2 f8 72 bc
       -0.07915706 0.038378738 -0.112183 -0.014829801
0003e0 53 77 35 bc 14 b9 d3 bc 63 77 60 bc 0f 07 39 bd
       -0.011075812 -0.025845088 -0.013700339 -0.045172747
0003f0 bf 12 77 bd c0 aa b6 3d 7f 20 82 bc 9e 8f d0 3d
       -0.060320612 0.08919287 -0.015884636 0.10183643

lstm.weight_hh_l0 f4 [512, 128]
000000 97 e8 99 3d cc 60 92 3d 60 15 00 bd 22 eb 9b 3c
       0.07515066 0.07147369 -0.031270385 0.019033018
000010 5d 8c 9b 3d 49 16 d8 3d fa b0 49 3c b3 98 1c 3e
       0.075951315 0.105511256 0.012310261 0.15292625
000020 c8 eb 80 bc b2 d9 47 bb 27 2c d1 bd 40 1b d0 bd
       -0.01573743 -0.0030494747 -0.102134995 -0.101614475
000030 f0 09 a5 3c e8 d1 8d 3c 6f 20 48 3d 75 23 54 3d
       0.02014634 0.017312005 0.048859056 0.051791627
000040 94 c3 8c 3d 2e cf 67 bd 11 b5 77 bd 0b ce ba ba
       0.06873241 -0.056594066 -0.060475413 -0.001425208
000050 38 5e 6d 3b 6b 86 66 3d cb 8e 82 3d 44 68 18 3b
       0.0036219489 0.056280535 0.06374892 0.0023255507
000060 2f 0f 06 bd 10 d3 b1 bc 50 07 f7 3c ae 30 99 3d
       -0.032729324 -0.021707088 0.030154854 0.07479988
000070 55 e3 11 bd f4 98 4b 3d b1 34 9d bd 5d 8c 1f 3d
       -0.03561719 0.049706414 -0.07676066 0.03895222
000080 58 b6 e0 3c e3 ce 9e bc a8 5a e3 bd 51 d5 4e 3d
       0.027430698 -0.01938576 -0.11101276 0.050496403
000090 ae 53 af 3c 16 d2 2c bd 94 8a 14 be cc 96 c7 bc
       0.021402206 -0.04219254 -0.14505988 -0.024363898
0000a0 22 a9 1b 3e b7 19 77 3d 3b 17 b4 3d 6a 62 ce 3d
       0.15201238 0.060327258 0.08793493 0.10077365
0000b0 56 a8 a0 bb ca 05 45 3d 21 92 86 3c 57 4a 06 bd
       -0.0049028797 0.048101224 0.016427102 -0.03278574
0000c0 85 7c b0 bc d2 d8 d0 bc bc eb 12 be 8e ae b9 bd
       -0.02154375 -0.025494013 -0.14347738 -0.09066497
0000d0 71 cc 94 3d 12 52 31 3d f5 5b 91 3d c1 d9 c9 3d
       0.072655566 0.04329116 0.070976175 0.098559864
0000e0 9d 11 63 3c a6 be a4 3d ce c6 b4 3d b8 d2 4c 3d
       0.01385918 0.08044176 0.088269815 0.050005645
0000f0 f3 1e 85 3d d7 a8 12 3d 4d 4e c6 3d 9a ff ee 3c
       0.06500044 0.03580555 0.096829034 0.029174615
000100 73 ec 8c 3d 73 8f 26 bd d4 2a 78 bd 50 27 86 bd
       0.068810366 -0.040664148 -0.06058772 -0.06550467
000110 0d 82 c7 3d 8e 35 51 bd ce 82 31 bd 6e 47 0b bd
       0.09741602 -0.051076464 -0.043337636 -0.034003668
000120 7a 23 3e bd 6e 78 2f bd 0c 28 ac bd aa ff 8a 3d
       -0.04642055 -0.04283946 -0.08406076 0.06787045
000130 7d 99 8b bd bd d8 47 3c cf 35 96 bb c8 fe 1d 3d
       -0.06816385 0.0121976705 -0.004584051 0.038573056
000140 b8 f7 81 bc d5 44 90 3d 87 c6 42 3c 02 42 8b bd
       -0.015865192 0.07044379 0.011888153 -0.06799699
000150 17 3c b3 bc 5d da b1 bd ef ee eb 3c c6 51 07 bd
       -0.021879239 -0.086842276 0.028800456 -0.03303697
000160 d4 c7 70 3d 10 d5 6b bd b6 db 19 3d 84 c2 52 bd
       0.05878432 -0.05757624 0.03756305 -0.051455036
000170 cc 06 b9 3d 0c 1d 9f bd 41 72 81 3d 1b 5a c5 39
       0.090344995 -0.07769212 0.0632062 0.00037641902
000180 f3 cb 29 3a d4 57 cd bd 48 92 7f 3d db 36 57 bd
       0.0006477229 -0.100265175 0.062395364 -0.05254255
000190 44 e7 f2 3d 14 49 fc 3d ef 8b 4d 3c 1d 6c ca 3d
       0.11860517 0.12318626 0.01254557 0.09883902
0001a0 2b b7 62 bd f5 e2 88 bd ae b2 8c 3d 3c c5 9d bd
       -0.055350464 -0.066839136 0.06870018 -0.07703635
0001b0 88 0c 14 3d d4 5b 0b 3e 1b 2e 1b 3d 24 da 56 3d
       0.036144763 0.13609248 0.037885766 0.05245413
0001c0 67 d2 d3 3c c1 f2 2f 3d 61 ec 58 3d bc e6 13 bc
       0.025857164 0.042956118 0.052959803 -0.009027179
0001d0 36 04 c2 bd 8c 47 39 3d 1f 39 f2 3c 4d c0 91 3b
       -0.094734594 0.045234248 0.029568253 0.004447973
0001e0 8f 79 7d 3d 48 90 22 3d e9 fb 27 3c 2d 97 43 3c
       0.061883505 0.03968838 0.010252931 0.011937899
0001f0 37 9b 88 bb 29 78 1d be ae f1 b2 bd 7d 98 23 3d
       -0.0041688937 -0.15377869 -0.08737503 0.039940346
000200 9a 69 c6 bd c1 f9 d8 bb 42 04 ef bd fc 7b 20 be
       -0.09688111 -0.00662157 -0.11670734 -0.15672296
000210 80 ee 58 bd 9c fc b8 3d 0c 8a aa 3d 0e 33 75 bd
       -0.052961826 0.090325564 0.083271116 -0.059863143
000220 12 1e 3e 3e 5d b6 81 3c f9 3c b5 bc b3 05 10 ba
       0.18566158 0.015834028 -0.0221238 -0.00054940133
000230 b8 4c 05 be 7e 72 32 bc e8 9f 46 be cb aa c8 bb
       -0.13017547 -0.010891555 -0.19396937 -0.0061238757
000240 ea a5 cd 3d 81 a1 a6 3c 95 9c d9 bd 33 0f de bc
       0.10041411 0.020340683 -0.10625569 -0.027106857
000250 17 b2 18 3e 1f 88 22 bd 13 39 cf bc 9d ac 9e 3e
       0.14911686 -0.039680596 -0.02529577 0.30991068
000260 14 59 32 3d 6d e1 f3 3c 8b 9c f0 bc 6a 5d 0f bc
       0.043541983 0.029770577 -0.02937152 -0.008750299
000270 af 6c 00 bd f9 32 93 3d 0e dc 3a bd 84 bc 82 bd
       -0.03135365 0.07187457 -0.045620017 -0.06383613
000280 61 6b 34 bc 02 8c 11 be 2d 5b a5 bd ba 1c b8 3d
       -0.011011929 -0.14213565 -0.08074031 0.08989854
000290 2a 27 8e 3d ad 1e b8 3d b0 b6 18 be 7a 11 b7 bd
       0.06941064 0.08990226 -0.1491344 -0.0893888
0002a0 c4 6b c0 3d 01 cb 2d 3d cf 40 a5 3c 97 d3 e0 bd
       0.09395555 0.042429928 0.020172505 -0.109778576
0002b0 fd bc 36 3e 09 5f af 3c 2a 16 3f 3e 0d 30 47 3d
       0.17845531 0.021407621 0.18660799 0.04862981
0002c0 46 50 04 3e 15 b1 b2 3d ee 2e 5b bc a0 82 2b 3d
       0.12921247 0.08725182 -0.013377888 0.04187262
0002d0 ea 7e 10 3d 2c 0e bb bd c2 00 44 bd 02 7d be 3d
       0.035277285 -0.091335624 -0.047852285 0.09301187
0002e0 50 d7 60 3d d4 a3 12 3e 27 47 98 3d 3c 87 fd 3c
       0.054892838 0.14320308 0.07435446 0.030948274
0002f0 46 f3 a7 3d a6 76 2c bd cc 4c a0 bc 2d e9 76 bc
       0.082006976 -0.04210534 -0.01956787 -0.015070242
000300 db a4 18 bd 19 b2 1c 3e 63 8f 0c 3d 67 39 20 3d
       -0.037266593 0.15302314 0.03431643 0.039117243
000310 4b e0 56 be 7b 1b 21 3e fc 32 98 3d 1c ba 30 bd
       -0.20983998 0.15733139 0.074315995 -0.043146238
000320 b4 d4 c4 3d 82 79 bf bc 1c bd 2f bb d4 75 4a 3d
       0.096108824 -0.02337337 -0.0026815599 0.049428776
000330 4e 44 a7 3c 68 ab 04 bd 9c 96 2a bd 88 d7 fb 3d
       0.020418312 -0.03239003 -0.04164754 0.12296969
000340 5e 07 82 3d 97 bb 62 bd b8 6d ff bd 88 35 21 bd
       0.063490614 -0.05535468 -0.12472099 -0.039357692
000350 95 56 cb 3b b1 2e 5e bd ff 55 46 3d 62 93 38 3d
       0.0062053897 -0.054243747 0.048421856 0.04506243
000360 14 ad a3 bd 36 d3 1c 3d ac 68 ee 3d a0 04 d9 3d
       -0.079919964 0.038287364 0.11641058 0.10596585
000370 ba 35 74 bc 2b 40 18 be 3e 95 d7 bd 44 de 12 3c
       -0.014905388 -0.14868228 -0.105265126 0.008964125
000380 d4 8a 8d bd a7 c6 b7 3c 0f 0a 9f bd cf 9f a1 3d
       -0.06911245 0.022433592 -0.077655904 0.07891809
000390 b4 7a 12 bd f2 ff 8e 3c e3 89 d2 bd d8 e3 ef 3c
       -0.03576155 0.017456029 -0.10280206 0.029283449
0003a0 b5 b8 c3 bd eb b5 bb 3c 7a cb 53 3c 2f ba d4 bd
       -0.095567144 0.022913894 0.012926931 -0.10387074
0003b0 77 90 cc bd 79 9c 6b bd 28 9c a0 3d 9f 21 7b bd
       -0.09988492 -0.05752227 0.078422844 -0.06131136
0003c0 71 5c 10 bd 9b b6 48 3e 29 1b fc 3c 51 e7 8c bc
       -0.03524441 0.19600908 0.03077467 -0.017200144
0003d0 e6 9b d5 3c 3e 4e 7f 3d e8 bb 96 bd 4e 26 82 b9
       0.026075315 0.062330477 -0.07360059 -0.0002482407
0003e0 16 1c 35 bd 42 66 5b be 03 87 a5 3d a2 6c 3e bd
       -0.044216238 -0.21425727 0.08082392 -0.04649032
0003f0 5b 88 0a bd 20 c7 5a 3d df 80 16 bd c6 59 75 3c
       -0.033821445 0.053412557 -0.036743995 0.014975017

lstm.bias_ih_l0 f4 [512]
000000 e5 b1 e2 3c 59 73 72 bd d6 b3 56 3d 2f b7 ea 3d
       0.027672717 -0.059192035 0.0524176 0.11460721
000010 aa ab 18 3e c9 0e b4 3c 04 76 3b bd 33 19 f3 3d
       0.14909235 0.021979706 -0.045766845 0.11870041
000020 4c d9 03 3d 21 de ba 3d 9d 84 e5 3d 29 d0 86 3d
       0.032189652 0.09124399 0.112069346 0.06582672
000030 a3 74 50 3b fb 83 18 3e df 53 67 3d 38 49 bd 3b
       0.0031807802 0.14894097 0.05647647 0.0057765506
000040 c0 f0 16 bc ab 93 6c 3d 3f 19 93 3d 1c bf c3 3c
       -0.009212673 0.057758015 0.0718255 0.023894839
000050 57 e3 b2 3d 9c 7b eb 3c 86 df fd 3c 91 88 5d bd
       0.08734768 0.028745465 0.030990373 -0.054085318
000060 b7 13 6e 3b fc 51 f7 3d 3b f1 63 3d f9 4c 2a bb
       0.003632767 0.12076184 0.055649977 -0.002598582
000070 bf 6e 81 3d 61 69 c5 3d e9 1b 9c 3d 04 a9 08 3e
       0.06319951 0.0963924 0.07622511 0.13345724
000080 29 1d ba 3d e0 20 4a 3a 08 14 1c 3d f3 19 2e 3d
       0.09087593 0.0007710587 0.03810504 0.042505216
000090 fb 38 9b 3c 85 cd e1 3d b5 c9 2b 3d 8f db f9 3d
       0.018948069 0.11025528 0.04194041 0.122000806
0000a0 3d 7b f0 bc 77 db 1f bd 09 84 f8 3d 1e d1 f6 bc
       -0.02935564 -0.039027657 0.12134559 -0.030129012
0000b0 0a 4a 15 3e 49 7d ef 3c 38 c1 f0 3d 5d 4c f7 3d
       0.14579025 0.029234545 0.117556036 0.12075112
0000c0 e9 99 4b bd 77 97 af 3d 26 b2 cf 3d 4d 46 06 3e
       -0.049707327 0.085738115 0.10141401 0.13112755
0000d0 3e aa 0c 3e 4c fc 95 3b 7c cb bc 3d 7c d2 55 bd
       0.13736817 0.0045771953 0.09218499 -0.052202687
0000e0 c8 f8 62 bd 7e ce 6f 3d cc 20 27 3e d0 70 82 ba
       -0.055413038 0.058546536 0.16321105 -0.0009951834
0000f0 1a 1e 4a bc e7 df bd 3d f1 50 a5 3d 03 8f 05 3b
       -0.012336278 0.092712216 0.08072079 0.002037943
000100 a3 fd 1f bb b1 e6 87 3d 30 28 a5 3d ee 5e ce 3d
       -0.0024412654 0.06635798 0.08064306 0.100767
000110 f3 42 c4 3d 01 a5 cd 3d e3 34 00 3e 06 15 64 bd
       0.09583082 0.100412376 0.12520175 -0.055684112
000120 c3 2c af 3d 38 cc 6c 3d 68 e6 14 3e 23 b1 6a 3d
       0.085534595 0.057811946 0.14541018 0.057297837
000130 29 36 b1 bd d4 5e b7 3d ee ea ad 3d 53 5e 06 bd
       -0.08652908 0.08953634 0.08492075 -0.0328048
000140 34 2b 4a 3d 58 46 1e bd 63 97 23 3b b6 91 a4 3d
       0.049357608 -0.038641304 0.002496206 0.08035605
000150 d5 07 26 bd 13 85 e0 ba 68 34 69 3d 3a 24 0a 3d
       -0.040534813 -0.0017129503 0.056934744 0.033725955
000160 c5 33 86 3c 4e 07 e9 3d 17 0b 82 bc f0 f0 55 bc
       0.016382108 0.113783464 -0.015874429 -0.013057932
000170 d9 e3 0a 3e 33 3d e4 bb 41 f5 57 3d dd 6a 01 3e
       0.1356348 -0.0069653033 0.052724127 0.12638421
000180 a2 97 b6 3d 01 36 14 3e 3f 13 a7 ba cf fb 04 bd
       0.089156404 0.14473726 -0.0012746825 -0.032466706
000190 56 27 ac 3d f9 0e 0f bd 14 c1 46 bd eb 60 73 3d
       0.0840594 -0.03492639 -0.048523977 0.0594186
0001a0 c4 57 9d 3b 56 a8 a7 bc ac 6d 35 3d 81 97 89 3d
       0.0048017222 -0.020466011 0.044294044 0.0671835
0001b0 97 5b 4d bd a8 9d 85 bc 6f cb 6a bd 15 06 e3 bb
       -0.050136175 -0.016310528 -0.057322916 -0.0069282153
0001c0 91 b2 91 bd de 06 e5 3b 2a a5 4d bb d8 5d d6 3d
       -0.07114137 0.006989344 -0.0031378963 0.10467118
0001d0 86 ac 2c bc 46 db e7 3d d6 b8 0c 3d ea 4d a2 3d
       -0.01053918 0.1132112 0.03435596 0.07925017
0001e0 ee 2b c0 bd 4e ea e4 bc 95 2f bb bc 90 7e e7 3d
       -0.09383379 -0.027943756 -0.022849837 0.11303437
0001f0 7d 06 99 bc 31 58 0b bd a5 3e 89 3c c5 e2 72 3d
       -0.018679852 -0.034019653 0.016753504 0.059298296
000200 6c d0 7d 3c 8d 1f c8 3d e8 8b 87 3d 77 93 d8 3d
       0.015491586 0.09771643 0.06618482 0.10575002
000210 54 df ec 3d 22 95 ce 3d 7a 68 c8 3d 0c 81 51 3d
       0.11566034 0.100870386 0.09785552 0.05114846
000220 a2 6b c7 3c 3b f4 e1 3d e4 84 05 3d cb 25 8d 3d
       0.024343316 0.110329114 0.032597438 0.06891974
000230 bb d8 9c 3c cd 1f 03 3e 64 5f 30 3e 7f 2a b0 3c
       0.019146314 0.128051 0.17223889 0.021504639
000240 a4 ef 13 3e e8 71 9b 3c a7 c0 a1 3d 5f af 9e 3d
       0.14446884 0.018975213 0.07898074 0.07748293
000250 a0 67 1f 3e 04 6b 2a 3d 0c 38 0a bc 80 9f 3b 3d
       0.15566874 0.041605964 -0.008436214 0.045806408
000260 f9 d9 4e bd 79 5b ae 3d 92 03 86 3d 46 63 c4 3d
       -0.050500844 0.08513541 0.0654365 0.095892474
000270 d7 e0 9e 3d 95 c6 d1 3d f8 0a f8 bc 53 6d cc 3c
       0.077577285 0.10242955 -0.030278668 0.024954474
000280 53 d8 69 3d 0f 67 61 bd 21 53 25 3e be 9d 79 3d
       0.05709107 -0.055029925 0.16144992 0.06094145
000290 5d e6 85 3c a6 e8 a0 3d 7c 08 f8 bc 50 87 a2 3d
       0.016345197 0.07856874 -0.030277483 0.07935965
0002a0 f6 1a 06 3b 9a 80 bb 3c 3a 4e 00 3e 67 e4 35 3d
       0.0020462847 0.02288847 0.12529841 0.044407275
0002b0 c6 99 0a 3e ab 33 47 3d 88 15 3b 3d 69 5c f3 3c
       0.13535222 0.04863326 0.04567483 0.02970715
0002c0 f3 8f 11 3e 48 c6 c4 bb 34 04 57 3d 1d 01 e6 3d
       0.14215069 -0.0060050823 0.052494243 0.11230681
0002d0 5b f6 e7 3d ab 83 73 bd e5 c7 bd 3d 30 8b 88 bc
       0.113262855 -0.05945174 0.092666425 -0.016667932
0002e0 ac 5f 47 3d e1 2c 8c 3d 79 f5 50 3d 24 1b 07 3e
       0.048675224 0.068444975 0.05101535 0.13193947
0002f0 c4 ab e9 bb 40 cf c9 3d ec e9 4c 3e cf 62 13 bd
       -0.0071310718 0.09853983 0.20011109 -0.035982903
000300 2c d1 bb 3d 21 f6 ee 3d 45 fa dc 3d 64 07 7d 3d
       0.09170756 0.11668039 0.107899226 0.061774626
000310 c0 a6 0a 3d cc 57 1f 3d a9 81 02 3e 83 1b 9c 3d
       0.03385043 0.03890209 0.12744774 0.07622435
000320 3a ae 78 3d c8 a9 0b bd 56 9f 84 3c 2e 24 e6 3d
       0.06071303 -0.034097463 0.016189259 0.112373695
000330 2c ac f0 3c cf 4e 01 3e bd cf c1 3c ad a1 8a 3d
       0.029378973 0.1262772 0.023658628 0.067691185
000340 71 da 68 3b 79 14 14 3c 26 dc bd 3d 16 96 ec 3d
       0.0035530592 0.009038084 0.092705056 0.11552064
000350 e4 bb 96 3d 84 a7 d6 3d ad 9d 5a 3d ee 8d e7 3a
       0.07360056 0.1048117 0.053373028 0.00176662
000360 85 e6 f1 3d b1 a1 87 3d 7c ec 9d 3d 6c 3a 6c 3c
       0.11811546 0.06622637 0.077111214 0.014418226
000370 54 5f 16 3e c5 7c 83 3d 71 0f e7 3d 33 f0 90 3c
       0.14684802 0.06420282 0.11282242 0.01769266
000380 8d 56 2b 3d b0 52 6c 3d ca fc 17 3d dc 0d ce 3d
       0.041830588 0.057696044 0.037106313 0.10061237
000390 15 b8 ba 3d 69 ac 51 3d 99 52 0c 3e d3 f5 e3 3d
       0.09117142 0.051189814 0.13703384 0.111308716
0003a0 0e 5a 2b 3d 1b 43 ce 3d d0 c8 0a 3e e3 cc f1 3d
       0.04183393 0.10071393 0.13553166 0.11806657
0003b0 8a 45 56 bc 5a 28 f6 3d 28 cf b7 3c 7c a5 bf 3c
       -0.013078103 0.12019415 0.022437647 0.023394339
0003c0 5e 2a ce 3d 42 5a d9 3d 58 c5 00 3e 00 50 6e 3d
       0.10066675 0.106129184 0.1257528 0.058181763
0003d0 4f c4 07 3c a8 7d b3 bc 1e 7f 9d 3d 2a 43 a7 3d
       0.00828655 -0.021910504 0.07690261 0.081671074
0003e0 25 a5 86 3d b7 73 e5 3d 7f a4 b3 3c 0e be 87 3d
       0.065744676 0.112037115 0.021929024 0.06628047
0003f0 c2 50 b3 3d 13 82 7f bc f5 64 2f 3d 0f 4e e2 3c
       0.08755638 -0.015594977 0.04282089 0.027625112

lstm.bias_hh_l0 f4 [512]
000000 98 01 a7 3d d0 e3 96 3d ff e1 8f bd 13 ce 7e 3d
       0.08154601 0.073676705 -0.07025527 0.062208246
000010 6e 89 a1 3c 46 90 2b 3d 38 80 e8 bd a5 dd 96 3d
       0.019718852 0.041885637 -0.11352581 0.07366494
000020 0f d9 80 bd 57 8b e1 bc b9 50 d5 3d 16 78 4b bc
       -0.06291401 -0.027532263 0.10415787 -0.012418767
000030 f2 67 51 3c 7a 78 03 3c 23 09 e5 3d b2 1b c6 3d
       0.01278113 0.008024329 0.11183383 0.09673251
000040 ea 9d 38 3c b6 a0 03 3c e3 c4 6d 3d 75 4f 0c bd
       0.011268118 0.008033922 0.058049094 -0.034255464
000050 99 02 93 3c d9 1f 47 3d 89 8b 1a 3e e9 47 42 bd
       0.017945575 0.048614357 0.15092291 -0.04743186
000060 be 54 02 3d db 93 d4 3d ca dc 95 bb a1 3f 03 3d
       0.031819098 0.10379764 -0.0045734392 0.032043103
000070 bd ae 67 bc 66 9c 2d 3d da 1a 22 3d de 31 0d bc
       -0.014140782 0.04238548 0.03957639 -0.008617846
000080 42 51 0f bd 9d 69 70 bd c7 ed ab 3c 23 54 f6 3d
       -0.034989603 -0.05869447 0.020987405 0.120277666
000090 37 50 9b 3a 46 06 e5 bc 16 4d ab 3d 74 45 dc 3d
       0.0011849467 -0.027957093 0.08364312 0.10755435
0000a0 c0 b5 c2 bc 6c 53 aa 3c 4f ef cd 3d 18 1d 05 bd
       -0.023768306 0.020791732 0.1005541 -0.03249845
0000b0 1e 87 d0 3d c5 e8 81 3d 62 35 07 3c 5a 5b 09 3d
       0.101820216 0.063432254 0.008252474 0.033534385
0000c0 91 e8 b0 3d f9 5b bc 3d b8 36 0b 3e e8 cb ad 3c
       0.086381085 0.0919723 0.13595092 0.021215394
0000d0 56 c9 12 3e 45 4f 2f bd 78 11 07 3e a4 bc 87 bd
       0.14334616 -0.042800207 0.13190258 -0.06627777
0000e0 c1 83 ba 3d 0d 5b 44 bd d8 db 9b 3d db cd 11 3d
       0.09107161 -0.047938395 0.07610291 0.03559671
0000f0 07 bf f1 3d a4 67 0e 3e 05 f9 42 3e 19 fd 44 3c
       0.11804014 0.13906723 0.19040306 0.012023234
000100 61 cb f7 3c 5b 2b b7 3d 1c 4b a7 3d 93 80 10 3e
       0.030248346 0.08943816 0.08168623 0.14111547
000110 67 f0 46 bd 67 b0 c2 3d 88 38 14 3c 4c 33 c2 3d
       -0.04856911 0.09506302 0.009046681 0.0948244
000120 89 ae 4c bd 4c f7 04 3d 95 c1 16 3e 52 a7 c6 bc
       -0.049971137 0.032462403 0.14722283 -0.024249706
000130 7d 5a 37 bd ac ba a5 3d 09 6e 9e 3d 6b f5 0b 3d
       -0.04476403 0.080922455 0.07735831 0.034169596
000140 6f 47 b7 3d 2a b5 aa bd 65 e4 73 bc c1 32 8a 3d
       0.08949172 -0.083353356 -0.0148859965 0.06747962
000150 93 a4 04 bd d0 81 18 3b 0a bc 72 bd 0e e8 84 bc
       -0.032383513 0.0023270734 -0.05926136 -0.016223934
000160 33 32 80 3d 23 1e 1b 3e 35 cf 98 bd d1 6e 10 3d
       0.06259575 0.15148215 -0.074613966 0.035261933
000170 4d bb fa 3d f8 e4 31 3d a5 5d a7 bc 19 25 1b 3e
       0.12242756 0.043431252 -0.020430395 0.1515087
000180 39 e7 40 3e b4 8e cd 3d 5b 13 3a bd 62 e7 87 bd
       0.18838204 0.10036984 -0.045428615 -0.0663593
000190 9d 02 5a 3d 49 fc 0c 3e 10 9e 0e bd fa 85 b6 bc
       0.05322515 0.13768114 -0.03481871 -0.022280682
0001a0 54 7d 33 bd e5 f2 a6 bb 44 95 8f 3d b8 69 04 3e
       -0.043820694 -0.0050948733 0.07010892 0.12930954
0001b0 0e cd 17 3d 58 a9 22 bd 11 ec af bb 74 78 ae 3b
       0.03706079 -0.03971228 -0.0053687175 0.0053244177
0001c0 68 cb 98 3d 80 9b 53 bc 91 7c 78 3d 01 c2 6f bc
       0.07460672 -0.012915492 0.06066567 -0.0146336565
0001d0 37 b7 31 bd cc ee 15 3e 99 dd c4 3d 7e 23 87 3c
       -0.043387618 0.14641875 0.09612579 0.016496416
0001e0 65 4c 86 bd 2f cc b0 3c d1 0c 7d bb 6e b6 3a 3d
       -0.0655754 0.021581737 -0.0038612376 0.045584135
0001f0 0d 82 15 3e 72 33 9b bb e0 57 55 b9 d5 84 d9 3c
       0.14600392 -0.0047363574 -0.00020345999 0.026552597
000200 5f 93 94 3d 55 8b c5 3d 9c 60 1f 3e e8 bc cc 3b
       0.07254671 0.09645716 0.15564197 0.0062481053
000210 a1 db e6 3d d7 66 ba bc 90 ea b4 3d 2e e1 b9 3c
       0.1127236 -0.022754116 0.08833802 0.022690382
000220 b6 ab ac 3d a6 53 df 3d 6f 75 2d 3e d3 bc ca 3d
       0.08431189 0.109046265 0.16939329 0.098992966
000230 44 9e f2 3d 80 4c ec 3d f9 d0 ff 3d 31 fb 9d 3d
       0.11846593 0.11538029 0.1249103 0.077139266
000240 b5 69 00 bc e4 31 7e 3d 2b d6 00 3d 81 9b f8 3c
       -0.0078377025 0.0620593 0.031454246 0.030347588
000250 9d d5 76 3d d7 0d 9f 3d ab 33 9f bb c0 fb 0c 3e
       0.06026231 0.077663116 -0.004858454 0.1376791
000260 5f bf 64 bd 85 65 0a 3e 55 d8 62 3d 1a d9 85 3d
       -0.05584657 0.13515289 0.05538209 0.065355495
000270 7d d5 f6 3c 80 7d 77 3d 82 b0 56 bd 15 3e 0d 3e
       0.030131096 0.06042242 -0.052414425 0.13793214
000280 9b 1f 7e 3d 05 c0 cf 3c 4a 51 97 3d 31 de 84 3d
       0.06204186 0.025360117 0.073885515 0.06487692
000290 20 b0 7d 3c a3 45 76 bc 4f 16 7f 3d 68 62 80 bc
       0.015483886 -0.015031251 0.062277135 -0.015671924
0002a0 46 d1 16 3c 80 30 11 3c 82 85 67 3d 62 f7 d7 bb
       0.009205168 0.008861661 0.056523807 -0.0065907696
0002b0 53 48 e6 3d 05 4d 9a 3d 5e 58 3f 3e 28 a3 47 3d
       0.112442635 0.075342216 0.18686053 0.048739582
0002c0 72 d5 ef 3d 75 cb 21 3d 48 66 26 3e b2 71 1e 3d
       0.11710633 0.039500672 0.16249955 0.038682647
0002d0 9e b0 c6 3d 8d 52 47 3d 1e 3f 8a bb 7f f8 7e 3d
       0.09701656 0.04866271 -0.00421895 0.062248703
0002e0 9d df aa 3d 33 08 63 3d 35 20 35 3e 97 35 b6 3c
       0.08343432 0.05542774 0.17688067 0.02224235
0002f0 4d 38 b6 3d a4 c1 14 3d 22 ea 35 3e 5e 43 1a 3d
       0.08897457 0.036317483 0.17765096 0.037661903
000300 64 fd 04 3e a7 dd f9 3d 19 4e bc 3d c9 13 30 3e
       0.12987286 0.1220048 0.091945834 0.17195047
000310 6d 12 15 3d 8d e6 86 3d 4c 30 97 3c 3e 00 e5 3d
       0.036394525 0.06586943 0.018455647 0.11181687
000320 a7 62 01 3e 99 39 28 bb aa 62 9a 3d 70 90 4b ba
       0.12635289 -0.0025669097 0.0753835 -0.00077653583
000330 c4 5c fd 3d 84 5b b7 3c 75 21 be 3c c2 db 85 3d
       0.12371209 0.022382505 0.023209313 0.06536056
000340 3e 66 fa 3d 0c 2c 68 b9 ff 66 fc 3d 16 7c 03 3d
       0.122265324 -0.00022141653 0.123243324 0.03210076
000350 fb 24 9b 3d 36 7f 15 3e f4 f6 9e 3d ab d2 8f 3d
       0.07575413 0.14599308 0.07761946 0.070226036
000360 77 ae ff 3d 8b 3e 1f 3e ed d2 ca 3d 06 0c 1f 3d
       0.124844484 0.15551202 0.09903512 0.038829826
000370 56 30 f8 3b a4 b9 09 3e 20 88 99 3d 7a 39 58 3d
       0.0075741215 0.13449723 0.07496667 0.05278919
000380 87 2c 3a 3c 82 3f 00 3d 6e dd 50 bd d4 6b 75 3d
       0.011363155 0.031310566 -0.05099242 0.059917286
000390 88 b4 f6 3d 16 76 67 3c 36 6e 1b 3e c2 d6 8f 3d
       0.12046152 0.014127275 0.15178761 0.07023384
0003a0 4f 06 e9 3d c3 94 ad 3c 78 49 99 3d b8 61 c7 3b
       0.113781564 0.0211891 0.07484716 0.006084647
0003b0 aa 3f 7f bc 89 a4 9c bc 9f a5 4a 3c ee 22 d1 3d
       -0.015579144 -0.019121425 0.012368589 0.102117404
0003c0 48 c2 88 3d 4c e5 34 3d 65 9a b5 3d f3 38 c1 3d
       0.06677681 0.044163987 0.08867339 0.0943469
0003d0 91 5e 63 bd 74 82 8f 3d ce 79 5e bd 2a 3e c6 3d
       -0.055510107 0.07007304 -0.05431538 0.096798256
0003e0 dd 7d 2f 3d 75 1a b8 bc 05 7d 7e 3d aa a7 24 bd
       0.042844642 -0.022473553 0.062130947 -0.04019896
0003f0 6a c8 e3 3c 98 6f 0f bd b2 49 d5 3c ad bd 93 3d
       0.027805526 -0.035018533 0.026036117 0.07213912

fc.weight f4 [24, 128]
000000 46 0c e6 bd c5 7a 0e bf 98 6d 99 3d 8d 13 d5 bd
       -0.1123281 -0.5565608 0.074916065 -0.1040412
000010 84 3c 29 bc da cf d6 3d 37 4a fb 3d e3 6c 71 bd
       -0.010329369 0.10488863 0.12270015 -0.058941733
000020 c7 95 3e 3e 59 72 76 bc bb 38 5a bc 05 a4 c0 bd
       0.18611823 -0.015041911 -0.01331919 -0.09406284
000030 a3 0e f9 3d 60 f3 e8 bc 6d 3a 94 bd 8e 1f 03 3e
       0.12160995 -0.028436363 -0.07237706 0.12805006
000040 08 ae 25 bd 6c 37 42 3d a4 fd af 3d 1f 81 5c bd
       -0.040449172 0.047416136 0.085933 -0.053834077
000050 53 c5 75 3e c4 ed 00 3e 45 89 9f 3d 0a 91 ad 3e
       0.24001054 0.125907 0.07789854 0.3389972
000060 28 02 ba 3d cc f3 12 bb 65 53 f6 3d 03 c7 4b be
       0.090824425 -0.0022423146 0.12027625 -0.19900136
000070 2e bc ba 3d 8e ec 32 be 26 43 42 3e 04 c0 4f bd
       0.09117924 -0.17473051 0.18970928 -0.05072023
000080 ac 12 a7 3d 0a 6b 01 be 28 26 9e 3e 42 dd 95 bd
       0.08157858 -0.12638488 0.30888486 -0.07317592
000090 2f 57 42 3e 05 57 8d 3d 95 ce c8 3e 37 33 1f 3e
       0.1897857 0.06901363 0.3922011 0.1554688
0000a0 76 0e 53 bc 9a 02 99 3d 15 d5 2a 3d 85 6e a0 3b
       -0.012881866 0.07471199 0.041707117 0.0048959875
0000b0 e5 26 12 3e c0 10 ce 3d 56 25 25 3d 4a 24 de bd
       0.1427265 0.100617886 0.04031881 -0.10846765
0000c0 eb 5d 25 3e 2e 55 08 be 69 c4 0b be ee 32 79 3c
       0.16149108 -0.13313743 -0.13649143 0.0152098965
0000d0 13 0d 91 3b ac b1 55 3d 09 28 fb 3d 5c 7f a6 be
       0.0044266074 0.052171394 0.122634955 -0.32519042
0000e0 93 c8 73 3c 6b 56 31 be e6 8b ae be 65 b3 86 bb
       0.014879364 -0.17318122 -0.3409111 -0.004110741
0000f0 71 c8 37 3e ca 24 c3 bd ce 7a a2 be ad 01 4b 3d
       0.17947556 -0.09528501 -0.31734318 0.049562145
000100 9f 39 e4 bd a5 eb 2f 3e 67 7f be 3c f5 58 81 3e
       -0.11143803 0.17179735 0.02325411 0.2526318
000110 1b 41 4e be 1a 15 05 3e 08 0a 9f bd 36 21 13 be
       -0.20142023 0.12996331 -0.07765585 -0.14368138
000120 1c 8c 3a 3d 57 3b 2d be 8e e0 94 3d 52 03 43 3e
       0.045543775 -0.16917168 0.07269393 0.19044235
000130 d0 b7 7a bd aa 1f c5 bd ef e4 bb bd 3c 48 be be
       -0.061210454 -0.0962518 -0.09174525 -0.37164485
000140 ce a1 a8 3b 89 23 2e 3e 7b b8 44 3e 9f 82 a6 bd
       0.0051462417 0.17005743 0.19210999 -0.08130383
000150 a5 9a f5 3c 0e 24 ff bb 8a 46 03 3e cd c0 27 3e
       0.029980967 -0.0077862805 0.12819877 0.16382141
000160 2d 31 66 bd 1f c6 d6 3d df 57 98 3d e6 69 1e bd
       -0.05619924 0.10487007 0.07438635 -0.03867521
000170 02 7c 7e bd c3 19 bd 3e 39 19 5b be 47 91 d9 bd
       -0.06212998 0.36933717 -0.2139634 -0.106234126
000180 42 25 be bc c1 f4 a3 bc 80 29 e3 b9 e2 53 68 3d
       -0.023211125 -0.020014169 -0.00043327734 0.056720622
000190 aa 58 85 3d 04 ff 64 bd d9 a7 fe bd 5a e3 ae 3b
       0.06511052 -0.055907264 -0.12434358 0.005337161
0001a0 64 30 0c 3e cb 59 94 3d 65 58 72 3d ee 7b 33 3e
       0.13690335 0.07243689 0.05916633 0.17527744
0001b0 f3 f0 08 3e 0c 57 25 be 68 70 a8 be 8b ed bc 3d
       0.13373165 -0.16146487 -0.3289826 0.09224995
0001c0 41 28 de bb af be 5c 3e f9 4b d3 3d 41 d2 35 be
       -0.006779701 0.21557115 0.10317225 -0.17755987
0001d0 35 58 f3 3d d7 63 44 3e 06 72 13 3e a9 6b 10 be
       0.118820585 0.19178711 0.14398965 -0.14103569
0001e0 ef f7 85 be d3 fc d6 bd 25 98 3d 3d d3 61 a5 bc
       -0.2616572 -0.10497441 0.046287674 -0.020188248
0001f0 f4 2e f2 bd 59 63 24 bd e4 49 26 3e 2f de 0f 3d
       -0.11825362 -0.040133808 0.16239125 0.035124
000200 46 c6 15 3e ab 7d 11 be ee 23 7c 3d c5 ba e6 3d
       0.14626417 -0.14208095 0.061557703 0.11266092
000210 99 98 24 be e6 e6 a8 3d b8 9b 37 3e 7c 01 22 be
       -0.16073836 0.082471654 0.17930496 -0.15820879
000220 52 3a 41 be 82 4e 24 bd 58 14 ad 3d a3 87 fb bd
       -0.18869904 -0.040113933 0.08451146 -0.1228173
000230 ec 64 e9 3d fd d8 94 bd 26 e7 80 bc c4 1f 23 bd
       0.113962024 -0.0726795 -0.01573522 -0.039825216
000240 93 1d 0f be 14 4d 17 3d ea 11 d3 3c e7 32 e8 bc
       -0.13976125 0.03693874 0.025765378 -0.028344585
000250 4c 97 0b be c3 2e f2 3d c0 fa c6 3d 4f a3 f0 bd
       -0.13631934 0.11825325 0.097157955 -0.11749899
000260 23 5f f6 bd 4d a1 94 3c bc a3 5d bd 0a 4d b0 3e
       -0.12029865 0.01814332 -0.054111227 0.34433776
000270 94 63 74 3b e3 a4 27 3e 6e f4 60 3e 51 42 ed bc
       0.0037290799 0.16371493 0.21968243 -0.028962286
000280 b1 77 97 3d 65 63 1c 3e 54 84 88 3e 44 5b 5a bc
       0.07395876 0.15272291 0.26663458 -0.0133274235
000290 c7 d2 ea 3c 0a 77 19 bd fc e8 d9 bd 56 2d f8 3d
       0.02866496 -0.03746704 -0.10640141 0.12118022
0002a0 ed 93 14 3d 22 d1 51 3e 19 65 fc bd 2b 74 95 bd
       0.036273886 0.20489934 -0.1232397 -0.07297548
0002b0 d0 3f 39 be d8 47 55 be c2 b4 98 be fa d2 ad 3d
       -0.18090749 -0.20828187 -0.29825407 0.08487506
0002c0 ac 93 16 3e cf ef 3b 3e ef 92 ad bc fd 87 8b bd
       0.1470477 0.18353198 -0.021188227 -0.06813047
0002d0 94 11 b3 bd ee 1d 5d 3d 2c 6d 9d 3d 9e c9 99 bd
       -0.08743587 0.05398362 0.076868385 -0.075091586
0002e0 38 46 28 be 2c 24 d3 3d 1b c9 0a be 6a fe 98 3c
       -0.16433036 0.103096336 -0.13553278 0.018676002
0002f0 dd 39 32 bd 7d 0b f5 be 91 27 1d 3d 3f cc ff bd
       -0.043512214 -0.47860327 0.03836781 -0.12490129
000300 4c 4f 05 bd a4 f3 e2 bd 7c 73 96 bd 4a d9 52 bc
       -0.032546327 -0.11081627 -0.07346246 -0.012869189
000310 c0 8e 78 3c 8a 54 78 be ad 30 0c 3c ca 13 a2 3d
       0.015170753 -0.24250999 0.008556527 0.07913931
000320 f5 db d1 b9 e1 70 f6 3b 53 13 0d bd 65 5e b4 bc
       -0.00040027467 0.0075207804 -0.034442257 -0.022017667
000330 0a 10 a9 bc 0b 6d da be 67 2b 08 be 45 e7 2e be
       -0.02063753 -0.42661318 -0.13297807 -0.1708041
000340 7a 0f 21 3d e8 4f 51 3c b6 fa d7 bd 03 e9 cb 3d
       0.0393214 0.012775399 -0.10545866 0.09956553
000350 81 9e 6b 3d 5f d7 e3 bd aa 9e a0 bd 06 aa f1 3d
       0.057524208 -0.11125063 -0.07842763 0.118000075
000360 f4 28 71 3e a7 73 82 bc de 88 4c be 9b 09 82 bd
       0.23550779 -0.015924288 -0.19974086 -0.06349488
000370 8d 30 70 bd bf 0d ed 3d b5 c8 22 3e 80 ab 78 3e
       -0.05864005 0.115748875 0.15896876 0.24284172
000380 02 8e ab 3d 95 b2 aa 3d 39 2a b4 3c 71 c7 13 be
       0.08376695 0.08334843 0.02199279 -0.1443155
000390 3b cd 1b 3c 83 26 31 3d 29 8f 7b 3d b2 8e f9 bd
       0.00950938 0.04324962 0.061415825 -0.1218542
0003a0 96 e5 f3 3d 65 e4 a4 3d 8c 0e a4 bd b1 e2 2b 3d
       0.119090244 0.08051375 -0.08010587 0.041964237
0003b0 28 70 ea 3d 2a 0b 6b 3d 82 d9 37 bd 29 a5 e6 3c
       0.11447173 0.057383694 -0.044885166 0.028154926
0003c0 ca cb 10 3e f6 df cc bd a4 be b3 be 42 7f b8 3d
       0.1414024 -0.10003655 -0.35106385 0.090086475
0003d0 14 c7 9d 3d 55 b6 4e be 5d dc aa bc fa 58 1f bf
       0.07703987 -0.20186742 -0.02085703 -0.6224514
0003e0 f6 1b 38 bd bc 67 db bd b9 5f 67 3d b1 4c 0a be
       -0.04494854 -0.10713145 0.056487773 -0.13505818
0003f0 ba 89 13 3e 62 bb 66 3d 0d a5 28 3e 6d e7 f7 bc
       0.14408007 0.056331046 0.16469212 -0.03026172

fc.bias f4 [24]
000000 16 40 92 3d cf 1c ac bd 1b 5a 8c bc 98 09 ab 3c
       0.0714113 -0.08403932 -0.01713281 0.020878598
000010 f3 c0 ce 3d 28 c1 5e bd 36 89 b3 bd 34 4b a7 3d
       0.10095396 -0.054383427 -0.08766405 0.08168641
000020 f5 06 a1 3d 87 91 42 3d 17 8d a0 bd 2a d0 13 bd
       0.07862655 0.047502067 -0.07839411 -0.036087193
000030 69 2a 89 bc 4f b3 09 3d 4d e4 c4 bd 8b f5 24 3d
       -0.016743856 0.033618268 -0.096138574 0.04027323
000040 9b e3 00 3d 4c 53 7b 3d c7 c1 f1 bd bf 7f 84 3d
       0.03146706 0.061358735 -0.11804538 0.06469678
000050 57 64 75 bd 72 b6 69 3d b5 f3 48 bc d6 17 c5 bd
       -0.059910145 0.05705876 -0.0122651355 -0.09623687
