results/models/normal/normal_acce-gyro_cnn-lstm_checkpoint.pt (torch_old, 351866 bytes, 8 tensors)

acce_gyro_layers.0.weight f4 [32, 6, 8]
-0.15656182 -0.13265328 -0.09414714 -0.302659 -0.11861741 -0.10788725 -0.1256106 -0.08724047
-0.22428623 -0.20074679 -0.02637708 -0.12255483 -0.021811485 -0.20644623 -0.029037755 -0.1600255
-0.061973117 -0.013858841 0.033597127 0.008315606 0.09149308 0.076658756 -0.026210133 -0.059722472
0.0007356799 0.024469202 -0.03444062 -0.010790492 0.12820148 -0.03925282 0.08511089 -0.031925507
0.1271354 0.047057632 -0.07390119 0.019070543 0.05381232 0.088533245 0.037452325 0.09603373
0.03358061 -0.05718944 -0.10893067 0.12139625 0.073297165 -0.13335198 -0.024287108 -0.044943348
0.17483464 0.09324793 -0.026960688 0.008069373 -0.11903858 0.11919584 0.056155235 -0.044580597
0.009849213 0.046876296 0.07563543 0.07226541 0.021817386 0.15944207 -0.072725244 0.08102661
0.00030823585 0.17832896 -0.05370834 -0.06759507 -0.05429045 -0.06643127 0.028230509 -0.0944928
0.27746975 0.06822991 0.26475188 0.102613755 0.17009954 0.1695168 0.018254265 0.19504076
0.043781593 0.04319137 -0.034076452 0.0055239657 -0.04640414 -0.08953176 -0.055142686 -0.09429544
0.092033505 -0.18379499 -0.06326089 -0.15346572 0.052151486 -0.1925557 0.029968426 -0.13929996
0.17319073 0.10594746 0.25996986 0.22548318 0.09250506 0.18986444 0.12253443 0.23134501
0.035261996 -0.14644891 0.024366884 0.14206083 -0.037354223 -0.04838417 -0.10861673 -0.06184155
-0.12510642 0.06351959 -0.057261854 0.033098157 -0.047256693 -0.049206067 -0.024103219 -0.09182239
-0.0417629 -0.051769663 0.12148258 -0.02332873 -0.03724937 -0.015274574 0.1159488 -0.031857144
-0.06485274 -0.015529756 0.034502793 -0.067506924 -0.07517084 -0.038116865 -0.07667441 -0.014561821
-0.06080785 -0.12946762 -0.078483626 -0.28121027 -0.089881025 -0.096375704 -0.28132075 -0.1699576
-0.09366864 0.046191886 0.030298831 -0.16812693 -0.064436555 -0.12347465 0.07450697 -0.15622835
-0.029744364 0.07355948 -0.042652562 -0.13029198 -0.07226439 -0.03699404 -0.19858097 -0.14201665
0.074410014 0.11371836 0.029591052 0.095080614 0.06510475 0.023210276 0.0299319 0.061307967
-0.11225765 -0.27504256 -0.24292588 -0.23767297 -0.26799247 -0.12851547 -0.29282764 -0.2716532
-0.08387225 -0.06964025 0.03372858 -0.20514189 -0.021126455 -0.0019005192 -0.09257434 0.06299137
-0.09794841 0.035343077 0.09101073 0.01901364 -0.04616081 -0.07805388 0.09515109 0.029559124
0.12295092 0.06854395 0.002137545 -0.14013818 -0.025439192 0.04708337 0.011188267 -0.014119668
0.059287835 0.008678175 0.070282616 0.013823746 0.14624895 -0.083491035 0.07994911 -0.010152045
-0.06962506 -0.004887252 0.12808509 0.11178012 -0.06846745 0.0055174828 0.10214144 -0.10216449
0.20250976 0.21768019 0.020343522 0.074677676 0.28191108 0.24503836 0.15165189 0.24049345
0.00063125073 -0.07208013 -0.061685752 0.12354962 0.039789677 0.00090286706 0.013840048 0.15901351
0.06923703 0.18382579 0.13480079 0.23150106 0.013886318 0.2177607 0.24439263 0.05438354
-0.07530848 0.15367764 -0.05286743 0.097651005 0.08577644 0.04400579 0.18305515 -0.09584987
0.10916869 -0.07270937 -0.08424087 -0.11089836 -0.0010875617 0.11418767 -0.100216605 -0.019669179
00000000: be51 20be 43d6 07be 37d0 c0bd 1ff6 9abe
00000010: afed f2bd fef3 dcbd 11a0 00be 22ab b2bd
00000020: 4aab 65be 9190 4dbe bf14 d8bc 07fe fabd
00000030: 00ae b2bc a466 53be 96e0 edbc badd 23be
00000040: 86d7 7dbd 3110 63bc 249d 093d 2e3e 083c
00000050: b960 bb3d 44ff 9c3d a2b6 d6bc 8d9f 74bd
00000060: a4da 403a a373 c83c 9c11 0dbd 9bca 30bc
00000070: 4047 033e 91c7 20bd 9e4e ae3d 52c4 02bd
00000080: c82f 023e 81bf 403d 8259 97bd d439 9c3c
00000090: 4f6a 5c3d eb50 b53d 9c67 193d 55ad c43d
000000a0: d28b 093d 793f 6abd 0b17 dfbd 999e f83d
000000b0: d31c 963d 6c8d 08be c2f5 c6bc 8416 38bd
000000c0: da07 333e c5f8 be3d a9dc dcbc 6735 043c
000000d0: 80ca f3bd f31c f43d 0803 663d 259a 36bd
000000e0: 985e 213c 5c01 403d c0e6 9a3d e3ff 933d
000000f0: 60ba b23c c844 233e f9f0 94bd 48f1 a53d
00000100: b79a a139 de9b 363e 47fd 5bbd 496f 8abd
00000110: aa5f 5ebd 1e0d 88bd ab43 e73c 7185 c1bd
00000120: 8410 8e3e 20bc 8b3d 8f8d 873e 2927 d23d
00000130: 932e 2e3e d095 2d3e f889 953c c4b8 473e
00000140: 5454 333d 6fe9 303d c093 0bbd 6202 b53b
00000150: 4412 3ebd 6d5c b7bd 4cdd 61bd f81d c1bd
00000160: 107c bc3d c134 3cbe ed8e 81bd 1e26 1dbe
00000170: cc9c 553d 522d 45be 5880 f53c a6a4 0ebe
00000180: e958 313e fbfa d83d c51a 853e 10e5 663e
00000190: 4b73 bd3d d36b 423e 55f3 fa3d b5e5 6c3e
000001a0: e26e 103d b4f6 15be 0f9d c73c 6578 113e
000001b0: be00 19bd 7b2e 46bd 7372 debd 914d 7dbd
000001c0: e61b 00be 8f16 823d 688b 6abd ef91 073d
000001d0: 3c90 41bd 4d8c 49bd 1d74 c5bc 610d bcbd
000001e0: 930f 2bbd 6d0c 54bd dccb f83d e51b bfbc
000001f0: cc92 18bd 3542 7abc 9176 ed3d a37c 02bd
00000200: 83d1 84bd 8570 7ebc cd52 0d3d 1241 8abd
00000210: 2bf3 99bd 6e20 1cbd 7907 9dbd b494 6ebc
00000220: a711 79bd 2993 04be 06bc a0bd cbfa 8fbe
00000230: 8b13 b8bd a060 c5bd 4609 90be 5d09 2ebe
00000240: 58d5 bfbd b433 3d3d 4135 f83c 7729 2cbe
00000250: 50f7 83bd 47e0 fcbd 1c97 983d 53fa 1fbe
00000260: 74aa f3bc 5aa6 963d 74b4 2ebd 436b 05be
00000270: 5aff 93bd 1087 17bd cf58 4bbe d06c 11be
00000280: 4764 983d 2ce5 e83d ef68 f23c a0b9 c23d
00000290: a455 853d 7a23 be3c be33 f53c 101e 7b3d
000002a0: 57e7 e5bd 61d2 8cbe 90c1 78be 8b60 73be
000002b0: 4f36 89be 8f99 03be 81ed 95be 2116 8bbe
000002c0: 37c5 abbd 8c9f 8ebd fb26 0a3d b710 52be
000002d0: 6311 adbc d81a f9ba 9e97 bdbd 9f01 813d
000002e0: 2d99 c8bd e7c3 103d d563 ba3d 7ec2 9b3c
000002f0: 1e13 3dbd b6da 9fbd 93de c23d fa25 f23c
00000300: b1cd fb3d c560 8c3d 0e16 0c3b 6280 0fbe
00000310: da65 d0bc 7eda 403d fe4e 373c 2e56 67bc
00000320: cdd7 723d e72e 0e3c 55f0 8f3d fe7c 623c
00000330: 49c2 153e 59fd aabd 5cbc a33d c354 26bc
00000340: 9597 8ebd 3e25 a0bb bd28 033e faec e43d
00000350: aa38 8cbd 00cc b43b 882f d13d 9e3b d1bd
00000360: b85e 4f3e 8ee7 5e3e 75a7 a63c 9cf0 983d
00000370: a656 903e 56eb 7a3e a24a 1b3e ea43 763e
00000380: 857a 253a bf9e 93bd 33aa 7cbd 9507 fd3d
00000390: 80fa 223d 62ae 6c3a 5ec1 623c 70d4 223e
000003a0: 25cc 8d3d d43c 3c3e 3809 0a3e 9d0e 6d3e
000003b0: 7083 633c a9fc 5e3e 1042 7a3e 46c1 5e3d
000003c0: 553b 9abd ac5d 1d3e 858b 58bd 40fd c73d
000003d0: 8fab af3d 6a3f 343d cf72 3b3e f04c c4bd
000003e0: d693 df3d a6e8 94bd 7a86 acbd ae1e e3bd
000003f0: 848c 8eba 3adb e93d 5d3e cdbd 4221 a1bc

acce_gyro_layers.0.bias f4 [32]
0.13418218 0.01020519 0.08759386 -0.02953759 0.08827057 -0.06084459 0.18444906 -0.0009684183
-0.010320368 -0.006189731 -0.005137243 0.21576048 0.015337734 0.016649362 0.25232437 0.15759388
0.12596652 0.2539374 0.29363355 -0.0035884099 -0.050595094 0.28337324 0.1955426 0.25578064
0.16675653 0.20024312 -0.08548982 0.1597918 0.1685941 0.17602387 0.18569216 -0.035545122
00000000: 0e67 093e ab33 273c 6964 b33d d1f8 f1bc
00000010: 33c7 b43d 2d38 79bd 37e0 3c3e 74dd 7dba
00000020: c316 29bc 3ad3 cabb 5156 a8bb 51f0 5c3e
00000030: 1e4b 7b3c 3e64 883c a930 813e 4a60 213e
00000040: 5efd 003e 1504 823e 2357 963e 872b 6bbb
00000050: cd3c 4fbd 4c16 913e 523c 483e aef5 823e
00000060: 39c2 2a3e 880c 4d3e 4915 afbd 76a0 233e
00000070: efa3 2c3e 9a3f 343e 1626 3e3e c397 11bd

lstm.weight_ih_l0 f4 [512, 32]
0.076641016 -0.017510958 0.1351944 0.0031859127 0.028189331 -0.052307982 0.14694075 -0.095040776
-0.01276198 -0.044726018 -0.035427697 0.036161907 -0.1332671 -0.026286798 0.13722745 -0.055090375
0.02943813 0.18151766 0.09824219 -0.030416694 0.0035199393 0.21747787 0.24249052 0.19125067
0.1945429 0.16960317 -0.044367652 0.1385099 0.081762135 0.2393952 0.018710067 -0.03407641
-0.08832297 -0.012727358 0.30560926 0.07976705 -0.032207154 -0.0297146 0.19756283 -0.009106028
-0.046803072 -0.05703646 -0.062129475 0.023732759 -0.08720815 -0.08372432 0.2014871 -0.041230116
0.02082662 0.07945262 0.113774866 -0.007970285 -0.03276829 0.07357593 0.058871776 0.2045585
0.24558531 0.2683245 -0.018399393 0.030107869 0.081395976 0.29328543 -0.04909768 0.028882213
-0.05902692 -0.029802447 -0.07412231 -0.20078538 0.07459474 -0.15618786 -0.030510869 -0.02518338
-0.20269758 -0.15836917 -0.26787832 0.19559154 -0.102415755 -0.09683489 0.22924386 -0.028580682
0.21572576 0.11023828 0.18229282 -0.18699402 -0.17899694 0.071159214 -0.06304372 0.10108211
0.057099357 0.14628914 -0.034551255 0.02109643 0.030634174 -0.08297322 0.08724977 -0.26524064
0.046622273 0.008288082 0.047870982 0.04892697 0.026382089 -0.073708445 -0.033591796 0.012041558
-0.1493545 0.06206429 -0.034853935 -0.022111375 -0.11741007 0.0033111959 0.06755345 0.06874416
0.027668774 -0.0111876335 0.056960832 -0.091314554 -0.12977724 0.23454095 0.03297319 0.09107613
0.013107073 0.14935417 -0.1534331 0.06267882 -0.004317559 0.13010773 0.04480749 -0.07519018
-0.0108582005 0.1059024 0.12873231 -0.087962784 0.102591045 -0.06769009 -0.045509126 -0.038650934
-0.058763538 0.03379279 -0.008793134 0.16240183 0.010265202 0.020846762 0.024850845 0.07723753
0.033102572 0.06672709 0.009963882 -0.014728781 -0.019472506 0.08617805 0.0953774 -0.022641052
-0.01918785 -0.015355822 -0.11791801 0.07362859 -0.042955533 0.1187593 -0.0074301194 -0.14585146
-0.090297684 0.049394205 -0.04925517 -0.24882329 -0.025829457 -0.21286099 -0.013385998 -0.032381356
-0.09994533 -0.14323692 -0.1787998 0.061679106 -0.10710273 -0.16816092 0.061549943 -0.11746723
0.016508572 0.017392164 0.06864984 -0.18717669 -0.015757298 -0.020058181 -0.08062104 0.1562952
-0.036692742 0.0010202873 -0.11695905 -0.07232568 0.033143073 -0.0045881574 -0.08061747 -0.19307987
0.050270494 0.08293036 0.013147523 0.009767129 0.05311315 0.028968805 0.01865851 0.13200356
0.0663167 0.039671883 -0.047856838 0.077449426 0.099751465 0.1006847 0.0124995075 0.14363919
0.090968676 0.11462694 0.0106130615 -0.03468125 0.070647456 0.09077528 0.0013815553 0.045372438
0.05206692 0.014260813 0.13783574 0.1019092 0.05370323 -0.016858 0.14339396 -0.06133112
-0.049381144 0.11369449 -0.043837663 -0.016682182 0.15154454 0.024764106 0.04264726 0.24977215
0.27076638 -0.026969729 0.12704904 -0.088173844 0.20582226 0.19574003 0.0370273 -0.015028192
0.02083154 -0.00796497 0.07962857 0.08720891 0.08150641 0.035689462 -0.01771402 0.01699447
0.013275961 0.060769036 0.14853488 0.080377065 0.13110568 0.07066537 -0.08894763 -0.022147754
00000000: f7f5 9c3d 2473 8fbc 6770 0a3e bfca 503b
00000010: 50ed e63c e540 56bd a377 163e bda4 c2bd
00000020: a017 51bc a132 37bd a21c 11bd 821e 143d
00000030: 2c77 08be 6957 d7bc 5a85 0c3e 72a6 61bd
00000040: 3c28 f13c c4df 393e 3433 c93d 6e2c f9bc
00000050: c8ae 663b 85b2 5e3e 6f4f 783e 37d7 433e
00000060: 4136 473e 74ac 2d3e dbba 35bd 8ad5 0d3e
00000070: e872 a73d 0424 753e db45 993c b593 0bbd
00000080: ace2 b4bd 6986 50bc d178 9c3e e85c a33d
00000090: a6eb 03bd 086c f3bc e94d 4a3e 7331 15bc
000000a0: 94b4 3fbd 109f 69bd 7a7b 7ebd 346b c23c
000000b0: 309a b2bd a877 abbd a252 4e3e e9e0 28bd
000000c0: 969c aa3c 0eb8 a23d cc02 e93d cc95 02bc
000000d0: 0b38 06bd faae 963d 8823 713d c977 513e
000000e0: b77a 7b3e d461 893e 53ba 96bc c7a4 f63c
000000f0: efb2 a63d 8229 963e a61a 49bd 649a ec3c
00000100: 36c6 71bd 4324 f4bc 70cd 97bd af9a 4dbe
00000110: 21c5 983d b6ef 1fbe eef1 f9bc 604d cebc
00000120: f48f 4fbe 872b 22be 5927 89be 2649 483e
00000130: 5abf d1bd 5f51 c6bd e7be 6a3e 0922 eabc
00000140: 37e7 5c3e 9bc4 e13d f8aa 3a3e 5c7b 3fbe
00000150: f94a 37be ecbb 913d 111d 81bd 2304 cf3d
00000160: 04e1 693d d2cc 153e 9e85 0dbd 6cd2 ac3c
00000170: 85f4 fa3c dded a9bd 02b0 b23d 9fcd 87be
00000180: fff6 3e3d bcca 073c 5d14 443d a667 483d
00000190: 401f d83c 74f4 96bd 8d97 09bd f449 453c
000001a0: 63f0 18be 2037 7e3d 00c3 0ebd ea22 b5bc
000001b0: b174 f0bd a600 593b 7759 8a3d bdc9 8c3d
000001c0: a0a9 e23c 564c 37bc c34f 693d 2003 bbbd
000001d0: 53e4 04be 812b 703e e50e 073d 1f86 ba3d
000001e0: 0cbf 563c 4df0 183e 911d 1dbe c15d 803d
000001f0: 4f7a 8dbb f63a 053e 0f88 373d 4ffd 99bd
00000200: 98e6 31bc 5ce3 d83d 67d2 033e d525 b4bd
00000210: 411b d23d 1aa1 8abd c767 3abd 7150 1ebd
00000220: 09b2 70bd 4f6a 0a3d 1411 10bc aa4c 263e
00000230: 612f 283c d4c6 aa3c 0094 cb3c b62e 9e3d
00000240: 9096 073d 36a8 883d 8d3f 233c fc50 71bc
00000250: ce84 9fbc 1e7e b03d 3a55 c33d ba79 b9bc
00000260: d72f 9dbc fc96 7bbc ff7e f1bd 96ca 963d
00000270: 24f2 2fbd 1338 f33d 5c78 f3bb 165a 15be
00000280: feed b8bd 9451 4a3d cabf 49bd 88cb 7ebe
00000290: 4c98 d3bc 3bf8 59be f250 5bbc 50a2 04bd
000002a0: 23b0 ccbd b3ac 12be 4b17 37be 3ba3 7c3d
000002b0: ad58 dbbd 6032 2cbe cb1b 7c3d a992 f0bd
000002c0: fc3c 873c 037a 8e3c 4a98 8c3d 3fab 3fbe
000002d0: 7315 81bc 0e51 a4bc a51c a5bd d90b 203e
000002e0: 214b 16bd 29bb 853a 3a88 efbd 7c1f 94bd
000002f0: 08c1 073d 4158 96bb c61a a5bd bbb6 45be
00000300: 6fe8 4d3d 65d7 a93d b568 573c 4f06 203c
00000310: 2d8d 593d fd4f ed3c bbd9 983c f12b 073e
00000320: 0dd1 873d fc7e 223d 8805 44bd ce9d 9e3d
00000330: 7f4a cc3d c833 ce3d bcca 4c3c 2716 133e
00000340: c94d ba3d 87c1 ea3d 68e2 2d3c ed0d 0ebd
00000350: 9daf 903d 64e8 b93d 4e15 b53a 73d8 393d
00000360: 1f44 553d 2fa6 693c d024 0d3e c5b5 d03d
00000370: ebf7 5b3d ca19 8abc ded5 123e 5736 7bbd
00000380: e243 4abd a8d8 e83d 1f8f 33bd 12a9 88bc
00000390: 7e2e 1b3e 18de ca3c e5ae 2e3d 45c4 7f3e
000003a0: e4a1 8a3e 9fef dcbc 2519 023e 7d94 b4bd
000003b0: 12c3 523e 1370 483e f0a9 173d ce38 76bc
000003c0: e8a6 aa3c 817f 02bc 4e14 a33d 969a b23d
000003d0: d5ec a63d 1d2f 123d fe1c 91bc fd37 8b3c
000003e0: 6b83 593c f4e8 783d 8719 183e bb9c a43d
000003f0: 9140 063e 01b9 903d 2d2a b6bd 356f b5bc

lstm.weight_hh_l0 f4 [512, 128]
-0.087688446 0.052699566 0.099355996 0.0917132 -0.05716309 0.046654567 0.06601326 -0.068935566
-0.0062657883 0.13173328 0.11641179 0.047343407 0.062106833 -0.035228606 -0.09776029 -0.017633075
0.06441863 -0.12465782 0.03839341 -0.10640682 -0.04251723 0.045125443 0.1018878 -0.07172026
-0.02663221 0.008116361 0.013145285 0.039967638 -0.0121375 -0.008971902 0.03672562 -0.06434284
-0.034509987 0.025642969 -0.02705641 -0.0656253 -0.071070686 0.0351122 -0.07047278 -0.021642318
0.032198876 -0.079369515 0.08555696 0.039235007 0.07569903 0.11981782 0.0012563607 0.035442762
-0.023536853 -0.014435353 -0.06555281 0.07425736 0.015145785 0.058179308 0.05421369 -0.012059321
-0.062530614 0.092944145 -0.035635468 -0.006827353 -0.11593832 0.062189974 0.110838465 -0.041108552
0.13381696 0.09033395 -0.02815931 -0.03938019 0.08085456 -0.023291297 -0.059354424 -0.0056100725
-0.06493343 0.09497605 0.00060124864 -0.024910998 0.041770782 0.053685494 0.028997703 0.036775075
-0.028502008 0.042036615 -0.14963342 -0.10023526 -0.09110797 0.13221985 -0.08532507 0.009548316
-0.06775966 -0.04364477 -0.03872584 0.06279436 -0.019605303 -0.041089702 -0.007929408 0.058699463
0.021187173 -0.039404534 -0.02836492 -0.02788955 -0.07492239 0.0059591723 -0.02654771 -0.0056045908
0.045363355 -0.1414395 -0.19467941 0.04840697 -0.11392939 0.091627024 0.04150075 -0.044742975
-0.10157639 0.09315689 0.041485693 0.020832362 -0.013364197 -0.14637515 0.09553888 -0.05246901
0.08077405 0.06453803 0.027407374 0.034285568 -0.044634484 0.042094667 0.012448887 0.075430185
-0.012005485 -0.021075739 0.029982215 0.0984493 0.018643918 0.06452562 0.040751867 -0.1360092
-0.048732877 0.027154546 0.06019668 0.049252465 0.00090656814 0.010781978 -0.004941088 0.059275344
0.015545847 -0.007988268 0.17738855 -0.06343169 -0.04132737 0.017238712 0.069408216 0.00984862
-0.08481799 -0.0202664 0.02054995 0.08631428 -0.0407014 0.01707429 0.04093432 0.008279639
0.07770973 -0.04878617 0.02424262 0.008922454 -0.068887725 0.0022724513 0.055618748 0.07487024
-0.05354273 0.063170806 -0.045825414 -0.14137866 0.118725464 -0.020070469 0.17332876 0.04465574
0.028736463 0.08990116 -0.0343773 0.100943774 0.05114912 0.09023667 -0.033991165 -0.08212497
-0.117648296 0.110770315 0.024072206 0.0910024 -0.02848111 -0.021220863 0.099856056 -0.097444974
-0.09261369 -0.033649214 0.0050949925 -0.015369492 0.045110784 0.070644446 0.0571666 -0.05177413
0.0016294061 -0.0064591216 -0.024898684 -0.15755959 0.05430682 0.0135657 0.015871223 -0.04546626
0.00013710407 -0.038719907 -0.0654092 0.053853694 -0.0025005445 0.046723586 -0.047288585 -0.067009255
0.014343103 0.048749357 0.122821234 0.017509494 -0.025320515 0.008661527 0.037667777 0.035209887
-0.06009202 0.057831455 0.11459253 -0.020735966 -0.059091114 0.02861057 -0.004874457 0.095621295
0.107763536 -0.014833068 -0.0061276774 -0.058688708 0.03839163 -0.037926313 0.12139243 0.021886094
0.05001586 0.16854472 -0.0760809 0.025942562 -0.0084170215 0.078903235 -0.024229541 -0.053925175
-0.057882037 0.10618577 -0.114982404 -0.0021864988 -0.05637064 0.028772468 -0.04604751 0.02074188
00000000: 0096 b3bd 80db 573d 287b cb3d 21d4 bb3d
00000010: d823 6abd dc18 3f3d f631 873d 172e 8dbd
00000020: 3e51 cdbb 17e5 063e 4e69 ee3d 29eb 413d
00000030: bc63 7e3d df4b 10bd 8c36 c8bd 3d73 90bc
00000040: eaed 833d 994c ffbd 6942 1d3d d2eb d9bd
00000050: 8c26 2ebd 75d5 383d 8daa d03d 12e2 92bd
00000060: cb2b dabc 7cfa 043c 525f 573c 1bb5 233d
00000070: 5ddc 46bc e2fe 12bc 9b6d 163d 2ec6 83bd
00000080: 585a 0dbd 3411 d23c 68a5 ddbc 8f66 86bd
00000090: 828d 91bd cfd1 0f3d 0854 90bd 3b4b b1bc
000000a0: f8e2 033d 7c8c a2bd 7d38 af3d e3b4 203d
000000b0: 1808 9b3d 0c63 f53d 78ac a43a 6e2c 113d
000000c0: 5cd0 c0bc 4282 6cbc 8d40 86bd 3e14 983d
000000d0: 0726 783c 6d4d 6e3d 2d0f 5e3d 7594 45bc
000000e0: 0d10 80bd 8059 be3d 7ff6 11bd fdb7 dfbb
000000f0: 1271 edbd eaba 7e3d 47ff e23d 7161 28bd
00000100: 5007 093e 0201 b93d 5aae e6bc 1f4d 21bd
00000110: 1397 a53d 64cd bebc a01d 73bd b3d4 b7bb
00000120: d1fb 84bd ce82 c23d 1d9d 1d3a 2612 ccbc
00000130: d717 2b3d 52e5 5b3d 978c ed3c 76a1 163d
00000140: 0b7d e9bc 962e 2c3d 8139 19be 2548 cdbd
00000150: d196 babd a464 073e e9be aebd 8a70 1c3c
00000160: 94c5 8abd dcc4 32bd fd9e 1ebd 549a 803d
00000170: 4d9b a0bc ad4d 28bd 59ea 01bc d96e 703d
00000180: b990 ad3c a666 21bd 8c5d e8bc a078 e4bc
00000190: e970 99bd 2945 c33b 957a d9bc b7a6 b7bb
000001a0: edce 393d 84d5 10be 0a5a 47be 6346 463d
000001b0: d053 e9bd f3a6 bb3d b1fc 293d 6944 37bd
000001c0: 4807 d0bd 0ac9 be3d e7ec 293d a1a8 aa3c
000001d0: 81f5 5abc 5ee3 15be e3a9 c33d bfe9 56bd
000001e0: dd6c a53d 842c 843d 6e85 e03c 066f 0c3d
000001f0: a6d2 36bd 756b 2c3d 6bf6 4b3c 247b 9a3d
00000200: a7b2 44bc 07a7 acbc 439d f53c c99f c93d
00000210: 21bb 983c 0226 843d 6eeb 263d ff45 0bbe
00000220: 209c 47bd 3673 de3c cb90 763d f4bc 493d
00000230: c2a6 6d3a e5a6 303c dae8 a1bb b4ca 723d
00000240: 02b4 7e3c 39e1 02bc 58a5 353e 79e8 81bd
00000250: e346 29bd 3338 8d3c e525 8e3d 1b5c 213c
00000260: 0eb5 adbd b905 a6bc 5e58 a83c 8bc5 b03d
00000270: 83b6 26bd 62df 8b3c bfaa 273d 53a7 073c
00000280: 4726 9f3d 02d4 47bd 7698 c63c 7c2f 123c
00000290: 0215 8dbd 68ed 143b 7cd0 633d 9255 993d
000002a0: 9f4f 5bbd b25f 813d 6eb3 3bbd 91c5 10be
000002b0: 5626 f33d d36a a4bc 187d 313e f0e8 363d
000002c0: bb68 eb3c 191e b83d 36cf 0cbd 9cbb ce3d
000002d0: bd81 513d 01ce b83d 523a 0bbd 2331 a8bd
000002e0: 97f1 f0bd 8cdb e23d 1333 c53c 775f ba3d
000002f0: 3851 e9bc 60d7 adbc 5581 cc3d 3b91 c7bd
00000300: 3fac bdbd c2d3 09bd e5f3 a63b 52d0 7bbc
00000310: 16c6 383d 09ae 903d 8627 6a3d 1c11 54bd
00000320: cc91 d53a 0aa7 d3bb 53f8 cbbc 4d57 21be
00000330: d470 5e3d ab42 5e3c 5e04 823c d43a 3abd
00000340: 98c3 0f39 c498 1ebd 42f5 85bd b195 5c3d
00000350: 2de0 23bb 3b61 3f3d adb1 41bd 263c 89bd
00000360: 56ff 6a3c 68ad 473d b389 fb3d 1270 8f3c
00000370: f86c cfbc 14e9 0d3c 8749 1a3d 3e38 103d
00000380: 0d23 76bd ade0 6c3d 7daf ea3d 79de a9bc
00000390: 8609 72bd b760 ea3c e9b9 9fbb 19d5 c33d
000003a0: 21b3 dc3d 6506 73bc afca c8bb 9263 70bd
000003b0: 8b40 1d3d 9f58 1bbd 989c f83d 774a b33c
000003c0: 6edd 4c3d fd96 2c3e 4ed0 9bbd 7f85 d43c
000003d0: 8ce7 09bc 0598 a13d 087d c6bc a5e0 5cbd
000003e0: b715 6dbd ed77 d93d e57b ebbd 5d4b 0fbb
000003f0: e6e4 66bd 3db4 eb3c 509c 3cbd e0ea a93c

lstm.bias_ih_l0 f4 [512]
0.07387108 0.06336542 0.017167332 -0.020190105 0.04466264 -0.06643709 0.14004491 0.0020401385
0.015018014 0.12671746 -0.04182603 0.0060347477 0.057210352 -0.0027367088 0.072117254 0.09813673
0.026315955 0.053644814 -0.08967472 -0.040234674 0.012984072 -0.005281713 -0.030482981 0.055852473
0.088334076 -0.085990325 0.1206032 0.109511904 0.013449528 0.14010869 0.06466423 0.074683554
0.020825768 0.11294807 0.08730317 0.0652921 -0.006456894 0.14117642 0.033502378 -0.028101126
0.029318012 0.10115564 0.087264426 0.12955137 0.020365352 0.0990913 0.10124656 0.14155917
0.072849326 0.08563958 0.11733518 0.062199984 -0.018902367 0.05297867 0.072539374 0.09465059
-0.09091581 0.12625028 0.021259472 0.1259385 0.10727514 -0.0033313876 0.012106542 0.02359737
0.09093755 -0.05353327 -0.03710639 0.027979076 0.12760101 0.056697387 -0.048519153 -0.017313741
0.1304176 0.071022026 0.017627439 -0.043446742 0.0040239557 0.08484628 0.11327859 0.06344074
0.007848105 -0.022153398 0.08340522 -0.04255318 0.031594004 0.056266174 -0.11320313 -0.039145254
0.042229347 0.062510535 0.11248479 0.05405403 0.068520814 0.081020474 0.036208823 -0.05310849
0.006305401 -0.008626133 0.11668549 -0.054399982 -0.0021840301 0.050186045 -0.06275908 0.12850964
0.02968753 0.0814884 0.13427213 0.06929088 0.056632526 0.10057517 0.09581398 -0.003577901
0.052630924 0.11147924 -0.06729477 0.06730097 0.036908586 0.22249624 0.03501297 -0.03792814
0.047667377 0.15027486 0.03860141 -0.058220174 0.09207568 0.008636104 -0.021524452 0.17756948
-0.017820908 0.14736432 0.14507706 0.123786084 0.0025231147 -0.0018874427 0.1448154 0.087307684
-0.030020893 0.11421874 0.06645095 0.060908653 0.01792917 0.07110111 -0.017277779 -0.016148113
0.013816299 -0.014866396 0.109037936 -0.031852204 -0.04963907 0.15929347 0.104757324 0.12914237
0.03663063 0.08854794 0.013007245 0.05505741 -0.013965076 0.043842677 0.034376632 -0.009412197
0.057134748 0.034125585 -0.059584495 -0.0050935363 -0.099363856 -0.030791571 0.04399993 0.007778452
0.033364788 0.11826218 0.1602222 0.042735767 0.0032093693 0.144484 0.07328264 0.057469502
0.120529465 0.021256927 -0.0005468225 0.019298559 0.030328693 0.099674374 0.08487551 0.09146369
0.027184928 -0.059039466 0.06933932 0.14143689 0.0486225 0.026126353 0.03411391 0.0048960214
0.13835256 0.044472203 0.058417328 0.14393505 0.16788357 0.11575569 0.026323121 0.05808372
0.018038027 -0.0032819344 0.057364594 -0.0098015955 0.006427741 0.04961706 -0.020356445 0.10707841
-0.015256331 -0.011311578 0.024593864 0.07063997 0.039973266 0.1401488 0.07115458 0.14988892
0.0037242356 0.08160091 0.036258887 0.03892861 0.0087141255 0.0439376 0.11379537 0.004668023
0.09820955 0.022319444 0.052551117 0.03319174 0.12374816 0.12376588 0.00085584325 0.052900992
0.11781789 0.06306869 0.09200409 0.14949188 -0.0075428416 0.1169168 -0.005354643 -0.006618687
0.10341715 0.082400724 -0.01608081 -0.032840706 0.12103319 0.05102315 -0.04102007 0.09525633
0.12440882 0.039644256 0.08347508 0.13188396 0.12991033 0.10057922 0.0858256 0.13796286
00000000: b949 973d bbc5 813d 81a2 8c3c b865 a5bc
00000010: 2cf0 363d 2b10 88bd ef67 0f3e d8b3 053b
00000020: 1e0e 763c 39c2 013e c551 2bbd 22bf c53b
00000030: 6755 6a3d 5b5a 33bb 36b2 933d e9fb c83d
00000040: 8f94 d73c aaba 5b3d 61a7 b7bd 1dcd 24bd
00000050: 25bb 543c 3812 adbb 72b7 f9bc 90c5 643d
00000060: 7fe8 b43d b21b b0bd cffe f63d c747 e03d
00000070: 695b 5c3c a778 0f3e ae6e 843d b1f3 983d
00000080: cd9a aa3c 5151 e73d 01cc b23d ddb7 853d
00000090: 5a94 d3bb 8d90 103e ca39 093d 5534 e6bc
000000a0: 542c f03c b02a cf3d b1b7 b23d 1da9 043e
000000b0: 3dd5 a63c 61f0 ca3d 5b5a cf3d e3f4 103e
000000c0: 0732 953d ce63 af3d 6d4d f03d 69c5 7e3d
000000d0: 23d9 9abc 2900 593d 868f 943d 2bd8 c13d
000000e0: 1132 babd c147 013e 5828 ae3c 06f6 003e
000000f0: 12b3 db3d 6953 5abb 845a 463c 464f c13c
00000100: 773d ba3d b445 5bbd dffc 17bd 6034 e53c
00000110: d7a9 023e 853b 683d 05bc 46bd 8cd5 8dbc
00000120: 318c 053e ff73 913d 6b67 903c 36f5 31bd
00000130: 63db 833b e3c3 ad3d 9bfe e73d 38ed 813d
00000140: 5795 003c 0b7b b5bc 5bd0 aa3d 3e4c 2ebd
00000150: b768 013d 5c77 663d 0bd7 e7bd c656 20bd
00000160: aef8 2c3d 8605 803d 6d5e e63d c267 5d3d
00000170: a454 8c3d 10ee a53d b44f 143d 4a88 59bd
00000180: 8a9d ce3b a054 0dbc cdf8 ee3d 84d2 5ebd
00000190: f221 0fbb e28f 4d3d d587 80bd 0898 033e
000001a0: 4333 f33c 64e3 a63d a27e 093e 60e8 8d3d
000001b0: 82f7 673d 5bfa cd3d 1f3a c43d 387b 6abb
000001c0: 8693 573d 3a4f e43d d7d1 89bd 17d5 893d
000001d0: 752d 173d 0ed6 633e c369 0f3d 8a5a 1bbd
000001e0: de3e 433d a7e1 193e 831c 1e3d 4778 6ebd
000001f0: 2d92 bc3d 727e 0d3c 0c54 b0bc c6d4 353e
00000200: 27fd 91bc ace6 163e 158f 143e 8f83 fd3d
00000210: d75a 253b 1164 f7ba 7d4a 143e 5fce b23d
00000220: 60ee f5bc 84eb e93d 7017 883d 5a7b 793d
00000230: 32e0 923c 759d 913d 218a 8dbc 0c49 84bc
00000240: c25d 623c 2f92 73bc 484f df3d 7577 02bd
00000250: 5652 4bbd d41d 233e 028b d63d e63d 043e
00000260: 000a 163d 9f58 b53d 571c 553c e183 613d
00000270: c6cd 64bc 6194 333d 83ce 0c3d 9e35 1abc
00000280: 2006 6a3d 45c7 0b3d df0e 74bd aee7 a6bb
00000290: 477f cbbd 9b3e fcbc 4539 343d 62e2 fe3b
000002a0: 84a9 083d 7133 f23d 4a11 243e b30b 2f3d
000002b0: 4854 523b 9df3 133e 3515 963d 2465 6b3d
000002c0: 27d8 f63d 0223 ae3c a358 0fba 0318 9e3c
000002d0: e173 f83c 1422 cc3d 36d3 ad3d 5151 bb3d
000002e0: edb2 de3c 5ed3 71bd c601 8e3d d5d4 103e
000002f0: 6328 473d ef06 d63c 07bb 0b3d ce6e a03b
00000300: 4bac 0d3e 7c28 363d 0247 6f3d b663 133e
00000310: ace9 2b3e 5211 ed3d 96a3 d73c 32e9 6d3d
00000320: 7cc4 933c b915 57bb 23f7 6a3d df96 20bc
00000330: cd9f d23b 423b 4b3d 8fc2 a6bc ed4b db3d
00000340: b1f5 79bc 3254 39bc 1279 c93c b0ab 903d
00000350: 02bb 233d 2b83 0f3e 7eb9 913d 7b7c 193e
00000360: 4e12 743b 611e a73d 3384 143d 9b73 1f3d
00000370: b1c5 0e3c eaf7 333d 8c0d e93d 37f6 983b
00000380: 1722 c93d 44d7 b63c d73f 573d 10f4 073d
00000390: ad6f fd3d f778 fd3d ab5a 603a b6ae 583d
000003a0: 824a f13d 282a 813d a46c bc3d 6614 193e
000003b0: f129 f7bb 1372 ef3d 0076 afbb 92e1 d8bb
000003c0: 5fcc d33d b6c1 a83d e7bb 83bc fa83 06bd
000003d0: 40e0 f73d a7fd 503d a904 28bd c015 c33d
000003e0: 0dca fe3d 0462 223d fcf4 aa3d 970c 073e
000003f0: 3707 053e 7afc cd3d 55c5 af3d 2346 0d3e

lstm.bias_hh_l0 f4 [512]
0.09854778 0.17391568 0.09101205 0.08401823 -0.006719076 0.08059324 -0.021374961 0.0094310595
-0.03593486 0.16722874 0.06522762 0.03922143 -0.0038174556 0.09531911 0.0011673392 0.10951448
0.13626212 0.18501832 -0.013517509 -0.037553936 0.016251251 0.06818898 -0.06193675 0.12105958
0.025011586 -0.06397139 -0.012677842 0.061834507 0.0871715 0.11773472 0.09957092 0.06163345
-0.015524379 -0.016947487 0.033834796 0.15255497 0.03824154 0.13607688 -0.028627941 0.026236508
0.07561888 0.035823245 -0.008007323 0.09890185 0.019317966 -0.0335302 0.11888138 0.13466147
-0.015312419 0.048982106 0.08225517 0.00039334362 0.13041939 0.036211155 0.010031687 0.04353345
-0.07221627 0.108524166 0.100697085 0.08796519 -0.011769951 0.040227283 -0.046998516 0.030150924
0.09706251 -0.0631056 0.1129052 -0.003636442 0.07170048 0.043270092 0.057371285 -0.006813109
0.08053982 0.0477015 0.1319392 -0.04313194 0.06252646 0.119862475 0.11904941 -0.0135302
0.09200456 0.12053213 0.014866831 0.028197184 0.09907845 0.025352089 0.008272411 -0.047334358
0.060344297 0.01003903 0.158853 0.039110724 0.20401739 0.060645845 0.099467464 0.034189954
-0.040641107 0.103824615 0.070576176 0.105577864 0.02441127 0.009982013 0.069089696 0.12462556
0.056913067 -0.046863206 0.065518476 -0.010906317 0.04258619 -0.050021503 -0.013744615 0.11404403
0.053618174 0.1452817 -0.013309211 -0.025939502 0.13203388 0.13151766 -0.038861457 -0.020873422
0.07139922 0.020263027 0.07328456 -0.0291301 0.01812369 0.09006445 -0.0076188487 0.058867276
0.12357879 0.101980805 0.15487413 -0.04489785 0.0869587 -0.026396688 -0.011649996 -0.048109796
-0.0042768647 0.009381222 0.07253755 0.042132333 0.10345917 -0.049303114 0.09782326 0.13394614
0.07121157 -0.019344335 -0.0053951726 -0.03985676 0.11827266 0.10131837 -0.03439253 0.1048256
0.041123092 -0.040894724 -0.0041738455 0.08548528 0.029088868 0.18584444 0.099363126 -0.017948102
0.1395434 0.010575724 -0.018060055 0.1316478 -0.048263796 -0.017972643 0.13833198 0.005783326
0.08338849 0.01025936 0.11711212 0.15802227 0.066313386 0.10752052 0.011179857 0.016118241
-0.0050427183 0.12858786 0.022305729 0.017101511 0.006362662 0.05866244 0.11603919 0.008243523
0.05319605 0.0646085 0.018249689 0.01046708 -0.037569936 0.09275807 -0.054132015 0.082016364
0.13496648 -0.00025774527 0.017375508 0.08721102 0.017442787 0.02809095 0.03706289 0.10647643
-0.017386999 0.059599277 0.08747569 -0.0074057495 0.023527265 -0.046234507 0.093663104 0.14645825
0.09423512 -0.059808318 -0.025328547 0.12220322 0.03341168 0.09064581 0.04607634 0.021079572
0.13607861 0.07932167 0.06385448 0.08222609 0.06715378 0.023519814 0.13223869 0.0057234014
0.061818633 0.10206133 0.15835166 0.007929577 0.11613609 0.09022982 -0.055538762 0.06559073
0.12661172 0.107177906 0.043029066 0.117010504 -0.03962791 0.12284913 0.0033075681 0.009631884
0.12358761 0.122068316 0.023579111 0.11656122 0.019981407 -0.007842902 0.078399844 0.02706867
-0.022029884 0.14161488 0.07331303 0.10497459 0.0302629 0.112136915 0.03278781 0.0661272
00000000: 6bd3 c93d f416 323e 8764 ba3d c011 ac3d
00000010: b22b dcbb 120e a53d 8b1a afbc bb84 1a3c
00000020: 6f30 13bd 033e 2b3e 0f96 853d a6a6 203d
00000030: 472e 7abb aa36 c33d 6701 993a 2149 e03d
00000040: 4c88 0b3e 7175 3d3e 8b78 5dbc 28d2 19bd
00000050: 5821 853c aaa6 8b3d 64b1 7dbd 16ee f73d
00000060: 19e5 cc3c 6f03 83bd b9b6 4fbc 2e46 7d3d
00000070: f986 b23d e71e f13d d7eb cb3d 5b73 7c3d
00000080: f759 7ebc 75d5 8abc 5b96 0a3d 5f37 1c3e
00000090: 29a3 1c3d bd57 0b3e 2585 eabc f2ed d63c
000000a0: 12de 9a3d 65bb 123d 2631 03bc 0e8d ca3d
000000b0: b640 9e3c f756 09bd 1578 f33d b2e4 093e
000000c0: f1e0 7abc 76a1 483d 6675 a83d b039 ce39
000000d0: a98c 053e 2652 143d f25b 243c 2250 323d
000000e0: 20e6 93bd eb41 de3d 463a ce3d 1827 b43d
000000f0: c1d6 40bc 5dc5 243d 8481 40bd 12ff f63c
00000100: b6c8 c63d 823d 81bd d73a e73d 5f51 6ebb
00000110: b4d7 923d fb3b 313d 27fe 6a3d 8040 dfbb
00000120: 10f2 a43d a662 433d 121b 073e 1eab 30bd
00000130: df0d 803d 757a f53d 2dd0 f33d c6ad 5dbc
00000140: e36c bc3d 8dd9 f63d 0294 733c c8fd e63c
00000150: a4e9 ca3d 2faf cf3c 0289 073c ace1 41bd
00000160: 952b 773d be7a 243c 5caa 223e 9132 203d
00000170: efe9 503e c767 783d 99b5 cb3d c40a 0c3d
00000180: 4a77 26bd 00a2 d43d 3e8a 903d 3539 d83d
00000190: 25fa c73c 998b 233c e67e 8d3d b03b ff3d
000001a0: ad1d 693d a2f3 3fbd 8d2e 863d 69b0 32bc
000001b0: db6e 2e3d 59e3 4cbd 1831 61bc eb8f e93d
000001c0: bb9e 5b3d bac4 143e e00e 5abc 147f d4bc
000001d0: e433 073e 91ac 063e 312d 1fbd bdfe aabc
000001e0: c139 923d a6fe a53c 3716 963d 3fa2 eebc
000001f0: 2278 943c b673 b83d 89a7 f9bb d01e 713d
00000200: e016 fd3d 50db d03d 5397 1e3e cfe6 37bd
00000210: 6717 b23d de3d d8bc a0df 3ebc c70e 45bd
00000220: f124 8cbb b2b3 193c 918e 943d f492 2c3d
00000230: 67e2 d33d 10f2 49bd 9057 c83d 2d29 093e
00000240: 5fd7 913d 0378 9ebc fdc9 b0bb d840 23bd
00000250: f038 f23d 0180 cf3d 2edf 0cbd ceae d63d
00000260: b070 283d 3a81 27bd c1c4 88bb e812 af3d
00000270: c74b ee3c 014e 3e3e e57e cb3d e607 93bc
00000280: 77e4 0e3e cd45 2d3c aef2 93bc aece 063e
00000290: 42b0 45bd 5d3b 93bc e6a6 0d3e 0e82 bd3b
000002a0: 96c7 aa3d e016 283c 7bd8 ef3d 97d0 213e
000002b0: 50cf 873d b833 dc3d b82b 373c 670a 843c
000002c0: 633d a5bb 89ac 033e 81ba b63c 7818 8c3c
000002d0: e17d d03b 0748 703d f4a5 ed3d d70f 073c
000002e0: 1ae4 593d 7651 843d 5f80 953c 1e7e 2b3c
000002f0: efe2 19bd f1f7 bd3d 88b9 5dbd 32f8 a73d
00000300: a734 0a3e fc21 87b9 1557 8e3c b19b b23d
00000310: 2de4 8e3c fe1e e63c 42cf 173d 5110 da3d
00000320: 2e6f 8ebc 5f1e 743d 7426 b33d eeab f2bb
00000330: 40bc c03c 6560 3dbd 71d2 bf3d 27f9 153e
00000340: 58fe c03d 91f9 74bd d07d cfbc af45 fa3d
00000350: b0da 083d 83a4 b93d 8bba 3c3d 11af ac3c
00000360: 3158 0b3e 6673 a23d 23c6 823d 2766 a83d
00000370: ec87 893d a0ac c03c 9469 073e 5f8b bb3b
00000380: 8935 7d3d 8805 d13d f026 223e 0eeb 013c
00000390: c2d8 ed3d 69ca b83d 9d7c 63bd 6f54 863d
000003a0: 81a6 013e 1780 db3d 3f3f 303d 34a3 ef3d
000003b0: e050 22bd 5398 fb3d c9c3 583b 0dcf 1d3c
000003c0: 801b fd3d f4fe f93d fb28 c13c a6b7 ee3d
000003d0: 0cb0 a33c 847f 00bc 1990 a03d 1ebf dd3c
000003e0: 0478 b4bc 7e03 113e 2425 963d ebfc d63d
000003f0: e7e9 f73c 0aa8 e53d 834c 063d b36d 873d

fc.weight f4 [24, 128]
0.05457452 0.11603458 -0.61182904 -0.26300076 0.025910683 0.02008335 -0.15946895 -0.058588658
-0.0047045695 0.15967919 -0.17400192 -0.20119952 0.07460925 0.13647665 0.0067570857 -0.02778202
-0.081409186 -0.14892527 0.0031652814 0.014367458 0.09091233 -0.11761565 -0.64682126 -0.042437408
0.17557828 -0.10765674 -0.06461804 0.27459034 0.163006 0.14418858 0.116033874 -0.17681688
0.090991594 -0.09773326 -0.29224604 0.18064198 0.18276744 0.04655457 0.076129965 -0.01842422
0.13549504 0.06850571 0.069508925 0.2863752 0.00096165674 -0.10740565 -0.37799388 -0.28086245
-0.0109787835 -0.021064889 -0.020312248 -0.014640975 -0.3260634 -0.030970065 0.06570848 0.09207421
-0.12889548 -0.19794706 0.09839436 0.21167895 0.48790023 0.0522835 -0.10059092 -0.44681647
-0.29106268 0.07998538 -0.04346993 0.081462696 0.009136469 -0.06576869 0.17469086 0.11140962
0.18448949 0.11079417 -0.1949409 -0.097175516 -0.03850247 -0.0063571967 -0.042304214 0.11653049
-0.033818994 0.13144404 0.04696294 -0.048151433 -0.13254583 0.071160465 -0.112992905 -0.16837883
-0.09035004 0.021252722 -0.0346828 -0.113877185 -0.32451448 0.04822665 -0.055513263 0.05343191
-0.03886405 -0.02049109 0.15650354 0.07953331 -0.026488459 -0.06442486 0.43701634 0.077812985
0.12906767 -0.04096275 -0.046065863 0.09077746 0.41180885 0.038291574 -0.048987966 -0.08649495
-0.08007056 -0.30843732 0.08335138 0.08640427 0.24957293 -0.24731475 -0.13037837 -0.07600756
0.052362826 -0.043529063 -0.0198503 0.016399989 -0.1293482 0.2813595 0.015159158 -0.02937396
-0.1361786 -0.3311545 -0.012951128 -0.048243165 -0.11988024 0.2562562 0.075071014 -0.083667696
-0.0841628 -0.073988706 0.23696822 0.015113637 0.054975912 0.011064215 0.17031749 0.18368824
0.009731322 -0.053200636 -0.21264128 -0.07020875 0.10881299 0.089509405 0.21660493 0.1322337
0.03937004 0.25095153 0.08005232 -0.0534754 0.15959588 0.3942718 -0.20684099 0.09699071
0.1685142 -0.030628065 0.033485156 -0.1251552 -0.088634394 0.13763031 -0.1703948 -0.13485947
-0.10222953 -0.10722969 0.08507349 0.06419255 -0.09479602 0.271753 0.050704345 0.033095866
0.032838665 0.069322675 -0.2521429 0.0027547942 -0.061649546 0.09288891 0.00834732 0.03214215
0.15751953 0.032282144 -0.06567663 -0.03800696 -0.26028225 -0.12231936 0.099092685 0.029505398
-0.11922288 -0.17813413 -0.29758012 -0.1449331 -0.24815327 -0.22406065 0.1325727 -0.16778657
0.033313897 -0.11467047 0.11431818 0.008883185 -0.06461199 -0.16070415 -0.14699702 -0.1448547
0.09022197 0.05994656 -0.20708625 0.08804126 -0.065138735 0.16573912 0.07203148 0.05536104
0.025176454 0.13682786 0.09655166 0.21900085 0.05244065 -0.35628444 0.18791029 -0.60381544
0.12843727 0.11052241 0.113129206 -0.15066025 -0.24943167 0.13944484 -0.020118618 0.14883664
0.19125836 0.041201394 -0.058310345 -0.035223816 -0.042380396 0.2974733 0.08733955 0.34344298
-0.0010810001 0.06821702 -0.033490136 0.2042735 -0.08710996 0.15977934 0.018568499 0.3008755
-0.09789889 -0.07814946 0.061711274 0.13576418 0.23137245 -0.15122317 -0.10775602 0.08173934
00000000: 8889 5f3d 8aa3 ed3d d4a0 1cbf 09a8 86be
00000010: a442 d43c d685 a43c d44b 23be a9fa 6fbd
00000020: ca28 9abb f182 233e 8f2d 32be 3f07 4ebe
00000030: bccc 983d 89c0 0b3e 8b6a dd3b 1e97 e3bc
00000040: dcb9 a6bd de7f 18be 9c70 4f3b 7d65 6b3c
00000050: 3e30 ba3d 79e0 f0bd 1496 25bf d9d2 2dbd
00000060: cbca 333e 237b dcbd 7756 84bd 1b97 8c3e
00000070: 0beb 263e 2ca6 133e 2ba3 ed3d 7c0f 35be
00000080: cd59 ba3d 6028 c8bd 46a1 95be 36fa 383e
00000090: 6327 3b3e 01b0 3e3d 07ea 9b3d 64ee 96bc
000000a0: 36bf 0a3e b94c 8c3d b25a 8e3d c59f 923e
000000b0: b117 7c3a 7ef7 dbbd 6a88 c1be 34cd 8fbe
000000c0: 5be0 33bc 4690 acbc df65 a6bc b3e0 6fbc
000000d0: c8f1 a6be efb4 fdbc 2b92 863d 6791 bc3d
000000e0: 2dfd 03be a2b2 4abe fb82 c93d 5ec2 583e
000000f0: 0fce f93e 3927 563d 9d02 cebd 21c5 e4be
00000100: 2b06 95be 60cf a33d 860d 32bd ead5 a63d
00000110: 21b1 153c bcb1 86bd 29e2 323e ba2a e43d
00000120: d0ea 3c3e 0ee8 e23d 969e 47be f503 c7bd
00000130: c4b4 1dbd 0850 d0bb 2f47 2dbd 8aa7 ee3d
00000140: c985 0abd 4499 063e 365c 403d 703a 45bd
00000150: 18ba 07be 94bc 913d d368 e7bd 806b 2cbe
00000160: 7109 b9bd 301a ae3c 8d0f 0ebd 7138 e9bd
00000170: c326 a6be 4f89 453d e061 63bd 6bdb 5a3d
00000180: e92f 1fbd eedc a7bc 7742 203e 5ce2 a23d
00000190: 53fe d8bc 2ef1 83bd 9bc0 df3e 6a5c 9f3d
000001a0: 512a 043e 8ec8 27bd 8faf 3cbd 88e9 b93d
000001b0: 9cd8 d23e a0d7 1c3d 9ba7 48bd 4424 b1bd
000001c0: 09fc a3bd 7feb 9dbe 21b4 aa3d b9f4 b03d
000001d0: 0c90 7f3e 1440 7dbe e881 05be daa9 9bbd
000001e0: 677a 563d 884b 32bd 199d a2bc 4559 863c
000001f0: db73 04be 5a0e 903e 1e5e 783c a9a1 f0bc
00000200: 6772 0bbe 158d a9be f830 54bc a09a 45bd
00000210: c583 f5bd 0334 833e d5be 993d f859 abbd
00000220: 8c5d acbd 6487 97bd cca7 723e 309f 773c
00000230: 6c2e 613d ae46 353c b567 2e3e c518 3c3e
00000240: 1f70 1f3c e9e8 59bd a3be 59be 9bc9 8fbd
00000250: 58d9 de3d b550 b73d afcd 5d3e 4568 073e
00000260: 7b42 213d b87c 803e 79f2 a33d 0509 5bbd
00000270: 1a6d 233e fedd c93e 20ce 53be 11a3 c63d
00000280: fd8e 2c3e b5e7 fabc bb27 093d af28 00be
00000290: f385 b5bd f6ee 0c3e f97b 2ebe 9a18 0abe
000002a0: b75d d1bd 3d9b dbbd 033b ae3d 6277 833d
000002b0: 6a24 c2bd 3623 8b3e 5caf 4f3d 888f 073d
000002c0: d681 063d 0cf9 8d3d e018 81be c789 343b
000002d0: 3c84 7cbd 8a3c be3d 33c3 083c 7da7 033d
000002e0: cd4c 213e 483a 043d 7881 86bd 30ad 1bbd
000002f0: b743 85be 9382 fabd 1bf1 ca3d 4eb5 f13c
00000300: 202b f4bd cb68 36be 6c5c 98be 5869 14be
00000310: e41b 7ebe 2870 65be 23c1 073e 3ed0 2bbe
00000320: 2774 083d 5ad8 eabd a61f ea3d c78a 113c
00000330: 4a53 84bd a18f 24be 6386 16be ca54 14be
00000340: 4cc6 b83d 868a 753d 6b0e 54be fa4e b43d
00000350: 7567 85bd 84b7 293e 3e85 933d 42c2 623d
00000360: da3e ce3c 9a1c 0c3e e0bc c53d c241 603e
00000370: 02cc 563d ea6a b6be 8e6b 403e a693 1abf
00000380: 0f85 033e 9359 e23d 49b0 e73d ae46 1abe
00000390: 046b 7fbe a1ca 0e3e cdcf a4bc a268 183e
000003a0: 3bd9 433e cbc2 283d d4d6 6ebd d946 10bd
000003b0: 1197 2dbd 6c4e 983e 14df b23d c2d7 af3e
000003c0: 58b0 8dba 5db5 8b3d f42c 09bd 132d 513e
000003d0: b566 b2bd 329d 233e f71c 983c 5b0c 9a3e
000003e0: 377f c8bd d30c a0bd f6c4 7c3d c405 0b3e
000003f0: e6ec 6c3e 3fda 1abe 30af dcbd f566 a73d

fc.bias f4 [24]
-0.07903035 -0.060345113 -0.021804124 0.079587586 0.08841058 -0.11084523 0.063524164 0.041
0.096384004 -0.04632605 0.045703705 0.014408282 -0.05719481 0.039953485 0.04059878 -0.06419609
0.018841933 0.037489697 0.10126895 0.05673642 -0.090132594 0.001548328 -0.0029682082 -0.06966136
00000000: aada a1bd 702c 77bd 909e b2bc d1fe a23d
00000010: 9b10 b53d d302 e3bd f518 823d 9eef 273d
00000020: fa64 c53d 62c0 3dbd cf33 3b3d b710 6c3c
00000030: 1b45 6abd 44a6 233d e84a 263d 3d79 83bd
00000040: 665a 9a3c cc8e 193d 1866 cf3d 7364 683d
00000050: 7097 b8bd 44f1 ca3a 4586 42bb 9daa 8ebd
