results/models/normal/normal_audio_tcn_checkpoint.pt (torch_old, 734834 bytes, 52 tensors)

audio_TCN.0.network.0.conv.bias f4 [32]
-0.02882114 -0.094559915 -0.008545861 0.05095096 -0.074037194 -0.014606544 0.028553698 -0.030810952
-0.108141966 0.05150356 0.08898108 0.07170306 -0.07275778 -0.02791592 -0.067103595 0.08738878
0.066442646 -0.024568789 0.08407034 0.031884816 0.07035045 -0.10537088 -0.097103305 0.078097254
0.077514745 -0.097527966 0.040716544 -0.11979966 0.0034798128 -0.05290864 -0.041290283 0.023681998
00000000: 501a ecbc a1a8 c1bd f003 0cbc f4b1 503d
00000010: d0a0 97bd 4950 6fbc 72e9 e93c 4067 fcbc
00000020: 8979 ddbd 66f5 523d b63b b63d 0ed9 923d
00000030: 0802 95bd edaf e4bc 9c6d 89bd e4f8 b23d
00000040: 1513 883d 7c44 c9bc 122d ac3d a799 023d
00000050: e613 903d b0cc d7bd 19de c6bd 74f1 9f3d
00000060: 0dc0 9e3d bebc c7bd 64c6 263d 8659 f5bd
00000070: 920d 643b bbb6 58bd 0020 29bd c000 c23c

audio_TCN.0.network.0.conv.weight_g f4 [32, 1, 1]
0.5993327 0.56425226 0.56654304 0.60328054 0.5444894 0.5920514 0.7423484 0.5706556
0.5564466 0.5153662 0.5274024 0.5615597 0.5740294 0.73852086 0.5607365 0.5324001
0.5292587 0.5455368 0.54951715 0.5456238 0.59246486 0.597353 0.5973658 0.53690463
0.57827866 0.70472157 0.58882993 0.57975113 0.54260886 0.52095115 0.5696909 0.77441037
00000000: de6d 193f d672 103f f708 113f 9870 1a3f
00000010: a863 0b3f ae90 173f 8b0a 3e3f 7c16 123f
00000020: 4973 0e3f 0aef 033f d803 073f 60c2 0f3f
00000030: 97f3 123f b40f 3d3f 6d8c 0f3f 5f4b 083f
00000040: 807d 073f 4da8 0b3f 28ad 0c3f 00ae 0b3f
00000050: c7ab 173f 20ec 183f f7ec 183f 9572 093f
00000060: 120a 143f a268 343f 8fbd 163f 926a 143f
00000070: 6ae8 0a3f 0e5d 053f 43d7 113f c23f 463f

audio_TCN.0.network.0.conv.weight_v f4 [32, 32, 3]
-0.09548657 -0.07430351 -0.069747485 -0.0102760345 -0.052843068 -7.427484e-05 0.07114993 0.012040444
0.0455364 0.084093064 -0.0003651455 0.044638902 0.08171226 -0.055641457 -0.064091936 -0.08682208
-0.028303519 -0.0013548657 0.09113641 0.10146657 -0.059888408 0.013726585 0.01885882 0.09018305
0.08018148 0.012464702 -0.07302948 -0.08648252 0.033647656 0.018712446 0.057162493 0.07703173
-0.032247134 0.062439933 -0.06974667 -0.050358217 0.070436835 -0.016338639 -0.010027602 -0.09129952
-0.060767394 0.05710192 0.0858299 -0.06199184 -0.058451355 -0.09429705 0.024889529 0.08149259
0.014723346 0.071403846 0.042761385 0.05289799 -0.082386486 -0.085636444 -0.07187483 -0.050256673
-0.029038087 -0.101393245 0.041482016 -0.0034125298 0.060295045 0.046950266 0.0783357 0.084166154
0.036360234 -0.049343877 0.0053148866 0.0651125 0.08040665 0.089744404 0.037585407 -0.08827205
-0.07319565 0.0042940453 0.02210939 0.009393364 0.007824533 0.042333618 0.0028283447 -0.0030834079
-0.05343183 -0.09601971 0.07579467 -0.09774011 -0.06545429 0.047720045 0.071255326 0.068272725
0.085076585 0.06846568 0.06838462 -0.030103609 0.023153141 0.044153824 -0.037888825 0.07213722
-0.012619483 -0.061000027 0.08223151 -0.0016676448 0.12657858 0.07412746 0.036010105 -0.07935579
0.12086593 0.060409233 -0.0142428875 -0.061426446 0.059215207 0.003897958 -0.102376916 0.06313658
-0.10706329 -0.11836684 0.14313209 0.06162163 0.09948938 -0.1156283 0.026583936 -0.11872083
-0.08075403 -0.03785779 0.07333107 -0.19483489 -0.12307567 -0.1162256 -0.11140246 -0.13213545
0.061917998 -0.10014847 -0.08521435 -0.055084914 -0.045782696 0.103461705 0.10947986 0.020073967
-0.11365877 0.09384054 0.08681561 0.0024880872 0.062681586 -0.016289536 0.12907709 0.080521174
0.07754443 -0.13506626 -0.093956254 0.11933169 0.06030015 -0.110571794 -0.038566075 0.057986446
0.077434875 0.03430991 0.102100745 -0.09746625 -0.09796918 -0.06234675 -0.08626752 -0.08055106
-0.11318491 -0.08879063 -0.10141858 -0.10598321 -0.09821569 -0.058913626 -0.1012521 -0.06595138
0.0987805 0.08557762 0.096405774 -0.1211103 0.061632954 -0.016682666 -0.09753416 0.09769241
-0.086050406 -0.12323839 -0.090070404 0.07963476 0.08853825 -0.022856023 -0.08399556 0.052770186
-0.03482059 0.042938694 -0.07810857 0.123530805 0.08427376 -0.06643183 0.062981166 0.062013865
0.05412431 0.08708429 0.05681634 0.051502526 -0.078328535 -0.0058011413 -0.02229999 0.032217786
0.07499783 0.07963373 0.041527912 0.04701537 -0.049824778 -0.06310713 0.09231536 0.056074545
-0.0053898916 -0.08759191 -0.0049275905 -0.018045388 -0.008821346 0.056336194 0.04698886 0.084762976
-0.08354768 0.006881267 0.06894231 0.015903935 0.09582925 -0.03623019 0.08250648 0.029278144
-0.06598953 -0.049555846 0.038691625 -0.050637893 -0.008503377 -0.07066238 -0.07004313 0.09309693
-0.07909424 -0.07816254 -0.010037638 0.012632489 -0.017560303 0.06682032 0.010828465 0.0070597455
-0.026760861 -0.04001221 0.05174482 -0.071872436 -0.054863334 -0.028761499 -0.07967027 -0.027892038
0.08676748 -0.10124256 0.048188448 -0.04832945 -0.082883924 0.027985185 0.040128455 -0.048103157
00000000: 768e c3bd 702c 98bd c5d7 8ebd d05c 28bc
00000010: f971 58bd 00c4 9bb8 0eb7 913d 4845 453c
00000020: 6084 3a3d fc38 ac3d 0071 bfb9 48d7 363d
00000030: c258 a73d 4ce8 63bd a242 83bd c6cf b1bd
00000040: c8dc e7bc c095 b1ba baa5 ba3d b4cd cf3d
00000050: 8c4d 75bd 78e5 603c d07d 9a3c e4b1 b83d
00000060: 3036 a43d c038 4c3c 7b90 95bd bf1d b1bd
00000070: 20d2 093d d84a 993c 3823 6a3d d0c2 9d3d
00000080: 9215 04bd 04c1 7f3d 58d7 8ebd 6b44 4ebd
00000090: 3041 903d 9cd8 85bc d04a 24bc 3efb babd
000000a0: 3be7 78bd b4e3 693d 96c7 af3d 28eb 7dbd
000000b0: b06a 6fbd d01e c1bd 20e5 cb3c 96e5 a63d
000000c0: 303a 713c 2e3c 923d 9026 2f3d 90ab 583d
000000d0: 3fba a8bd 2962 afbd 1c33 93bd f1d9 4dbd
000000e0: 48e1 edbc 43a7 cfbd 0ce9 293d c0a4 5fbb
000000f0: f0f7 763d ec4e 403d 786e a03d 4e5f ac3d
00000100: 78ee 143d ce1c 4abd 8028 ae3b b459 853d
00000110: 3eac a43d eacb b73d 28f3 193d fac7 b4bd
00000120: 9ae7 95bd 10b5 8c3b c01e b53c a0e6 193c
00000130: 7832 003c 0466 2d3d c05b 393b 0013 4abb
00000140: 56db 5abd fba5 c4bd 3c3a 9b3d f72b c8bd
00000150: e60c 86bd 1876 433d 50ee 913d 92d2 8b3d
00000160: a23c ae3d bc37 8c3d 3c0d 8c3d d89b f6bc
00000170: a8ab bd3c a4da 343d 5031 1bbd aebc 933d
00000180: f3c1 4ebc 2adb 79bd fe68 a83d e094 daba
00000190: d19d 013e 23d0 973d 557f 133d 4a85 a2bd
000001a0: 8f88 f73d ac6f 773d 005b 69bc 4c9a 7bbd
000001b0: a58b 723d e274 7f3b fdaa d1bd c04d 813d
000001c0: 0044 dbbd 506a f2bd 3891 123e f666 7c3d
000001d0: 17c1 cb3d 88ce ecbd 8ec6 d93c e823 f3bd
000001e0: 5e62 a5bd c510 1bbd 9a2e 963d cc82 47be
000001f0: 190f fcbd b007 eebd f926 e4bd 844e 07be
00000200: ba9d 7d3d a41a cdbd dc84 aebd b8a0 61bd
00000210: a386 3bbd bbe3 d33d fa36 e03d 2972 a43c
00000220: eec5 e8bd 782f c03d 62cc b13d 2d0f 233b
00000230: 345f 803d a271 85bc c92c 043e 49e8 a43d
00000240: 9dcf 9e3d cf4e 0abe 236c c0bd 2c64 f43d
00000250: 4afd 763d 7773 e2bd 76f7 1dbd 3283 6d3d
00000260: 2d96 9e3d 8c88 0c3d 321a d13d 639c c7bd
00000270: 11a4 c8bd 4e5f 7fbd 07ad b0bd f4f7 a4bd
00000280: 7dcd e7bd ddd7 b5bd 8bb4 cfbd ba0d d9bd
00000290: 4f25 c9bd 6a4f 71bd 435d cfbd 8411 87bd
000002a0: 6e4d ca3d 5243 af3d 6470 c53d ad08 f8bd
000002b0: d672 7c3d 16aa 88bc fdbf c7bd f512 c83d
000002c0: 323b b0bd 6964 fcbd d576 b8bd 8d17 a33d
000002d0: 8b53 b53d 8e3c bbbc dd05 acbd 8d25 583d
000002e0: 09a0 0ebd 7ce0 2f3d 63f7 9fbd b8fd fc3d
000002f0: b997 ac3d 690d 88bd 45fc 803d 4002 7e3d
00000300: 74b1 5d3d 4059 b23d 40b8 683d 50f4 523d
00000310: b66a a0bd 8017 bebb 78ae b6bc ccf6 033d
00000320: 7698 993d 0217 a33d 2c19 2a3d 3093 403d
00000330: 1115 4cbd 503e 81bd d60f bd3d 6cae 653d
00000340: b09d b0bb 6363 b3bd a077 a1bb ecd3 93bc
00000350: 6887 10bc c8c0 663d 6477 403d 3698 ad3d
00000360: 0c1b abbd 407c e13b a031 8d3d f848 823c
00000370: 2042 c43d 1c66 14bd 28f9 a83d b8d8 ef3c
00000380: 8525 87bd 12fb 4abd 1c7b 1e3d ae69 4fbd
00000390: c051 0bbc 70b7 90bd c672 8fbd 9aa9 be3d
000003a0: 29fc a1bd af13 a0bd e874 24bc 80f8 4e3c
000003b0: a0da 8fbc 18d9 883d e069 313c 7055 e73b
000003c0: 9839 dbbc d8e3 23bd 60f2 533d db31 93bd
000003d0: 60b8 60bd 3c9d ebbc 2b2a a3bd d87d e4bc
000003e0: 26b3 b13d 4258 cfbd 4061 453d 1af5 45bd
000003f0: 0cbf a9bd 3041 e53c bc5d 243d d107 45bd

audio_TCN.0.network.0.net.0.bias f4 [32]
-0.02882114 -0.094559915 -0.008545861 0.05095096 -0.074037194 -0.014606544 0.028553698 -0.030810952
-0.108141966 0.05150356 0.08898108 0.07170306 -0.07275778 -0.02791592 -0.067103595 0.08738878
0.066442646 -0.024568789 0.08407034 0.031884816 0.07035045 -0.10537088 -0.097103305 0.078097254
0.077514745 -0.097527966 0.040716544 -0.11979966 0.0034798128 -0.05290864 -0.041290283 0.023681998
00000000: 501a ecbc a1a8 c1bd f003 0cbc f4b1 503d
00000010: d0a0 97bd 4950 6fbc 72e9 e93c 4067 fcbc
00000020: 8979 ddbd 66f5 523d b63b b63d 0ed9 923d
00000030: 0802 95bd edaf e4bc 9c6d 89bd e4f8 b23d
00000040: 1513 883d 7c44 c9bc 122d ac3d a799 023d
00000050: e613 903d b0cc d7bd 19de c6bd 74f1 9f3d
00000060: 0dc0 9e3d bebc c7bd 64c6 263d 8659 f5bd
00000070: 920d 643b bbb6 58bd 0020 29bd c000 c23c

audio_TCN.0.network.0.net.0.weight_g f4 [32, 1, 1]
0.5993327 0.56425226 0.56654304 0.60328054 0.5444894 0.5920514 0.7423484 0.5706556
0.5564466 0.5153662 0.5274024 0.5615597 0.5740294 0.73852086 0.5607365 0.5324001
0.5292587 0.5455368 0.54951715 0.5456238 0.59246486 0.597353 0.5973658 0.53690463
0.57827866 0.70472157 0.58882993 0.57975113 0.54260886 0.52095115 0.5696909 0.77441037
00000000: de6d 193f d672 103f f708 113f 9870 1a3f
00000010: a863 0b3f ae90 173f 8b0a 3e3f 7c16 123f
00000020: 4973 0e3f 0aef 033f d803 073f 60c2 0f3f
00000030: 97f3 123f b40f 3d3f 6d8c 0f3f 5f4b 083f
00000040: 807d 073f 4da8 0b3f 28ad 0c3f 00ae 0b3f
00000050: c7ab 173f 20ec 183f f7ec 183f 9572 093f
00000060: 120a 143f a268 343f 8fbd 163f 926a 143f
00000070: 6ae8 0a3f 0e5d 053f 43d7 113f c23f 463f

audio_TCN.0.network.0.net.0.weight_v f4 [32, 32, 3]
-0.09548657 -0.07430351 -0.069747485 -0.0102760345 -0.052843068 -7.427484e-05 0.07114993 0.012040444
0.0455364 0.084093064 -0.0003651455 0.044638902 0.08171226 -0.055641457 -0.064091936 -0.08682208
-0.028303519 -0.0013548657 0.09113641 0.10146657 -0.059888408 0.013726585 0.01885882 0.09018305
0.08018148 0.012464702 -0.07302948 -0.08648252 0.033647656 0.018712446 0.057162493 0.07703173
-0.032247134 0.062439933 -0.06974667 -0.050358217 0.070436835 -0.016338639 -0.010027602 -0.09129952
-0.060767394 0.05710192 0.0858299 -0.06199184 -0.058451355 -0.09429705 0.024889529 0.08149259
0.014723346 0.071403846 0.042761385 0.05289799 -0.082386486 -0.085636444 -0.07187483 -0.050256673
-0.029038087 -0.101393245 0.041482016 -0.0034125298 0.060295045 0.046950266 0.0783357 0.084166154
0.036360234 -0.049343877 0.0053148866 0.0651125 0.08040665 0.089744404 0.037585407 -0.08827205
-0.07319565 0.0042940453 0.02210939 0.009393364 0.007824533 0.042333618 0.0028283447 -0.0030834079
-0.05343183 -0.09601971 0.07579467 -0.09774011 -0.06545429 0.047720045 0.071255326 0.068272725
0.085076585 0.06846568 0.06838462 -0.030103609 0.023153141 0.044153824 -0.037888825 0.07213722
-0.012619483 -0.061000027 0.08223151 -0.0016676448 0.12657858 0.07412746 0.036010105 -0.07935579
0.12086593 0.060409233 -0.0142428875 -0.061426446 0.059215207 0.003897958 -0.102376916 0.06313658
-0.10706329 -0.11836684 0.14313209 0.06162163 0.09948938 -0.1156283 0.026583936 -0.11872083
-0.08075403 -0.03785779 0.07333107 -0.19483489 -0.12307567 -0.1162256 -0.11140246 -0.13213545
0.061917998 -0.10014847 -0.08521435 -0.055084914 -0.045782696 0.103461705 0.10947986 0.020073967
-0.11365877 0.09384054 0.08681561 0.0024880872 0.062681586 -0.016289536 0.12907709 0.080521174
0.07754443 -0.13506626 -0.093956254 0.11933169 0.06030015 -0.110571794 -0.038566075 0.057986446
0.077434875 0.03430991 0.102100745 -0.09746625 -0.09796918 -0.06234675 -0.08626752 -0.08055106
-0.11318491 -0.08879063 -0.10141858 -0.10598321 -0.09821569 -0.058913626 -0.1012521 -0.06595138
0.0987805 0.08557762 0.096405774 -0.1211103 0.061632954 -0.016682666 -0.09753416 0.09769241
-0.086050406 -0.12323839 -0.090070404 0.07963476 0.08853825 -0.022856023 -0.08399556 0.052770186
-0.03482059 0.042938694 -0.07810857 0.123530805 0.08427376 -0.06643183 0.062981166 0.062013865
0.05412431 0.08708429 0.05681634 0.051502526 -0.078328535 -0.0058011413 -0.02229999 0.032217786
0.07499783 0.07963373 0.041527912 0.04701537 -0.049824778 -0.06310713 0.09231536 0.056074545
-0.0053898916 -0.08759191 -0.0049275905 -0.018045388 -0.008821346 0.056336194 0.04698886 0.084762976
-0.08354768 0.006881267 0.06894231 0.015903935 0.09582925 -0.03623019 0.08250648 0.029278144
-0.06598953 -0.049555846 0.038691625 -0.050637893 -0.008503377 -0.07066238 -0.07004313 0.09309693
-0.07909424 -0.07816254 -0.010037638 0.012632489 -0.017560303 0.06682032 0.010828465 0.0070597455
-0.026760861 -0.04001221 0.05174482 -0.071872436 -0.054863334 -0.028761499 -0.07967027 -0.027892038
0.08676748 -0.10124256 0.048188448 -0.04832945 -0.082883924 0.027985185 0.040128455 -0.048103157
00000000: 768e c3bd 702c 98bd c5d7 8ebd d05c 28bc
00000010: f971 58bd 00c4 9bb8 0eb7 913d 4845 453c
00000020: 6084 3a3d fc38 ac3d 0071 bfb9 48d7 363d
00000030: c258 a73d 4ce8 63bd a242 83bd c6cf b1bd
00000040: c8dc e7bc c095 b1ba baa5 ba3d b4cd cf3d
00000050: 8c4d 75bd 78e5 603c d07d 9a3c e4b1 b83d
00000060: 3036 a43d c038 4c3c 7b90 95bd bf1d b1bd
00000070: 20d2 093d d84a 993c 3823 6a3d d0c2 9d3d
00000080: 9215 04bd 04c1 7f3d 58d7 8ebd 6b44 4ebd
00000090: 3041 903d 9cd8 85bc d04a 24bc 3efb babd
000000a0: 3be7 78bd b4e3 693d 96c7 af3d 28eb 7dbd
000000b0: b06a 6fbd d01e c1bd 20e5 cb3c 96e5 a63d
000000c0: 303a 713c 2e3c 923d 9026 2f3d 90ab 583d
000000d0: 3fba a8bd 2962 afbd 1c33 93bd f1d9 4dbd
000000e0: 48e1 edbc 43a7 cfbd 0ce9 293d c0a4 5fbb
000000f0: f0f7 763d ec4e 403d 786e a03d 4e5f ac3d
00000100: 78ee 143d ce1c 4abd 8028 ae3b b459 853d
00000110: 3eac a43d eacb b73d 28f3 193d fac7 b4bd
00000120: 9ae7 95bd 10b5 8c3b c01e b53c a0e6 193c
00000130: 7832 003c 0466 2d3d c05b 393b 0013 4abb
00000140: 56db 5abd fba5 c4bd 3c3a 9b3d f72b c8bd
00000150: e60c 86bd 1876 433d 50ee 913d 92d2 8b3d
00000160: a23c ae3d bc37 8c3d 3c0d 8c3d d89b f6bc
00000170: a8ab bd3c a4da 343d 5031 1bbd aebc 933d
00000180: f3c1 4ebc 2adb 79bd fe68 a83d e094 daba
00000190: d19d 013e 23d0 973d 557f 133d 4a85 a2bd
000001a0: 8f88 f73d ac6f 773d 005b 69bc 4c9a 7bbd
000001b0: a58b 723d e274 7f3b fdaa d1bd c04d 813d
000001c0: 0044 dbbd 506a f2bd 3891 123e f666 7c3d
000001d0: 17c1 cb3d 88ce ecbd 8ec6 d93c e823 f3bd
000001e0: 5e62 a5bd c510 1bbd 9a2e 963d cc82 47be
000001f0: 190f fcbd b007 eebd f926 e4bd 844e 07be
00000200: ba9d 7d3d a41a cdbd dc84 aebd b8a0 61bd
00000210: a386 3bbd bbe3 d33d fa36 e03d 2972 a43c
00000220: eec5 e8bd 782f c03d 62cc b13d 2d0f 233b
00000230: 345f 803d a271 85bc c92c 043e 49e8 a43d
00000240: 9dcf 9e3d cf4e 0abe 236c c0bd 2c64 f43d
00000250: 4afd 763d 7773 e2bd 76f7 1dbd 3283 6d3d
00000260: 2d96 9e3d 8c88 0c3d 321a d13d 639c c7bd
00000270: 11a4 c8bd 4e5f 7fbd 07ad b0bd f4f7 a4bd
00000280: 7dcd e7bd ddd7 b5bd 8bb4 cfbd ba0d d9bd
00000290: 4f25 c9bd 6a4f 71bd 435d cfbd 8411 87bd
000002a0: 6e4d ca3d 5243 af3d 6470 c53d ad08 f8bd
000002b0: d672 7c3d 16aa 88bc fdbf c7bd f512 c83d
000002c0: 323b b0bd 6964 fcbd d576 b8bd 8d17 a33d
000002d0: 8b53 b53d 8e3c bbbc dd05 acbd 8d25 583d
000002e0: 09a0 0ebd 7ce0 2f3d 63f7 9fbd b8fd fc3d
000002f0: b997 ac3d 690d 88bd 45fc 803d 4002 7e3d
00000300: 74b1 5d3d 4059 b23d 40b8 683d 50f4 523d
00000310: b66a a0bd 8017 bebb 78ae b6bc ccf6 033d
00000320: 7698 993d 0217 a33d 2c19 2a3d 3093 403d
00000330: 1115 4cbd 503e 81bd d60f bd3d 6cae 653d
00000340: b09d b0bb 6363 b3bd a077 a1bb ecd3 93bc
00000350: 6887 10bc c8c0 663d 6477 403d 3698 ad3d
00000360: 0c1b abbd 407c e13b a031 8d3d f848 823c
00000370: 2042 c43d 1c66 14bd 28f9 a83d b8d8 ef3c
00000380: 8525 87bd 12fb 4abd 1c7b 1e3d ae69 4fbd
00000390: c051 0bbc 70b7 90bd c672 8fbd 9aa9 be3d
000003a0: 29fc a1bd af13 a0bd e874 24bc 80f8 4e3c
000003b0: a0da 8fbc 18d9 883d e069 313c 7055 e73b
000003c0: 9839 dbbc d8e3 23bd 60f2 533d db31 93bd
000003d0: 60b8 60bd 3c9d ebbc 2b2a a3bd d87d e4bc
000003e0: 26b3 b13d 4258 cfbd 4061 453d 1af5 45bd
000003f0: 0cbf a9bd 3041 e53c bc5d 243d d107 45bd

audio_TCN.0.network.1.conv.bias f4 [32]
0.03307697 0.059639566 0.026562396 -0.07807254 -0.018716736 -0.01745302 -0.01939804 -0.009851522
0.07875263 -0.086780354 -0.101674534 0.09572108 0.011906217 -0.17665835 -0.026652394 -0.0042045754
-0.04886743 -0.08713153 -0.04184622 0.068279006 0.058748815 -0.068769276 -0.042837773 -0.087635286
-0.0259865 -0.07618049 -0.07996441 -0.1167604 -0.060297176 0.047321264 0.018334638 0.03576263
00000000: b87b 073d 9e48 743d 6299 d93c 7fe4 9fbd
00000010: d753 99bc a3f9 8ebc a3e8 9ebc 4768 21bc
00000020: 0f49 a13d e6b9 b1bd bd3a d0bd 6a09 c43d
00000030: 4b12 433c ede5 34be 1f56 dabc 89c6 89bb
00000040: 3729 48bd 0472 b2bd f166 2bbd ddd5 8b3d
00000050: 99a2 703d e8d6 8cbd a976 2fbd 217a b3bd
00000060: a4e1 d4bc 8404 9cbd 61c4 a3bd 1420 efbd
00000070: 2cfa 76bd f1d3 413d 8632 963c d67b 123d

audio_TCN.0.network.1.conv.weight_g f4 [32, 1, 1]
0.57998854 0.5443653 0.6308557 0.53787035 0.60036445 0.60669214 0.5787439 0.664885
0.6787834 0.5639575 0.56458974 0.58508676 0.5561468 0.7905853 0.5998768 0.53640044
0.5599301 0.60670346 0.57561773 0.63700336 0.5792018 0.5539129 0.6552946 0.5818141
0.5607134 0.54143846 0.67773676 0.53475475 0.5529019 0.58191323 0.581831 0.61885935
00000000: 217a 143f 865b 0b3f c27f 213f dfb1 093f
00000010: 7cb1 193f 2d50 1b3f 8f28 143f e735 2a3f
00000020: c0c4 2d3f 855f 103f f488 103f 3fc8 153f
00000030: a35f 0e3f cc63 4a3f 8791 193f 8a51 093f
00000040: 9457 0f3f eb50 1b3f af5b 133f a712 233f
00000050: 9246 143f 3ccd 0d3f 63c1 273f c5f1 143f
00000060: ea8a 0f3f b69b 0a3f 2880 2d3f b0e5 083f
00000070: fb8a 0d3f 44f8 143f e0f2 143f 916d 1e3f

audio_TCN.0.network.1.conv.weight_v f4 [32, 32, 3]
0.01929118 -0.07370277 0.055106796 -0.059396163 -0.03335446 0.05485963 0.033549674 -0.10695557
0.08897277 -0.038545452 -0.0731843 -0.04153748 0.080350675 -0.014943272 -0.06822928 0.07592936
-0.056416396 -0.086092204 -0.09833008 -0.07646739 -0.10788741 0.04600987 -0.076249205 0.05657169
0.016896576 -0.020320622 0.009010485 0.055598125 0.037359204 -0.0867476 -0.08206143 -0.10247902
-0.05296637 -0.10074278 -0.0428583 -0.059355635 0.089325204 -0.077574134 0.07378603 -0.08460518
-0.0720883 0.11086608 0.0067246505 -0.05466679 -0.09721576 -0.092671916 0.038147792 -0.002096857
0.059087113 0.005629659 0.034685742 -0.10691663 0.07786119 -0.008408651 -0.1128041 0.013806493
0.012194266 0.07823381 -0.06562559 0.061125766 -0.028376745 0.065498665 -0.10495987 -0.04702185
-0.0063277837 -0.014638219 0.012020604 -0.0115114385 0.023061937 -0.010097584 0.10936577 -0.07818202
-0.037818998 0.07260028 0.057825904 -0.10824538 0.08101219 -0.09830407 -0.07728159 0.069931366
-0.0009288126 -0.07221171 -0.10815567 0.03932548 -0.06916988 0.0055042338 0.013765933 -0.056409344
0.022895114 -0.08026566 -0.09019517 -0.08276316 -0.07090233 -0.07433788 0.025694875 0.07735293
0.10410965 -0.06161946 0.060723573 -0.031098645 -0.04979832 -0.06372537 0.058251735 0.024568958
0.072797544 0.02785053 -0.09266794 0.0664135 -0.0453793 -0.091582075 0.07760144 -0.07944761
0.08275038 -0.12216827 -0.037221044 -0.09121504 -0.061058015 0.029550113 0.10029126 -0.09339687
0.08207183 0.05749453 -0.02897074 0.08596715 -0.089684196 0.06631064 0.096393995 -0.01919071
0.020859864 -0.07805166 -0.031036608 -0.055582643 0.0760308 -0.07495335 0.058394033 -0.10042228
0.023817472 -0.033838876 -0.05104114 -0.037558317 -0.06680734 -0.07827262 0.013316295 0.09661772
0.028080525 0.031055316 0.031907346 -0.041417364 0.09126353 0.064886056 -0.015641725 0.034313582
0.012900458 -0.06955195 -0.009505598 -0.09026736 -0.0483543 0.08990699 -0.04617579 0.046628915
-0.047516093 -0.052722417 -0.028401503 -0.035572756 -0.020904325 -0.11858685 -0.026009157 0.05537876
0.0510253 0.042882886 0.08980896 0.0024509982 0.031259637 -0.035284642 -0.01541855 -0.0657703
0.08242626 -0.062693425 0.08698389 -0.07101397 0.057828113 -0.02691122 -0.029240228 -0.019503152
-0.070985466 -0.05972429 0.04798786 -0.05362659 0.07445446 0.07592341 -0.08642651 -0.05424262
0.04733928 -0.046076458 -0.03219 -0.08770481 0.086639255 -0.034561954 0.35250548 0.29023096
0.23474202 0.08427665 0.069889866 0.09667789 -0.069089584 0.07269476 -0.04716357 -0.06209936
-0.03010898 0.033372577 0.055049267 -0.005717858 -0.075613 -0.009776352 0.09845594 0.060424987
0.04790584 -0.029865682 0.043296818 0.028745646 -0.10311809 -0.009100323 -0.001268475 0.05470348
-0.038068343 -0.033882707 -0.04934531 0.056440126 -0.11630741 -0.13950956 -0.14400598 0.033436712
0.021283729 -0.017328825 -0.06666995 -0.047221106 -0.03558232 -0.08008989 -0.06295724 -0.10943037
0.06301896 -0.018747052 0.060585476 -0.09294899 -0.08012568 -0.17481455 -0.006531662 0.0017611299
-0.027517024 0.038420904 0.0035551596 -0.0043002637 -0.121634185 -0.090765074 0.049296763 -0.10102088
00000000: 8908 9e3c 7af1 96bd aab7 613d 6449 73bd
00000010: b09e 08bd 7eb4 603d 626b 093d 860b dbbd
00000020: 5b37 b63d d6e1 1dbd a6e1 95bd 3423 2abd
00000030: e58e a43d a0d4 74bc cbbb 8bbd da80 9b3d
00000040: e114 67bd 1c51 b0bd 4861 c9bd ef9a 9cbd
00000050: 13f4 dcbd d874 3c3d 8b28 9cbd b7b7 673d
00000060: b06a 8a3c 6f77 a6bc b7a0 133c dcba 633d
00000070: f705 193d baa8 b1bd d30f a8bd 85e0 d1bd
00000080: 44f3 58bd 3b52 cebd 2f8c 2fbd e51e 73bd
00000090: 22f0 b63d 30df 9ebd 211d 973d 7b45 adbd
000000a0: 08a3 93bd c10d e33d 755a dc3b 49ea 5fbd
000000b0: 0e19 c7bd c6ca bdbd dc40 1c3d 6c6b 09bb
000000c0: 5405 723d 0179 b83b a312 0e3d 1bf7 dabd
000000d0: b075 9f3d 70c4 09bc d605 e7bd a134 623c
000000e0: 75ca 473c 0c39 a03d b666 86bd 035f 7a3d
000000f0: 5976 e8bc 2a24 863d 33f5 d6bd fc99 40bd
00000100: 4c59 cfbb 24d5 6fbc 11f2 443c 799a 3cbc
00000110: 63ec bc3c 5670 25bc 29fb df3d e51d a0bd
00000120: 18e8 1abd 75af 943d dbda 6c3d c1af ddbd
00000130: b8e9 a53d a553 c9bd cf45 9ebd 2d38 8f3d
00000140: 8f7b 73ba bce3 93bd b880 ddbd c113 213d
00000150: f0a8 8dbd dc5c b43b 828a 613c 7c0d 67bd
00000160: 898e bb3c 5362 a4bd 3fb8 b8bd bb7f a9bd
00000170: 3e35 91bd 753e 98bd 0f7e d23c 376b 9e3d
00000180: 7137 d53d b064 7cbd 48b9 783d 96c2 febc
00000190: 53f9 4bbd 7282 82bd 5f99 6e3d d744 c93c
000001a0: e116 953d cb26 e43c b0c8 bdbd cd03 883d
000001b0: a5df 39bd 628f bbbd 81ed 9e3d 6eb5 a2bd
000001c0: 0879 a93d 5c33 fabd 1875 18bd f3ce babd
000001d0: f817 7abd 1413 f23c 8165 cd3d dc46 bfbd
000001e0: 4715 a83d 627f 6b3d 0c54 edbc 8c0f b03d
000001f0: 59ac b7bd dfcd 873d 376a c53d d635 9dbc
00000200: 4ee2 aa3c 8cd9 9fbd 7c40 febc a0aa 63bd
00000210: 09b6 9b3d 2481 99bd 952e 6f3d 32aa cdbd
00000220: dc1c c33c a29a 0abd 8410 51bd c0d6 19bd
00000230: 49d2 88bd 654d a0bd 972c 5a3c 83df c53d
00000240: 2109 e63c b867 fe3c 47b1 023d 41a5 29bd
00000250: 60e8 ba3d fbe2 843d 1323 80bc 668c 0c3d
00000260: 715c 533c 4171 8ebd 5ebd 1bbc 18de b8bd
00000270: 290f 46bd 2821 b83d d322 3dbd f6fd 3e3d
00000280: 3ca0 42bd 76f3 57bd 45aa e8bc bdb4 11bd
00000290: 8c3f abbc aadd f2bd 2811 d5bc d7d4 623d
000002a0: e8ff 503d f7a5 2f3d c3ed b73d eda0 203b
000002b0: 1b0a 003d a186 10bd 169e 7cbc 94b2 86bd
000002c0: 19cf a83d 6965 80bd 9c24 b23d c66f 91bd
000002d0: 2cdd 6c3d eb74 dcbc 3489 efbc 13c5 9fbc
000002e0: d460 91bd 75a1 74bd eb8e 443d 8ea7 5bbd
000002f0: 947b 983d bc7d 9b3d 6200 b1bd 822d 5ebd
00000300: d5e6 413d abba 3cbd a9d9 03bd 949e b3bd
00000310: ec6f b13d d690 0dbd 997b b43e 2799 943e
00000320: 3660 703e 3c99 ac3d 6b22 8f3d 0fff c53d
00000330: d77e 8dbd fee0 943d 962e 41bd e65b 7ebd
00000340: 1ca7 f6bc afb1 083d 577b 613d df5c bbbb
00000350: fdda 9abd fe2c 20bc 45a3 c93d 3180 773d
00000360: ea38 443d e0a8 f4bc 0158 313d fd7b eb3c
00000370: 942f d3bd 8519 15bc f542 a6ba c210 603d
00000380: 8ded 1bbd 98c8 0abd 4f1e 4abd c32d 673d
00000390: 9432 eebd 98db 0ebe 4e76 13be eff4 083d
000003a0: 375b ae3c 2ef5 8dbc 418a 88bd eb6a 41bd
000003b0: c4be 11bd 2b06 a4bd baef 80bd 081d e0bd
000003c0: 1610 813d 6b93 99bc 7a28 783d 0a5c bebd
000003d0: ef18 a4bd 9602 33be 8d07 d6bb b7d5 e63a
000003e0: 626b e1bc 3d5f 1d3d aefd 683b 3ae9 8cbb
000003f0: 581b f9bd 0ae3 b9bd 67eb 493d 09e4 cebd

audio_TCN.0.network.1.net.0.bias f4 [32]
0.03307697 0.059639566 0.026562396 -0.07807254 -0.018716736 -0.01745302 -0.01939804 -0.009851522
0.07875263 -0.086780354 -0.101674534 0.09572108 0.011906217 -0.17665835 -0.026652394 -0.0042045754
-0.04886743 -0.08713153 -0.04184622 0.068279006 0.058748815 -0.068769276 -0.042837773 -0.087635286
-0.0259865 -0.07618049 -0.07996441 -0.1167604 -0.060297176 0.047321264 0.018334638 0.03576263
00000000: b87b 073d 9e48 743d 6299 d93c 7fe4 9fbd
00000010: d753 99bc a3f9 8ebc a3e8 9ebc 4768 21bc
00000020: 0f49 a13d e6b9 b1bd bd3a d0bd 6a09 c43d
00000030: 4b12 433c ede5 34be 1f56 dabc 89c6 89bb
00000040: 3729 48bd 0472 b2bd f166 2bbd ddd5 8b3d
00000050: 99a2 703d e8d6 8cbd a976 2fbd 217a b3bd
00000060: a4e1 d4bc 8404 9cbd 61c4 a3bd 1420 efbd
00000070: 2cfa 76bd f1d3 413d 8632 963c d67b 123d

audio_TCN.0.network.1.net.0.weight_g f4 [32, 1, 1]
0.57998854 0.5443653 0.6308557 0.53787035 0.60036445 0.60669214 0.5787439 0.664885
0.6787834 0.5639575 0.56458974 0.58508676 0.5561468 0.7905853 0.5998768 0.53640044
0.5599301 0.60670346 0.57561773 0.63700336 0.5792018 0.5539129 0.6552946 0.5818141
0.5607134 0.54143846 0.67773676 0.53475475 0.5529019 0.58191323 0.581831 0.61885935
00000000: 217a 143f 865b 0b3f c27f 213f dfb1 093f
00000010: 7cb1 193f 2d50 1b3f 8f28 143f e735 2a3f
00000020: c0c4 2d3f 855f 103f f488 103f 3fc8 153f
00000030: a35f 0e3f cc63 4a3f 8791 193f 8a51 093f
00000040: 9457 0f3f eb50 1b3f af5b 133f a712 233f
00000050: 9246 143f 3ccd 0d3f 63c1 273f c5f1 143f
00000060: ea8a 0f3f b69b 0a3f 2880 2d3f b0e5 083f
00000070: fb8a 0d3f 44f8 143f e0f2 143f 916d 1e3f

audio_TCN.0.network.1.net.0.weight_v f4 [32, 32, 3]
0.01929118 -0.07370277 0.055106796 -0.059396163 -0.03335446 0.05485963 0.033549674 -0.10695557
0.08897277 -0.038545452 -0.0731843 -0.04153748 0.080350675 -0.014943272 -0.06822928 0.07592936
-0.056416396 -0.086092204 -0.09833008 -0.07646739 -0.10788741 0.04600987 -0.076249205 0.05657169
0.016896576 -0.020320622 0.009010485 0.055598125 0.037359204 -0.0867476 -0.08206143 -0.10247902
-0.05296637 -0.10074278 -0.0428583 -0.059355635 0.089325204 -0.077574134 0.07378603 -0.08460518
-0.0720883 0.11086608 0.0067246505 -0.05466679 -0.09721576 -0.092671916 0.038147792 -0.002096857
0.059087113 0.005629659 0.034685742 -0.10691663 0.07786119 -0.008408651 -0.1128041 0.013806493
0.012194266 0.07823381 -0.06562559 0.061125766 -0.028376745 0.065498665 -0.10495987 -0.04702185
-0.0063277837 -0.014638219 0.012020604 -0.0115114385 0.023061937 -0.010097584 0.10936577 -0.07818202
-0.037818998 0.07260028 0.057825904 -0.10824538 0.08101219 -0.09830407 -0.07728159 0.069931366
-0.0009288126 -0.07221171 -0.10815567 0.03932548 -0.06916988 0.0055042338 0.013765933 -0.056409344
0.022895114 -0.08026566 -0.09019517 -0.08276316 -0.07090233 -0.07433788 0.025694875 0.07735293
0.10410965 -0.06161946 0.060723573 -0.031098645 -0.04979832 -0.06372537 0.058251735 0.024568958
0.072797544 0.02785053 -0.09266794 0.0664135 -0.0453793 -0.091582075 0.07760144 -0.07944761
0.08275038 -0.12216827 -0.037221044 -0.09121504 -0.061058015 0.029550113 0.10029126 -0.09339687
0.08207183 0.05749453 -0.02897074 0.08596715 -0.089684196 0.06631064 0.096393995 -0.01919071
0.020859864 -0.07805166 -0.031036608 -0.055582643 0.0760308 -0.07495335 0.058394033 -0.10042228
0.023817472 -0.033838876 -0.05104114 -0.037558317 -0.06680734 -0.07827262 0.013316295 0.09661772
0.028080525 0.031055316 0.031907346 -0.041417364 0.09126353 0.064886056 -0.015641725 0.034313582
0.012900458 -0.06955195 -0.009505598 -0.09026736 -0.0483543 0.08990699 -0.04617579 0.046628915
-0.047516093 -0.052722417 -0.028401503 -0.035572756 -0.020904325 -0.11858685 -0.026009157 0.05537876
0.0510253 0.042882886 0.08980896 0.0024509982 0.031259637 -0.035284642 -0.01541855 -0.0657703
0.08242626 -0.062693425 0.08698389 -0.07101397 0.057828113 -0.02691122 -0.029240228 -0.019503152
-0.070985466 -0.05972429 0.04798786 -0.05362659 0.07445446 0.07592341 -0.08642651 -0.05424262
0.04733928 -0.046076458 -0.03219 -0.08770481 0.086639255 -0.034561954 0.35250548 0.29023096
0.23474202 0.08427665 0.069889866 0.09667789 -0.069089584 0.07269476 -0.04716357 -0.06209936
-0.03010898 0.033372577 0.055049267 -0.005717858 -0.075613 -0.009776352 0.09845594 0.060424987
0.04790584 -0.029865682 0.043296818 0.028745646 -0.10311809 -0.009100323 -0.001268475 0.05470348
-0.038068343 -0.033882707 -0.04934531 0.056440126 -0.11630741 -0.13950956 -0.14400598 0.033436712
0.021283729 -0.017328825 -0.06666995 -0.047221106 -0.03558232 -0.08008989 -0.06295724 -0.10943037
0.06301896 -0.018747052 0.060585476 -0.09294899 -0.08012568 -0.17481455 -0.006531662 0.0017611299
-0.027517024 0.038420904 0.0035551596 -0.0043002637 -0.121634185 -0.090765074 0.049296763 -0.10102088
00000000: 8908 9e3c 7af1 96bd aab7 613d 6449 73bd
00000010: b09e 08bd 7eb4 603d 626b 093d 860b dbbd
00000020: 5b37 b63d d6e1 1dbd a6e1 95bd 3423 2abd
00000030: e58e a43d a0d4 74bc cbbb 8bbd da80 9b3d
00000040: e114 67bd 1c51 b0bd 4861 c9bd ef9a 9cbd
00000050: 13f4 dcbd d874 3c3d 8b28 9cbd b7b7 673d
00000060: b06a 8a3c 6f77 a6bc b7a0 133c dcba 633d
00000070: f705 193d baa8 b1bd d30f a8bd 85e0 d1bd
00000080: 44f3 58bd 3b52 cebd 2f8c 2fbd e51e 73bd
00000090: 22f0 b63d 30df 9ebd 211d 973d 7b45 adbd
000000a0: 08a3 93bd c10d e33d 755a dc3b 49ea 5fbd
000000b0: 0e19 c7bd c6ca bdbd dc40 1c3d 6c6b 09bb
000000c0: 5405 723d 0179 b83b a312 0e3d 1bf7 dabd
000000d0: b075 9f3d 70c4 09bc d605 e7bd a134 623c
000000e0: 75ca 473c 0c39 a03d b666 86bd 035f 7a3d
000000f0: 5976 e8bc 2a24 863d 33f5 d6bd fc99 40bd
00000100: 4c59 cfbb 24d5 6fbc 11f2 443c 799a 3cbc
00000110: 63ec bc3c 5670 25bc 29fb df3d e51d a0bd
00000120: 18e8 1abd 75af 943d dbda 6c3d c1af ddbd
00000130: b8e9 a53d a553 c9bd cf45 9ebd 2d38 8f3d
00000140: 8f7b 73ba bce3 93bd b880 ddbd c113 213d
00000150: f0a8 8dbd dc5c b43b 828a 613c 7c0d 67bd
00000160: 898e bb3c 5362 a4bd 3fb8 b8bd bb7f a9bd
00000170: 3e35 91bd 753e 98bd 0f7e d23c 376b 9e3d
00000180: 7137 d53d b064 7cbd 48b9 783d 96c2 febc
00000190: 53f9 4bbd 7282 82bd 5f99 6e3d d744 c93c
000001a0: e116 953d cb26 e43c b0c8 bdbd cd03 883d
000001b0: a5df 39bd 628f bbbd 81ed 9e3d 6eb5 a2bd
000001c0: 0879 a93d 5c33 fabd 1875 18bd f3ce babd
000001d0: f817 7abd 1413 f23c 8165 cd3d dc46 bfbd
000001e0: 4715 a83d 627f 6b3d 0c54 edbc 8c0f b03d
000001f0: 59ac b7bd dfcd 873d 376a c53d d635 9dbc
00000200: 4ee2 aa3c 8cd9 9fbd 7c40 febc a0aa 63bd
00000210: 09b6 9b3d 2481 99bd 952e 6f3d 32aa cdbd
00000220: dc1c c33c a29a 0abd 8410 51bd c0d6 19bd
00000230: 49d2 88bd 654d a0bd 972c 5a3c 83df c53d
00000240: 2109 e63c b867 fe3c 47b1 023d 41a5 29bd
00000250: 60e8 ba3d fbe2 843d 1323 80bc 668c 0c3d
00000260: 715c 533c 4171 8ebd 5ebd 1bbc 18de b8bd
00000270: 290f 46bd 2821 b83d d322 3dbd f6fd 3e3d
00000280: 3ca0 42bd 76f3 57bd 45aa e8bc bdb4 11bd
00000290: 8c3f abbc aadd f2bd 2811 d5bc d7d4 623d
000002a0: e8ff 503d f7a5 2f3d c3ed b73d eda0 203b
000002b0: 1b0a 003d a186 10bd 169e 7cbc 94b2 86bd
000002c0: 19cf a83d 6965 80bd 9c24 b23d c66f 91bd
000002d0: 2cdd 6c3d eb74 dcbc 3489 efbc 13c5 9fbc
000002e0: d460 91bd 75a1 74bd eb8e 443d 8ea7 5bbd
000002f0: 947b 983d bc7d 9b3d 6200 b1bd 822d 5ebd
00000300: d5e6 413d abba 3cbd a9d9 03bd 949e b3bd
00000310: ec6f b13d d690 0dbd 997b b43e 2799 943e
00000320: 3660 703e 3c99 ac3d 6b22 8f3d 0fff c53d
00000330: d77e 8dbd fee0 943d 962e 41bd e65b 7ebd
00000340: 1ca7 f6bc afb1 083d 577b 613d df5c bbbb
00000350: fdda 9abd fe2c 20bc 45a3 c93d 3180 773d
00000360: ea38 443d e0a8 f4bc 0158 313d fd7b eb3c
00000370: 942f d3bd 8519 15bc f542 a6ba c210 603d
00000380: 8ded 1bbd 98c8 0abd 4f1e 4abd c32d 673d
00000390: 9432 eebd 98db 0ebe 4e76 13be eff4 083d
000003a0: 375b ae3c 2ef5 8dbc 418a 88bd eb6a 41bd
000003b0: c4be 11bd 2b06 a4bd baef 80bd 081d e0bd
000003c0: 1610 813d 6b93 99bc 7a28 783d 0a5c bebd
000003d0: ef18 a4bd 9602 33be 8d07 d6bb b7d5 e63a
000003e0: 626b e1bc 3d5f 1d3d aefd 683b 3ae9 8cbb
000003f0: 581b f9bd 0ae3 b9bd 67eb 493d 09e4 cebd

audio_TCN.0.network.2.conv.bias f4 [32]
-0.077356964 -0.118167244 -0.049488235 -0.053724628 -0.05888831 -0.016073925 0.02198211 0.051481925
-0.08022847 -0.09961891 0.027240831 -0.065401435 0.109613955 -0.024189781 0.0029402298 -0.0067780567
-0.048820794 0.17057401 -0.06369515 0.05428616 0.05726687 -0.109369785 0.06581202 0.027811028
-0.09401706 -0.014449128 0.006999918 0.039180662 -0.0809868 0.00456734 0.06508522 0.030789532
00000000: 546d 9ebd ab01 f2bd 2db4 4abd 5b0e 5cbd
00000010: de34 71bd 77ad 83bc d313 b43c b6de 523d
00000020: d34e a4bd 0005 ccbd 2a28 df3c 30f1 85bd
00000030: 487d e03d a629 c6bc dfb0 403b 761a debb
00000040: 50f8 47bd f4aa 2e3e 9a72 82bd 2a5b 5e3d
00000050: aa90 6a3d 44fd dfbd 74c8 863d f4d3 e33c
00000060: 048c c0bd 09bc 6cbc 915f e53b e77b 203d
00000070: 68dc a5bd a0a9 953b 664b 853d 543a fc3c

audio_TCN.0.network.2.conv.weight_g f4 [32, 1, 1]
0.5080621 0.6201755 0.59082085 0.6299816 0.56631273 0.52807695 0.60411257 0.5504338
0.5648333 0.5735265 0.6233703 0.5468954 0.5744407 0.6391754 0.60204136 0.5678516
0.5813109 0.6950421 0.5652084 0.6039404 0.59371 0.5907379 0.6873071 0.5436401
0.58502585 0.59254354 0.5741445 0.57881665 0.5872706 0.5573762 0.6049386 0.6035651
00000000: 5c10 023f d2c3 1e3f 0940 173f 7946 213f
00000010: dff9 103f 0d30 073f 1fa7 1a3f 3be9 0c3f
00000020: ea98 103f a2d2 123f 3295 1f3f 5601 0c3f
00000030: 8c0e 133f 00a1 233f 621f 1a3f b95e 113f
00000040: cbd0 143f 47ee 313f 7fb1 103f d79b 1a3f
00000050: 61fd 173f 993a 173f 5cf3 2f3f ff2b 0b3f
00000060: 41c4 153f efb0 173f 22fb 123f 542d 143f
00000070: 5e57 163f 35b0 0e3f 42dd 1a3f 3e83 1a3f

audio_TCN.0.network.2.conv.weight_v f4 [32, 32, 3]
-0.09999099 0.003113691 -0.06997571 -0.018829636 -0.053779848 0.040497847 -0.020384222 -0.02808103
0.04971769 0.082554646 -0.077581 0.05298701 -0.06362377 0.020873796 0.06459291 0.015294222
-0.02332389 -0.060468473 -0.024506666 -0.0081731705 -0.059405692 0.01610262 0.047739133 0.0691663
-0.051322483 0.014068796 -0.07435411 -0.03928562 -0.058888946 0.016525228 -0.0032974016 0.04728502
-0.036729433 0.08417558 0.0020987757 0.041982546 -0.062470272 0.036182355 -0.048965342 -0.030609185
0.00067942817 0.01963239 -0.09220086 -0.06537828 -0.07758642 0.005822697 -0.018840354 0.048781466
0.028661015 -0.103255495 -0.01467533 0.07169812 -0.041417357 -0.030509403 -0.07798107 -0.012931198
-0.09064916 -0.03696984 0.03758797 -0.09617687 -0.088331394 0.014324365 0.078598 0.044943675
-0.0064232596 -0.046545755 -0.07842691 -0.11084578 -0.048835043 0.010674025 0.03643666 0.019804142
0.04791468 -0.031362105 0.01752723 0.07296479 -0.09532279 -0.08523465 0.022350082 0.010883056
0.06604752 -0.031071441 -0.07108635 0.07666433 -0.049155697 -0.010918483 -0.009607196 -0.09996598
-0.005914767 -0.029401664 -0.0712446 -0.0695591 -0.028850595 -0.0287989 -0.011358808 -0.045559354
0.0038530626 -0.05394774 0.0020234517 -0.105384074 -0.07391683 0.07366039 -0.08302186 -0.12353343
0.036011677 0.008084499 0.036565773 -0.06864253 0.023405189 0.06671113 -0.050038 -0.00643822
-0.011778691 -0.103924625 0.03499225 0.061075173 -0.061306395 -0.10839296 -0.10415176 -0.124880314
-0.09641712 -0.03790021 0.07763872 -0.036278907 0.017400062 -0.0913024 0.08276464 -0.080507025
-0.030937435 -0.058981076 0.07580365 0.011742535 -0.020502016 -0.07417456 -0.09172897 0.018985452
0.03294947 0.044763975 0.08722355 0.056505002 -0.08920661 -0.06755633 -0.08026658 0.01950106
-0.07046601 -0.043754794 -0.09181275 -0.07716621 0.09890375 -0.114628024 0.056806386 0.081470944
-0.02602813 -0.10022878 -0.0014982971 -0.08352596 -0.060859997 -0.10814057 -0.0046601202 0.078998454
-0.09706877 -0.036625694 -0.022290977 0.06183719 -0.10188689 0.08685923 0.026153363 -0.039866317
0.013611267 -0.035951354 0.11715326 -0.027315587 0.039720796 -0.09857788 -0.08243313 0.02253022
-0.09609268 -0.11481668 0.041034184 -0.026348922 0.061533637 -0.0003554876 -0.09707754 -0.0789563
-0.09281723 -0.06281805 0.08248508 -0.08840385 -0.06631646 -0.03120072 -0.039453447 0.054691527
-0.103642456 -0.039400693 -0.025027271 -0.067139134 0.10318167 -0.026418932 0.32273015 0.07810211
0.09956105 -0.014409539 -0.048526447 0.122000016 0.103900015 -0.07673312 0.061924227 -0.08029488
-0.024567945 0.023151202 -0.06678285 -0.06755082 -0.088264264 -0.013703768 -0.004812673 -0.027275223
0.07655801 -0.06216394 -0.07716431 0.06568031 0.02435894 0.034645632 -0.06993203 0.07405983
0.024517234 -0.01625725 -0.10674103 -0.10895422 0.04594897 -0.10362553 -0.08903337 0.01960218
0.0684412 0.0683611 0.08143652 9.185419e-05 0.04926498 0.09143491 0.04989134 -0.02875124
-0.056858793 0.0317495 0.07597736 -0.1051976 -0.08697894 -0.047649056 0.019163603 0.0069688144
0.061575256 -0.059024997 -0.015037597 -0.07896457 -0.060185615 -0.0910986 -0.050728925 0.060579717
00000000: 13c8 ccbd 110f 4c3b 6d4f 8fbd 9c40 9abc
00000010: 4248 5cbd 12e1 253d d0fc a6bc 300a e6bc
00000020: c7a4 4b3d 6912 a93d cae2 9ebd e808 593d
00000030: 2e4d 82bd 86ff aa3c 4a49 843d 9e94 7a3c
00000040: be11 bfbc caad 77bd 34c2 c8bc c3e8 05bc
00000050: 6253 73bd a4e9 833c 1c8a 433d 10a7 8d3d
00000060: 8637 52bd cf80 663c f846 98bd f5e9 20bd
00000070: 8935 71bd ea5f 873c 3819 58bb f0ad 413d
00000080: 9a71 16bd 3f64 ac3d 9d8b 093b e4f5 2b3d
00000090: d4e0 7fbd f333 143d e28f 48bd 1dc0 fabc
000000a0: a71b 323a 1bd4 a03c ced3 bcbd 0ce5 85bd
000000b0: a1e5 9ebd 53cc be3b 1657 9abc 13cf 473d
000000c0: 81ca ea3c 9e77 d3bd cc70 70bc 77d6 923d
000000d0: 3fa5 29bd dbee f9bc 8ab4 9fbd 60dd 53bc
000000e0: 44a6 b9bd b06d 17bd d8f5 193d 61f8 c4bd
000000f0: 17e7 b4bd beb0 6a3c fdf7 a03d dc16 383d
00000100: 357a d2bb c3a6 3ebd 4a9e a0bd 1d03 e3bd
00000110: 4107 48bd 1be2 2e3c 9b3e 153d 4c3c a23c
00000120: 2f42 443d 8d75 00bd 4495 8f3c 906e 953d
00000130: 9838 c3bd 818f aebd 8517 b73c d84e 323c
00000140: ec43 873d 8989 febc b895 91bd 3002 9d3d
00000150: 7c57 49bd 70e3 32bc 8067 1dbc f7ba ccbd
00000160: a9d0 c1bb c2db f0bc b0e8 91bd 0075 8ebd
00000170: 1558 ecbc aceb ebbc 4b1a 3abc 729c 3abd
00000180: aa83 7c3b 4ef8 5cbd e39b 043b 9bd3 d7bd
00000190: b561 97bd 42db 963d 5d07 aabd 18ff fcbd
000001a0: fb80 133d d974 043c fec5 153d 7494 8cbd
000001b0: 3dbc bf3c d89f 883d a5f4 4cbd b4f7 d2bb
000001c0: 69fb 40bc 6fd6 d4bd 0954 0f3d f629 7a3d
000001d0: 6a1c 7bbd 21fd ddbd 854d d5bd 40c1 ffbd
000001e0: 5776 c5bd 403d 1bbd 0d01 9f3d 3199 14bd
000001f0: 938a 8e3c c1fc babd 8280 a93d dee0 a4bd
00000200: 8170 fdbc 2496 71bd f23e 9b3d c363 403c
00000210: d8f3 a7bc d5e8 97bd 66dc bbbd 6187 9b3c
00000220: 06f6 063d 6e5a 373d 43a2 b23d ca71 673d
00000230: f5b1 b6bd f95a 8abd ce62 a4bd b0c0 9f3c
00000240: 7c50 90bd 3a38 33bd 5308 bcbd 5109 9ebd
00000250: 0d8e ca3d 19c2 eabd d0ad 683d 3dda a63d
00000260: f238 d5bc bf44 cdbd 8262 c4ba a90f abbd
00000270: 5548 79bd ce78 ddbd ecb3 98bb f1c9 a13d
00000280: fecb c6bd d304 16bd 919b b6bc fe48 7d3d
00000290: 13aa d0bd 41e3 b13d 943f d63c dd4a 23bd
000002a0: cb01 5f3c ba41 13bd 0cee ef3d f0c4 dfbc
000002b0: 46b2 223d 33e3 c9bd b3d2 a8bd 4c91 b83c
000002c0: 3dcc c4bd 0225 ebbd 7613 283d b2d9 d7bc
000002d0: b20a 7c3d bd60 bab9 97d0 c6bd d7b3 a1bd
000002e0: f616 bebd c0a6 80bd f0ed a83d 140d b5bd
000002f0: edd0 87bd a798 ffbc f099 21bd 3904 603d
00000300: 7f42 d4bd 9f62 21bd fe05 cdbc 3e80 89bd
00000310: e950 d33d 846c d8bc e33c a53e 00f4 9f3d
00000320: aae6 cb3d fd15 6cbc abc3 46bd 25db f93d
00000330: 88c9 d43d 4126 9dbd 42a4 7d3d a471 a4bd
00000340: b742 c9bc 97a7 bd3c 72c5 88bd 1658 8abd
00000350: e5c3 b4bd c585 60bc a1b3 9dbb 4a70 dfbc
00000360: 72ca 9c3d 9e9f 7ebd 5208 9ebd 6683 863d
00000370: 668c c73c 94e8 0d3d 8638 8fbd aeac 973d
00000380: 5ed8 c83c ed2d 85bc 0b9b dabd 6423 dfbd
00000390: fd34 3c3d 9f39 d4bd 2157 b6bd c094 a03c
000003a0: e62a 8c3d e800 8c3d 31c8 a63d d8a1 c038
000003b0: 13ca 493d 3a42 bb3d dd5a 4c3d b887 ebbc
000003c0: c4e4 68bd c40b 023d 059a 9b3d d771 d7bd
000003d0: 0422 b2bd a82b 43bd fdfc 9c3c a75a e43b
000003e0: 5636 7c3d 32c4 71bd 4160 76bc 2db8 a1bd
000003f0: 3185 76bd e791 babd 22c9 4fbd 7022 783d

audio_TCN.0.network.2.net.0.bias f4 [32]
-0.077356964 -0.118167244 -0.049488235 -0.053724628 -0.05888831 -0.016073925 0.02198211 0.051481925
-0.08022847 -0.09961891 0.027240831 -0.065401435 0.109613955 -0.024189781 0.0029402298 -0.0067780567
-0.048820794 0.17057401 -0.06369515 0.05428616 0.05726687 -0.109369785 0.06581202 0.027811028
-0.09401706 -0.014449128 0.006999918 0.039180662 -0.0809868 0.00456734 0.06508522 0.030789532
00000000: 546d 9ebd ab01 f2bd 2db4 4abd 5b0e 5cbd
00000010: de34 71bd 77ad 83bc d313 b43c b6de 523d
00000020: d34e a4bd 0005 ccbd 2a28 df3c 30f1 85bd
00000030: 487d e03d a629 c6bc dfb0 403b 761a debb
00000040: 50f8 47bd f4aa 2e3e 9a72 82bd 2a5b 5e3d
00000050: aa90 6a3d 44fd dfbd 74c8 863d f4d3 e33c
00000060: 048c c0bd 09bc 6cbc 915f e53b e77b 203d
00000070: 68dc a5bd a0a9 953b 664b 853d 543a fc3c

audio_TCN.0.network.2.net.0.weight_g f4 [32, 1, 1]
0.5080621 0.6201755 0.59082085 0.6299816 0.56631273 0.52807695 0.60411257 0.5504338
0.5648333 0.5735265 0.6233703 0.5468954 0.5744407 0.6391754 0.60204136 0.5678516
0.5813109 0.6950421 0.5652084 0.6039404 0.59371 0.5907379 0.6873071 0.5436401
0.58502585 0.59254354 0.5741445 0.57881665 0.5872706 0.5573762 0.6049386 0.6035651
00000000: 5c10 023f d2c3 1e3f 0940 173f 7946 213f
00000010: dff9 103f 0d30 073f 1fa7 1a3f 3be9 0c3f
00000020: ea98 103f a2d2 123f 3295 1f3f 5601 0c3f
00000030: 8c0e 133f 00a1 233f 621f 1a3f b95e 113f
00000040: cbd0 143f 47ee 313f 7fb1 103f d79b 1a3f
00000050: 61fd 173f 993a 173f 5cf3 2f3f ff2b 0b3f
00000060: 41c4 153f efb0 173f 22fb 123f 542d 143f
00000070: 5e57 163f 35b0 0e3f 42dd 1a3f 3e83 1a3f

audio_TCN.0.network.2.net.0.weight_v f4 [32, 32, 3]
-0.09999099 0.003113691 -0.06997571 -0.018829636 -0.053779848 0.040497847 -0.020384222 -0.02808103
0.04971769 0.082554646 -0.077581 0.05298701 -0.06362377 0.020873796 0.06459291 0.015294222
-0.02332389 -0.060468473 -0.024506666 -0.0081731705 -0.059405692 0.01610262 0.047739133 0.0691663
-0.051322483 0.014068796 -0.07435411 -0.03928562 -0.058888946 0.016525228 -0.0032974016 0.04728502
-0.036729433 0.08417558 0.0020987757 0.041982546 -0.062470272 0.036182355 -0.048965342 -0.030609185
0.00067942817 0.01963239 -0.09220086 -0.06537828 -0.07758642 0.005822697 -0.018840354 0.048781466
0.028661015 -0.103255495 -0.01467533 0.07169812 -0.041417357 -0.030509403 -0.07798107 -0.012931198
-0.09064916 -0.03696984 0.03758797 -0.09617687 -0.088331394 0.014324365 0.078598 0.044943675
-0.0064232596 -0.046545755 -0.07842691 -0.11084578 -0.048835043 0.010674025 0.03643666 0.019804142
0.04791468 -0.031362105 0.01752723 0.07296479 -0.09532279 -0.08523465 0.022350082 0.010883056
0.06604752 -0.031071441 -0.07108635 0.07666433 -0.049155697 -0.010918483 -0.009607196 -0.09996598
-0.005914767 -0.029401664 -0.0712446 -0.0695591 -0.028850595 -0.0287989 -0.011358808 -0.045559354
0.0038530626 -0.05394774 0.0020234517 -0.105384074 -0.07391683 0.07366039 -0.08302186 -0.12353343
0.036011677 0.008084499 0.036565773 -0.06864253 0.023405189 0.06671113 -0.050038 -0.00643822
-0.011778691 -0.103924625 0.03499225 0.061075173 -0.061306395 -0.10839296 -0.10415176 -0.124880314
-0.09641712 -0.03790021 0.07763872 -0.036278907 0.017400062 -0.0913024 0.08276464 -0.080507025
-0.030937435 -0.058981076 0.07580365 0.011742535 -0.020502016 -0.07417456 -0.09172897 0.018985452
0.03294947 0.044763975 0.08722355 0.056505002 -0.08920661 -0.06755633 -0.08026658 0.01950106
-0.07046601 -0.043754794 -0.09181275 -0.07716621 0.09890375 -0.114628024 0.056806386 0.081470944
-0.02602813 -0.10022878 -0.0014982971 -0.08352596 -0.060859997 -0.10814057 -0.0046601202 0.078998454
-0.09706877 -0.036625694 -0.022290977 0.06183719 -0.10188689 0.08685923 0.026153363 -0.039866317
0.013611267 -0.035951354 0.11715326 -0.027315587 0.039720796 -0.09857788 -0.08243313 0.02253022
-0.09609268 -0.11481668 0.041034184 -0.026348922 0.061533637 -0.0003554876 -0.09707754 -0.0789563
-0.09281723 -0.06281805 0.08248508 -0.08840385 -0.06631646 -0.03120072 -0.039453447 0.054691527
-0.103642456 -0.039400693 -0.025027271 -0.067139134 0.10318167 -0.026418932 0.32273015 0.07810211
0.09956105 -0.014409539 -0.048526447 0.122000016 0.103900015 -0.07673312 0.061924227 -0.08029488
-0.024567945 0.023151202 -0.06678285 -0.06755082 -0.088264264 -0.013703768 -0.004812673 -0.027275223
0.07655801 -0.06216394 -0.07716431 0.06568031 0.02435894 0.034645632 -0.06993203 0.07405983
0.024517234 -0.01625725 -0.10674103 -0.10895422 0.04594897 -0.10362553 -0.08903337 0.01960218
0.0684412 0.0683611 0.08143652 9.185419e-05 0.04926498 0.09143491 0.04989134 -0.02875124
-0.056858793 0.0317495 0.07597736 -0.1051976 -0.08697894 -0.047649056 0.019163603 0.0069688144
0.061575256 -0.059024997 -0.015037597 -0.07896457 -0.060185615 -0.0910986 -0.050728925 0.060579717
00000000: 13c8 ccbd 110f 4c3b 6d4f 8fbd 9c40 9abc
00000010: 4248 5cbd 12e1 253d d0fc a6bc 300a e6bc
00000020: c7a4 4b3d 6912 a93d cae2 9ebd e808 593d
00000030: 2e4d 82bd 86ff aa3c 4a49 843d 9e94 7a3c
00000040: be11 bfbc caad 77bd 34c2 c8bc c3e8 05bc
00000050: 6253 73bd a4e9 833c 1c8a 433d 10a7 8d3d
00000060: 8637 52bd cf80 663c f846 98bd f5e9 20bd
00000070: 8935 71bd ea5f 873c 3819 58bb f0ad 413d
00000080: 9a71 16bd 3f64 ac3d 9d8b 093b e4f5 2b3d
00000090: d4e0 7fbd f333 143d e28f 48bd 1dc0 fabc
000000a0: a71b 323a 1bd4 a03c ced3 bcbd 0ce5 85bd
000000b0: a1e5 9ebd 53cc be3b 1657 9abc 13cf 473d
000000c0: 81ca ea3c 9e77 d3bd cc70 70bc 77d6 923d
000000d0: 3fa5 29bd dbee f9bc 8ab4 9fbd 60dd 53bc
000000e0: 44a6 b9bd b06d 17bd d8f5 193d 61f8 c4bd
000000f0: 17e7 b4bd beb0 6a3c fdf7 a03d dc16 383d
00000100: 357a d2bb c3a6 3ebd 4a9e a0bd 1d03 e3bd
00000110: 4107 48bd 1be2 2e3c 9b3e 153d 4c3c a23c
00000120: 2f42 443d 8d75 00bd 4495 8f3c 906e 953d
00000130: 9838 c3bd 818f aebd 8517 b73c d84e 323c
00000140: ec43 873d 8989 febc b895 91bd 3002 9d3d
00000150: 7c57 49bd 70e3 32bc 8067 1dbc f7ba ccbd
00000160: a9d0 c1bb c2db f0bc b0e8 91bd 0075 8ebd
00000170: 1558 ecbc aceb ebbc 4b1a 3abc 729c 3abd
00000180: aa83 7c3b 4ef8 5cbd e39b 043b 9bd3 d7bd
00000190: b561 97bd 42db 963d 5d07 aabd 18ff fcbd
000001a0: fb80 133d d974 043c fec5 153d 7494 8cbd
000001b0: 3dbc bf3c d89f 883d a5f4 4cbd b4f7 d2bb
000001c0: 69fb 40bc 6fd6 d4bd 0954 0f3d f629 7a3d
000001d0: 6a1c 7bbd 21fd ddbd 854d d5bd 40c1 ffbd
000001e0: 5776 c5bd 403d 1bbd 0d01 9f3d 3199 14bd
000001f0: 938a 8e3c c1fc babd 8280 a93d dee0 a4bd
00000200: 8170 fdbc 2496 71bd f23e 9b3d c363 403c
00000210: d8f3 a7bc d5e8 97bd 66dc bbbd 6187 9b3c
00000220: 06f6 063d 6e5a 373d 43a2 b23d ca71 673d
00000230: f5b1 b6bd f95a 8abd ce62 a4bd b0c0 9f3c
00000240: 7c50 90bd 3a38 33bd 5308 bcbd 5109 9ebd
00000250: 0d8e ca3d 19c2 eabd d0ad 683d 3dda a63d
00000260: f238 d5bc bf44 cdbd 8262 c4ba a90f abbd
00000270: 5548 79bd ce78 ddbd ecb3 98bb f1c9 a13d
00000280: fecb c6bd d304 16bd 919b b6bc fe48 7d3d
00000290: 13aa d0bd 41e3 b13d 943f d63c dd4a 23bd
000002a0: cb01 5f3c ba41 13bd 0cee ef3d f0c4 dfbc
000002b0: 46b2 223d 33e3 c9bd b3d2 a8bd 4c91 b83c
000002c0: 3dcc c4bd 0225 ebbd 7613 283d b2d9 d7bc
000002d0: b20a 7c3d bd60 bab9 97d0 c6bd d7b3 a1bd
000002e0: f616 bebd c0a6 80bd f0ed a83d 140d b5bd
000002f0: edd0 87bd a798 ffbc f099 21bd 3904 603d
00000300: 7f42 d4bd 9f62 21bd fe05 cdbc 3e80 89bd
00000310: e950 d33d 846c d8bc e33c a53e 00f4 9f3d
00000320: aae6 cb3d fd15 6cbc abc3 46bd 25db f93d
00000330: 88c9 d43d 4126 9dbd 42a4 7d3d a471 a4bd
00000340: b742 c9bc 97a7 bd3c 72c5 88bd 1658 8abd
00000350: e5c3 b4bd c585 60bc a1b3 9dbb 4a70 dfbc
00000360: 72ca 9c3d 9e9f 7ebd 5208 9ebd 6683 863d
00000370: 668c c73c 94e8 0d3d 8638 8fbd aeac 973d
00000380: 5ed8 c83c ed2d 85bc 0b9b dabd 6423 dfbd
00000390: fd34 3c3d 9f39 d4bd 2157 b6bd c094 a03c
000003a0: e62a 8c3d e800 8c3d 31c8 a63d d8a1 c038
000003b0: 13ca 493d 3a42 bb3d dd5a 4c3d b887 ebbc
000003c0: c4e4 68bd c40b 023d 059a 9b3d d771 d7bd
000003d0: 0422 b2bd a82b 43bd fdfc 9c3c a75a e43b
000003e0: 5636 7c3d 32c4 71bd 4160 76bc 2db8 a1bd
000003f0: 3185 76bd e791 babd 22c9 4fbd 7022 783d

audio_TCN.0.network.3.conv.bias f4 [32]
-0.0002652142 -0.07510071 0.05734181 -0.13632654 -0.02886061 0.044394676 -0.0189838 -0.010528558
0.015740903 -0.07389471 -0.023456892 -0.055716395 0.03352878 -0.09729541 0.085153766 0.04503718
-0.0646003 -0.021507746 -0.025207972 -0.07407924 -0.05834413 -0.038494702 0.08225478 0.052520912
-0.07008676 0.07229985 -0.035832077 0.07251137 0.044151284 -0.03442483 -0.015844908 -0.12499371
00000000: 730c 8bb9 67ce 99bd 3fdf 6a3d 2f99 0bbe
00000010: 166d ecbc 31d7 353d ea83 9bbc f97f 2cbc
00000020: 11f3 803c 1c56 97bd ab28 c0bc e036 64bd
00000030: 7955 093d d142 c7bd 1965 ae3d e878 383d
00000040: 294d 84bd 0331 b0bc f380 cebc dbb6 97bd
00000050: 41fa 6ebd 9fac 1dbd 3275 a83d 2b20 573d
00000060: a689 8fbd f211 943d a8c4 12bd d780 943d
00000070: fad7 343d 0d01 0dbd 2ecd 81bc b4fc ffbd

audio_TCN.0.network.3.conv.weight_g f4 [32, 1, 1]
0.5698565 0.6092912 0.5161287 0.6741233 0.5860677 0.61094296 0.5674671 0.5657721
0.52982926 0.5809291 0.59075373 0.5746652 0.60306674 0.5860206 0.5978884 0.6719993
0.5634557 0.59043574 0.5640313 0.67773074 0.56306714 0.5842369 0.5714083 0.53157747
0.55934364 0.5524158 0.5740281 0.5901753 0.634809 0.55060005 0.58293533 0.56051815
00000000: 1ee2 113f 82fa 1b3f 0321 043f 5893 2c3f
00000010: 8808 163f c266 1c3f 8645 113f 71d6 103f
00000020: e4a2 073f c5b7 143f a33b 173f 421d 133f
00000030: 9562 1a3f 7205 163f 370f 193f 2508 2c3f
00000040: a23e 103f cc26 173f 5b64 103f c37f 2d3f
00000050: 2b25 103f 8d90 153f d047 123f 7615 083f
00000060: 2531 0f3f 1f6b 0d3f 81f3 123f ba15 173f
00000070: d882 223f 20f4 0c3f 403b 153f 1e7e 0f3f
