results/models/normal/normal_acce-gyro_tcn_0_checkpoint.pt (torch_old, 726716 bytes, 54 tensors)

acce_gyro_TCN.0.network.0.conv.bias f4 [32]
00000000: 7928 ccbd 96f2 8a3c 3799 4abe 9e37 90bd
00000010: e478 b3bd 39a7 28bd 0fb8 09be e26b bdbd
00000020: 287d b93d 7d32 68b9 23c9 6dbd a44f 1d3e
00000030: 68ef 85bd ef66 933e 1b19 4d3e 3887 383d
00000040: 0c8f 05be f755 023e 017d 3bbe 42e4 043e
00000050: 2e2c 2fbd f83f 41bd 7119 343b 827d 8bbd
00000060: ecd1 d4bc bfaf edbd 056e 04be c671 493d
00000070: 25c8 123d 9da4 e43d 2d53 35be 0af5 443e
-0.09968657 0.016961377 -0.1978501 -0.07041858 -0.087632924 -0.0411751 -0.13449119 -0.09249093
0.09057075 -0.00022144052 -0.058053147 0.15362412 -0.06539804 0.2878947 0.20029108 0.04505083
-0.1304285 0.12728105 -0.18309404 0.12977698 -0.042766742 -0.047180146 0.0027480985 -0.06811048
-0.025979005 -0.116057865 -0.12932594 0.04918077 0.035835404 0.1116421 -0.1770751 0.192341

acce_gyro_TCN.0.network.0.conv.weight_g f4 [32, 1, 1]
00000000: b11d 2f3f c36c 253f d96c 2d3f 901a 2a3f
00000010: 59fa 1d3f bfac 1a3f 4ff1 463f 62f6 383f
00000020: f7bd 263f 2505 7e3f fcf6 453f 209e 0a3f
00000030: 7233 2d3f 91e3 753f b5e8 593f c4dc 303f
00000040: 395d 3e3f e832 603f 1fe7 0b3f afcb 4b3f
00000050: 7ab6 183f 380d 583f 273f 043f b27a 353f
00000060: e1f2 243f 47a8 383f f938 333f 766d 1d3f
00000070: ffa9 373f 8f0c 473f 3e62 1d3f b009 343f
0.6840468 0.6461908 0.67744213 0.6644678 0.61710125 0.6041984 0.7771196 0.7225095
0.65133613 0.992266 0.77329993 0.5414753 0.67656624 0.96050364 0.8512071 0.6908686
0.74360996 0.87577677 0.5464954 0.7960767 0.5965344 0.8439517 0.5165886 0.70890343
0.64433104 0.7213177 0.7000881 0.6149515 0.7174377 0.7775354 0.6147803 0.7032728

acce_gyro_TCN.0.network.0.conv.weight_v f4 [32, 6, 3]
00000000: cc54 5fbe b3f6 9b3d 4136 0fbe 796d 2e3e
00000010: ff11 ddbd 8441 0d3e 6517 e53d c9af 073c
00000020: c08f aabd 69cb cbbd 57bb e73c a839 7dbe
00000030: c42f 0f3e 351d 0cbe 2579 65be 398f a63d
00000040: 4fd8 e93d f989 7f3e b13e afbd d8b1 3d3e
00000050: 6511 cd3d b039 6e3d a950 25bd f121 a43d
00000060: 91e2 8bbb 01af 26bc bda6 e9bb 239a 8abe
00000070: c4c0 83be 9f57 41be 18a7 27be 6b06 3e3c
00000080: 4247 afbd 742c 5c3e 373f 2e3e 4d84 83bd
00000090: 25e1 12ba b79f d6bc 9f03 97bd dae8 c13e
000000a0: d366 903e 5703 c83d b6f7 c5bd be53 913d
000000b0: f779 c93d 85d0 043d 6a1b cdbc 8366 99bd
000000c0: bd53 713d 4f57 d73d f28a debd ea14 0f3d
000000d0: 3650 ad3d e24d 08bc 29da 21be 36c8 b73d
000000e0: a4ee 0dbd f341 0cbd 878a d53d 82d4 233e
000000f0: 1f51 1dbe 4d3c e9bd 4770 f23d d8fa 15be
00000100: 3b5c 6e3e 203f c83c ab6c 38bd 49b0 52be
00000110: 8d07 2cbe af0b bdbd 1c2f 223e d949 6cbe
00000120: f7b9 95bb 4468 3dba 2817 a73d c9c9 0a3e
00000130: 465e 67be c0bf 70be 26e5 2ebd 97f0 6a3d
00000140: bdec cfbd a1e1 8abb 41dd fbbd d46f e33d
00000150: a2ce 01be 45a0 1dbe 1dd5 77be fd27 67be
00000160: e70a 9abd e155 2cbd 2ad6 8dbc dcac bb3d
00000170: a8c5 293d 6e61 53be b12e 2abe d946 d43c
00000180: d885 893e 1d85 8a3d 3e66 233e c3b3 623e
00000190: db1b 4abd 9dde 1a3e 13d6 6bbc 8626 f2bd
000001a0: 3498 913d c45f 3cbe c974 3d3e 3fff 86bd
000001b0: cbf8 4e3e 3cb4 c6bc ec31 7e3d 3e08 4cbe
000001c0: 369c 76be fce8 06be 1049 533d a82a 153e
000001d0: da4d d93d 4195 f23d d9df 8bbc 3464 84bd
000001e0: de01 39bd 8f8f 7cbe 5ad5 88be 4397 13be
000001f0: 77e6 e5bd 3542 d2bd dae2 5a3d 8fd8 0c3e
00000200: eebf dbbc 36ee 973e bf92 07be de7b 473e
00000210: 4bb3 0f3c 11af 363e 19a1 1d3e d7a0 18be
00000220: 2d2f e03d 0af7 40be e2e0 093e bf7d 62be
00000230: 43d5 29be 3351 15be 1f5e de3d 3413 293e
00000240: 37e8 08be e50c 95bc cd8c 94bd 8eb0 39be
00000250: 992c c3bd 825b 61be dc42 1c3d 8ed6 843d
00000260: e403 803c bf6e 0f3e 2df9 a13e ea33 3a3e
00000270: 8a9c 08be 62ec 113e f56c eb3c f836 963d
00000280: 452f 2c3e ebbb 853e bdfb 4d3d b277 10be
00000290: f962 cd3d 6e49 923d cdc8 933d 4336 07bb
000002a0: a25b d3bd 5a74 003d 19b3 383d 5c75 843e
000002b0: 55c9 243e 0eb6 403d e44d 913e 5b7c 923e
000002c0: 04be 923e b735 b3bd f48d 51bd e6a5 30bd
000002d0: ca09 5fbe bd42 983b 1487 b3bd e727 11be
000002e0: 0183 91bc d575 0c3d b598 0abe 9893 06be
000002f0: b6c7 7cbd 51c7 88be e960 10be 1fde 9cbe
00000300: 912d 99bd c8b7 69bb d466 133e 9271 543e
00000310: e6c4 93bc 2740 2e3e 88bf 893c 40df e03d
00000320: bc69 bfbc 0ca4 eebc e6a5 3d3b 3617 eb3c
00000330: aa6f 083d 3ac8 bd3d b1f2 a4bc 7055 aa3e
00000340: 4c64 b13e 05fa fe3d f62a 833c 525f a73d
00000350: 6fe6 02be 1776 abbc 513d 533d 3746 9a3d
00000360: d6f9 be3d 92d1 bf3d 23eb 55bd 4366 bbbd
00000370: 63fc 61be 5c6e 45be d733 8dbd 4c3c d93b
00000380: a090 93bd 2d8f 5ebe e9d1 a1bd 28ff 7fbe
00000390: 607b 55be cc73 2dbe a4a9 f9bd 1a07 f6bc
000003a0: 8c9a cf3d 2507 c8bd 2188 16be d6f8 08be
000003b0: 5773 0d3e 2911 d93d 2ce9 053e 24b8 103d
000003c0: 10dc 21be 4b46 b7bc 46bd 1ebd 3a6c bfbd
000003d0: e29d 013e cfcf 46be 21a4 213e 1600 5f3e
000003e0: b65f b9bd 2df7 c5be bbfb c4be 9b0a b3be
000003f0: 560d edbd fe6f 05be 70fa 20bd 584e 15be
-0.21809691 0.076154135 -0.1398554 0.17033948 -0.10794448 0.13794523 0.11186103 0.008281657
-0.083281994 -0.09950907 0.028287573 -0.24729025 0.13983065 -0.13683017 -0.22409494 0.08132786
0.11418211 0.24954976 -0.08556879 0.18524873 0.10013083 0.058160484 -0.040360127 0.08014286
-0.004268952 -0.01017356 -0.0071304725 -0.27070722 -0.25733006 -0.18881081 -0.16372335 0.01159821
-0.08558513 0.21501333 0.17016302 -0.06421719 -0.0005603007 -0.026199205 -0.073737375 0.37872964
0.2820345 0.09766262 -0.09666388 0.07096051 0.09837716 0.032425422 -0.025037486 -0.07490256
0.05891775 0.105147 -0.108663455 0.034932055 0.08462565 -0.00831935 -0.15805878 0.08973734
-0.034651414 -0.03424258 0.104268126 0.15999034 -0.15362976 -0.113884546 0.118378215 -0.1464647
0.2327737 0.024444163 -0.04502551 -0.2057506 -0.16799755 -0.09230744 0.15838283 -0.23075046
-0.004569288 -0.00072253146 0.081587136 0.13553537 -0.22594556 -0.23510647 -0.042699 0.05735835
-0.10152576 -0.004238323 -0.1229806 0.11105314 -0.1267648 -0.15393169 -0.2420239 -0.22573848
-0.07521611 -0.042074088 -0.017314035 0.0916383 0.041448265 -0.20642635 -0.16619374 0.025912689
0.26859927 0.067636706 0.15956971 0.22138886 -0.04934297 0.15123983 -0.014394301 -0.11823754
0.071091086 -0.18395907 0.18501581 -0.06591653 0.20212094 -0.024255864 0.062059328 -0.19925019
-0.24083027 -0.13174814 0.05158335 0.14567053 0.10610552 0.11844874 -0.017074512 -0.06464425
-0.045167796 -0.24664138 -0.26725274 -0.1441317 -0.11225598 -0.10266534 0.053439 0.13754486
-0.026824918 0.29673928 -0.13239573 0.19480845 0.008770774 0.1784022 0.15393485 -0.14905106
0.10946498 -0.18844238 0.13464692 -0.22118281 -0.16585259 -0.14581756 0.10857796 0.16511232
-0.13369833 -0.018194625 -0.07253418 -0.18133757 -0.09529991 -0.22007564 0.0381497 0.064862356
0.015626855 0.1400709 0.3163542 0.18183866 -0.13340965 0.14250329 0.028738478 0.07334703
0.16814907 0.26119933 0.050288904 -0.1410816 0.10028643 0.07142912 0.07216034 -0.0020631708
-0.10320212 0.03136096 0.045092676 0.25870788 0.16092427 0.04704862 0.28379738 0.286105
0.28660595 -0.0875048 -0.051160768 -0.043126963 -0.21781078 0.0046466277 -0.087659985 -0.14175378
-0.017762663 0.03429206 -0.13534816 -0.1314224 -0.061713897 -0.26714566 -0.14099468 -0.30638215
-0.07479394 -0.003566252 0.14394695 0.20746449 -0.018038224 0.1701666 0.016814962 0.109800816
-0.023365848 -0.029130958 0.0028937995 0.028697591 0.033309616 0.09266706 -0.020135256 0.3326831
0.34646833 0.12450031 0.016011696 0.08172478 -0.12783216 -0.020930333 0.051572148 0.07532924
0.09324996 0.09366144 -0.052226197 -0.09150364 -0.22068934 -0.1928038 -0.06894653 0.0066295024
-0.072053194 -0.21734305 -0.07901365 -0.24999678 -0.20847845 -0.16938704 -0.121905595 -0.030032683
0.10136899 -0.09766988 -0.14700367 -0.13376173 0.1381353 0.10598976 0.1307723 0.03533186
-0.15806603 -0.022372385 -0.038754724 -0.093468145 0.12657884 -0.1941521 0.15785266 0.21777377
-0.090514585 -0.38665143 -0.38473305 -0.3496903 -0.11574809 -0.13031003 -0.039301336 -0.14580667

acce_gyro_TCN.0.network.0.net.0.bias f4 [32]
00000000: 7928 ccbd 96f2 8a3c 3799 4abe 9e37 90bd
00000010: e478 b3bd 39a7 28bd 0fb8 09be e26b bdbd
00000020: 287d b93d 7d32 68b9 23c9 6dbd a44f 1d3e
00000030: 68ef 85bd ef66 933e 1b19 4d3e 3887 383d
00000040: 0c8f 05be f755 023e 017d 3bbe 42e4 043e
00000050: 2e2c 2fbd f83f 41bd 7119 343b 827d 8bbd
00000060: ecd1 d4bc bfaf edbd 056e 04be c671 493d
00000070: 25c8 123d 9da4 e43d 2d53 35be 0af5 443e
-0.09968657 0.016961377 -0.1978501 -0.07041858 -0.087632924 -0.0411751 -0.13449119 -0.09249093
0.09057075 -0.00022144052 -0.058053147 0.15362412 -0.06539804 0.2878947 0.20029108 0.04505083
-0.1304285 0.12728105 -0.18309404 0.12977698 -0.042766742 -0.047180146 0.0027480985 -0.06811048
-0.025979005 -0.116057865 -0.12932594 0.04918077 0.035835404 0.1116421 -0.1770751 0.192341

acce_gyro_TCN.0.network.0.net.0.weight_g f4 [32, 1, 1]
00000000: b11d 2f3f c36c 253f d96c 2d3f 901a 2a3f
00000010: 59fa 1d3f bfac 1a3f 4ff1 463f 62f6 383f
00000020: f7bd 263f 2505 7e3f fcf6 453f 209e 0a3f
00000030: 7233 2d3f 91e3 753f b5e8 593f c4dc 303f
00000040: 395d 3e3f e832 603f 1fe7 0b3f afcb 4b3f
00000050: 7ab6 183f 380d 583f 273f 043f b27a 353f
00000060: e1f2 243f 47a8 383f f938 333f 766d 1d3f
00000070: ffa9 373f 8f0c 473f 3e62 1d3f b009 343f
0.6840468 0.6461908 0.67744213 0.6644678 0.61710125 0.6041984 0.7771196 0.7225095
0.65133613 0.992266 0.77329993 0.5414753 0.67656624 0.96050364 0.8512071 0.6908686
0.74360996 0.87577677 0.5464954 0.7960767 0.5965344 0.8439517 0.5165886 0.70890343
0.64433104 0.7213177 0.7000881 0.6149515 0.7174377 0.7775354 0.6147803 0.7032728

acce_gyro_TCN.0.network.0.net.0.weight_v f4 [32, 6, 3]
00000000: cc54 5fbe b3f6 9b3d 4136 0fbe 796d 2e3e
00000010: ff11 ddbd 8441 0d3e 6517 e53d c9af 073c
00000020: c08f aabd 69cb cbbd 57bb e73c a839 7dbe
00000030: c42f 0f3e 351d 0cbe 2579 65be 398f a63d
00000040: 4fd8 e93d f989 7f3e b13e afbd d8b1 3d3e
00000050: 6511 cd3d b039 6e3d a950 25bd f121 a43d
00000060: 91e2 8bbb 01af 26bc bda6 e9bb 239a 8abe
00000070: c4c0 83be 9f57 41be 18a7 27be 6b06 3e3c
00000080: 4247 afbd 742c 5c3e 373f 2e3e 4d84 83bd
00000090: 25e1 12ba b79f d6bc 9f03 97bd dae8 c13e
000000a0: d366 903e 5703 c83d b6f7 c5bd be53 913d
000000b0: f779 c93d 85d0 043d 6a1b cdbc 8366 99bd
000000c0: bd53 713d 4f57 d73d f28a debd ea14 0f3d
000000d0: 3650 ad3d e24d 08bc 29da 21be 36c8 b73d
000000e0: a4ee 0dbd f341 0cbd 878a d53d 82d4 233e
000000f0: 1f51 1dbe 4d3c e9bd 4770 f23d d8fa 15be
00000100: 3b5c 6e3e 203f c83c ab6c 38bd 49b0 52be
00000110: 8d07 2cbe af0b bdbd 1c2f 223e d949 6cbe
00000120: f7b9 95bb 4468 3dba 2817 a73d c9c9 0a3e
00000130: 465e 67be c0bf 70be 26e5 2ebd 97f0 6a3d
00000140: bdec cfbd a1e1 8abb 41dd fbbd d46f e33d
00000150: a2ce 01be 45a0 1dbe 1dd5 77be fd27 67be
00000160: e70a 9abd e155 2cbd 2ad6 8dbc dcac bb3d
00000170: a8c5 293d 6e61 53be b12e 2abe d946 d43c
00000180: d885 893e 1d85 8a3d 3e66 233e c3b3 623e
00000190: db1b 4abd 9dde 1a3e 13d6 6bbc 8626 f2bd
000001a0: 3498 913d c45f 3cbe c974 3d3e 3fff 86bd
000001b0: cbf8 4e3e 3cb4 c6bc ec31 7e3d 3e08 4cbe
000001c0: 369c 76be fce8 06be 1049 533d a82a 153e
000001d0: da4d d93d 4195 f23d d9df 8bbc 3464 84bd
000001e0: de01 39bd 8f8f 7cbe 5ad5 88be 4397 13be
000001f0: 77e6 e5bd 3542 d2bd dae2 5a3d 8fd8 0c3e
00000200: eebf dbbc 36ee 973e bf92 07be de7b 473e
00000210: 4bb3 0f3c 11af 363e 19a1 1d3e d7a0 18be
00000220: 2d2f e03d 0af7 40be e2e0 093e bf7d 62be
00000230: 43d5 29be 3351 15be 1f5e de3d 3413 293e
00000240: 37e8 08be e50c 95bc cd8c 94bd 8eb0 39be
00000250: 992c c3bd 825b 61be dc42 1c3d 8ed6 843d
00000260: e403 803c bf6e 0f3e 2df9 a13e ea33 3a3e
00000270: 8a9c 08be 62ec 113e f56c eb3c f836 963d
00000280: 452f 2c3e ebbb 853e bdfb 4d3d b277 10be
00000290: f962 cd3d 6e49 923d cdc8 933d 4336 07bb
000002a0: a25b d3bd 5a74 003d 19b3 383d 5c75 843e
000002b0: 55c9 243e 0eb6 403d e44d 913e 5b7c 923e
000002c0: 04be 923e b735 b3bd f48d 51bd e6a5 30bd
000002d0: ca09 5fbe bd42 983b 1487 b3bd e727 11be
000002e0: 0183 91bc d575 0c3d b598 0abe 9893 06be
000002f0: b6c7 7cbd 51c7 88be e960 10be 1fde 9cbe
00000300: 912d 99bd c8b7 69bb d466 133e 9271 543e
00000310: e6c4 93bc 2740 2e3e 88bf 893c 40df e03d
00000320: bc69 bfbc 0ca4 eebc e6a5 3d3b 3617 eb3c
00000330: aa6f 083d 3ac8 bd3d b1f2 a4bc 7055 aa3e
00000340: 4c64 b13e 05fa fe3d f62a 833c 525f a73d
00000350: 6fe6 02be 1776 abbc 513d 533d 3746 9a3d
00000360: d6f9 be3d 92d1 bf3d 23eb 55bd 4366 bbbd
00000370: 63fc 61be 5c6e 45be d733 8dbd 4c3c d93b
00000380: a090 93bd 2d8f 5ebe e9d1 a1bd 28ff 7fbe
00000390: 607b 55be cc73 2dbe a4a9 f9bd 1a07 f6bc
000003a0: 8c9a cf3d 2507 c8bd 2188 16be d6f8 08be
000003b0: 5773 0d3e 2911 d93d 2ce9 053e 24b8 103d
000003c0: 10dc 21be 4b46 b7bc 46bd 1ebd 3a6c bfbd
000003d0: e29d 013e cfcf 46be 21a4 213e 1600 5f3e
000003e0: b65f b9bd 2df7 c5be bbfb c4be 9b0a b3be
000003f0: 560d edbd fe6f 05be 70fa 20bd 584e 15be
-0.21809691 0.076154135 -0.1398554 0.17033948 -0.10794448 0.13794523 0.11186103 0.008281657
-0.083281994 -0.09950907 0.028287573 -0.24729025 0.13983065 -0.13683017 -0.22409494 0.08132786
0.11418211 0.24954976 -0.08556879 0.18524873 0.10013083 0.058160484 -0.040360127 0.08014286
-0.004268952 -0.01017356 -0.0071304725 -0.27070722 -0.25733006 -0.18881081 -0.16372335 0.01159821
-0.08558513 0.21501333 0.17016302 -0.06421719 -0.0005603007 -0.026199205 -0.073737375 0.37872964
0.2820345 0.09766262 -0.09666388 0.07096051 0.09837716 0.032425422 -0.025037486 -0.07490256
0.05891775 0.105147 -0.108663455 0.034932055 0.08462565 -0.00831935 -0.15805878 0.08973734
-0.034651414 -0.03424258 0.104268126 0.15999034 -0.15362976 -0.113884546 0.118378215 -0.1464647
0.2327737 0.024444163 -0.04502551 -0.2057506 -0.16799755 -0.09230744 0.15838283 -0.23075046
-0.004569288 -0.00072253146 0.081587136 0.13553537 -0.22594556 -0.23510647 -0.042699 0.05735835
-0.10152576 -0.004238323 -0.1229806 0.11105314 -0.1267648 -0.15393169 -0.2420239 -0.22573848
-0.07521611 -0.042074088 -0.017314035 0.0916383 0.041448265 -0.20642635 -0.16619374 0.025912689
0.26859927 0.067636706 0.15956971 0.22138886 -0.04934297 0.15123983 -0.014394301 -0.11823754
0.071091086 -0.18395907 0.18501581 -0.06591653 0.20212094 -0.024255864 0.062059328 -0.19925019
-0.24083027 -0.13174814 0.05158335 0.14567053 0.10610552 0.11844874 -0.017074512 -0.06464425
-0.045167796 -0.24664138 -0.26725274 -0.1441317 -0.11225598 -0.10266534 0.053439 0.13754486
-0.026824918 0.29673928 -0.13239573 0.19480845 0.008770774 0.1784022 0.15393485 -0.14905106
0.10946498 -0.18844238 0.13464692 -0.22118281 -0.16585259 -0.14581756 0.10857796 0.16511232
-0.13369833 -0.018194625 -0.07253418 -0.18133757 -0.09529991 -0.22007564 0.0381497 0.064862356
0.015626855 0.1400709 0.3163542 0.18183866 -0.13340965 0.14250329 0.028738478 0.07334703
0.16814907 0.26119933 0.050288904 -0.1410816 0.10028643 0.07142912 0.07216034 -0.0020631708
-0.10320212 0.03136096 0.045092676 0.25870788 0.16092427 0.04704862 0.28379738 0.286105
0.28660595 -0.0875048 -0.051160768 -0.043126963 -0.21781078 0.0046466277 -0.087659985 -0.14175378
-0.017762663 0.03429206 -0.13534816 -0.1314224 -0.061713897 -0.26714566 -0.14099468 -0.30638215
-0.07479394 -0.003566252 0.14394695 0.20746449 -0.018038224 0.1701666 0.016814962 0.109800816
-0.023365848 -0.029130958 0.0028937995 0.028697591 0.033309616 0.09266706 -0.020135256 0.3326831
0.34646833 0.12450031 0.016011696 0.08172478 -0.12783216 -0.020930333 0.051572148 0.07532924
0.09324996 0.09366144 -0.052226197 -0.09150364 -0.22068934 -0.1928038 -0.06894653 0.0066295024
-0.072053194 -0.21734305 -0.07901365 -0.24999678 -0.20847845 -0.16938704 -0.121905595 -0.030032683
0.10136899 -0.09766988 -0.14700367 -0.13376173 0.1381353 0.10598976 0.1307723 0.03533186
-0.15806603 -0.022372385 -0.038754724 -0.093468145 0.12657884 -0.1941521 0.15785266 0.21777377
-0.090514585 -0.38665143 -0.38473305 -0.3496903 -0.11574809 -0.13031003 -0.039301336 -0.14580667

acce_gyro_TCN.0.network.0.downsample.weight f4 [32, 6, 1]
00000000: 15f1 5abd c9d6 1b3c b468 1d3d de4f ecbd
00000010: 7d11 82bd ea5c b13d 35ff d33a 7bf8 de3c
00000020: 44ed 09bd 9c78 40be abe3 86bc 8163 073e
00000030: e813 fbbd 1436 273e 23dd 67bd 5950 973d
00000040: b44a 2bbb 1b02 633b 9514 5fbd 8a78 a93d
00000050: e435 73bd 2c39 363d 4153 b4bd c06d 1dbc
00000060: 2e5b 65bd abd3 adbc d998 48bd 6fce cabd
00000070: a8b4 6bbd 4565 b6bd 09ec d93c 6930 9c3b
00000080: b898 973d 27c6 323d 1c28 a8bd 8195 adbc
00000090: 6059 983d 151b 12be cb87 9a3d a36b 1c3e
000000a0: 359e 88bd 211c 40be 36ef 993c 1339 9f3d
000000b0: 384e e13a d565 76bd 402a 94bd 386e 383d
000000c0: f91f 253d fea0 dbbd 2e73 95bc ff65 2c3e
000000d0: d686 a3bd c9c7 023e 1e68 c8bc 0ee7 e8bd
000000e0: 14d4 3c3d 53f2 16be 982c 28bb b9d7 eb3d
000000f0: 56b7 c0bc ab4a 5abc abfd c73c 6062 72be
00000100: 28b9 05bd b6f0 293e f852 e93c c15b 17bd
00000110: 6be0 7fbb 3fac 5e3e 41ee 7abc e2eb 8e3d
00000120: 819e 35bd 1f6d 88bd 9f46 34bd b58d 13be
00000130: 2cb1 84bd 4298 80bb 4658 b4bc f79e c93d
00000140: 929c 33bd c755 8bbd c88e a83c dcea 1cbf
00000150: 4784 e23c 958d c5bd 0f79 223d 0b0c ef3d
00000160: 008b 813c a34b 963e 55f1 4dbd e765 6bba
00000170: b71b 3bbd 0320 c8bd 4212 52bd fa55 a8bd
00000180: 1655 f3bc 8727 b6bc e823 a8bd 4f81 6c3d
00000190: 7abc 7cbd 9bf6 3fbe f23e 0b3d 770d a7bd
000001a0: 4b75 933d 939a 25be da07 183d e990 fcbc
000001b0: b36c f1bd 618b 943d 63b7 2dbd 48ab 993d
000001c0: b029 a6bd a7ea 6bbc 59bd 5fbc 156b a3bb
000001d0: ff17 adbd 2df5 603d 58cf 84bc 36b5 8cbe
000001e0: 0d20 8cbc 281c a33c 6532 5ebd d21f 463e
000001f0: ea11 c9bc 1e22 b9bb ee98 9c3d 96fc 47be
00000200: c139 ed3d fe81 763c f026 793c 6863 563d
00000210: 36b0 60bb f7fc ec3b a4c4 fbba 4c75 3e3e
00000220: 006c 223b 0a0b a0bc c6a9 94bd a499 003e
00000230: cb78 f4bd 4ec7 8a3d c3db c3bd e53d 513e
00000240: 0df7 4e3d 61d0 1b3d 7c67 25bb 0173 003d
00000250: a797 843c fba5 24be 527f 16bc b0ad df3d
00000260: 6cb5 90bd 2c87 453e 591a 24bd 80ff b93a
00000270: 7204 c53b 46e9 803d 9aa0 cab9 5c22 f7bd
00000280: 2a2f d0bc 66a3 c73d ad16 93bd 83fb c2bd
00000290: 902f cebc b3fc aa3d b480 0abd d4ff 58be
000002a0: 2114 8d3b f6a8 dabc 0246 92bb 4be4 033e
000002b0: 70cd d23c 54c1 26be 4e5b d2bd da69 683c
000002c0: ba6d 28bd 311b 8cbe d41e 9fbd ad76 60be
000002d0: c79a a5bc 1711 2fbd 0374 b0bb 254d c6bc
000002e0: fb78 2cbd c9ca 55be e6bc 943c b863 19bc
000002f0: 81aa 883c 92cf 363e e942 3f3d e29c 8b3d
-0.05345257 0.009511658 0.03842993 -0.11538671 -0.06350992 0.086603 0.001617408 0.027218094
-0.03367354 -0.18796009 -0.016465982 0.13221551 -0.12259656 0.16329223 -0.056607377 0.07388372
-0.0026137056 0.0034638706 -0.054462988 0.08274944 -0.059377566 0.044488117 -0.08804942 -0.009608686
-0.05599516 -0.021219095 -0.048973892 -0.09902655 -0.057545334 -0.089060344 0.026601808 0.004766513
0.07402176 0.043646004 -0.08210775 -0.021189453 0.07438922 -0.14268143 0.07545432 0.15275435
-0.066708006 -0.1876073 0.018790822 0.07774558 0.0017189449 -0.06015571 -0.07234621 0.045026988
0.040313695 -0.10724066 -0.018243399 0.16835783 -0.07984702 0.12771524 -0.02446371 -0.11372195
0.04610069 -0.14740877 -0.0025661346 0.11515755 -0.023524921 -0.013323466 0.02441295 -0.2367034
-0.032647282 0.1659573 0.028481945 -0.036952738 -0.0039043676 0.21745394 -0.015315593 0.06978585
-0.044340614 -0.06661438 -0.044012662 -0.14409526 -0.06479105 -0.0039244005 -0.022014748 0.09844773
-0.04385049 -0.0680347 0.020575896 -0.61295867 0.027650965 -0.09646145 0.03966623 0.11672219
0.01581335 0.2935458 -0.05027898 -0.0008979723 -0.045680728 -0.09771731 -0.051286943 -0.08219524
-0.029703658 -0.022235645 -0.082099736 0.057740506 -0.061703183 -0.18746416 0.033995576 -0.08156865
0.07200106 -0.16172247 0.037116863 -0.030830817 -0.11788311 0.07253147 -0.04241122 0.075033724
-0.0811342 -0.014399207 -0.013655984 -0.0049871304 -0.084518425 0.054921318 -0.01621215 -0.27482003
-0.017105127 0.019910887 -0.05424728 0.19348076 -0.024544675 -0.005649819 0.076463565 -0.19529948
0.11583281 0.015045641 0.015207037 0.052340895 -0.0034284717 0.007232304 -0.0019208384 0.18599433
0.0024783611 -0.019536514 -0.07258944 0.12558609 -0.11937102 0.067762956 -0.095634006 0.20433767
0.050528575 0.038040522 -0.0025238683 0.031359676 0.016185595 -0.16078942 -0.009185629 0.109218
-0.070658535 0.19289845 -0.04006419 0.0014190525 0.006012493 0.062944934 -0.000386481 -0.120671004
-0.025413115 0.09747963 -0.071820594 -0.09520628 -0.025169164 0.0834898 -0.033814147 -0.2119134
0.004305378 -0.026691895 -0.004463912 0.12880056 0.025732726 -0.16284686 -0.10271321 0.014185393
-0.04112027 -0.27364495 -0.07769552 -0.21920271 -0.020215405 -0.042740908 -0.0053849234 -0.024206707
-0.042107563 -0.20878138 0.01815648 -0.009362154 0.016682865 0.1785262 0.04669467 0.068170324

acce_gyro_TCN.0.network.0.downsample.bias f4 [32]
00000000: d8ca c7bc 4757 a13e 7f41 89be 1981 5b3c
00000010: 09f5 da3d 1f55 9dbe 3ad1 23be 8205 24be
00000020: 49b8 cabd 71b3 8d3e ed5f 453d dd49 053e
00000030: edd5 833a 248b 353d d4e7 b53e e433 813d
00000040: 284e fb3c 2695 ae3e f523 aabe 0859 94be
00000050: ea14 45bd fc91 043e 209d 103d 0cc0 a53e
00000060: a473 b0be a5c3 a0bd 8c6b 47be 4cb4 b1be
00000070: d3c7 9f3e 1d68 05be c4e6 833e be2f ab3d
-0.024388716 0.315119 -0.26807782 0.0133974785 0.10691268 -0.30729005 -0.15997782 -0.16017726
-0.09898431 0.27675965 0.048187185 0.13016458 0.0010058262 0.044322148 0.35528433 0.063087255
0.030676916 0.34098166 -0.33230558 -0.28974175 -0.04811565 0.12946314 0.035306096 0.32373083
-0.34463227 -0.07849816 -0.1947462 -0.34707868 0.3120714 -0.13027997 0.25761998 0.083587155

acce_gyro_TCN.0.network.1.conv.bias f4 [32]
00000000: 7c89 97bc bbc1 263d 9a4c 88bd 0439 923d
00000010: 2428 9abd 7f7f 413d 79b7 07bd 130a fd3a
00000020: 1d68 133b dc47 30bb b99e 8e3d 4bfd 213d
00000030: a8d4 e3bc a87b 53bd e241 a9bd 7a26 a33c
00000040: db46 dabd c80a aabd b701 0c3d 7c87 393d
00000050: 0b2a 5c3d 2643 a0bd decd fc3b 25d5 6fbd
00000060: 98c3 da3c 7f56 703d e0a3 e63b a887 3bbd
00000070: 5e50 a43d a924 d2bd 42dc c7bd 332a f93c
-0.018498175 0.0407121 -0.066552356 0.07139781 -0.075271875 0.04724073 -0.033133958 0.001930537
0.0022492476 -0.00268983 0.06963868 0.0395482 -0.027811363 -0.0516316 -0.08264519 0.019915808
-0.10658046 -0.083028376 0.034181323 0.045295224 0.053751033 -0.078253075 0.007714971 -0.05855288
0.026704594 0.05867624 0.0070385784 -0.04578367 0.08023141 -0.102608986 -0.09758808 0.03041563

acce_gyro_TCN.0.network.1.conv.weight_g f4 [32, 1, 1]
00000000: 4d8d 243f 88e7 3f3f 322b 383f adb4 143f
00000010: 2024 183f dbac 2f3f 557c 383f b703 1a3f
00000020: 7078 333f a64e 313f 2344 1c3f c488 0a3f
00000030: f7dc 133f 745a 0e3f cb8b 2b3f 6e84 233f
00000040: e836 133f 50db 2f3f 98bc 313f 0206 323f
00000050: d69f 273f d854 243f 74b9 243f 1c48 1b3f
00000060: 26df 283f b324 1d3f 620e 213f 3ece 053f
00000070: 7efa 673f cb10 253f aa67 2a3f 1868 1c3f
0.6427811 0.74962664 0.7194091 0.5808819 0.5943012 0.6862313 0.72064716 0.6016192
0.7010565 0.69260633 0.6104147 0.5411494 0.5775904 0.5560677 0.6701018 0.63873947
0.57505655 0.6869402 0.69428396 0.6954042 0.65478265 0.6419196 0.6434548 0.60656905
0.659655 0.61384124 0.6291257 0.52267826 0.90616596 0.6447875 0.6656443 0.61096334

acce_gyro_TCN.0.network.1.conv.weight_v f4 [32, 32, 3]
00000000: 27c6 a13d 1305 f33d 5a59 2b3d 5be0 fd3d
00000010: 9b40 f23d 084b 7a3d abe0 933d 1d62 813d
00000020: a01a f43d d676 ffbc ad74 573c a61a 1fbd
00000030: 982c 51bd dfcc e13a 2512 333b 1193 013d
00000040: 0d22 6fbb 520b 95bd 5f7c f3bc 5e1f a73c
00000050: 275e 1f3d a7ce e53d a774 173e 4dba 363d
00000060: f580 9d3c 1cbf fdbd 47ee 9abd 9ff7 a2bd
00000070: 883b ab3d 065a dbbb 35a4 0e3d 5a08 203d
00000080: 58db 293d dbec 55bd a7d7 d8bc 74b1 a9bd
00000090: b344 083e c340 a33c d997 9d3d 42ce 25bd
000000a0: a184 5ebd d35e 9ebd a4ce c6bc 120e 193d
000000b0: 1c83 123c 3293 f23c 7b73 ba3d c89d a13d
000000c0: 4a52 f33d 2426 9bbc 8811 7bbd a6d5 823c
000000d0: 99cc 45bd 2252 403d 8bd7 ee3b 6aa4 863d
000000e0: 2013 d13c 4417 20bd 6068 743d 7dfd 833d
000000f0: 1c28 44bd 55ff dabc 7503 4d3d 6c62 2b3d
00000100: a3cf 0c3d 2319 83bd c249 bdbd 9fe9 a9bd
00000110: 684b 9d3b e827 c0bc 6fd1 dc3d 3353 a7bc
00000120: ffc4 b33c e8ae 333d 453d 623c e99f 65bd
00000130: 1205 92bd 8926 923d 976a cd3d a823 263e
00000140: 210d 623d 4778 e33c b681 15bc 95f7 ddba
00000150: 9120 8dbd d137 153d 147a b8bb d761 82bd
00000160: b3fb 58bd 5d7b 82bd e719 48bd 0a85 4dbc
00000170: bf9d c43d 3ef4 97bd ddee 42bd 2c5e 42bd
00000180: 24c4 a13b 1a13 0a3c a4d3 7f3d 979f debc
00000190: 5ec2 cfbd 489b 433c f728 613c 748b 943c
000001a0: 788a 0e3b 3a15 03be 49c1 e5bd 939d 4cbd
000001b0: 443d 04be b9bd 0abc a4fb 8bbd 7e0a 5a3c
000001c0: 1a79 f83b 8de3 96bb c254 9e3d 5f58 24bd
000001d0: 34b1 b43c 0175 633c 4692 a03c 81f2 da3c
000001e0: 6ecc da3d c5bb e53d da07 ab3d c626 8d3d
000001f0: f168 933d 7b85 cf3d e02c 053b 903b fabc
00000200: 5067 c93d 281a 96bd d5c0 85bd ac10 9a3d
00000210: ff82 98bd 3307 e63c 41dd dcbc a9a3 943d
00000220: cf5a 543d 59fe 93bc abe0 a2bc 9662 b53b
00000230: 6e7a d93d f83e 0abe 2786 87bd c1f1 71bc
00000240: f778 5fbd cd7a 363d d625 7d3d 4758 90bd
00000250: 61b4 813d c2db f8bc e02d 143b 4ffd 4bba
00000260: 08b9 20bd e815 9d3d e01b 003e 35ad c83c
00000270: 2359 bdbc 580c 6ebb 2d84 5b3d 6a4f 9c3d
00000280: 7e84 a33d 17ad 963c 7ffe 0ebd 7693 613c
00000290: 5c22 7abb 5152 0bbe 6c00 f1bd 8f3b f6bd
000002a0: a9fa e53c 634c b73c 4167 c03c 2a38 053d
000002b0: 4056 a43d 24b2 a83d 8aac a1bb 17d1 4fbc
000002c0: bc81 0b3d fb32 c4bd 17a0 9fbc 2073 fabc
000002d0: 57f1 17bd c480 143d 1128 85bd 560f c7bc
000002e0: 6cf4 5ebb 1708 89ba a8b2 a73a 028f 823c
000002f0: 1d1e e9bc af47 e5bc 8790 233d 3490 c73d
00000300: 83c2 a83d 5cf6 94ba 7b71 60bd 840b 953d
00000310: c471 a93d 1c32 46bc b8d5 333e 6c29 5e3e
00000320: ef07 a23d d3e4 dc3d c664 973d 3348 f33c
00000330: 3173 efbb bb98 a73d 9267 f93c cf37 333d
00000340: f974 113c c9d0 853c 7e69 fc3d 4461 203e
00000350: 721d b3bb 9b39 a63d e557 923d 0b42 593d
00000360: 4f57 0fbd 7866 eebd cda8 ba3c 8425 e0bc
00000370: 31ad 13bd d659 acbc 70c8 85bd ef3a 53bd
00000380: 7646 563d d943 cebd 8ea1 7dbc bbf0 4ebd
00000390: b7a1 863c 8432 60bc 3a7f 3c3d 3a9b 7c3e
000003a0: ec89 323e e084 163e 36f7 84bb 6fa6 87bd
000003b0: a3cf 01be 1cbe bebd 3a72 07bd 1c1c aa3c
000003c0: 3682 13bc 8b83 3f3c 6cbd 803d 7fc3 413c
000003d0: b604 58bd 7b8d 043c e50f c63d 7f11 1c3e
000003e0: a16f 1b3e 7d6d 483c da00 4c3d 0067 9a3c
000003f0: 5a99 6d3d d1a6 3c3d 5524 a03c 3f6d 933d
0.07899123 0.11866202 0.04183326 0.12396308 0.11828729 0.06110671 0.072205864 0.06317542
0.11919141 -0.031184595 0.013150376 -0.038843773 -0.05106792 0.0017227194 0.0027324047 0.031634394
-0.0036488802 -0.0727755 -0.02972239 0.0204007 0.03890815 0.112210564 0.14790593 0.044611264
0.01922653 -0.12389967 -0.07564979 -0.07957386 0.08360964 -0.0066940812 0.03482457 0.039070465
0.041468948 -0.052227836 -0.026470019 -0.082857996 0.13307457 0.019928342 0.07694978 -0.040479906
-0.054325704 -0.0773293 -0.024268456 0.037366934 0.008942392 0.029611204 0.091040574 0.078914225
0.1188093 -0.018939085 -0.061296016 0.015971016 -0.048290823 0.046953328 0.0072888783 0.06574328
0.025521815 -0.039084688 0.059669852 0.064448334 -0.047889814 -0.02673308 0.050052125 0.04184191
0.034377705 -0.06401279 -0.09242584 -0.08296513 0.004800249 -0.023456529 0.10782134 -0.020425415
0.021944521 0.043867975 0.013808553 -0.056060705 -0.07129873 0.07136256 0.10030096 0.1622454
0.055188302 0.027767314 -0.009125164 -0.0016934747 -0.06890977 0.036430184 -0.005629787 -0.06366318
-0.052974414 -0.06371186 -0.048852827 -0.012543926 0.096004 -0.074196324 -0.04759108 -0.04745309
0.004936712 0.008427406 0.062457696 -0.027175708 -0.101444945 0.011938877 0.013742677 0.018132903
0.0021750014 -0.12801066 -0.11218507 -0.049954962 -0.12913996 -0.008468085 -0.06835106 0.013308166
0.007582796 -0.004604763 0.0773101 -0.04012334 0.022057153 0.013882876 0.019600999 0.026726963
0.10683523 0.11217455 0.08351107 0.06892161 0.0719775 0.10132881 0.0020320937 -0.03054598
0.098341584 -0.07329208 -0.065309204 0.07522711 -0.074468605 0.028079605 -0.02696097 0.07257778
0.051844414 -0.018065618 -0.01988252 0.005535434 0.10619055 -0.13500583 -0.066173844 -0.014767111
-0.05455872 0.044550706 0.06180366 -0.070480876 0.06333233 -0.030378226 0.0022610351 -0.00077815814
-0.03923896 0.07670194 0.12510633 0.024496654 -0.023113793 -0.0036323275 0.05359285 0.076323345
0.07984255 0.018393083 -0.034910675 0.013768068 -0.0038167452 -0.1360562 -0.117676586 -0.12023079
0.028073626 0.022375291 0.023486735 0.032524265 0.080242634 0.08237103 -0.0049338983 -0.012684128
0.03405927 -0.09580036 -0.019485516 -0.030572474 -0.037095394 0.036255613 -0.06501783 -0.024299305
-0.0034020199 -0.0010454681 0.0012794333 0.015937332 -0.028456742 -0.027988283 0.039932754 0.097443014
0.08240225 -0.0011364925 -0.054795723 0.07277587 0.08273652 -0.012096908 0.17561996 0.21695489
0.079116695 0.10785832 0.07392268 0.029697513 -0.007307433 0.08183428 0.030444894 0.043754395
0.008877986 0.016334908 0.123248085 0.15662104 -0.0054661566 0.08116456 0.07145671 0.0530415
-0.034995373 -0.11640638 0.022785569 -0.027361639 -0.03605384 -0.02103893 -0.06532371 -0.051569875
0.05231329 -0.10071535 -0.015480412 -0.050522547 0.016434534 -0.013683919 0.04601977 0.24668589
0.17435426 0.14699125 -0.00405779 -0.066235416 -0.12676863 -0.09313604 -0.03306792 0.020765357
-0.009003213 0.011689077 0.06286129 0.011826395 -0.052738868 0.008090372 0.096710004 0.15241049
0.15179302 0.012233135 0.0498055 0.018847942 0.058007576 0.046057526 0.019548574 0.071985714

acce_gyro_TCN.0.network.1.net.0.bias f4 [32]
00000000: 7c89 97bc bbc1 263d 9a4c 88bd 0439 923d
00000010: 2428 9abd 7f7f 413d 79b7 07bd 130a fd3a
00000020: 1d68 133b dc47 30bb b99e 8e3d 4bfd 213d
00000030: a8d4 e3bc a87b 53bd e241 a9bd 7a26 a33c
00000040: db46 dabd c80a aabd b701 0c3d 7c87 393d
00000050: 0b2a 5c3d 2643 a0bd decd fc3b 25d5 6fbd
00000060: 98c3 da3c 7f56 703d e0a3 e63b a887 3bbd
00000070: 5e50 a43d a924 d2bd 42dc c7bd 332a f93c
-0.018498175 0.0407121 -0.066552356 0.07139781 -0.075271875 0.04724073 -0.033133958 0.001930537
0.0022492476 -0.00268983 0.06963868 0.0395482 -0.027811363 -0.0516316 -0.08264519 0.019915808
-0.10658046 -0.083028376 0.034181323 0.045295224 0.053751033 -0.078253075 0.007714971 -0.05855288
0.026704594 0.05867624 0.0070385784 -0.04578367 0.08023141 -0.102608986 -0.09758808 0.03041563

acce_gyro_TCN.0.network.1.net.0.weight_g f4 [32, 1, 1]
00000000: 4d8d 243f 88e7 3f3f 322b 383f adb4 143f
00000010: 2024 183f dbac 2f3f 557c 383f b703 1a3f
00000020: 7078 333f a64e 313f 2344 1c3f c488 0a3f
00000030: f7dc 133f 745a 0e3f cb8b 2b3f 6e84 233f
00000040: e836 133f 50db 2f3f 98bc 313f 0206 323f
00000050: d69f 273f d854 243f 74b9 243f 1c48 1b3f
00000060: 26df 283f b324 1d3f 620e 213f 3ece 053f
00000070: 7efa 673f cb10 253f aa67 2a3f 1868 1c3f
0.6427811 0.74962664 0.7194091 0.5808819 0.5943012 0.6862313 0.72064716 0.6016192
0.7010565 0.69260633 0.6104147 0.5411494 0.5775904 0.5560677 0.6701018 0.63873947
0.57505655 0.6869402 0.69428396 0.6954042 0.65478265 0.6419196 0.6434548 0.60656905
0.659655 0.61384124 0.6291257 0.52267826 0.90616596 0.6447875 0.6656443 0.61096334

acce_gyro_TCN.0.network.1.net.0.weight_v f4 [32, 32, 3]
00000000: 27c6 a13d 1305 f33d 5a59 2b3d 5be0 fd3d
00000010: 9b40 f23d 084b 7a3d abe0 933d 1d62 813d
00000020: a01a f43d d676 ffbc ad74 573c a61a 1fbd
00000030: 982c 51bd dfcc e13a 2512 333b 1193 013d
00000040: 0d22 6fbb 520b 95bd 5f7c f3bc 5e1f a73c
00000050: 275e 1f3d a7ce e53d a774 173e 4dba 363d
00000060: f580 9d3c 1cbf fdbd 47ee 9abd 9ff7 a2bd
00000070: 883b ab3d 065a dbbb 35a4 0e3d 5a08 203d
00000080: 58db 293d dbec 55bd a7d7 d8bc 74b1 a9bd
00000090: b344 083e c340 a33c d997 9d3d 42ce 25bd
000000a0: a184 5ebd d35e 9ebd a4ce c6bc 120e 193d
000000b0: 1c83 123c 3293 f23c 7b73 ba3d c89d a13d
000000c0: 4a52 f33d 2426 9bbc 8811 7bbd a6d5 823c
000000d0: 99cc 45bd 2252 403d 8bd7 ee3b 6aa4 863d
000000e0: 2013 d13c 4417 20bd 6068 743d 7dfd 833d
000000f0: 1c28 44bd 55ff dabc 7503 4d3d 6c62 2b3d
00000100: a3cf 0c3d 2319 83bd c249 bdbd 9fe9 a9bd
00000110: 684b 9d3b e827 c0bc 6fd1 dc3d 3353 a7bc
00000120: ffc4 b33c e8ae 333d 453d 623c e99f 65bd
00000130: 1205 92bd 8926 923d 976a cd3d a823 263e
00000140: 210d 623d 4778 e33c b681 15bc 95f7 ddba
00000150: 9120 8dbd d137 153d 147a b8bb d761 82bd
00000160: b3fb 58bd 5d7b 82bd e719 48bd 0a85 4dbc
00000170: bf9d c43d 3ef4 97bd ddee 42bd 2c5e 42bd
00000180: 24c4 a13b 1a13 0a3c a4d3 7f3d 979f debc
00000190: 5ec2 cfbd 489b 433c f728 613c 748b 943c
000001a0: 788a 0e3b 3a15 03be 49c1 e5bd 939d 4cbd
000001b0: 443d 04be b9bd 0abc a4fb 8bbd 7e0a 5a3c
000001c0: 1a79 f83b 8de3 96bb c254 9e3d 5f58 24bd
000001d0: 34b1 b43c 0175 633c 4692 a03c 81f2 da3c
000001e0: 6ecc da3d c5bb e53d da07 ab3d c626 8d3d
000001f0: f168 933d 7b85 cf3d e02c 053b 903b fabc
00000200: 5067 c93d 281a 96bd d5c0 85bd ac10 9a3d
00000210: ff82 98bd 3307 e63c 41dd dcbc a9a3 943d
00000220: cf5a 543d 59fe 93bc abe0 a2bc 9662 b53b
00000230: 6e7a d93d f83e 0abe 2786 87bd c1f1 71bc
00000240: f778 5fbd cd7a 363d d625 7d3d 4758 90bd
00000250: 61b4 813d c2db f8bc e02d 143b 4ffd 4bba
00000260: 08b9 20bd e815 9d3d e01b 003e 35ad c83c
00000270: 2359 bdbc 580c 6ebb 2d84 5b3d 6a4f 9c3d
00000280: 7e84 a33d 17ad 963c 7ffe 0ebd 7693 613c
00000290: 5c22 7abb 5152 0bbe 6c00 f1bd 8f3b f6bd
000002a0: a9fa e53c 634c b73c 4167 c03c 2a38 053d
000002b0: 4056 a43d 24b2 a83d 8aac a1bb 17d1 4fbc
000002c0: bc81 0b3d fb32 c4bd 17a0 9fbc 2073 fabc
000002d0: 57f1 17bd c480 143d 1128 85bd 560f c7bc
000002e0: 6cf4 5ebb 1708 89ba a8b2 a73a 028f 823c
000002f0: 1d1e e9bc af47 e5bc 8790 233d 3490 c73d
00000300: 83c2 a83d 5cf6 94ba 7b71 60bd 840b 953d
00000310: c471 a93d 1c32 46bc b8d5 333e 6c29 5e3e
00000320: ef07 a23d d3e4 dc3d c664 973d 3348 f33c
00000330: 3173 efbb bb98 a73d 9267 f93c cf37 333d
00000340: f974 113c c9d0 853c 7e69 fc3d 4461 203e
00000350: 721d b3bb 9b39 a63d e557 923d 0b42 593d
00000360: 4f57 0fbd 7866 eebd cda8 ba3c 8425 e0bc
00000370: 31ad 13bd d659 acbc 70c8 85bd ef3a 53bd
00000380: 7646 563d d943 cebd 8ea1 7dbc bbf0 4ebd
00000390: b7a1 863c 8432 60bc 3a7f 3c3d 3a9b 7c3e
000003a0: ec89 323e e084 163e 36f7 84bb 6fa6 87bd
000003b0: a3cf 01be 1cbe bebd 3a72 07bd 1c1c aa3c
000003c0: 3682 13bc 8b83 3f3c 6cbd 803d 7fc3 413c
000003d0: b604 58bd 7b8d 043c e50f c63d 7f11 1c3e
000003e0: a16f 1b3e 7d6d 483c da00 4c3d 0067 9a3c
000003f0: 5a99 6d3d d1a6 3c3d 5524 a03c 3f6d 933d
0.07899123 0.11866202 0.04183326 0.12396308 0.11828729 0.06110671 0.072205864 0.06317542
0.11919141 -0.031184595 0.013150376 -0.038843773 -0.05106792 0.0017227194 0.0027324047 0.031634394
-0.0036488802 -0.0727755 -0.02972239 0.0204007 0.03890815 0.112210564 0.14790593 0.044611264
0.01922653 -0.12389967 -0.07564979 -0.07957386 0.08360964 -0.0066940812 0.03482457 0.039070465
0.041468948 -0.052227836 -0.026470019 -0.082857996 0.13307457 0.019928342 0.07694978 -0.040479906
-0.054325704 -0.0773293 -0.024268456 0.037366934 0.008942392 0.029611204 0.091040574 0.078914225
0.1188093 -0.018939085 -0.061296016 0.015971016 -0.048290823 0.046953328 0.0072888783 0.06574328
0.025521815 -0.039084688 0.059669852 0.064448334 -0.047889814 -0.02673308 0.050052125 0.04184191
0.034377705 -0.06401279 -0.09242584 -0.08296513 0.004800249 -0.023456529 0.10782134 -0.020425415
0.021944521 0.043867975 0.013808553 -0.056060705 -0.07129873 0.07136256 0.10030096 0.1622454
0.055188302 0.027767314 -0.009125164 -0.0016934747 -0.06890977 0.036430184 -0.005629787 -0.06366318
-0.052974414 -0.06371186 -0.048852827 -0.012543926 0.096004 -0.074196324 -0.04759108 -0.04745309
0.004936712 0.008427406 0.062457696 -0.027175708 -0.101444945 0.011938877 0.013742677 0.018132903
0.0021750014 -0.12801066 -0.11218507 -0.049954962 -0.12913996 -0.008468085 -0.06835106 0.013308166
0.007582796 -0.004604763 0.0773101 -0.04012334 0.022057153 0.013882876 0.019600999 0.026726963
0.10683523 0.11217455 0.08351107 0.06892161 0.0719775 0.10132881 0.0020320937 -0.03054598
0.098341584 -0.07329208 -0.065309204 0.07522711 -0.074468605 0.028079605 -0.02696097 0.07257778
0.051844414 -0.018065618 -0.01988252 0.005535434 0.10619055 -0.13500583 -0.066173844 -0.014767111
-0.05455872 0.044550706 0.06180366 -0.070480876 0.06333233 -0.030378226 0.0022610351 -0.00077815814
-0.03923896 0.07670194 0.12510633 0.024496654 -0.023113793 -0.0036323275 0.05359285 0.076323345
0.07984255 0.018393083 -0.034910675 0.013768068 -0.0038167452 -0.1360562 -0.117676586 -0.12023079
0.028073626 0.022375291 0.023486735 0.032524265 0.080242634 0.08237103 -0.0049338983 -0.012684128
0.03405927 -0.09580036 -0.019485516 -0.030572474 -0.037095394 0.036255613 -0.06501783 -0.024299305
-0.0034020199 -0.0010454681 0.0012794333 0.015937332 -0.028456742 -0.027988283 0.039932754 0.097443014
0.08240225 -0.0011364925 -0.054795723 0.07277587 0.08273652 -0.012096908 0.17561996 0.21695489
0.079116695 0.10785832 0.07392268 0.029697513 -0.007307433 0.08183428 0.030444894 0.043754395
0.008877986 0.016334908 0.123248085 0.15662104 -0.0054661566 0.08116456 0.07145671 0.0530415
-0.034995373 -0.11640638 0.022785569 -0.027361639 -0.03605384 -0.02103893 -0.06532371 -0.051569875
0.05231329 -0.10071535 -0.015480412 -0.050522547 0.016434534 -0.013683919 0.04601977 0.24668589
0.17435426 0.14699125 -0.00405779 -0.066235416 -0.12676863 -0.09313604 -0.03306792 0.020765357
-0.009003213 0.011689077 0.06286129 0.011826395 -0.052738868 0.008090372 0.096710004 0.15241049
0.15179302 0.012233135 0.0498055 0.018847942 0.058007576 0.046057526 0.019548574 0.071985714

acce_gyro_TCN.0.network.2.conv.bias f4 [32]
00000000: 18f1 d33c 45b1 3cbc 7e09 92bc 3836 b8bc
00000010: 887d e3bd 2066 9abd 140c 973c b221 6a3b
00000020: afa3 e8bd 3ec8 98bd 027c b23d 607a 6cbb
00000030: 91e2 a6bd 0ad2 eb3b 8b51 06bd 63bf 57bd
00000040: 1862 a2bd 6708 c1bc 2d29 8d3d f296 a2bd
00000050: baac 703d f19a e43b c140 a13d 3a1f 35bd
00000060: 0b6a 3c3d 3cd6 96bc 83de 4a3d edd9 dabc
00000070: e770 b6bd a1d0 01be 3486 c0bd a2a2 a7bd
0.025871798 -0.011516874 -0.017826792 -0.022486791 -0.111079276 -0.0753901 0.018438376 0.003572565
-0.11359345 -0.07460068 0.08715059 -0.0036083683 -0.08148683 0.0071966695 -0.03279261 -0.052672755
-0.07928866 -0.023563577 0.06892619 -0.07938947 0.058758475 0.0069764783 0.07873679 -0.044219233
0.045999568 -0.018412702 0.04952861 -0.026715243 -0.08908253 -0.12677242 -0.09400597 -0.081853166

acce_gyro_TCN.0.network.2.conv.weight_g f4 [32, 1, 1]
00000000: 965c 203f b2fd 1a3f 145b 233f f9bc 1c3f
00000010: 97ed 1d3f cb53 233f 8897 103f 3d58 1c3f
00000020: 6ce6 1e3f 5a0c 143f 92b1 223f 72d7 2f3f
00000030: 09dc 1e3f ec99 453f 9dd4 fa3e a4e9 1c3f
00000040: aa68 233f c99a 303f 1e9b 1c3f 71e1 333f
00000050: e856 0c3f 36f0 203f 44c2 223f bf0f 143f
00000060: 276c 293f 2183 163f ae7f 1d3f 5088 213f
00000070: 8f9d 0d3f 4bdf 203f 0aa2 1e3f d7e0 193f
0.62641275 0.6054336 0.6381085 0.6122585 0.6169066 0.6379973 0.5648122 0.6107214
0.62070346 0.57831347 0.635522 0.6868812 0.62054497 0.7718799 0.48990336 0.6129401
0.6383158 0.68986183 0.6117419 0.7026587 0.5482011 0.6286653 0.63577676 0.57836527
0.6618065 0.58793837 0.6152295 0.6309862 0.5531854 0.6284072 0.61966 0.60108703

acce_gyro_TCN.0.network.2.conv.weight_v f4 [32, 32, 3]
00000000: 1868 be3d 4204 483d ebea 613d 8cc6 ab3d
00000010: f856 0cbc 2355 9f3d 3704 c73d bb80 d93d
00000020: 2706 893d 9863 13bd d33d 023e 3542 0cbc
00000030: 09dd e13d 8bc5 cd3d 49ab 89bc eefe 793d
00000040: e5e8 25bb 899b cf3d 0a46 2b3d a74c 103d
00000050: 5923 31bd 571d ab3d 20d7 2dbd 2838 a43d
00000060: 89c3 a6bd 00b1 35bd b742 45bc e0d3 263d
00000070: f565 863c dd86 9abd 20ba c33c 93d5 22bd
00000080: 7642 45bc 7099 bfbd 9bb1 47bd e641 a6bc
00000090: 3916 c5bc be83 ac3d 07ff f2bb 15a5 8dbc
000000a0: 1f94 fcbc f8fb c638 51e8 93bd 67e8 00bd
000000b0: 93e2 d1bd d5a6 033e 3e77 a9bc ce4c 353d
000000c0: 9996 e53d 0c1d f3bc 6ab9 7ebd a365 243d
000000d0: 6a0e abbd d269 263d 9ecd e83d 36ba cc3d
000000e0: 7b3c 893d bc38 cabd 5439 acbd f550 42bc
000000f0: 3bbf 5b3c 0580 8bbc adfe a5bc 595b 6f3c
00000100: 6cd3 323d 9403 013b a5ae f2bb bf1b db3c
00000110: 6980 963c 530d 503d 9510 c53d 24d3 a23d
00000120: 415d 6bbd 7e5d 78bd fd13 a03d 2fc7 ecbd
00000130: e695 0b3a 56a5 b6bd 2f04 d13d b13a a23d
00000140: b9ba 973d 2d72 5f3d b572 7bbd d05a 35bd
00000150: c701 233d 5c7e f5bc 9faa d1bc d2c6 f6bc
00000160: 6b8e d7bd 9aa2 b1bd d76c b0bc 2830 a23d
00000170: cbd0 9dbc 4857 96bd 5031 29bd 6361 42bd
00000180: 6d9a 47bc 3fd6 7d3d 5ae7 203c 5d2e ba3d
00000190: de79 e03c edb1 073e 8c17 7fbd e8ce 5cbd
000001a0: 7f4b ecbc a985 67bd 40c9 d0bb a1f0 923d
000001b0: c6f4 1d3d d404 abbc 3c06 f6bc 03a3 99bd
000001c0: 95cf b9bd bc59 85bd a79c 88bd 1c5f 99bc
000001d0: d324 08be ea1d 993d caea 723d 7416 91bc
000001e0: 365f a8bd aa27 eebd fa3b 263d 85d6 21bc
000001f0: 882e 7c3d 9fba 9b3d 322a bc3d e500 3e3d
00000200: f480 fb3d d945 963d eddf 7dbd eb94 eabc
00000210: 3def 8f3d ccda 0ebc 5fb8 38bc 0a9c 48bd
00000220: 532c 06be deae abbd d99b 30bd c441 2ebd
00000230: ab64 36bd 1fbe 5cbd 536a 0b3d 0bd0 a93c
00000240: 6bb4 77bd 3745 053d 287d babc 52c3 593d
00000250: 9e70 e23d 4942 213c a398 c33c d99d 6b3d
00000260: d35e cc3c 4e0f 44bd ab6c 763d f1d0 ac3d
00000270: f43e 1e3d d384 3b3c 07d1 a83d 85dc 943b
00000280: cec4 16bd 9123 813d 7fb4 9bb9 64b8 19be
00000290: 8f9b 54bd 5632 4cbd 7fdd 613d f7c3 863c
000002a0: 0aee 383d aa2a 24bd b2ec 2abc 2a5b 423a
000002b0: b9b1 5cbd ff97 19bc 93c1 e53d 1684 02bd
000002c0: 4a7b 963d 7db2 4e3d f268 78bc f917 93bd
000002d0: e4f2 513c 90ad e0bd 4723 87bd 0a62 a9bd
000002e0: 6fd3 8cbd 8b8e 103d d21d 873d b7ea d73c
000002f0: 35f5 c5bd 01ca 7ebb 05cc 50bd 971b dbbc
00000300: c8e0 083d b9f6 a63c c582 253d a98e a1bd
00000310: c40e 4a3d 4fea 49bd 2ae0 603e 7ea6 8b3d
00000320: 759d c03d cf5d d53c 5efb 8a3d a25a 8bbb
00000330: ee35 a03c f250 6d3d 080e 95bd ccc2 1d3e
00000340: 78c9 013e 8674 9a3d ef40 cc3d 765d 4e3e
00000350: 87e4 083e c012 973d 1834 3a3d 5303 273d
00000360: fb00 5b3d faaa b3bd 54c8 cebd 8dee 0dbe
00000370: 0431 1bbc abd2 bfbd 75d3 d9bd 21d6 173d
00000380: 979f 40bd 5bca 20bd 79aa 9ebd 0bf2 adbd
00000390: 53cf b13c 0fc8 09bd f0fe 943d a3b1 72bd
000003a0: 5bb0 5fbb c055 08bd 0464 0d3d 9674 01be
000003b0: 4b67 cd3b b942 26bd 3579 9bbc 7bf7 0bbd
000003c0: e1ff c63c 4603 3c3b 0235 8a3d a113 04bc
000003d0: d2e7 1b3d 7d2b efbc cfe8 bd3d d9e7 503e
000003e0: 21fc 403e cb09 a6bd e2a1 24bd 88a3 fd3c
000003f0: 0176 2dbd d981 c5bd b52e e2bc 030b f2bc
0.09297198 0.048832186 0.055155676 0.08387479 -0.008565657 0.077799104 0.09717601 0.106202565
0.066906266 -0.035983652 0.12718897 -0.008560707 0.11028487 0.10047444 -0.016805308 0.061034136
-0.0025315818 0.10137088 0.04181484 0.03522935 -0.0432466 0.083552055 -0.042441487 0.080185235
-0.08142764 -0.044358253 -0.012039832 0.040729403 0.016406039 -0.075452544 0.023892462 -0.03975446
-0.012039771 -0.09355438 -0.048753362 -0.020295095 -0.024058448 0.08423565 -0.0074156555 -0.017290631
-0.030832348 9.4883086e-05 -0.07222045 -0.031471636 -0.10248294 0.1285661 -0.020686742 0.0442627
0.11210365 -0.029676937 -0.062188543 0.04013599 -0.08352359 0.040628262 0.11367343 0.099964544
0.06700989 -0.098741025 -0.08409372 -0.011860122 0.013412292 -0.017028818 -0.02026304 0.014609181
0.04365866 0.001968597 -0.007406073 0.026746629 0.018371778 0.050793957 0.096223034 0.07950428
-0.05746198 -0.060636036 0.078163125 -0.11561429 0.0005324766 -0.08918254 0.10205876 0.07921351
0.074086614 0.054552246 -0.06138869 -0.04427606 0.039796617 -0.02996748 -0.025594054 -0.030124102
-0.10525211 -0.08673592 -0.021536274 0.07919341 -0.0192646 -0.07340866 -0.041306794 -0.047456156
-0.012182814 0.0619719 0.0098207835 0.09090874 0.02740186 0.13251467 -0.062278315 -0.05390826
-0.028844593 -0.056523953 -0.006371647 0.071748026 0.038563512 -0.020876326 -0.03003227 -0.07501795
-0.09072796 -0.06511256 -0.06670504 -0.01872211 -0.13295297 0.07476409 0.059305944 -0.017710902
-0.08221285 -0.11628659 0.04058454 -0.009877806 0.061567813 0.076039545 0.091877356 0.04638757
0.12280455 0.07337541 -0.06198113 -0.028635463 0.07028053 -0.008719157 -0.011274426 -0.048976935
-0.13102846 -0.08382963 -0.043117378 -0.042543188 -0.0445296 -0.05389225 0.034036946 0.020729085
-0.060474794 0.03253671 -0.022764757 0.053164788 0.11056636 0.009842464 0.023876494 0.057523582
0.02494756 -0.04786616 0.060162228 0.0843829 0.038634256 0.011445242 0.08242994 0.0045428895
-0.03680878 0.06305612 -0.00029698384 -0.15011746 -0.051906165 -0.04985269 0.055142876 0.016450865
0.045148887 -0.04007975 -0.010432409 0.0007414097 -0.053880427 -0.009374618 0.11218562 -0.03186425
0.07347734 0.05046319 -0.01516174 -0.07182307 0.012814257 -0.109706044 -0.065985255 -0.082706526
-0.06876265 0.03529219 0.06597485 0.026357038 -0.0966591 -0.0038877728 -0.05097582 -0.026746554
0.033417493 0.020381318 0.040407915 -0.078885384 0.049330488 -0.04929572 0.21960512 0.06818865
0.094050325 0.026045708 0.06786226 -0.0042527476 0.019556966 0.057938524 -0.07278067 0.1540634
0.1267451 0.07541756 0.099733226 0.2015284 0.13368426 0.07376623 0.045459837 0.040774655
0.053467732 -0.087728456 -0.10096803 -0.13860531 -0.009472135 -0.093663536 -0.10636035 0.037069444
-0.047027197 -0.03925548 -0.07747359 -0.08493432 0.021705305 -0.033638056 0.07275188 -0.05925144
-0.0034132216 -0.033284903 0.03451921 -0.1264213 0.006268417 -0.040590975 -0.018978694 -0.034171563
0.024291934 0.0028688475 0.06748392 -0.0080613205 0.038062878 -0.029195542 0.0927292 0.20400943
0.1884618 -0.081073366 -0.040193446 0.030961767 -0.042348865 -0.09643907 -0.027610162 -0.029546266

acce_gyro_TCN.0.network.2.net.0.bias f4 [32]
00000000: 18f1 d33c 45b1 3cbc 7e09 92bc 3836 b8bc
00000010: 887d e3bd 2066 9abd 140c 973c b221 6a3b
00000020: afa3 e8bd 3ec8 98bd 027c b23d 607a 6cbb
00000030: 91e2 a6bd 0ad2 eb3b 8b51 06bd 63bf 57bd
00000040: 1862 a2bd 6708 c1bc 2d29 8d3d f296 a2bd
00000050: baac 703d f19a e43b c140 a13d 3a1f 35bd
00000060: 0b6a 3c3d 3cd6 96bc 83de 4a3d edd9 dabc
00000070: e770 b6bd a1d0 01be 3486 c0bd a2a2 a7bd
0.025871798 -0.011516874 -0.017826792 -0.022486791 -0.111079276 -0.0753901 0.018438376 0.003572565
-0.11359345 -0.07460068 0.08715059 -0.0036083683 -0.08148683 0.0071966695 -0.03279261 -0.052672755
-0.07928866 -0.023563577 0.06892619 -0.07938947 0.058758475 0.0069764783 0.07873679 -0.044219233
0.045999568 -0.018412702 0.04952861 -0.026715243 -0.08908253 -0.12677242 -0.09400597 -0.081853166

acce_gyro_TCN.0.network.2.net.0.weight_g f4 [32, 1, 1]
00000000: 965c 203f b2fd 1a3f 145b 233f f9bc 1c3f
00000010: 97ed 1d3f cb53 233f 8897 103f 3d58 1c3f
00000020: 6ce6 1e3f 5a0c 143f 92b1 223f 72d7 2f3f
00000030: 09dc 1e3f ec99 453f 9dd4 fa3e a4e9 1c3f
00000040: aa68 233f c99a 303f 1e9b 1c3f 71e1 333f
00000050: e856 0c3f 36f0 203f 44c2 223f bf0f 143f
00000060: 276c 293f 2183 163f ae7f 1d3f 5088 213f
00000070: 8f9d 0d3f 4bdf 203f 0aa2 1e3f d7e0 193f
0.62641275 0.6054336 0.6381085 0.6122585 0.6169066 0.6379973 0.5648122 0.6107214
0.62070346 0.57831347 0.635522 0.6868812 0.62054497 0.7718799 0.48990336 0.6129401
0.6383158 0.68986183 0.6117419 0.7026587 0.5482011 0.6286653 0.63577676 0.57836527
0.6618065 0.58793837 0.6152295 0.6309862 0.5531854 0.6284072 0.61966 0.60108703
