results/models/normal/normal_multi_cnn-lstm_0_checkpoint.pt (torch_old, 450682 bytes, 10 tensors)

audio_layers.0.weight f4 [32, 32, 8]
00000000: f402 c03c 6b61 e7bc bc8b 853d c640 37bd
00000010: bb6b eabc caac 4e3d 1728 313c 9737 7b3d
00000020: d039 56bd 7ea6 14bd 80a3 803a 6af5 7cbd
00000030: e0f6 05bd 7789 f53c 219a 553d ccc6 d13b
00000040: 64fa 5e3d 48df 333c d251 47bd e026 e2bc
00000050: 4015 e43b 37bc a8bc 9d37 e03c eab6 e93c
00000060: 0043 ae3b 80f9 443c 562d 253d 4834 f8bc
00000070: 3019 7fbd 81cf 313c 07ef 66bd c7ed 0f3d
00000080: 0455 df3c c0ea febb 3843 2abd dc6a 353d
00000090: ded8 0e3d 4656 a63b 53f4 8abd 6964 c53b
000000a0: dab8 163d 9cc7 673d dc69 a43c 4cd6 173d
000000b0: e00f 5d3d 8695 65bd ca06 e53c d171 7c3d
000000c0: 427a 333d a8cb 1dbd ac91 f9bc fe92 7b3d
000000d0: e845 f13c a206 293d 4eee d7bc d007 713b
000000e0: 40ca 4dbd 708d 503d c0b9 6e3d de2d 203d
000000f0: 0ea2 25bd 8c1a 86bd 5d5f d73a eaf9 c2bc
00000100: 7c54 e4bc 30b8 f33b b01d 65bd 1031 a13c
00000110: 0c35 0cbd 6eb1 5d3d 43d0 133d c8bc 413d
00000120: 04e7 50bd 2e56 62bd 969c 2f3d 6074 7abc
00000130: e07f d53b 841f 14bd 97a5 19bd 4629 0e3d
00000140: 0837 e43c 8cb9 1abd b4a2 ea3c 88c8 02bd
00000150: eedf 13bd a9b2 2e3b ddf5 30bc 0c2d 513d
00000160: 1078 573d 0020 e5b8 6af8 53bd e84a 3fbc
00000170: b024 b3bc 2435 48bd 8ce5 823d 92c5 7b3d
00000180: a838 ef3c 08b1 e0bc 7062 fc3b 42fd 043d
00000190: 5eb5 48bd a11e 53bd d070 0bbd 1e20 8a3c
000001a0: 7e6b 7dbd 8cff e43c 080a 9abc 4e51 6d3d
000001b0: ae96 05bd 7317 b6bc 99de 1e3d eedb b3bc
000001c0: cc9f 3a3d b0ec c03b 6040 04bc 00a3 1fbd
000001d0: 4816 d53c f42b 03bd d3f9 82bc 44ef 923c
000001e0: cc3f fa3c b0da 873b b03b 5b3d e0db 0ebb
000001f0: 0045 8a3a cbfd ab3c 7997 22bd f4f8 c83c
00000200: 8a83 25bd 906d 1c3c 0615 5abd 0e0e 7c3d
00000210: 8838 46bd d5b9 843c 5da2 abbc 0dfb 3ebd
00000220: f0ef c23c daa5 31bd c8dc ecbc 4682 20bd
00000230: 54f7 e2bc e9ef c9bb 4915 a53b a618 3bbd
00000240: 44e5 cd3c 000b 34bc 4064 ebba fe43 4bbd
00000250: 64f6 a3bc 591f 5bbd e118 e93c 7fe0 75bd
00000260: 1ae5 2dbd 18eb da3c 248a eebc e0b5 c13c
00000270: 400c a1bb 2f94 b73c c23f 473d 5aa8 183d
00000280: 8693 203d 7c92 3cbd dcea 3bbd 30e3 83bb
00000290: e882 21bd 88fc c83c a639 723d 3435 8a3d
000002a0: a810 2a3d c475 bf3c 64f8 e4bc 62bc 6cbd
000002b0: 8084 de3c 3558 1e3d 8119 87bd 9537 08bd
000002c0: 0a1e 30bd ca35 1bbd 1055 8bbc 961f 003d
000002d0: a097 65bb a890 ce3b fb09 cabc e933 2f3d
000002e0: e4bf abbc 8056 493c 46ca 473d 7cb3 133d
000002f0: 34f9 1bbd c628 613d 8518 553d 9399 48bb
00000300: b4f6 c73c d8e4 763c 3039 433d aa05 3abd
00000310: 00ba 64ba 280d 4b3d 50b9 00bd b24d 4f3d
00000320: 6893 c23c 8ec5 563d 981c 1bbd 9825 6bbc
00000330: 1005 9bbb 801f 4e3d 38ec 6cbc cc2e ad3c
00000340: aae8 76bd 8048 6b3a de1a 7f3d 80c2 b4bc
00000350: 7a03 003d 77be 0ebd 6b98 503d 9718 4bbd
00000360: a888 7abc 30a6 f2bb c074 553b d05a f63c
00000370: f69b 0b3d 26c1 0e3d 4da7 15bd d912 853d
00000380: 7cd8 76bd a471 473d 280b f13c 2e5c 4a3d
00000390: 106a bb3c 12e3 e8bc 541e f53c 32ac 0cbd
000003a0: 320f 243d ecd9 b1bc e0e1 8ebb 6c98 d1bc
000003b0: 4613 38bd 203f f73c 1b04 67bc 1dca 3a3d
000003c0: eca3 f9bc c86f 17bc 5021 60bc 66ce 62bd
000003d0: d8dc 4f3d d847 de3a d7ce 423d 81bf 6bbc
000003e0: 809f 003d d489 c33c c062 423b f87c ca3c
000003f0: 2c7f 483d fd5d 8cbc 2d4c 653d 455f 043a
0.023438908 -0.028244695 0.06520793 -0.044739507 -0.028615823 0.050457753 0.010812781 0.06133231
-0.052301228 -0.03629159 0.0009814352 -0.061757483 -0.03270614 0.029972775 0.052148942 0.0064018723
0.05443801 0.010978527 -0.048662014 -0.027606428 0.006960541 -0.02059756 0.027370268 0.028529603
0.0053180456 0.012022376 0.04032644 -0.030298367 -0.06227988 0.010852695 -0.056380298 0.03513887
0.027262218 -0.007779449 -0.04156801 0.044291362 0.03487479 0.0050762026 -0.067848824 0.0060239327
0.036797382 0.056586847 0.020070009 0.037069604 0.053970218 -0.0560508 0.027957339 0.06163198
0.043817766 -0.0385243 -0.03046497 0.06141948 0.02945228 0.04126609 -0.02635875 0.0036778338
-0.05024171 0.050916135 0.058282614 0.039106242 -0.04043775 -0.06548032 0.0016431619 -0.023800809
-0.027872317 0.0074377283 -0.055936515 0.019676715 -0.034230277 0.05412429 0.036087286 0.047299176
-0.051001564 -0.05525797 0.04287394 -0.015286535 0.006515488 -0.03616287 -0.037511434 0.03470733
0.027858272 -0.037774608 0.028642036 -0.031929523 -0.036102228 0.0026656783 -0.010800806 0.05106835
0.052604735 -0.000109255314 -0.051750578 -0.011675574 -0.02186808 -0.048878804 0.06391439 0.061467715
0.02920182 -0.027428165 0.0077021644 0.032468088 -0.04900109 -0.051542882 -0.034043133 0.016861018
-0.06187009 0.027953885 -0.018803611 0.057938866 -0.032614402 -0.022227978 0.038786504 -0.021955457
0.04556255 0.0058875903 -0.008071989 -0.03897381 0.026011601 -0.03202434 -0.015988266 0.017936356
0.030547999 0.0041459426 0.05352372 -0.0021798536 0.0010549128 0.020995041 -0.039695237 0.024532773
-0.04040865 0.009547606 -0.053242706 0.06153684 -0.048393756 0.016201893 -0.020951444 -0.04662614
0.023796052 -0.04337106 -0.02891387 -0.03918674 -0.027705826 -0.0061626327 0.005037938 -0.045677803
0.025133736 -0.010988951 -0.0017958954 -0.04962539 -0.02001495 -0.053496692 0.028454246 -0.06002855
-0.042454816 0.02672343 -0.029118605 0.023646295 -0.0049147904 0.022409527 0.04864479 0.037269928
0.03920319 -0.046038136 -0.045878276 -0.0040248856 -0.039431483 0.024534479 0.05913701 0.06748429
0.04151979 0.023371585 -0.027950473 -0.057796843 0.02716279 0.03865834 -0.06596661 -0.033256132
-0.042997397 -0.037893094 -0.017008334 0.031280123 -0.0035033002 0.0063038655 -0.024662962 0.042774115
-0.020965524 0.01228869 0.048776887 0.03605984 -0.038079455 0.054970525 0.052025337 -0.0030609115
0.02440963 0.015069209 0.04766196 -0.045415558 -0.0008725226 0.049573094 -0.031426728 0.050611205
0.02375193 0.052434497 -0.037869066 -0.014352225 -0.004730828 0.05032301 -0.014460616 0.021140479
-0.06028048 0.0008975342 0.062281482 -0.022065401 0.031253316 -0.03484961 0.050926607 -0.049583998
-0.01529137 -0.007405065 0.003257081 0.0300726 0.034084283 0.03485217 -0.036536504 0.064977355
-0.06026505 0.04869236 0.029424265 0.049404316 0.022877723 -0.028428588 0.029921688 -0.034343906
0.040053554 -0.021710359 -0.0043604225 -0.025585376 -0.044940256 0.030181468 -0.0141001 0.045602906
-0.030473672 -0.009242959 -0.013679817 -0.05537262 0.050747722 0.0016958667 0.04756054 -0.01438892
0.03140211 0.023869433 0.002966091 0.024717793 0.048949406 -0.01713466 0.05598085 0.00050495967

audio_layers.0.bias f4 [32]
00000000: df9d 80bc 03ec 73ba 00bc 27ba 2111 02bd
00000010: a824 0e3d 18a0 7cbc bce3 debb c7f4 b13c
00000020: c687 13bd faed dc3b e0c5 c73b 7978 28bd
00000030: 38bc 20bd 200c cdbc 2a77 90bc c0ea a2bc
00000040: f618 fc3c af1f a8bc 2359 fd3c 65b0 e5bb
00000050: d594 96bc e29a 323c 2439 23bd 0b26 fdbc
00000060: 08f1 ca3c af50 bebc d5b1 93bc 9f53 eb3c
00000070: c3f7 82bc 848b bcbc fb69 883c 56f8 f0bb
-0.015700279 -0.0009304883 -0.00063985586 -0.031754617 0.034702927 -0.015419029 -0.0068020504 0.021723164
-0.036018156 0.006742236 0.0060965866 -0.041130517 -0.039242 -0.025030196 -0.017634947 -0.019887328
0.030773621 -0.02052292 0.030926293 -0.0070095533 -0.018381516 0.010901185 -0.039849415 -0.03090193
0.024773136 -0.023231832 -0.018029133 0.028726397 -0.015987283 -0.023015745 0.016652098 -0.0073538227

acce_gyro_layers.0.weight f4 [32, 6, 8]
00000000: 73f4 25bd da3b 44be 05b0 a1bc bfc4 11be
00000010: 0cb9 973d 5b74 8fbd 6ecc 25be f614 41be
00000020: bd90 b8be c6cb 9bbe 6483 9dbe fdef 23be
00000030: 79a6 babe 481f c7be ded2 53be 6001 a4be
00000040: d4a3 4fbd 03c1 ba3d 9586 3f3e 5467 013e
00000050: 5fad f93d b920 5cbd 0983 10bd 4b57 3f3e
00000060: 8d46 bbbe ec2b 9cbe c6b6 bebe b2c7 6ebe
00000070: cc08 79be c557 6bbe fc61 8fbe 12dc 92be
00000080: c270 11be 0caf dfbd 584f cabd 165d 36be
00000090: 0ace a4be e580 04be 860a a7be 0d10 6abd
000000a0: e7f1 fbbd 147f efbd a4a5 00bd 8997 6b3d
000000b0: 0543 d5bb 8d5d 3fbd f7a2 f8bd a73c 67bd
000000c0: b618 913d e287 c03c 1c7e adbd 9219 333c
000000d0: 5627 7abd ea13 69bd 9412 d8bd 8035 6dbe
000000e0: e96e 093e aaa0 673e 014b 4cbc 6494 893d
000000f0: a0aa 143b 7d92 763e 3cb4 6d3e adea 683d
00000100: cd46 e9bc 6a6d 6dbd e3b8 25be 4e56 76bc
00000110: 6abf 13be 1adc 74bc f105 60bd d78d 0cbe
00000120: b567 bebe 9e9e a5be 2407 8fbe 12e3 bebe
00000130: 26c8 d1be e037 c1be d1ec bcbe 453b dabe
00000140: c57d 59bd da17 2bbe c62f 23be 1a4c 4bbe
00000150: a765 2a3c f7f2 3cbe 2f1d 17be 6d23 7bbe
00000160: a1f8 a7bd 79a9 28be 1476 13bc 2d91 d8bd
00000170: fb49 16be e24d 253c 88ff bf3b 2ce9 8b3d
00000180: 6d9d 333e b13a 123e a636 953c 8ccc 033d
00000190: 34a6 aabc 74b4 533c 2bc8 ebbd a149 b83d
000001a0: 353a 423e fdfe 2a3e f49d 513e 2da9 9cbc
000001b0: 0e43 a43c e7ed 813c 4228 293e 38c5 3f3e
000001c0: eb21 a3bd ec82 4fbe d831 25be 044a 2b3d
000001d0: 276b bebd e028 dbbd 0d25 de3c d456 2fbe
000001e0: b8cb a9be 6ffd 80be 7b02 b2be 6c47 9fbe
000001f0: 02f6 83be 559d a6be 9a11 97be 39a3 84be
00000200: b1d5 2c3c 790c 15bd 8759 c8bd c66c 11be
00000210: 14c7 e53d 2db8 bb3d d364 983d cdfa 2ebe
00000220: 57f0 6f3e 6826 cd3e 9613 9b3e c9d4 973e
00000230: 00ef 483e ab98 ac3e c2e2 df3e 9ea9 a83e
00000240: 14ad 30be 8913 c1bd 8175 4dbe 363d b7bd
00000250: cea1 b8bd 6708 5dbe 2282 e7bd 4811 9ebc
00000260: 78f7 79bd b24f 0c3e 4247 fcbd a171 ef3d
00000270: ed57 863d 0fd2 3e3d 241f 14bd 24a5 a63c
00000280: 5e49 0cbe d457 23bd ae2e d7bc ca54 d63c
00000290: 96b3 19be c5b1 16be 1f96 903d cc85 0dbe
000002a0: 0e8a bf3e 06ad 853e d239 af3e f459 133e
000002b0: 28b0 983e 2177 8a3e 814a d73d ddad 883e
000002c0: 6f8f 76bd 076a 3a3d f3a5 c9bd d393 0ebd
000002d0: a79f a8bc e086 00bc 7447 91bd 8bfb 25be
000002e0: 34ce 86bd 240c 49bd bd5d 33bd a3ef 8abe
000002f0: 3698 02be 25bc 1bbe 5308 d8bc 0a19 7bbe
00000300: 3f6a 943d 3f01 1bbe 07ac d1bd 3e36 b93c
00000310: cdac 1bbe bb01 f2bc faf8 3c3d bc09 98bd
00000320: 9c76 f2bd c32c 7cbd a5bc 983b 9277 dabd
00000330: 0286 e9bd b8d3 eabb 1f5c eabc 662e b13d
00000340: acbe 40be 0def 12bd d8d3 aa3d 3cfe 07be
00000350: 474a 04be acc5 463d 4ab9 8fbd 8f67 0ebe
00000360: e23b 82be b0bd f5be 99b1 b7be 6ece adbe
00000370: 301a f0be 1d9e 76be d581 d9be 19a5 90be
00000380: 7660 053c 2c3e ebbd e84e 05bd 43ac 6dbe
00000390: 7098 80bc 6ee8 58be 1e56 75be d90d 60be
000003a0: 9ccc 95be 0bed a5be 59fb 9fbe 13d5 6bbe
000003b0: ac11 b6be d1d9 cbbd eb2e 89be db73 10be
000003c0: 79f9 e8bd 68b8 b6bd dbf5 d33b c25a 9dbc
000003d0: e6ad 30bc 51ec f23d def9 1fbc 9390 e9bc
000003e0: 9058 723d 4c94 ee3d 1d6a cfbc 4fd0 bebd
000003f0: 4dfe b8bd 9487 84bc e731 14be 63ae 14be
-0.040516328 -0.19163457 -0.019737253 -0.14235209 0.07408342 -0.07004615 -0.16191265 -0.18855652
-0.36047927 -0.30428904 -0.30764306 -0.16009517 -0.36455134 -0.38891053 -0.20685908 -0.320323
-0.050693348 0.09118845 0.18703683 0.12637073 0.12191271 -0.053742144 -0.035281215 0.18685643
-0.36577263 -0.3050226 -0.3724882 -0.23318365 -0.24319762 -0.229827 -0.28004444 -0.28683525
-0.1420317 -0.109220594 -0.09878415 -0.17808947 -0.32188445 -0.12939794 -0.32625216 -0.057144213
-0.123019986 -0.1169416 -0.031407967 0.057517562 -0.0065082335 -0.046720076 -0.12140458 -0.056454327
0.07084791 0.023502294 -0.08471319 0.010931389 -0.06107267 -0.056903757 -0.105504185 -0.2316494
0.13421215 0.22619882 -0.012469054 0.067177564 0.0022684708 0.24079318 0.23213285 0.05686443
-0.028476143 -0.057965674 -0.1618381 -0.015035225 -0.14428487 -0.014945054 -0.054693166 -0.13725983
-0.37188497 -0.32347578 -0.27935135 -0.37282616 -0.40973014 -0.37737942 -0.36899427 -0.42623344
-0.05309846 -0.16708317 -0.15936193 -0.19853249 0.010400212 -0.18452059 -0.14757226 -0.24525233
-0.08201719 -0.16470899 -0.00900032 -0.10574565 -0.14676659 0.0100893695 0.005859319 0.068315834
0.17540522 0.14280201 0.018214535 0.032177493 -0.020831205 0.012921441 -0.115127884 0.089984186
0.18967517 0.16698833 0.2047041 -0.019123638 0.020051505 0.015860511 0.16519263 0.18727577
-0.07965454 -0.20264786 -0.16132295 0.041818634 -0.092977814 -0.10701156 0.027117277 -0.17122966
-0.33163238 -0.25193354 -0.34767517 -0.31109178 -0.25773627 -0.3254191 -0.29505616 -0.2590578
0.010548995 -0.036388848 -0.09782701 -0.1420165 0.11219612 0.09165988 0.07441106 -0.1708786
0.23431526 0.40068364 0.3028838 0.2965453 0.19622421 0.33710226 0.4372769 0.32941908
-0.17253524 -0.09427554 -0.20064355 -0.08947222 -0.09015237 -0.21585236 -0.11304118 -0.01929535
-0.06102702 0.13702276 -0.12318279 0.11691595 0.06559739 0.046587046 -0.03616251 0.020342417
-0.13699862 -0.03987868 -0.026267376 0.026163477 -0.15009913 -0.14716251 0.07059883 -0.1382057
0.37410015 0.2610857 0.342238 0.14389783 0.29821897 0.27044013 0.10512257 0.26695147
-0.060195383 0.04551127 -0.098461054 -0.034808945 -0.02058394 -0.007844657 -0.07093707 -0.16209237
-0.06582299 -0.049083844 -0.043790568 -0.27135953 -0.12753376 -0.1520849 -0.026371157 -0.2452127
0.07246827 -0.15137194 -0.1023789 0.022608873 -0.15202637 -0.02954184 0.04613588 -0.07423732
-0.11839029 -0.061566126 0.00466116 -0.106673375 -0.11402513 -0.007166352 -0.02860838 0.08651428
-0.18822736 -0.035872508 0.08341187 -0.13280576 -0.1291896 0.04852836 -0.07017763 -0.13906692
-0.25436312 -0.47996283 -0.35877684 -0.33946556 -0.4689498 -0.24083753 -0.42481866 -0.2825096
0.008140674 -0.11486468 -0.032545954 -0.23210244 -0.015697688 -0.21182415 -0.23958632 -0.21880282
-0.29257667 -0.32407412 -0.3124645 -0.230305 -0.35560358 -0.099536546 -0.26793608 -0.14106695
-0.11375708 -0.089218915 0.0064685172 -0.019208316 -0.010783648 0.1186148 -0.009764163 -0.028511321
0.05916649 0.11649379 -0.025319153 -0.093170755 -0.09032879 -0.01617793 -0.14472161 -0.14519648

acce_gyro_layers.0.bias f4 [32]
00000000: 6f61 223d 61c8 383e fc4f cd3d 527e 383e
00000010: 5da8 503e 0ceb a73d 3e51 9a3d 264f 383d
00000020: 0092 e33d ced6 383e 2376 023e 5b9b 373e
00000030: 589d 863d f444 bd3c 8828 1d3d 8d0e 0a3e
00000040: 6f4d 9c3d 5faf 153d ed70 843e c76e 0a3e
00000050: e8bf 413d 2b9d 03bc 0c17 ab3b 1abc 943d
00000060: a494 143e 9064 073e 2bd7 f03d f856 4c3e
00000070: 02d8 7ebd 7337 0a3e 6df7 473e 2b29 f83d
0.0396437 0.18045188 0.100250214 0.18016937 0.20376725 0.081991285 0.07535027 0.044997357
0.11111832 0.18050691 0.12740378 0.17930357 0.0657298 0.023104168 0.03836873 0.13482113
0.07631957 0.0365442 0.25867406 0.1351882 0.047302157 -0.008033077 0.0052212533 0.0726244
0.14509827 0.13221955 0.1175979 0.19955051 -0.06221772 0.13497715 0.19527979 0.12117227

lstm.weight_ih_l0 f4 [512, 64]
00000000: 3d79 07be e434 15be 47cc 22be 2114 173d
00000010: 3a63 30be 0f34 a13d 82de 5e3e a4fa efbd
00000020: 9efb 16be 3834 20bb 8f4b 243e 1973 dd3d
00000030: 7e22 043e 1849 9a3d de0c 073e f2b7 89be
00000040: 903b 343e ac6e 53be b6f4 20be e62e 2c3d
00000050: b03d f9bd f88c 48be 9f94 bfba 2975 d73d
00000060: f9a1 853d 7e14 8d3d 5c5a d8bb 978e 0fbe
00000070: dced adbd e270 63be 8962 9b3c 2157 7539
00000080: 5058 eebb 407e 113d addf 6cbd 1458 5ebc
00000090: 1cbe 1d3d 70fe e7bb 8810 22bc 6db2 0c3d
000000a0: bb4d 4a3d 584a b2bd 2acd 2abd e277 923d
000000b0: f863 c23c ab2d 8abd 12d3 a6bc 4fef 44bd
000000c0: ddd5 5a3d 3d91 eb3b ba84 053e a5f6 65bd
000000d0: 1870 9f3d 5ceb 3d3c 5fd8 98bd e722 4f3d
000000e0: 89b7 86bd 5cb5 773c 0baf 843d 1e75 403d
000000f0: e50f a5bd 6b15 92bd ac9b b2bd 7cd9 84bd
00000100: 91ef 853d bf86 9cbd 34ea 23bc 1ba7 5e3c
00000110: 94b6 193d 919d d53c 7369 80bd 0d55 443d
00000120: 0fe8 d4bc ec1d 7c3d cd03 0f3d 317f 4c3d
00000130: 69e2 4cbd 5367 89bc 138a 35bb a862 28bd
00000140: c612 a43d ad32 9abd d247 c139 95e3 663c
00000150: 193b 0a3d aa57 60bd 5c60 0c3d bc30 a9bd
00000160: 5ec7 713d ac22 483d 942a 733d b295 76bc
00000170: 5d0d b1bd fdb1 ce39 545d 2cbd 059f 903d
00000180: ad85 9b3d 21ae 5bbb e8a3 413c 8d8d 0abd
00000190: e1b4 1f3c 5300 02bd d03e d73c 7a97 29bd
000001a0: 5249 f2bc 14d4 a2bd f012 f43b 3154 bcbd
000001b0: 806a 8ebd 209a b03c 3e92 7e3b 57ba 983d
000001c0: b564 41bc 1224 c5bd 5aa4 6fbc ca6a f1bc
000001d0: cdcb 59bd 2c95 a7bd c788 80bd b5be 99bd
000001e0: 8e5a a33c 8717 50bb 6400 f7bc f524 383c
000001f0: 98e2 82bd 68b3 5c3c 84d7 cdbc e442 06bd
00000200: a961 2c3d 8afa 8ebd 5cb0 a6bd 8fde bebd
00000210: 76a4 d3bc a4cd bfbd 08ee 01bd 3381 a73d
00000220: fd49 8e3d 8c6b a43c 1420 433d 18c4 c0bc
00000230: 85fd 853d 1c05 ecbb bfec 0cbd bfe5 87bd
00000240: a84d ed3c 7cb3 c2bb 63d1 163c 1cba 64bd
00000250: 4343 933c 968c 3a3d 2aec 65bd 90cc 85bb
00000260: a771 d4bb e47d 28bd 7017 343d a198 c73c
00000270: 80b9 a3bd 16b0 453c 09c7 13bd 1e54 293d
00000280: 82d6 643d b63e 00bd d4d4 6cbd 94b9 31bd
00000290: 6e8b f7bc dba6 b03d fb06 7dbd 4b88 923d
000002a0: ed51 423d 2038 0e3c ff03 23bd c4c7 0f3d
000002b0: 8106 83bd 6818 78bc 4560 923c 48bf 213c
000002c0: d387 75ba f00d 8dbd 0c87 88bd 9d7d b9bc
000002d0: 9554 823d 00fc aeb8 123c 153d d5d4 a73d
000002e0: dc68 883d 49ea 803d 58d2 b5bd 93bf 9ebd
000002f0: 21bd 68bd e428 b7bc 603d 7ebc a391 ae3d
00000300: 35a1 4a3e bf0f 6e3d ea66 cf3d ae0f 8c3c
00000310: 48c2 ab3d 6791 51be 4031 e1bd 5db4 683e
00000320: 3faf a9bc 7e67 e43d 13c0 1fbe ce98 1abe
00000330: 057b cf3d 3f4b 133e 4361 b1bd 296e 003d
00000340: 35b3 09be 6ec7 1ebd f1a5 9a3d 7c70 e6bc
00000350: 5d9c 203e 98bd 2a3e aa95 df3d 13dd dbbd
00000360: 3921 70be 4b46 77be d4c9 16be 1b5f 153e
00000370: 293c 0d3c 95ef d53d 2413 7ebd c718 df3d
00000380: d2ae 253d a085 e9be c170 a23d 2281 f0bc
00000390: 3d2d 08bc 80cb 61bc 7a56 84bd 0900 46bd
000003a0: ea35 5cbd 5097 94bd 51ce a63d 1377 bdbd
000003b0: d062 f6bb d137 823d 1c20 74bd 683e 9c3c
000003c0: 236e 9a3c e0e8 dc3d 4fc3 c43d 6c46 883d
000003d0: 9868 073d 0281 9ebd deeb 2ebd dcdb a83d
000003e0: b87a d1bd e1fe c0bc 08d7 09bd d045 053d
000003f0: d5f0 793d b561 a83d 2d9c cdbc 259e 02bd
-0.13229842 -0.14570957 -0.15898238 0.03688443 -0.17225352 0.078712575 0.21764567 -0.11717728
-0.14744422 -0.0024445187 0.16044448 0.10812969 0.12903783 0.07533473 0.13188502 -0.26898152
0.17600846 -0.20647687 -0.1571835 0.042036913 -0.12169969 -0.19585025 -0.0014616436 0.105203934
0.065250345 0.06888674 -0.0066025686 -0.14019237 -0.08492634 -0.2221103 0.018967884 0.00023397479
-0.0072737113 0.035520792 -0.0578305 -0.013570804 0.03851138 -0.007079892 -0.009891637 0.034349848
0.049390536 -0.08705586 -0.041699566 0.07151772 0.02372931 -0.06746992 -0.020364318 -0.048079785
0.053426612 0.0071889446 0.13038912 -0.05614342 0.07785052 0.011591759 -0.074631445 0.050570395
-0.06577975 0.015118923 0.06478699 0.04698669 -0.08059672 -0.071329914 -0.08721098 -0.06486794
0.06539834 -0.07642888 -0.010004569 0.013589646 0.037527636 0.02607611 -0.06270113 0.047932673
-0.02598956 0.061551973 0.034915734 0.049925987 -0.05002061 -0.016772902 -0.0027700707 -0.04110971
0.08011393 -0.07529197 0.0003686534 0.014092346 0.033747766 -0.054771103 0.034271583 -0.082612485
0.059028022 0.04886119 0.059366778 -0.015050339 -0.08645127 0.00039423993 -0.042081192 0.070615806
0.07593856 -0.0033520537 0.011818863 -0.0338264 0.009747715 -0.03173859 0.026275069 -0.041404225
-0.029575977 -0.07950607 0.0074485466 -0.09195746 -0.06953907 0.021557868 0.0038844491 0.074574165
-0.011803796 -0.096260205 -0.014626587 -0.029469866 -0.053172875 -0.08182749 -0.06276088 -0.075070776
0.01994064 -0.0031752305 -0.030151553 0.01123928 -0.063908756 0.013470508 -0.02512718 -0.032778636
0.042085323 -0.0698138 -0.08139107 -0.093197934 -0.025835257 -0.09365395 -0.031721145 0.0817894
0.06947706 0.020070814 0.047638014 -0.023531005 0.06542496 -0.0072027575 -0.034405466 -0.066356175
0.028967693 -0.0059418064 0.009205195 -0.05584155 0.017976409 0.04554423 -0.056133427 -0.0040832236
-0.006483275 -0.041135684 0.043967664 0.024364771 -0.07994366 0.012065908 -0.036078487 0.041339986
0.055868633 -0.031309806 -0.057820156 -0.04338987 -0.030217852 0.08625575 -0.061774235 0.07154902
0.04744141 0.008680373 -0.039798733 0.03510262 -0.06397725 -0.015142538 0.01786817 0.009872265
-0.00093662477 -0.06887424 -0.06666383 -0.022642905 0.06363789 -8.343905e-05 0.03643424 0.08194891
0.06660625 0.06294686 -0.088780105 -0.07751384 -0.056820992 -0.022358365 -0.015517563 0.08523872
0.19788058 0.058120485 0.10127051 0.01709732 0.083866656 -0.20465623 -0.10995722 0.22725053
-0.020713447 0.11152552 -0.15600614 -0.15097353 0.10130886 0.14384173 -0.08661129 0.031355057
-0.13447268 -0.03876441 0.07551182 -0.028129809 0.15684648 0.16673887 0.10917218 -0.10735526
-0.23450173 -0.24147908 -0.14725429 0.14587061 0.0086203 0.10446087 -0.062029973 0.10893398
0.040449925 -0.4560976 0.07931662 -0.02935845 -0.008311567 -0.013781428 -0.064618066 -0.048339877
-0.053762354 -0.07255423 0.081448205 -0.09251227 -0.0075191036 0.063583024 -0.059600934 0.019072726
0.018851345 0.10786605 0.09607565 0.06654057 0.033058733 -0.0773945 -0.04270541 0.0824506
-0.10228485 -0.023559036 -0.033652335 0.03253728 0.06102069 0.08221761 -0.025098884 -0.0318891

lstm.weight_hh_l0 f4 [512, 128]
00000000: 62f7 783e bf9b d53c 6e68 67bd 477b bbbd
00000010: ea54 a53d ee74 6bbd 6b0a d8bd ef05 b2bc
00000020: 3567 fa3a e9d6 d5bc d826 93bd 7a4c 14be
00000030: 663d e43b a42d b53d 0ba0 60be 49fb eb3d
00000040: 1801 dabd a4b3 cc3c 4283 2a3d 5ed1 913d
00000050: 6a7f 493d 8efa 14be 7423 61be 6554 bdbd
00000060: 5915 993d 7fc2 66be b8f1 2bbd f179 673e
00000070: d6a3 4a3d 74db d7bd 3d60 993d 59e2 863c
00000080: af4a de3b 8e96 483e fe30 483e 782e 683d
00000090: cf4b b23e 8386 87bc 6d97 85be be68 24bd
000000a0: ea70 383d f2db 7cbd 6d9b 02be ee21 c4bd
000000b0: 0c13 8bbc 8158 1dbe 0886 6dbd b0e0 fb3d
000000c0: 0e4b 083d 2536 6bbe 8c59 8c3d e7bd 6c3d
000000d0: 79e3 27be 4d6c 06bd 7279 3f3e 0de0 3e3e
000000e0: a2dc ae3d 2b09 e83c 840c 37bd cf27 693d
000000f0: 6171 773c e65c 3cbb d808 123e 4ac9 5e3e
00000100: 1c53 973b f37c 5c3e 1186 85bd e106 b53e
00000110: 8684 54be 0448 c33d 1b6b 52bd e3c3 a5bd
00000120: 8d03 373e c7ed 4f3c a4b0 20be ba56 0c3d
00000130: 822f e73d 41bf 1c3d b53e 973d 0fa9 a9bc
00000140: d196 413d 79f4 d9bd 38a8 823d bcf5 25bc
00000150: 3504 203e de1f 8bbd efa1 b0be 29c8 76bd
00000160: fae5 ee3d 9298 f2bc 3734 3ebe 0dad 9b3c
00000170: 717a 0ebd 9d20 13be fd0e b2bc f5c6 76bd
00000180: be0b 61bd 893b f8bd a89e da3d 8b19 303d
00000190: fc7a 48be 30ea dbbd 3883 e0bd fd67 9abd
000001a0: 7085 c4bb 942b 7a3d 4f07 01be 25e2 38bd
000001b0: f921 783c 8167 233d 6cb3 113e bf21 af3c
000001c0: 94b0 b9bd dd41 9f3d f7cf 193d f619 ba3d
000001d0: d3f7 6e3d 2095 dd3d a0a8 cc3c 583c 843d
000001e0: 6336 e43c 901c e23e 62f8 c8bd b290 85be
000001f0: 38d5 843b ff29 33be 65f8 24be edba 993b
00000200: a968 9fbd 6215 36bd 8543 703d 9226 27bd
00000210: fed2 b43d 17f2 47bd 3b73 efbc 3ffd d7bb
00000220: 8dd8 9fbb cba7 1cbd 58d7 22bc 5cce 27bd
00000230: a9dc 85bd 9073 953d 02b3 7c3c 49d0 b33d
00000240: 1b6c c0bc 0f7f 023d 417b 893c 6f8f b13d
00000250: 5bb6 853d 6c8d d43c 5be5 583c 36aa 933d
00000260: cbc3 7dbd 165a 1d3d c90e 453d 6109 c83c
00000270: 25a9 7d3d 02e6 0f3d 0eec 0fbd b931 95bd
00000280: e98e 5cbd aeac b03d 3bf8 e93b 5c0e 11bb
00000290: 3c39 8f3d b5a7 33bd 4c6a 4d3d ddc9 983d
000002a0: 2453 613d 6cf7 db3c b1ec 933d 300c a93d
000002b0: 55e7 e8bc 639d 993b b401 263c 14a2 a93d
000002c0: 8ab5 a0bd a804 183d 91dd 753c 149a 8d3d
000002d0: 8168 1eba b801 803d b0fb 583c 638a 6b3d
000002e0: 52fb 1dbd 1d2b 463d 8220 0d3b fc25 fd3c
000002f0: 3e62 8f3b 1589 cdbc 1b75 8b3d a0fe fdba
00000300: b3ea 8a3c 1181 4c3c 80e2 20bd 8983 6e3d
00000310: e16d 503d b99e 82bd 7b66 afbb d61d 9bbd
00000320: 1f6a 083d 98dc 4d3d dbf8 813c 8a8d 133d
00000330: b1dc d0bc 3937 6f3c ca0b 803d bc43 ea3c
00000340: 877a ad3d c083 a23d e618 a43c 2285 8b3c
00000350: 8f19 a63d 5525 f03c 98c1 973d 0bd8 af3d
00000360: cf5d f6bc 0f4f 87bd 7c61 b1bd 5b4c 35bd
00000370: 554f 9ebd fe88 95bd 73e6 2c3a f067 e1bc
00000380: e97f c1bc 81b4 343d 41c5 923d 1e0f 043d
00000390: f36f af3b 2343 e1bc afa7 2bbd cc65 c43c
000003a0: 0f38 b8bc 2ac5 87bd fdb6 403d 354c 7bbd
000003b0: 15af b03c 3c63 1abd 8c08 993d 5b61 9a3a
000003c0: bc4e c53b 6e66 51bd 11e1 a5bd a451 d43c
000003d0: 2582 f4bc 39db ab3d 5430 3e3d 593d 9f3d
000003e0: fb61 79bd 783b 2fbc 216c 093c 0baf aebd
000003f0: f105 a2bd c7a4 c73c 5f2e 2a3d e025 b23d
0.24313119 0.026075242 -0.056496076 -0.09154373 0.08072837 -0.05748456 -0.10548862 -0.021731345
0.0019104244 -0.026103454 -0.07185143 -0.14482298 0.006965327 0.08846596 -0.21936052 0.11522538
-0.1064474 0.024988003 0.041629083 0.07120012 0.049193777 -0.14548704 -0.2198618 -0.092446126
0.07474775 -0.22535132 -0.041978568 0.2260511 0.049472652 -0.10539904 0.07489059 0.016465353
0.0067838053 0.19588682 0.19549939 0.05668494 0.34823462 -0.016543632 -0.2609209 -0.040138952
0.04502956 -0.061733194 -0.12754603 -0.09576784 -0.016976856 -0.15365793 -0.05798915 0.12298715
0.033274703 -0.22969873 0.06853017 0.057798292 -0.16395368 -0.032818127 0.18698671 0.18640156
0.08538176 0.028324684 -0.04468967 0.05692273 0.015102715 -0.0028741895 0.14261186 0.21756473
0.0046180617 0.2153204 -0.06519712 0.3535681 -0.20753679 0.0953522 -0.051371675 -0.08094003
0.17872448 0.012690968 -0.15692383 0.034262396 0.11288358 0.03826833 0.07385007 -0.020710496
0.04726297 -0.106423326 0.063797414 -0.010129388 0.15626605 -0.067931876 -0.34498546 -0.06024948
0.11664958 -0.029613767 -0.18574606 0.019003415 -0.034784738 -0.1436791 -0.021735663 -0.060248334
-0.05494284 -0.121207304 0.106747925 0.04299311 -0.19578165 -0.10738027 -0.10962528 -0.075393654
-0.0059973523 0.061076716 -0.12600444 -0.045137543 0.015144818 0.03989363 0.142286 0.021378396
-0.09066883 0.07776234 0.037551846 0.09086983 0.058341812 0.10819459 0.02498275 0.06456822
0.027857965 0.44162416 -0.09813 -0.26086956 0.004053738 -0.17496489 -0.1611038 0.0046914727
-0.07783634 -0.044453986 0.05865814 -0.040808268 0.08829306 -0.04881486 -0.02922975 -0.0065914686
-0.00487811 -0.038245957 -0.009939037 -0.040968284 -0.06536228 0.072974324 0.015423538 0.087799616
-0.023489049 0.031859454 0.016782405 0.08669936 0.06528922 0.025946341 0.013238276 0.072101995
-0.0619543 0.03841599 0.048109803 0.024418535 0.061928887 0.035131462 -0.03513723 -0.072848745
-0.053847227 0.08626686 0.007140187 -0.0022133803 0.069933385 -0.04386111 0.0501502 0.07460377
0.05501093 0.026851378 0.0722288 0.08254278 -0.02843062 0.0046879514 0.010132242 0.08282867
-0.07847126 0.037113816 0.015006439 0.06914154 -0.0006042794 0.06250328 0.013243601 0.057505023
-0.038569756 0.04838096 0.0021534269 0.030901901 0.004375725 -0.02508978 0.068094455 -0.0019378252
0.016957616 0.012481944 -0.039278507 0.05823091 0.05088604 -0.0637793 -0.005352793 -0.0757405
0.03330433 0.050259203 0.015865734 0.036023654 -0.025495859 0.014600568 0.062522486 0.028596751
0.08470636 0.079352856 0.020031404 0.017031256 0.08110344 0.029314676 0.07409972 0.08586129
-0.030074028 -0.06606876 -0.08661172 -0.04426227 -0.07729975 -0.0730152 0.0006595619 -0.027515382
-0.023620563 0.044117454 0.071665294 0.03224098 0.0053539216 -0.027497834 -0.041907962 0.023974322
-0.022487668 -0.06629403 0.04704951 -0.061351974 0.02156786 -0.037692294 0.07472333 0.0011778282
0.0060213488 -0.051123075 -0.08099569 0.025917836 -0.029847214 0.08391423 0.046432808 0.07775373
-0.060884457 -0.010695331 0.008387596 -0.085294805 -0.079112895 0.024370564 0.04154813 0.0869863

lstm.bias_ih_l0 f4 [512]
00000000: b6d4 ccbd f6e6 283c 5c37 0c3d 5f0e 313d
00000010: 11a8 bcbc a7ad bf3c 7cab a0bd 75fc 31bd
00000020: a927 67bd d2a6 393a 6580 3fba d7f9 9dbc
00000030: 7cd1 593d cc2c aa3d 3c1c 833d 571e d8ba
00000040: a084 31bd f241 adbd 47e0 49bd c578 7cbd
00000050: 909a 88bd d3be 83bb 5014 babb 610e 613d
00000060: fb60 473d 15c7 ed3c 0d27 26bc ba6b 3f3d
00000070: 7683 85bc 48dc 2a3d ed08 ab3c fa8b b63b
00000080: 22c1 26bc 880e 6e3d 2e34 93bb df69 3d3c
00000090: 52c8 353d 7aaf 7fbd ef22 ad3d 0977 bc3d
000000a0: d42f e03d 7fde 443d 59de de3d ae89 5e3c
000000b0: ed07 8f3c a809 673c 39cc 69bd 3011 a6bd
000000c0: 63c1 97bb 8f5d 9a3c 6391 103c 9deb 9e3d
000000d0: 90c8 c93d 6fd6 8e3d 87ce e23a 8187 4dbc
000000e0: b035 223d bf29 c0bd 0840 883d 876a a03d
000000f0: a102 e53d 933f 743d 4be7 853b 8aee 363c
00000100: b20d bb3d 8711 c33c 336f 16bd 8267 fabb
00000110: aa6f 28bc 5c8a 883d c330 debd c299 893b
00000120: 3f45 1fbc b038 853d 0bbd 76bd 93ef 65bc
00000130: fb46 c3bc 5e80 2bbd e7d1 cbbc 9ac5 da3c
00000140: efc7 413d 707b 6f3d cb7b 693d c581 57bd
00000150: cd2c ddbc b89f 61bd 5f67 c3ba 42cf 2abd
00000160: 989f 3c3d 9257 863b 131e a93d f359 bdbb
00000170: eb4c 403d bb68 f4bc 7b50 4b3a e583 f53c
00000180: a6cc 91bd 6401 b13d fbe4 acbd d49e e2bb
00000190: b12e 80bc 1d2d 9b3d 5444 abbd d4ab 943d
000001a0: aa96 46bd 5103 e43d d73b c1bc af6e e13d
000001b0: 4a59 913d 7a52 b43d acc4 c6bc e149 8e3c
000001c0: ef6e 03bd ee71 b33d 93a0 1abc ac31 1a3d
000001d0: c58d 9f3d ede6 7b3d 126f 6c3c 01dc 883b
000001e0: 01a1 7bbd 756d 223a 2716 39bd 6a0e babc
000001f0: 95c5 703d 0b35 cebd 0ea3 83bd 32f0 8dbd
00000200: 042a b23d ccdc e8bc b27f 12bd 8762 823d
00000210: 7554 96bd e5e9 aa3c fa84 b03c 4906 16bd
00000220: 19e8 9e3d 7ef3 c93c 8214 9a3c a551 bf3d
00000230: 7df5 2e3d 50f5 a93c f291 d23b 4eb8 1ebd
00000240: 75d9 63bd 559e 893d 25c8 00bd c594 903d
00000250: 8ba8 34bc 4902 593d d7bd 08bd 4296 653d
00000260: ebd5 70bd 6c30 a4bc b397 dbbc f69a 55bd
00000270: 28d6 853d a742 853d ae13 be3d 1e93 843d
00000280: 6c22 86bd 7f0d 0fbd 53df ba3d 8d72 cd3d
00000290: 52b2 a6bd 9a9d 55bc 9a78 a33d 4eda d03d
000002a0: ef9c 023c c110 953d e7e0 92bd 87ec 4ebd
000002b0: dbf7 8cba 92ac 49bc 045e 8fbd 8e2d 9e3c
000002c0: 3b35 943d afd9 dabc cc9b 84bb 1a49 cb3d
000002d0: c068 86bc 3a28 773d be4e 9d3d c030 d13d
000002e0: 2aa9 cbbc 57a8 533d f5b4 e83d 76e7 623d
000002f0: 69a2 aabc 20c4 a6bd eff4 b6bc c4db 8b3d
00000300: 57cf d13d b6c9 4a3d 1a6b 40bd 908b 8e3d
00000310: b066 a8bc 45f3 de3c c08e 74bd feb8 a3bc
00000320: 0c67 053d 1e6b ba3d 3be9 993d 7842 ad3d
00000330: cb4c 5ebc 7487 90bd a254 33bd a7bb 86bd
00000340: e6f8 d23d 2118 ce3c 3d6d 6c3d a991 f03c
00000350: b514 1d3c 1328 a03d db8f ac3c 2460 2ebd
00000360: 0063 873d 1d07 7bbd 2fb3 153c fee1 d53d
00000370: 677e ab3d ae1c 53bd 8e92 8cbd 323a c03d
00000380: 001b a23d 8c45 e33b 18f3 0d3d 48e2 cfbc
00000390: 83c5 89bc 8b70 cbbb a0d3 bf3b 224d 443c
000003a0: 1f3e ebbc 046c 5ebd 5f71 09bd 8ac2 ca3b
000003b0: b952 46bd 6235 973d 59d4 e23c c4c5 29bd
000003c0: c67a 7e3d 1aaa d93d e7e2 a73d 5096 cb3b
000003d0: 6342 3cbd 95ff 1fbd 0811 47bd b69b 383c
000003e0: 0322 ed3c 7d7b 9e3d b370 af3d 22c1 e23d
000003f0: f801 e6bc b754 a1bd 66be 113d 957e a63d
-0.10001509 0.010308972 0.034232482 0.043226596 -0.023029359 0.023398234 -0.07845208 -0.043453652
-0.056434307 0.0007082048 -0.0007305204 -0.019284172 0.053178295 0.083093256 0.0640187 -0.0016488534
-0.04333937 -0.08459844 -0.049286153 -0.061638612 -0.066701055 -0.0040205508 -0.005678691 0.054945353
0.048676472 0.029025594 -0.010141146 0.046733595 -0.016298037 0.041713983 0.02087828 0.0055708857
-0.010177882 0.058119327 -0.0044923043 0.011560886 0.044380493 -0.062423207 0.08453929 0.09202392
0.109466225 0.04806375 0.10882253 0.01358263 0.017459834 0.014101423 -0.057079528 -0.08108747
-0.004631208 0.01884344 0.008823725 0.077597834 0.098527074 0.06974494 0.0017303982 -0.012544514
0.03960198 -0.093829624 0.06652838 0.078328185 0.11182142 0.05963094 0.00408641 0.011165271
0.091334715 0.023812069 -0.03672714 -0.0076417336 -0.010280529 0.06667015 -0.10849144 0.0041992376
-0.009721099 0.06504953 -0.06023888 -0.01403417 -0.023837557 -0.041870467 -0.024880363 0.026705552
0.047309812 0.05846733 0.057002824 -0.052613992 -0.026998902 -0.05508396 -0.0014908126 -0.041701563
0.046050638 0.0040997947 0.08257689 -0.005778545 0.046948355 -0.029835096 0.0007755828 0.029970119
-0.07119112 0.08642843 -0.08442112 -0.0069159064 -0.015647264 0.07576964 -0.08362642 0.07259336
-0.04848353 0.11133445 -0.023588104 0.11007439 0.07097109 0.08804794 -0.024263702 0.017369213
-0.032088216 0.08761965 -0.009437698 0.037645027 0.07790712 0.061499525 0.014430778 0.004176617
-0.061432842 0.000619612 -0.04518714 -0.022711951 0.05878218 -0.10068711 -0.064275846 -0.06930579
0.0869942 -0.028425597 -0.03576631 0.06366449 -0.07340328 0.020863483 0.021547783 -0.036627088
0.07759113 0.024652239 0.018808607 0.09341744 0.042714585 0.020746857 0.0064260894 -0.038749985
-0.055627305 0.067196526 -0.031440873 0.070596255 -0.011026512 0.052980695 -0.03338417 0.0560515
-0.058797758 -0.02004262 -0.026805734 -0.052149735 0.06534988 0.065068536 0.09281097 0.06473373
-0.06549534 -0.03492498 0.09124627 0.100316145 -0.08139481 -0.013038063 0.07981987 0.10197888
0.007971986 0.07278586 -0.07171803 -0.05051854 -0.0010755019 -0.01230921 -0.07000354 0.019308832
0.072367154 -0.026715128 -0.0040468927 0.099260524 -0.01640737 0.060341097 0.076810345 0.102143764
-0.024860937 0.051674213 0.1136264 0.05539652 -0.020829396 -0.081428766 -0.02233359 0.06829026
0.10244625 0.049508773 -0.04697714 0.06960213 -0.020556778 0.02721561 -0.05970645 -0.019985672
0.032568976 0.09102462 0.07515188 0.084599435 -0.013568114 -0.07057086 -0.043781884 -0.065787606
0.1030138 0.02515799 0.057721365 0.029366331 0.0095874565 0.078201436 0.02106469 -0.042572156
0.066106796 -0.06128608 0.009136959 0.10443495 0.08373719 -0.051541023 -0.068638906 0.093861
0.07915306 0.006935781 0.03465566 -0.025376454 -0.016817814 -0.0062084845 0.005854085 0.0119812805
-0.028716145 -0.05430223 -0.033555385 0.0061877416 -0.048418734 0.07383229 0.027689146 -0.04144837
0.062128805 0.106281474 0.08197575 0.006212987 -0.04596175 -0.0390621 -0.048600227 0.011267593
0.028946882 0.07738397 0.085664175 0.110719934 -0.02807711 -0.07877486 0.03558197 0.08129612

lstm.bias_hh_l0 f4 [512]
00000000: 10fa b5bd 4faf b03a 1e5d 88bd a9c0 743d
00000010: 1c5b aabd 9bc2 813d 4280 523d a5f4 9c3d
00000020: b25a b23b f8be 03bd 1b44 f6bc 00b2 9e3c
00000030: 2aa8 413c 6e45 6a3c 4bc4 4b3d 9e27 96bd
00000040: f0b1 86bd 3991 7b3d 88b7 25bd d244 7d3d
00000050: e58c aa3d cb87 8a3d 5944 d6bc ad3f 19bd
00000060: e57e e1bc e09a 723d 9aec 9e3c 3f2c ad3d
00000070: 36d9 56bd a8de 7ebd aa0f cfbc fff2 e83d
00000080: 1eab 9ebd ccd1 9d3d 9764 743d 308a be3d
00000090: 360b 503d 65dc 633d b7ba b93d 0a72 8e3d
000000a0: 6926 393d 9367 09bd f590 e13b d438 0e3e
000000b0: afbf fa3a 6c9b 92bd 2db3 003c 432c a6bd
000000c0: c478 013d a1b9 1dbd 40fc b33d 86b4 71bd
000000d0: ef27 15bc 8b99 35bd 4b99 97bd cae1 063e
000000e0: 9d71 97bc 38f2 bcbd ab6a 93bb d986 b43d
000000f0: 9d2e 1f3d d19a b53d 0540 2bbd d9ea 873c
00000100: c70a ac3d 8f09 9e3d 43a0 8bbd 198e f93c
00000110: 0247 a2bd eebc e83d 34d5 a0bd 0db3 97bd
00000120: 4b04 bb3d 98af 103d d8d3 9e3c a167 343d
00000130: e330 343d c7df 543d ff27 6ebd ae80 073d
00000140: 6dbf 413d aec6 39bc 3004 44bb ae41 87bd
00000150: 19ff 7dba 5b4a c53c 13b1 323d 5965 34bd
00000160: 8321 033d 391a 813d b47d bb3a 63b6 48bd
00000170: a176 fabc 0a8f 97bd ff84 a2bd e92d e6bb
00000180: 9d21 5a3c df3f 053c 823b 873d 78c4 1c3d
00000190: 883b a73d 28c6 52bd e288 8f3b 2cbf 83bd
000001a0: 9b04 f73c 0677 213d c381 d83d f238 81bb
000001b0: 77a6 32bd cad1 6cbb cd9d 903c 9def b23d
000001c0: 6054 1abd 4e7f 04bc 4d46 97bb 33a0 56bd
000001d0: b740 f33c 0ca8 633d 4113 ee3c e389 fcbc
000001e0: fce1 a33d 5a49 903d 363b 923d e9dd 853d
000001f0: 920b 8bbd 847e 4b3d c335 923c a5f5 973d
00000200: a679 f5bc 5af9 76bd f35b 673d 9bf4 e3bc
00000210: 8535 52bc 28d5 923d 1976 bc3d 66ab b93c
00000220: b15b 993d 13ce a63d bb24 573d b335 cb3d
00000230: 1dea db3d 9226 8a3d 8ae3 eabd 473a cf3c
00000240: 5301 693d 53fb b83d d252 b53d 7f58 463c
00000250: f869 ee3d 8a6e 913c 2d6a 263c 17a8 b33d
00000260: 2ba8 02bd 1343 89bb 44f4 4e3d f02d 91bc
00000270: a614 f139 04c7 703d 32ce cd3d 4f4b 89bc
00000280: 6f64 1ebc 91ff 953d 00b5 a13a e939 bd3d
00000290: 055c 463d 97fb fb3c 1018 bb3d 511c a53c
000002a0: 83ee c93d 9a22 a0bd 1b0f c43b 524a e23d
000002b0: f68b 363c cc22 89bb 7ba0 c1bc ee27 13bc
000002c0: e7f5 683d 5107 65bc bff3 123d 6a20 943c
000002d0: e58d a33d 780d 87bc 2ee6 55bd 7c7d e43d
000002e0: bec4 4dbd c3e9 323d c5b6 c33d d654 323d
000002f0: b165 683a 6692 cebd 6d74 353d 508b 7fbd
00000300: f80d 873d 6f8f 4ebd 8ed5 8e3d cdb4 633c
00000310: 7a7e 4f3c 6d36 97bc 566c 193d 6c13 0f3d
00000320: 6c3b f6bc 9804 7e3d 85ac 6cbc ea0f debc
00000330: b459 3ebd fc75 043d c69b a83d 94a1 e73c
00000340: 5796 8f3d da94 393d 4458 4fbc da8c c73c
00000350: f750 3d3d 35a7 853d 3d38 873d fe2c a0bd
00000360: 90be 973d 02bf d6bb 84e9 8e3d 0388 c73d
00000370: 88c7 6b3d ae66 e4bc 1168 b83d e1f3 dabc
00000380: fab8 413c d575 84bd d2c6 c83d b1eb 99bd
00000390: 379f 343d 0c61 063d d313 4c3c 4ea1 22bc
000003a0: ed05 19bd 3b74 593d 38aa 343d 2a51 823c
000003b0: 369b fa3b 9399 63bd 9e25 0bbd 93e9 84bc
000003c0: add3 99bc 1684 2bbd e5fc 603c c370 9a3d
000003d0: 3218 323c 204b 593d 3953 813d b5da 7fbd
000003e0: 4b6f 093c d52a a63d 2643 4ebd e0a8 ba3d
000003f0: 6fb8 5a3d 7514 88bc ff9b 813c e2e9 91bd
-0.08885586 0.001347998 -0.06658386 0.059754048 -0.08318159 0.06335946 0.051391847 0.0766385
0.0054429406 -0.032164544 -0.030061772 0.019371986 0.011819879 0.01429878 0.049747746 -0.07331775
-0.06576908 0.061417792 -0.040458232 0.06183321 0.08327655 0.06764182 -0.026155638 -0.03741424
-0.027526328 0.05922973 0.01939993 0.08455705 -0.052453242 -0.06222406 -0.025276024 0.11374473
-0.07747482 0.07706031 0.059666242 0.09303701 0.05079194 0.055630106 0.09068816 0.06955345
0.045202646 -0.03354604 0.0068837353 0.13888866 0.0019130612 -0.071585506 0.007855219 -0.08113911
0.03160931 -0.038507108 0.08788347 -0.05901005 -0.009103759 -0.044335883 -0.07402285 0.13172069
-0.018486792 -0.09225887 -0.0044988 0.08814783 0.038862813 0.088674195 -0.0418091 0.016591476
0.08400493 0.07716667 -0.06817677 0.030463265 -0.079237 0.113641605 -0.07853165 -0.07407198
0.09131678 0.03532371 0.019388124 0.04404414 0.043991935 0.051971223 -0.058143612 0.033081703
0.0473017 -0.011338873 -0.0029909723 -0.06604324 -0.00096891966 0.024083307 0.043625902 -0.044041965
0.03201438 0.0630383 0.001430443 -0.049002063 -0.030574145 -0.074003294 -0.07935523 -0.007024516
0.013313678 0.008132904 0.06603147 0.038273305 0.081656516 -0.051458508 0.0043803314 -0.064329475
0.030153563 0.03942015 0.10571625 -0.003943556 -0.043615784 -0.0036135786 0.01765337 0.08737109
-0.037678123 -0.008086992 -0.004616535 -0.05239887 0.029693944 0.055580184 0.029061915 -0.030827468
0.080020875 0.07045241 0.071402 0.06536467 -0.06789316 0.0496812 0.017847901 0.074199
-0.029965233 -0.060296394 0.056484174 -0.027826598 -0.012830143 0.071695626 0.09202213 0.022664737
0.07488192 0.08144774 0.052525263 0.09922352 0.10738013 0.06745638 -0.11469181 0.025296343
0.05688603 0.09032311 0.08853687 0.01210606 0.11641306 0.017752904 0.01015715 0.08772295
-0.03189866 -0.004188904 0.05052592 -0.0177221 0.00045982486 0.058783546 0.10049094 -0.016759543
-0.0096675 0.07324136 0.0012337267 0.09239561 0.0484276 0.030759616 0.09135449 0.020155104
0.098599456 -0.078191 0.005983246 0.11049332 0.011141768 -0.0041850563 -0.023636093 -0.008981688
0.056875136 -0.013978795 0.035876986 0.018081862 0.079860486 -0.016485915 -0.05222147 0.11156747
-0.050236456 0.043679964 0.09556345 0.043537937 0.0008865251 -0.10086517 0.044300485 -0.062388718
0.06594461 -0.050429758 0.06974326 0.013898087 0.012664432 -0.01845857 0.037456833 0.03493063
-0.030057631 0.0620161 -0.014445429 -0.027107198 -0.046472266 0.03233908 0.082328364 0.028275289
0.07011097 0.04530797 -0.0126553215 0.024359155 0.046219792 0.06526033 0.066025235 -0.078210816
0.07409394 -0.0065535316 0.06978133 0.09742739 0.057563335 -0.027880993 0.09004224 -0.026727619
0.011823887 -0.06467787 0.09803547 -0.07515658 0.04409715 0.032807395 0.012455898 -0.009926153
-0.037359167 0.05308936 0.044107646 0.015907843 0.007647897 -0.05556638 -0.03397142 -0.016224658
-0.018777693 -0.041874014 0.01373217 0.07541039 0.010870026 0.05305016 0.063147016 -0.062464435
0.008388351 0.08113638 -0.050357006 0.091142416 0.053398546 -0.016611317 0.015821455 -0.07124688

fc.weight f4 [24, 128]
00000000: f3f9 353e 4428 033d 3076 7a3d ebb2 9fbe
00000010: 5843 0c3e ba65 a1bd eace 15be a289 9f3e
00000020: 5918 93bd ca44 8bbd a109 a9bd 61d2 04be
00000030: f862 18bf dc1b 13be 5dd3 d33d 8117 f73e
00000040: 58bd 003e 0296 a3bd 6af5 9cbd d340 26be
00000050: 94ca 6b3e ccc4 6ebd 56a1 97be 2f87 91be
00000060: 5025 1ebe 8a77 abbe 8d21 0ebd 3f8d 92bd
00000070: fc2e a63d 46e5 2bbd 3028 563e 5ddb ba3e
00000080: 7cc4 913d 428f ddbe 899d c6bd e416 5cbd
00000090: 20d4 ba3e 3b64 9d3c 9d64 633e 9f16 5ebd
000000a0: 6c6e 6abb 11a9 a0bd 6f6c b73d dd55 a73d
000000b0: f24d 483d b43b d93d fa2a c93e c3c0 d03e
000000c0: 15be c53e 005a b1be 7196 72bc 8abb 9abe
000000d0: a3eb eb3b d47d 24bd c7c1 a93e 78ff 023f
000000e0: f704 44be 5d70 a73d 1aab a43e cee9 a4bd
000000f0: 1bdc 46be 0e86 1e3e 2cc8 86be 7c7d da3e
00000100: 3502 043c 77a6 823e 35de d53d bec9 df3e
00000110: 440f a9be bc82 01bf 56dc 9c3d f606 163e
00000120: 4052 133f 03cb d7be 54c5 163e 8efd 00be
00000130: e2a8 a83b 252e e23d 6c73 88bd c994 073b
00000140: cbc1 893e b4d0 e3be 5c95 cbbe 7c46 ba3c
00000150: bce0 763c 2351 a6bd d0b2 a8be 1273 c2be
00000160: d132 323e 8b2e aa3d 92f9 233e b96e eb3d
00000170: ba1e 81bd eddd cebe c2fd f8bd 5720 893c
00000180: 037e 39bd e051 aabd e7d5 733e de88 77bd
00000190: 9fe9 74be 5c9f 40be 33a4 75bc f9f8 96bd
000001a0: 9515 8fbd 8b99 e63e 47c8 683d c766 08be
000001b0: 322f 943e 21fd bbbd 7f14 c33e 3b19 febd
000001c0: fac2 42bd 9b68 a83e 5048 c6bd f915 c6be
000001d0: 7206 a4bd fd56 ba3e 272c 0abe d935 ed3c
000001e0: cb46 7c3e f5b4 e93e 02c1 093e 8b51 423d
000001f0: 1e1b 3b3c dc73 613e 3d7e bcbc 601a 1d3e
00000200: 6906 853d c987 4cbd 8a7c 973d 21cc 12bf
00000210: 76ff ecbc 4ecc 34bd 97fd fcbd dd9f d3be
00000220: e6be 3dbd a1dc 8abd 58fd 0dbc 97a1 313d
00000230: 9534 75be 75fa edbd 0ba3 1a3d 3981 f53e
00000240: f3d5 f83d 2b29 473c 78a3 473e 9b9a b1bd
00000250: 7421 083e f720 1cbd fae7 87be cd2c 60be
00000260: 9403 88bd 8a5b b2be 5ce4 ae3c a923 a63e
00000270: dc42 b13c ca00 ebbd 9162 3d3e 2e6a a43e
00000280: e3bc 39bd 866c 79be 5f83 d7bc d6a0 1c3d
00000290: f2b7 533e 6a7d 973d 69dc a33e 5533 2fbd
000002a0: ddbd c13b 5983 523d 02ee 8e3d d936 123e
000002b0: 7260 773d 3ace 78bc 9cbf 4bbe 77e6 afbe
000002c0: a26d b23e 1fee 9d3e 5d85 6cbd c999 d2bd
000002d0: 07b4 1ebd 377b 753d da4d 613e a370 bf3e
000002e0: 562f d2be b61b b63d dd8c b73d f91e bf3a
000002f0: cc4f a9be 48dc d93d 619e 84be 0946 e83e
00000300: a7cf 053d c65e 313e 7a32 a5bc 629c d03e
00000310: 5bc4 cbbe 66de 983e e865 063e 5e73 f33e
00000320: 6f2f 76be 4746 683e eeb2 543e b965 f0bc
00000330: 38c2 eb3d 3cb9 85be 310e 43bd 8531 14bd
00000340: 574f 453e 43c2 5a3e 27d1 533e 368c 263e
00000350: 60ef 733d d99d f7bc 9a52 febe 6cea a2be
00000360: 6704 e53e da3b d23d fb10 0cbe 4421 2ebd
00000370: 376f 56be 2cc3 ccbe ac76 233d 5b47 49bd
00000380: 187c 763d 6736 2cbe 0798 83be d230 cabd
00000390: bf42 eabd d3f6 d93e 3dc2 4b3d 545e 3bbd
000003a0: 8f7a 243d 5235 ce3e 439e acbc 2e00 c23e
000003b0: 4b02 b2be 85cb e1bd c9e4 82be eb9d b23a
000003c0: 8a5b 85bd b907 9c3e 0d1c 07be 4f92 d3be
000003d0: 3fd3 553d ffab a13e 1c31 96be 4748 073e
000003e0: 8450 a7bd f281 bebe e31d bd3e 3881 243d
000003f0: 8142 51bb c2f0 a23e 223e a1bd 4f59 cf3d
0.1777113 0.032020822 0.06114787 -0.3119119 0.13697565 -0.07880731 -0.14629713 0.31159693
-0.07182378 -0.0680023 -0.0825379 -0.12970878 -0.59526014 -0.14366096 0.10343049 0.4826012
0.12572229 -0.07987596 -0.076639965 -0.16235666 0.23026496 -0.05829315 -0.29615277 -0.2842345
-0.15443921 -0.3348964 -0.034699965 -0.07155847 0.0811443 -0.0419667 0.20913768 0.36495486
0.071175545 -0.4327336 -0.09698016 -0.053732768 0.36489964 0.019212833 0.2220635 -0.054220792
-0.0035771383 -0.07844747 0.08956229 0.08170674 0.04890246 0.106070906 0.392906 0.40772066
0.38621584 -0.34638977 -0.014806376 -0.30221206 0.007199721 -0.04015906 0.33155653 0.51171064
-0.19142519 0.081757285 0.3216179 -0.08052407 -0.19419901 0.15480825 -0.26324594 0.42673862
0.008057167 0.25517628 0.10442773 0.43708605 -0.3301946 -0.5059011 0.07659213 0.14651093
0.5754738 -0.42147073 0.14723712 -0.12596723 0.0051470855 0.110439576 -0.0666264 0.0020688048
0.26905665 -0.44495165 -0.3976239 0.022738688 0.015068229 -0.08120944 -0.32948923 -0.37978417
0.17402197 0.083096586 0.16013172 0.11495728 -0.06304689 -0.4040369 -0.121577755 0.016739054
-0.04528619 -0.08316398 0.23812066 -0.06043326 -0.23917244 -0.18810791 -0.014992761 -0.073717065
-0.06986538 0.4503902 0.056831624 -0.13320456 0.28942257 -0.0917914 0.38101575 -0.12407156
-0.047549225 0.32892308 -0.09681761 -0.3868864 -0.08009042 0.36394492 -0.13493405 0.02895634
0.2463638 0.45645872 0.13452533 0.047441047 0.011420039 0.22016853 -0.023009414 0.15342093
0.06495363 -0.049934182 0.07396801 -0.57342726 -0.028930407 -0.044140153 -0.12353056 -0.41332904
-0.046324633 -0.06780363 -0.008666359 0.043366995 -0.2394584 -0.116200365 0.037753146 0.47950152
0.121501826 0.012155811 0.19495952 -0.08672067 0.13294011 -0.038117375 -0.26544172 -0.2189209
-0.066413075 -0.34835464 0.021349125 0.32449082 0.021638326 -0.1147476 0.18494631 0.3211226
-0.045346152 -0.24357805 -0.02630776 0.038239323 0.20675638 0.07396968 0.32004097 -0.042773563
0.005912526 0.051394794 0.0697899 0.14278735 0.06039471 -0.015185887 -0.19897312 -0.34355518
0.34849268 0.30845734 -0.057744373 -0.102832384 -0.038745906 0.05993196 0.22002354 0.37390622
-0.4105174 0.08892004 0.089624144 0.0014581374 -0.33068693 0.106377184 -0.25902084 0.45365933
0.032668736 0.1732131 -0.02016567 0.4074431 -0.39798245 0.29857177 0.13124812 0.47548956
-0.24041532 0.22683059 0.20771381 -0.02934538 0.11511654 -0.26117885 -0.047620956 -0.036180038
0.19268547 0.21363167 0.20685254 0.16264424 0.059554458 -0.030226635 -0.49672395 -0.31819475
0.4472992 0.10265322 -0.13678353 -0.042512193 -0.20940863 -0.39992654 0.039908096 -0.049140316
0.06017694 -0.16817628 -0.25701925 -0.09872593 -0.11438512 0.42571124 0.049745787 -0.045744255
0.040155943 0.40275055 -0.021071559 0.37890762 -0.34767374 -0.110251464 -0.25565174 0.0013627385
-0.065116 0.30474642 -0.13194294 -0.41322562 0.052203413 0.31576535 -0.29334342 0.13211165
-0.08169654 -0.37208515 0.36936864 0.040162295 -0.0031930509 0.3182431 -0.07873179 0.10124456

fc.bias f4 [24]
00000000: fc65 4abb 6145 be3c 240a dfbd 8e2f f43d
00000010: 6806 b53d c80c bfbb 03d1 d93d e291 fabd
00000020: d70c 13bc d1d5 c13d 4758 88bd e746 32bd
00000030: 6870 16bd e9dc f9bb 272e a83b ceda 10bd
00000040: 3496 5c3c 875a 483c dbf0 773b 62b2 bbbc
00000050: 71b3 97bc e98a fb3c 37ff 9f3d 9209 3ebd
-0.0030883541 0.023226442 -0.10890606 0.11923133 0.088391125 -0.005830381 0.10635569 -0.12234856
-0.008975229 0.0946461 -0.066574626 -0.04352465 -0.036728293 -0.0076252115 0.005132455 -0.03536492
0.013463546 0.012228615 0.003783277 -0.022912208 -0.018518182 0.030705886 0.0781235 -0.046395846
