results/models/normal/normal_audio_cnn-lstm_0_checkpoint.pt (torch_old, 378467 bytes, 8 tensors)

audio_layers.0.weight f4 [32, 32, 8]
0	0xbcad5e42	-0.02116311
1	0xbcff233c	-0.03114473
2	0xbd41daae	-0.04732769
3	0x3d782c63	0.060589205
4	0x3ce46031	0.027877899
5	0x3c848b7a	0.016179789
6	0xbc08bf12	-0.008346336
7	0x3d5d7931	0.054070655
8	0x3cd26d1d	0.025686795
9	0x3c5e5ffb	0.013572688
10	0x3cafceef	0.021460978
11	0x3d3c99a4	0.04604496
12	0x3cd29d6e	0.025709834
13	0x3d4f8422	0.05066312
14	0x3ab9cbf4	0.0014175163
15	0x3d5b3bab	0.0535237
16	0x3d73f745	0.059561986
17	0x3d4abba4	0.049495354
18	0x3d9d3cd5	0.076776184
19	0xbc242312	-0.010018127
20	0x3d0644c8	0.03278044
21	0x3bf1603a	0.0073662074
22	0xbd010494	-0.031498507
23	0x3be50958	0.0069896393
24	0xbd1071cd	-0.03526478
25	0x3bb92422	0.0056500593
26	0xbd0dcd39	-0.034619544
27	0x3d28d7a2	0.04122127
28	0xbca7ca18	-0.020482108
29	0x3d5113b9	0.0510442
30	0xbdb45394	-0.08805004
31	0x3c4880eb	0.012237768
32	0xbc8a3371	-0.016870232
33	0x3d013ef3	0.031554174
34	0xbda3896c	-0.079851955
35	0x3dc0e47a	0.094185784
36	0x3e0987c8	0.13430703
37	0x3dd97471	0.106179126
38	0x3d6798c9	0.05654219
39	0x3d901e8c	0.07037076
40	0x3d49b4dd	0.04924475
41	0xbc0bedae	-0.008540554
42	0xbc9fc665	-0.019503782
43	0x3cf6000c	0.03002932
44	0xbc3e27eb	-0.011606197
45	0x3db7a1c8	0.08966404
46	0xbc390ec4	-0.011295024
47	0x3d525da7	0.051358845
48	0x3dfb6050	0.122742295
49	0x3bf749fe	0.0075466624
50	0xbd32a23a	-0.043611743
51	0xbd25d8e2	-0.04049004
52	0xbe017df7	-0.12645708
53	0xbdf7eae0	-0.12105346
54	0xbdf321ca	-0.11871679
55	0xbe1f131f	-0.15534638
56	0x3e0e3b0d	0.13889714
57	0x3dd66859	0.104691215
58	0x3daeca21	0.08534647
59	0x3d45e083	0.048309814
60	0x3dacefe4	0.08444193
61	0x3d74f8b2	0.059807487
62	0x3db7a3db	0.089668
63	0x3d8ba12f	0.06817853
64	0xbcd912d0	-0.026498228
65	0x3d8b8e79	0.06814284
66	0x3cad5483	0.021158462
67	0x3d55e0a8	0.052216202
68	0xbd811859	-0.06303472
69	0xbdb23b38	-0.08702701
70	0x3c27c5d0	0.010240033
71	0xbc60152d	-0.013676924
72	0xbd8f96a2	-0.07011153
73	0xbde097d3	-0.10966458
74	0xbda4bf8f	-0.080443494
75	0xbce066ac	-0.027392708
76	0xbbb327dc	-0.005467398
77	0xbe1a2f63	-0.15057139
78	0xbcaf7cd5	-0.02142183
79	0xbd18ebd5	-0.037334282
80	0x3d0b5dbb	0.034024935
81	0x3ded34be	0.115823254
82	0x3dd626cc	0.10456619
83	0x3de89df0	0.11358249
84	0x3dfcf299	0.12350959
85	0x3d58b626	0.052908085
86	0x3d561207	0.052263286
87	0x3d1c08dd	0.03809439
88	0xbdf3294d	-0.11873112
89	0xbde01f5e	-0.10943483
90	0xbe0680bc	-0.13135046
91	0xbe3181af	-0.17334627
92	0xbdf4f801	-0.119613655
93	0xbdeda7ef	-0.116042964
94	0x3aa889ac	0.0012858412
95	0xbdd1a1c9	-0.10235936
96	0x3c94a189	0.018143432
97	0xbc4b5209	-0.012409695
98	0x3d8286b7	0.06373351
99	0xbdebc910	-0.11512959
100	0x3cac3695	0.02102212
101	0xbc5e386e	-0.013563259
102	0xba4ad421	-0.0007737298
103	0x3c81357a	0.01577257
104	0xbd109c7e	-0.035305493
105	0x3cb3b87a	0.021938551
106	0xbbc2b59b	-0.005942059
107	0xbdad508e	-0.0846263
108	0x3cb5d7f1	0.022197695
109	0x3db6944d	0.08915005
110	0xbd4fc259	-0.050722454
111	0xbd401d42	-0.046902902
112	0xbd293de0	-0.041318774
113	0xbe0094cb	-0.1255676
114	0xbc430e8e	-0.011905326
115	0xbd3c645e	-0.045994155
116	0xbd092fb2	-0.03349275
117	0x3d548e55	0.05189355
118	0x3c697cd8	0.0142509565
119	0xbd9ac631	-0.07557333
120	0x3dc13bbc	0.094352216
121	0xbe158d00	-0.14604568
122	0x3cb1117a	0.021614779
123	0x3dbfcc80	0.09365177
124	0xbdd462ff	-0.103704445
125	0x3ce2fca3	0.027708357
126	0xbb43eea0	-0.002989687
127	0x3d9e0ffc	0.077178925
128	0xbe1dee28	-0.1542288
129	0xbe2515d4	-0.16121608
130	0xbdedcaf3	-0.11610975
131	0xbda01ab4	-0.07817593
132	0xbde30805	-0.11085514
133	0xbc379aa1	-0.0112063
134	0xbde39b1d	-0.1111357
135	0xbdc0ffaa	-0.09423764
136	0x3d7850bc	0.06062387
137	0xbdc5276e	-0.09626661
138	0x3cb09506	0.021555435
139	0xbdd9bb35	-0.1063141
140	0x3d07e15b	0.0331739
141	0x3e028c24	0.12748772
142	0x3d48f793	0.04906423
143	0x3b8fa376	0.0043834997
144	0xbe078293	-0.13233404
145	0xbdd2facd	-0.10301743
146	0xbdeb816e	-0.11499296
147	0xbe10c005	-0.1413575
148	0xbd86157c	-0.065470666
149	0xbe0adb3f	-0.13560198
150	0xbe1b2743	-0.15151696
151	0xbda44015	-0.08020035
152	0xbdde721a	-0.10861607
153	0x3d2bf05d	0.041977275
154	0x3dab8660	0.08375239
155	0xbd9e408f	-0.07727157
156	0x3dc4b9da	0.09605761
157	0xbdab276c	-0.083571285
158	0x3cb83a53	0.022488749
159	0x3d1ced06	0.03831198
160	0x3d259796	0.040427767
161	0xbd00e8e5	-0.031472106
162	0x3bf8beb4	0.007591093
163	0x3d6fca63	0.05854262
164	0x3b35df43	0.0027751483
165	0xbdcbdce8	-0.09954244
166	0x3dd65b7b	0.10466667
167	0xbcf9fa2f	-0.030514805
168	0x3d31d2ce	0.04341393
169	0xbd280520	-0.041020513
170	0xbdf2224f	-0.1182295
171	0xbd659757	-0.056052532
172	0xbd6ef92b	-0.058343094
173	0x3c3d1749	0.011541196
174	0x3d7fc1a5	0.062440533
175	0xbc82b94d	-0.015957499
176	0x3e109240	0.1411829
177	0x3c131ee3	0.008979532
178	0x3db656d6	0.089032814
179	0x3d7e9832	0.062156864
180	0x3e622788	0.22085392
181	0x3e595532	0.21223906
182	0x3e53c9f5	0.20682509
183	0x3de8fd70	0.11376464
184	0x3d9aed7b	0.07564827
185	0x3d401d18	0.046902746
186	0x3d43cc00	0.04780197
187	0x3b5fbef3	0.0034140914
188	0x3b4a21da	0.003084293
189	0x3c808076	0.015686255
190	0x3d47054a	0.04858903
191	0x3d3b6620	0.04575169
192	0x3d80053d	0.06250999
193	0x3e757d71	0.23973633
194	0x3e178a6b	0.14798896
195	0xbd060444	-0.03271891
196	0xbb6aeb3d	-0.003584578
197	0x3d802166	0.0625637
198	0xbd444091	-0.047913138
199	0x3d8673f7	0.06565087
200	0xbcb336b0	-0.021876663
201	0x3d6b0ee6	0.057387255
202	0x3d443c45	0.04790904
203	0xbd6f202c	-0.05838029
204	0xb9f80888	-0.00047308602
205	0x3cbd14c0	0.023081183
206	0xbbaa3f02	-0.0051954994
207	0xbd4b17a4	-0.049583092
208	0xbc4a8079	-0.012359732
209	0x3d53440d	0.05157857
210	0xbcdabc5e	-0.026701149
211	0x3da34385	0.07971863
212	0x3ce83dad	0.028349722
213	0x3bb7898c	0.0056011137
214	0xbb31af1d	-0.0027112432
215	0xbd458d77	-0.048230615
216	0x3d62cebf	0.05537295
217	0xbd4a4e1a	-0.04939089
218	0x3da0caf7	0.078512125
219	0xbc16b256	-0.009197792
220	0xbbdefc6a	-0.0068049924
221	0xbc838034	-0.016052343
222	0xbdd4262e	-0.10358845
223	0xbd2b4580	-0.041814327
224	0x3dbe552b	0.09293588
225	0xbcd5b643	-0.026087886
226	0xbd4a0cf8	-0.049328774
227	0xbd168397	-0.036746588
228	0xbd26c052	-0.040710755
229	0xbd1a760f	-0.037710246
230	0x3d317524	0.043324605
231	0xbc9fe003	-0.019515997
232	0xbd243c67	-0.040096667
233	0x3ce9105c	0.028450184
234	0x3cc15bda	0.023603369
235	0x3dad65fc	0.084667176
236	0xbd19c8b1	-0.03754491
237	0x3e01081f	0.12600754
238	0xbdc9717b	-0.09836098
239	0xbd895e95	-0.06707493
240	0xbda138b2	-0.07872142
241	0xbe01521e	-0.12628981
242	0xbd107ff2	-0.03527827
243	0xbcf59c0b	-0.029981634
244	0xbdb21f92	-0.08697428
245	0xbba92f24	-0.0051630903
246	0x3d906f79	0.07052512
247	0x3c89fc4d	0.01684394
248	0xbe35827e	-0.1772556
249	0xbe1e4a31	-0.1545799
250	0xbd50358f	-0.050832327
251	0xbca533bb	-0.020166269
252	0xbe013489	-0.12617697
253	0x3d137061	0.035995845
254	0xbc36316e	-0.011120183
255	0x3d34ed02	0.04417134

audio_layers.0.bias f4 [32]
0	0x3c91dd72	0.017805789
1	0x3c5569dd	0.013025728
2	0x3ccaf3bd	0.024774427
3	0x3d467138	0.048447818
4	0x3d1143f9	0.035465214
5	0xbca4325e	-0.020043548
6	0x3bac3c8c	0.005256241
7	0xbd841204	-0.06448749
8	0xbcf4abd0	-0.029867083
9	0xb770f5d1	-1.4362348e-05
10	0xbccc261c	-0.024920516
11	0xbd42da20	-0.0475713
12	0x3cf32800	0.02968216
13	0x3d3b26f3	0.04569144
14	0x3cefc118	0.029266879
15	0x3cadd864	0.021221347
16	0x3d49e7ca	0.049293317
17	0xbbb4e78a	-0.0055207657
18	0x3c675ac2	0.014120759
19	0xbc6fefa8	-0.014644541
20	0xbcefd8c1	-0.029278161
21	0x3d25a582	0.040441044
22	0x3b7a7ce0	0.0038221404
23	0xbc0d042f	-0.0086069545
24	0xbc498189	-0.01229895
25	0xbd15fd23	-0.036618363
26	0xbd5d94c2	-0.054096945
27	0xbd6e1346	-0.05812385
28	0xbd06be1b	-0.032896142
29	0x3d28fc30	0.04125613
30	0x3d4e9b5e	0.05044114
31	0xbcd7f00a	-0.026359577

lstm.weight_ih_l0 f4 [512, 32]
0	0x3dabb7bc	0.08384654
1	0x3dcc5d00	0.09978676
2	0x3d51f956	0.051263176
3	0x3d7e337c	0.062060818
4	0x3db53598	0.08848113
5	0xbdaad4f6	-0.083414
6	0x3c0bc947	0.008531875
7	0x3d6dabd5	0.0580252
8	0x3b6a17f0	0.0035719834
9	0x3cc2248a	0.023699064
10	0xbda5aece	-0.08089982
11	0x3d8ba47a	0.06818481
12	0xbd1c2cc1	-0.03812862
13	0xbc8b2047	-0.016983164
14	0x3dd0b8ca	0.10191496
15	0xbd60c6d9	-0.054877136
16	0xbdaddad4	-0.08489004
17	0x3dbdf113	0.09274497
18	0x3d8326df	0.064038984
19	0x3be822c0	0.0070842206
20	0xbd89146f	-0.066933505
21	0xbd000cf6	-0.03126236
22	0x3d951e77	0.07281201
23	0xbd048d5c	-0.032361373
24	0x3d06ae57	0.032881107
25	0xbd5c07f6	-0.05371853
26	0xbcc99303	-0.024606233
27	0x3d3674da	0.044545032
28	0xbd4b51ae	-0.049638443
29	0x3d43c2e2	0.047793277
30	0xbd3226ee	-0.043494157
31	0x3e088b83	0.1333447
32	0x3d161c49	0.03664807
33	0x3d6a87bc	0.057258353
34	0x3b076f40	0.0020665675
35	0xbd5496d5	-0.051901657
36	0x3d8d1a51	0.06889785
37	0x3d06a660	0.03287351
38	0x3dd096be	0.10185002
39	0x3db4498b	0.0880309
40	0x3d91d4c2	0.071206585
41	0x3d0ffd16	0.03515347
42	0x3c874c20	0.016515791
43	0x3d36f406	0.044666313
44	0x3d2a5c42	0.04159189
45	0xbb9a89d1	-0.004716136
46	0xbd66579a	-0.056235887
47	0xbdabd428	-0.08390075
48	0xbd8def22	-0.069303766
49	0xbd3eaaab	-0.04654948
50	0x3dad83dc	0.08472416
51	0xbd93491c	-0.07191679
52	0xbc7ed79b	-0.015554334
53	0xbd91b713	-0.07114997
54	0x3bf3bb90	0.0074381307
55	0xbd6720f9	-0.05642793
56	0xbd9c7126	-0.07638769
57	0x3db6827c	0.08911607
58	0x3d55c25c	0.05218731
59	0x3bdfbed0	0.0068281665
60	0x3d658b5e	0.056041114
61	0x3db4fe87	0.0883761
62	0x3d59f176	0.05320879
63	0x3dafe9d5	0.08589522
64	0x3cfbdad8	0.030744001
65	0x3bec2b46	0.007207307
66	0x3d623ac2	0.055231817
67	0xbc62ff28	-0.013854779
68	0xbdea1f87	-0.114317946
69	0xbcdbf8f2	-0.026852105
70	0xbd8b9b0b	-0.068166815
71	0xbd89a78e	-0.06721412
72	0xbdef485e	-0.11683725
73	0xbda18a31	-0.07887686
74	0x3d920645	0.07130102
75	0xbc79a0ef	-0.015236123
76	0xbd94cb36	-0.07265322
77	0x3d2d10dc	0.042252406
78	0x3cb7ebb1	0.022451254
79	0xbcb8c250	-0.022553593
80	0x3db48120	0.08813691
81	0x3db1754b	0.0866495
82	0xbd22a172	-0.039704747
83	0xbbbf3ce0	-0.0058361143
84	0x3d870921	0.06593538
85	0x3d96c25b	0.07361289
86	0x3ceb8788	0.02875115
87	0xbc974d65	-0.018469522
88	0xbd504803	-0.050849926
89	0x3d652cc0	0.05595088
90	0x3ce7f04e	0.028312828
91	0xbd77259e	-0.06033861
92	0xba808f64	-0.0009808359
93	0xbd42ac52	-0.04752762
94	0x3da77815	0.08177201
95	0x3d2bc7a4	0.04193844
96	0x3d06f3e5	0.03294744
97	0x3d248ed3	0.04017527
98	0xbdb4a9e9	-0.0882147
99	0x3ac4a7de	0.0015003642
100	0x3d98424a	0.07434519
101	0xbda6038e	-0.08106147
102	0x3d550894	0.052010134
103	0xbd11dd6c	-0.035611555
104	0xbd28dfdb	-0.04122911
105	0xbdbd1b39	-0.09233708
106	0x3ac2c340	0.0014859214
107	0xbd93a52c	-0.072092384
108	0x3d8e25d3	0.06940808
109	0x3d4d4772	0.050116964
110	0xbdafdc7d	-0.08586977
111	0x3d3a7aba	0.045527197
112	0x3d4c3de6	0.04986372
113	0xbca1daeb	-0.019757709
114	0x3cff722b	0.03118237
115	0xbd12a189	-0.035798583
116	0x3d7bc506	0.061467193
117	0x3d51a576	0.051183186
118	0xbd2439f3	-0.040094327
119	0x3d2929fb	0.0412998
120	0x3b13cfc0	0.0022554249
121	0xbd4cfc61	-0.050045375
122	0xbd8959b7	-0.06706565
123	0xbc9751b0	-0.018471569
124	0x3ca12a82	0.01967359
125	0xbda45b42	-0.080252185
126	0x3d494fc2	0.04914833
127	0x3d79e3d2	0.061008282
128	0x3e12f199	0.14349975
129	0x3ca33ce1	0.01992649
130	0xbbcf86f0	-0.0063332245
131	0x3d03fbb4	0.032222465
132	0xbd0d99de	-0.034570567
133	0x3c22b7b8	0.009931497
134	0x3d5b1eaf	0.05349606
135	0x3d228043	0.0396731
136	0xbd0a9509	-0.033833537
137	0xbd8b73d2	-0.068092
138	0xbd65f6bd	-0.05614351
139	0xbd567aaf	-0.052363094
140	0x3d3de4fa	0.046360947
141	0xbdbbe134	-0.091738135
142	0xbd5ece6f	-0.05439609
143	0x3c7c4cf0	0.015399203
144	0x3db3d4bb	0.087808095
145	0xbd29958a	-0.041402377
146	0xbdb3b623	-0.08774974
147	0x3d757c6e	0.05993312
148	0xbd52e199	-0.051484678
149	0x3c999794	0.018749036
150	0x3d457826	0.048210286
151	0xbcbfba67	-0.023404313
152	0xbb38d140	-0.0028200895
153	0x3da88d5f	0.082300894
154	0xbd83a933	-0.064287566
155	0x3d49b43e	0.049244158
156	0x3d22cb00	0.039744377
157	0x3d538ae2	0.05164612
158	0xbd891d86	-0.06695084
159	0xbe0c34dd	-0.1369204
160	0x3d52b0c6	0.051438116
161	0x3d40baaa	0.047053017
162	0xbd98d079	-0.07461638
163	0x3d610214	0.054933622
164	0x3d29e716	0.041480146
165	0xbc2859a0	-0.0102752745
166	0x3d46bb7c	0.048518643
167	0xbc87a2fb	-0.016557207
168	0x3d332242	0.043733843
169	0x3d0dc7ab	0.034614246
170	0x3d25718e	0.040391497
171	0xbd02b7ee	-0.03191369
172	0xbd8000ce	-0.062501535
173	0x3c0151ca	0.007893035
174	0x3dacc563	0.08436086
175	0x3d24d112	0.040238447
176	0x3a7c1380	0.0009615943
177	0xbc5580d8	-0.013031207
178	0x3d7aeeee	0.061263017
179	0xbbe73f50	-0.007057108
180	0xbc3042e0	-0.010758132
181	0xbd902377	-0.070380144
182	0x3d12cb94	0.03583868
183	0x3da12fc8	0.07870442
184	0xbd10edc5	-0.035383005
185	0x3d047094	0.032333925
186	0x3bf9e290	0.0076258853
187	0x3d685f5e	0.056731574
188	0x3d39b892	0.045342036
189	0xbd93f9ba	-0.07225366
190	0xbd9bb8f2	-0.07603635
191	0x3d514abc	0.051096663
192	0xbb796361	-0.003805362
193	0xbd8b3e04	-0.06798938
194	0xbcb7caea	-0.022435624
195	0x3dada598	0.0847885
196	0x3ce34972	0.027744982
197	0x3cf6ec30	0.03014192
198	0xbd8f0a93	-0.06984439
199	0x3da6d546	0.081461474
200	0x3cb8cf61	0.022559823
201	0xbc242fde	-0.010021178
202	0xbd31f270	-0.043444097
203	0xbc90e276	-0.01768611
204	0x3d9692b1	0.07352198
205	0xbd199a09	-0.037500415
206	0x3d0a162a	0.033712544
207	0x3d287256	0.041124664
208	0x3dac179f	0.08402943
209	0xbc307b82	-0.010771634
210	0x3c98337e	0.01857924
211	0xbdadf976	-0.084948465
212	0xbdc03943	-0.09385922
213	0x3d413302	0.047167785
214	0x3d8db8af	0.06919991
215	0x3d31317e	0.04326009
216	0xbda2f9ed	-0.07957826
217	0xbcae3182	-0.021263842
218	0xbd915967	-0.0709713
219	0xbd5cd62e	-0.053915195
220	0x3ccf15e1	0.025278987
221	0xbcab61c8	-0.02092065
222	0xbd8f6708	-0.070020735
223	0xbdde8f95	-0.1086723
224	0x3c7d8054	0.01547249
225	0xbdaabd90	-0.083369374
226	0xbda0e10e	-0.07855426
227	0xbb955a3c	-0.004557876
228	0xbe3fa511	-0.18715312
229	0x3c2f111e	0.010685233
230	0xbda1ecf4	-0.07906523
231	0xbd368ae5	-0.044566054
232	0xbdf04999	-0.11732788
233	0xbdd860c6	-0.10565333
234	0x3b261400	0.002534151
235	0xbc9be763	-0.019031232
236	0xbc740a00	-0.014894962
237	0xbd5c245a	-0.053745605
238	0x3db9df95	0.09075848
239	0xbd32aaf8	-0.04362008
240	0xbda25db6	-0.0792803
241	0xbcbc30fc	-0.022972576
242	0xbd10fff1	-0.035400335
243	0xbd5f46b9	-0.054510806
244	0x3e0d245f	0.13783406
245	0xbd8f140e	-0.06986247
246	0x3da13719	0.07871837
247	0xbc9f6266	-0.0194561
248	0x3d8d899d	0.06911013
249	0x3dd94e53	0.10610642
250	0x3c443dc3	0.011977616
251	0x3d5c4702	0.053778656
252	0xbd0f5a71	-0.03499836
253	0xbd148502	-0.03625966
254	0x3c603e10	0.013686672
255	0x3df11b1d	0.117727496

lstm.weight_hh_l0 f4 [512, 128]
0	0x3b3b1acd	0.002854991
1	0x3de61b43	0.112356685
2	0x3bee0496	0.0072637303
3	0xbd1d4253	-0.03839333
4	0xbdaadc28	-0.08342773
5	0x3da3602b	0.07977327
6	0xbd150861	-0.036384944
7	0x3da5b3c3	0.080909275
8	0xba90666e	-0.0011016855
9	0x3c36b50c	0.011151563
10	0x3de0186e	0.109421596
11	0xbc53f127	-0.012935913
12	0xbcc27e41	-0.023741843
13	0x3db57407	0.08860021
14	0xbcef3d01	-0.029203894
15	0x3e04993c	0.1294908
16	0xbcb7092a	-0.022343237
17	0xbd80695b	-0.06270095
18	0x3d86d0a5	0.065827645
19	0xbccba34d	-0.024858141
20	0xbc1a62bf	-0.009422957
21	0xbd1b1629	-0.03786293
22	0x3c1cf1a3	0.009579095
23	0xbd587046	-0.052841447
24	0xbd65a81b	-0.05606852
25	0x3d221c1d	0.039577592
26	0xbd8e5c4c	-0.06951198
27	0x3d4a4122	0.04937852
28	0xbe04b109	-0.12958159
29	0xbe10421d	-0.1408772
30	0x3d9783c7	0.073981814
31	0xbd27abe3	-0.04093541
32	0xbda47eec	-0.08032021
33	0xbdfc58a5	-0.12321595
34	0x3d0349fb	0.032052975
35	0xbc805974	-0.015667655
36	0xbd888040	-0.06665087
37	0x3daa2afa	0.083089784
38	0x3bd0ad91	0.006368347
39	0xbca4d464	-0.020120807
40	0xbdf81b25	-0.121145524
41	0x3d9d2954	0.07673898
42	0x3c4eb332	0.012615966
43	0x3d95f44d	0.07321987
44	0x3d17009d	0.03686582
45	0xbdfde876	-0.12397854
46	0xbd1042ad	-0.035219837
47	0x3d9fd68d	0.07804594
48	0x3dd54a27	0.10414534
49	0xbd54879f	-0.05188715
50	0xbd8ef931	-0.06981123
51	0x3d666bb5	0.05625506
52	0x3dcc0daf	0.099635474
53	0x3bc7f00f	0.0061016153
54	0xbd4977bd	-0.049186457
55	0xbd341c5a	-0.04397235
56	0xb91861a6	-0.00014532226
57	0x3ce1d34f	0.02756658
58	0xbc0aba58	-0.008467279
59	0x3d237ba4	0.039912835
60	0x3d7225c9	0.059118066
61	0x3c696e09	0.014247426
62	0xbd92c4cf	-0.071664445
63	0x3c85167a	0.01624607
64	0xbd063b45	-0.032771368
65	0xbd94d4f3	-0.07267179
66	0xbe078f79	-0.13238324
67	0xbd95b0c9	-0.0730911
68	0x3d87b07a	0.06625457
69	0x3cb433ad	0.021997297
70	0x3d435304	0.04768659
71	0xbdc20cb6	-0.09475081
72	0xbd37c023	-0.04486097
73	0x3d827651	0.06370223
74	0x3de0f5a1	0.1098435
75	0xbbf9830b	-0.0076144985
76	0xbcff379a	-0.031154443
77	0x3dad58d7	0.084642105
78	0x3d424d9f	0.047437306
79	0x3d9bb0c6	0.07602076
80	0xbdd685ba	-0.10474725
81	0xbd610e85	-0.054945488
82	0xbd82b8e5	-0.06382922
83	0xbdd757a4	-0.10514763
84	0xbd93d69c	-0.07218668
85	0x3e145dfd	0.14488979
86	0x3cf2a6ec	0.02962061
87	0x3dd25b32	0.102713004
88	0xbd9d06b2	-0.07667293
89	0x3e12f8e4	0.14352757
90	0x3ca71e29	0.020400124
91	0x3c29e899	0.010370397
92	0xbd800b7e	-0.06252192
93	0x3cdb995a	0.026806522
94	0x3dab5271	0.08365334
95	0xbd8b86cc	-0.0681282
96	0x3d8c1f14	0.06841865
97	0x3b2bbce1	0.002620511
98	0xbd983eff	-0.074338906
99	0x3e05190a	0.12997833
100	0xbc956223	-0.018235272
101	0x3d978998	0.07399291
102	0xbbc42549	-0.00598589
103	0x3d8e39bd	0.069446065
104	0x3d9a6eeb	0.07540687
105	0xbe1c9202	-0.15290073
106	0x3dadf642	0.084942356
107	0xbc548637	-0.012971452
108	0x3d302972	0.043008275
109	0x3d6bfbce	0.057613187
110	0x3e531dc5	0.20616825
111	0xbd61c710	-0.05512148
112	0xbd4bc71a	-0.049750425
113	0x3bc1b08a	0.0059109377
114	0x3ceeb9e6	0.029141378
115	0xbd9d2e99	-0.076749034
116	0xbc8e31ec	-0.017357789
117	0x3b29b80e	0.0025897059
118	0xbd25f24a	-0.040514268
119	0x3daec46c	0.08533558
120	0xbda1b22e	-0.07895313
121	0x3e03ac18	0.12858617
122	0xbd3c50e6	-0.04597559
123	0xbda65e7e	-0.08123492
124	0xbc0c168a	-0.008550296
125	0xbd874a84	-0.066060096
126	0xbce11bc3	-0.027479058
127	0xbd465bc1	-0.048427347
128	0xbda79a9e	-0.08183788
129	0x3d966533	0.07343521
130	0xbd329054	-0.043594673
131	0xbd95863f	-0.07300996
132	0xbc8543cb	-0.016267678
133	0xbd3da73c	-0.046302065
134	0xbdab89c2	-0.083758846
135	0xbbe721cd	-0.00705359
136	0x3cb3c451	0.021944197
137	0xbc7a044f	-0.015259816
138	0x3c2695df	0.010167568
139	0x3ceccc58	0.028906032
140	0xbd526427	-0.051365044
141	0x3d21ea56	0.03953012
142	0x3c6ea1d3	0.014564949
143	0x3d9443e2	0.0723951
144	0xbd008580	-0.031377316
145	0xbd94bd34	-0.0726265
146	0xbbf18e3c	-0.007371692
147	0xbc92832d	-0.017884815
148	0x3d0cb815	0.03435524
149	0x3d891bc3	0.06694748
150	0xbcb82f56	-0.022483509
151	0xbc804939	-0.015659915
152	0xbd87e449	-0.06635339
153	0x3d600a50	0.054697335
154	0x3d2cf790	0.04222828
155	0x3d99ea3b	0.07515379
156	0x3c328d60	0.010897964
157	0x3db38260	0.087651014
158	0xbcf9687c	-0.03044533
159	0x3d1e7951	0.038689915
160	0x3b30909b	0.002694166
161	0x3d4be5f5	0.04977985
162	0x3c96a959	0.018391298
163	0x3d286466	0.041111372
164	0x3d480810	0.048835814
165	0x3c23a186	0.009987241
166	0xbd802b01	-0.06258202
167	0x3d57cb07	0.052683856
168	0x3d483d96	0.048886858
169	0xbd98ffb7	-0.07470649
170	0xbd0a3ffa	-0.03375242
171	0x3d699dde	0.05703532
172	0xbb3ce6b5	-0.0028824036
173	0x3c779ea6	0.015113508
174	0x3d822c6b	0.06356128
175	0xbd479ccf	-0.04873353
176	0x3c328df9	0.010898107
177	0xbce5274e	-0.027972843
178	0xbc779c7e	-0.015112994
179	0x3b089f6e	0.002084698
180	0x3d9d5bad	0.076835014
181	0x3d178fb1	0.03700227
182	0x3c7b8bf6	0.0153531935
183	0x3d84c5f4	0.06483069
184	0xbc8716f4	-0.016490437
185	0xbd942492	-0.07233538
186	0xbd0af6b0	-0.033926666
187	0x3cce6789	0.025195854
188	0xbcd0b716	-0.025477927
189	0xbd5c324f	-0.053758916
190	0x3d48a000	0.048980713
191	0xbd3a0dd9	-0.045423362
192	0x3da873e7	0.082252316
193	0x3ce51c12	0.027967487
194	0xbc8c8e1b	-0.017157605
195	0xbc0ec96c	-0.008715015
196	0xbc18bcc2	-0.009322347
197	0xbd3307cd	-0.04370861
198	0xbd366d58	-0.044537872
199	0xbd2aef35	-0.04173203
200	0xbab9c17c	-0.0014172043
201	0x3da6a87e	0.08137606
202	0x3c0514b1	0.008122609
203	0x3d84c977	0.06483739
204	0xbda1aa43	-0.07893803
205	0x3da08e2a	0.07839616
206	0x3d68c041	0.056823973
207	0x3d38e7df	0.045143005
208	0xbd99dcb1	-0.07512797
209	0x3d856220	0.065128565
210	0x3c8997e9	0.01679607
211	0x3d95771d	0.0729811
212	0xbd428471	-0.047489587
213	0x3da1d984	0.07902816
214	0x3d547454	0.05186875
215	0x3c641bb8	0.013922624
216	0x3c568e02	0.013095381
217	0x3abe2b81	0.0014508815
218	0x3dab55b4	0.08365956
219	0xbd17d27b	-0.037065964
220	0x3c5d91d8	0.013523541
221	0x3be5720a	0.00700212
222	0xbd9fda8f	-0.078053586
223	0x3b2d7d73	0.0026472479
224	0xbd341c10	-0.043972075
225	0xbd697549	-0.056996617
226	0x3d231fe6	0.039825343
227	0x3cfb7154	0.030693687
228	0x3cd457e6	0.02592082
229	0x3d447953	0.047967266
230	0xbcf242fe	-0.02957296
231	0xbbcbd68b	-0.006220644
232	0x3dad6b72	0.08467759
233	0x3da18eb5	0.07888547
234	0xbda35d47	-0.079767756
235	0xbd6e9f66	-0.058257483
236	0x3d86f911	0.065904744
237	0xbd5899a2	-0.05288089
238	0x3b0c15a7	0.002137521
239	0xbc4b8832	-0.012422608
240	0x3c8ddbe4	0.017316766
241	0xbd96f795	-0.07371441
242	0x3d44870d	0.047980357
243	0xbd8a0bba	-0.06740518
244	0x3d9c7a09	0.07640464
245	0x3d9372ae	0.07199608
246	0xbd46c8c4	-0.04853131
247	0xbd67db54	-0.056605652
248	0xbc4508d7	-0.012026033
249	0xbd882b92	-0.066489354
250	0xbd9caec4	-0.076505214
251	0x3d3c9905	0.04604437
252	0xbda5a6ef	-0.08088481
253	0x3c9a26f0	0.018817395
254	0x3d9a54ee	0.0753573
255	0x3d1a8f27	0.037734177

lstm.bias_ih_l0 f4 [512]
0	0x3de79e10	0.11309445
1	0x3d5dbf1d	0.054137338
2	0x3d80c7fb	0.06288143
3	0x3d9eac3b	0.07747694
4	0xbc9739c2	-0.018460158
5	0x3d77bc75	0.06048246
6	0xbd9463fa	-0.072456315
7	0x3c039455	0.008030971
8	0x3db20966	0.08693199
9	0x3d690cf7	0.05689713
10	0x3dc384e1	0.09546829
11	0xbd3760fd	-0.04477023
12	0x3d2ce1df	0.042207595
13	0x3d8cea97	0.06880682
14	0x3c39aaa6	0.01133219
15	0xbd0df0d8	-0.034653515
16	0x3d8fc9b1	0.070208915
17	0x3c186749	0.009301969
18	0x3d1f597e	0.038903706
19	0x3d92c763	0.07166936
20	0x3d4c9a79	0.049952004
21	0x3d07f6ba	0.03319428
22	0xbd76d2f4	-0.060259774
23	0xbaa9d303	-0.0012956563
24	0x3ccbdc68	0.024885371
25	0xbc8e4fc1	-0.017372014
26	0xbc99ffe9	-0.018798785
27	0x3c7bd789	0.015371212
28	0xbbe5ff89	-0.0070189876
29	0xbc98eeed	-0.018668616
30	0xbda7359e	-0.081645235
31	0x3d327d31	0.043576423
32	0x3d757b2e	0.059931926
33	0x3d835381	0.064124115
34	0x394d3d27	0.00019573105
35	0x3d72834a	0.05920724
36	0xbd9448fc	-0.07240483
37	0xbdd56698	-0.10419959
38	0x3c614968	0.013750412
39	0x3d0dd40c	0.03462605
40	0x3d8df0d0	0.06930697
41	0xbd840848	-0.06446892
42	0x3d89d3e2	0.067298666
43	0xbd175934	-0.036950305
44	0x3d8e250b	0.06940659
45	0xbd60a261	-0.054842357
46	0x3d314c1c	0.043285474
47	0xbcfbabee	-0.03072163
48	0x3da9c0bc	0.08288714
49	0xbd60efe0	-0.054916263
50	0x3c53494b	0.012895892
51	0x3c2c29d8	0.010508023
52	0x3d9bf040	0.076141834
53	0x3c1d08da	0.00958463
54	0xbcda36b6	-0.026637416
55	0x3d490ec9	0.049086366
56	0xbadcc24f	-0.0016842576
57	0x3b99b55a	0.0046908082
58	0xbd39417c	-0.045228466
59	0xbd832b61	-0.06404758
60	0x3c4a8e24	0.0123629905
61	0x3d2d8d2a	0.042370953
62	0x3bc93bb3	0.00614115
63	0x3cbf636c	0.023362838
64	0x3d184914	0.037179068
65	0xbcd3f65d	-0.025874311
66	0x3da9ff04	0.083005935
67	0x3dc5bf3d	0.096556164
68	0xbd8341bc	-0.06409022
69	0xbc94287c	-0.01808571
70	0x3d694d24	0.056958333
71	0x3db408cc	0.0879074
72	0x3d361816	0.044456564
73	0xbbbf2e91	-0.0058344086
74	0x3dcd72fa	0.10031696
75	0xbd5dd09d	-0.054154027
76	0xbcbc2d3e	-0.022970792
77	0x3b924740	0.00446406
78	0xbcd11d80	-0.025526762
79	0xbdabb39c	-0.08383867
80	0xbcc4f404	-0.024042137
81	0x3d7630a9	0.060105
82	0xbd5c1592	-0.05373151
83	0xbb9b003e	-0.0047302535
84	0x3d3aa51e	0.045567624
85	0x3d90ef0e	0.07076846
86	0xbd8c0fc0	-0.068389416
87	0xbdb59433	-0.088661574
88	0xbd8f371e	-0.06992935
89	0xbd23300d	-0.039840747
90	0x3dd04155	0.10168711
91	0x3d8288dc	0.0637376
92	0x3c83bea1	0.01608211
93	0xbcf2c039	-0.029632675
94	0xbcd36076	-0.025802832
95	0x3d33636d	0.04379599
96	0x3dbe4967	0.09291344
97	0x3d6b4563	0.05743922
98	0x3d8c35b3	0.0684618
99	0x3cfd26fc	0.030902378
100	0xbc9edff6	-0.019393902
101	0xbbd42685	-0.0064743184
102	0x3cf6699c	0.030079655
103	0xbdb7abc3	-0.08968308
104	0xbd80b2cd	-0.062841035
105	0xbd80f421	-0.06296564
106	0x3d1d4a77	0.038401093
107	0x3da54a32	0.08070792
108	0x3de77d46	0.11303191
109	0xbd8204fd	-0.06348608
110	0xbd3de0e2	-0.046357043
111	0xbcaec848	-0.021335736
112	0x3dc55f00	0.096372604
113	0x3dac1e95	0.084042706
114	0x3da477eb	0.08030685
115	0x3d22a9e6	0.03971281
116	0xbc87bcbe	-0.016569491
117	0x3cb8bbdb	0.022550514
118	0xbc97d5b8	-0.018534526
119	0x3c6cf3be	0.01446241
120	0xbd4cac08	-0.04996875
121	0xbd833e9d	-0.06408427
122	0x3d852395	0.06500927
123	0x3e04b56b	0.1295983
124	0x3dbac419	0.09119434
125	0x3d289b4b	0.041163724
126	0x3d4348fa	0.047677018
127	0xbd9d0374	-0.07666674
128	0x3db1a8b5	0.086747564
129	0x3d71658c	0.058934733
130	0x3d6283a6	0.05530133
131	0x3cca1d0d	0.024672056
132	0xbd6e474e	-0.05817347
133	0x3d7c8e55	0.061659176
134	0xbd02704a	-0.03184537
135	0x3d638973	0.055551004
136	0x3dadd49d	0.084878184
137	0xbce852d5	-0.02835981
138	0xbca146cc	-0.019687079
139	0x3cf0171c	0.029307894
140	0x3b5cacd1	0.0033672343
141	0xbd7f776b	-0.062369745
142	0xbd419151	-0.047257725
143	0xbd914324	-0.07092884
144	0x3ca22cbb	0.01979672
145	0x3c8fa615	0.017535249
146	0x3d211947	0.039330747
147	0x3c497b86	0.012297517
148	0x3dfc76c5	0.12327341
149	0x3d4b6d95	0.049665052
150	0x3d92ef63	0.07174566
151	0xbc750f5f	-0.014957278
152	0x3da5dc1b	0.080986224
153	0x3d8126d3	0.06306233
154	0xbd226959	-0.03965125
155	0xbd03e451	-0.03220016
156	0xbc8dd3f7	-0.017312987
157	0x3cd29bd2	0.025709067
158	0xbd528591	-0.05139691
159	0x3da92c5f	0.08260416
160	0x3de019b6	0.10942404
161	0x3ca8852b	0.020571312
162	0xbd7d49e1	-0.061838035
163	0xbd84c27c	-0.064824075
164	0x3da0b4c1	0.07846976
165	0xbb909d07	-0.0044132504
166	0x3cd499c0	0.02595222
167	0x3cb72a41	0.022359015
168	0x3ce70ce2	0.028204385
169	0xbccb20af	-0.024795858
170	0x3deb2bb4	0.11482945
171	0xbda5d2fc	-0.08096883
172	0x3bdce985	0.006741705
173	0xbd887046	-0.066620395
174	0x3c0477fd	0.008085248
175	0x3d3572c8	0.044298917
176	0xbd9b3e59	-0.07580251
177	0xbd35c349	-0.04437569
178	0x3d306bf1	0.04307169
179	0x3da50ace	0.080587015
180	0x3c6f2671	0.0145965675
181	0xbd7e5a2c	-0.062097713
182	0xbbdc2829	-0.0067186547
183	0xbd99d1fc	-0.075107545
184	0xbd37454e	-0.04474383
185	0x3cdef626	0.027216982
186	0x3d8334aa	0.06406529
187	0x3b3161fa	0.0027066455
188	0xbd2decf7	-0.042462315
189	0xbd01d1be	-0.031694166
190	0x3d8183bc	0.063239545
191	0x3db35d19	0.08757991
192	0x3d4031e0	0.046922565
193	0x3d088618	0.033331007
194	0x3a68880a	0.0008870369
195	0x3d933e06	0.071895644
196	0xbc882371	-0.016618462
197	0x3d8d38cd	0.068955995
198	0x3daae6ad	0.08344779
199	0xbd0da15f	-0.034577724
200	0xbc33dd11	-0.010977999
201	0x3dda9c99	0.106744
202	0xbc99c444	-0.018770345
203	0xbd6ca014	-0.05776985
204	0x3c95f7cf	0.01830664
205	0x3c3cd0b3	0.011524367
206	0xbd59dd5c	-0.05318962
207	0x3ca1831e	0.019715842
208	0x3d0e768c	0.034781024
209	0xbd935808	-0.07194525
210	0xbc636019	-0.013877892
211	0x3d58278f	0.0527721
212	0x3d9bf061	0.07614208
213	0xbda9e83e	-0.0829625
214	0xbd5442cc	-0.051821515
215	0x3d2e2251	0.042513195
216	0x3db501bb	0.08838221
217	0x3b85deb1	0.004085385
218	0xbd0576e4	-0.032584086
219	0x3d50880b	0.05091099
220	0xbd019805	-0.031639118
221	0x3d5e4fd5	0.054275353
222	0x3d12bb96	0.035823427
223	0xbc87a1e5	-0.01655669
224	0x3cef8b9c	0.029241376
225	0xbd62f75d	-0.055411685
226	0x3d922f6d	0.07137952
227	0xbbfbc4dc	-0.0076833796
228	0xbd1bcaf6	-0.038035356
229	0xbcfb60b1	-0.030685754
230	0x3d91de56	0.07122485
231	0x3c4b3de6	0.012404894
232	0x3cd74dd5	0.02628223
233	0xbc5e6068	-0.01357279
234	0x3cb736ca	0.022364993
235	0xbca6298d	-0.020283485
236	0x3cd06815	0.025440255
237	0x3d8a6791	0.06758035
238	0x3cc0a053	0.023513949
239	0xbd632a58	-0.055460304
240	0x3dd900bc	0.10595843
241	0x3cd02cd3	0.025411999
242	0x3d743436	0.059620105
243	0x3d0c6867	0.034279253
244	0x3d947744	0.072493106
245	0x3d6e2fd7	0.058151092
246	0xbd7e8a0c	-0.06214337
247	0xbcbfe8aa	-0.023426373
248	0x3d0f50d8	0.034989208
249	0xbd0c3d1a	-0.03423796
250	0x3cd3ae6f	0.025840012
251	0x3d15b39a	0.036548235
252	0xbd677c0d	-0.05651479
253	0x3cc9284d	0.02455535
254	0xbd029211	-0.03187758
255	0xbd8f8c84	-0.07009223

lstm.bias_hh_l0 f4 [512]
0	0x3d38bca5	0.04510178
1	0xbda3fecd	-0.08007584
2	0x3d6c3030	0.057663143
3	0x3d72b1d2	0.059251614
4	0x3cd98c03	0.02655602
5	0xbd22a63a	-0.039709307
6	0xbda2db92	-0.07952036
7	0xbd3ace81	-0.045607094
8	0x3ceab035	0.028648475
9	0x3c592f83	0.013255957
10	0xbd8de452	-0.06928314
11	0x3c9f5ef2	0.019454453
12	0x3c48472f	0.012224003
13	0xbd6c3174	-0.05766435
14	0x3d2be1de	0.04196345
15	0xbcec5ef3	-0.028853869
16	0xbd567345	-0.052356023
17	0xbd03fcb1	-0.032223407
18	0xbd7e494e	-0.062081628
19	0x3d80483b	0.06263777
20	0x3d9af00e	0.07565318
21	0xbd2c7fe6	-0.04211416
22	0xbd26b8a2	-0.040703423
23	0xbd41e2e8	-0.047335535
24	0xbdb1b1b5	-0.08676473
25	0x3d57e66d	0.052709986
26	0xbd394693	-0.04523332
27	0x3d72fc9a	0.05932293
28	0xbd25d59c	-0.040486917
29	0x3d85b3e4	0.06528452
30	0x3d8af64a	0.06785257
31	0x3d3ea26f	0.046541627
32	0xbba9c7f7	-0.0051813084
33	0xbda9444e	-0.08264981
34	0xbcfd5873	-0.030925965
35	0x3cbf3faa	0.023345787
36	0x3d832003	0.0640259
37	0x3a90f52c	0.0011059395
38	0x3d6a4cb6	0.057202064
39	0xbd1bfef2	-0.03808493
40	0x3d9a7074	0.0754098
41	0x3cba153b	0.022715202
42	0x3b61b5eb	0.0034440707
43	0x3cee1a47	0.029065264
44	0x3db6f26d	0.08932958
45	0x3cd646da	0.026156832
46	0xbc4d0021	-0.012512238
47	0xbc133ff8	-0.008987419
48	0x3d9ec11e	0.07751678
49	0xbca817e1	-0.020519199
50	0xbcbd7767	-0.023128225
51	0x3dadb5ff	0.084819786
52	0x3e18571a	0.14876977
53	0x3c1908e1	0.009340496
54	0xbca4eb4b	-0.020131728
55	0x3d605031	0.054763976
56	0x3d63e0c6	0.055634283
57	0xbb6e52d6	-0.0036365292
58	0x3d5594cf	0.052143868
59	0xbd8b805d	-0.06811593
60	0xbce42b5c	-0.027852707
61	0xbc8fa72a	-0.017535765
62	0xbbcf037f	-0.0063175554
63	0x3c8d0b5e	0.017217334
64	0xbd60d40c	-0.054889724
65	0x3dbf354a	0.09336336
66	0x3c957d6f	0.018248288
67	0xbd910b5a	-0.07082243
68	0x3c241f50	0.010017231
69	0x3cbe1d54	0.023207344
70	0x3b4de578	0.0031417292
71	0x3d800e27	0.06252699
72	0xbd576cf7	-0.05259415
73	0xbcd2af55	-0.02571837
74	0xbd081707	-0.033225086
75	0x3aa84181	0.0012836904
76	0xbd7815e9	-0.06056777
77	0xb91491a1	-0.00014168631
78	0x3d964349	0.073370524
79	0xbd23ae8c	-0.039961383
80	0x3cd99e8f	0.026564864
81	0xbca0de15	-0.019637147
82	0x3c1ec804	0.009691242
83	0x3da32d5e	0.079676375
84	0xbbe0bc6b	-0.0068583987
85	0xbc493100	-0.012279749
86	0xba9f6346	-0.0012160323
87	0x3cc00226	0.023438524
88	0x3d8cf320	0.0688231
89	0xbb77c4bd	-0.0037806474
90	0x3d42b6cb	0.047537606
91	0x3d53fb9d	0.05175363
92	0x3d58e46e	0.052952223
93	0x3df2a81c	0.118484706
94	0x3d67848c	0.05652289
95	0x3c4db971	0.01255642
96	0x3c68f9b2	0.014219688
97	0x3cb2e9af	0.021839945
98	0x3d4a2bb8	0.0493581
99	0x3d939ea4	0.07207993
100	0x3c22345d	0.00990018
101	0x3c014778	0.007890575
102	0x3d0994be	0.033589117
103	0xbbb9cb02	-0.0056699524
104	0x3d8d33d5	0.06894652
105	0x39e86d11	0.0004433175
106	0xbda44943	-0.08021786
107	0x3d3f0f9a	0.04664574
108	0xbc820f96	-0.015876573
109	0x3cca2baa	0.024679024
110	0x3c8c81f4	0.01715181
111	0x3b80b344	0.00392762
112	0x3dc18b2a	0.094503716
113	0x3da5bfa5	0.08093194
114	0x3cfffd47	0.031248702
115	0xbd498e23	-0.049207818
116	0x3d38e892	0.04514367
117	0xbcc2cd05	-0.023779402
118	0xbdad1500	-0.08451271
119	0xbdc3e799	-0.09565658
120	0xbd2e1301	-0.042498592
121	0xbca97055	-0.020683447
122	0x3d964e47	0.07339149
123	0xbcc96721	-0.024585309
124	0xbc074209	-0.00825549
125	0x3d89dddc	0.067317694
126	0x3b3460ad	0.0027523444
127	0xbd147311	-0.03624255
128	0x3d081274	0.033220723
129	0x3dd15546	0.10221343
130	0x3afecfba	0.001944057
131	0xbacd45a1	-0.001566101
132	0x3d71c1da	0.059022762
133	0x3dac747e	0.084206566
134	0xbd4556c5	-0.048178453
135	0x3dd7cd3b	0.105371915
136	0xbd402d83	-0.046918403
137	0x3d9d03bc	0.07666728
138	0x3d19b3f1	0.03752512
139	0x3dbe026e	0.09277807
140	0xbda30c54	-0.07961336
141	0x3dadc25d	0.084843375
142	0xbb2e510a	-0.0026598596
143	0x3bb7fad4	0.005614618
144	0x3d61a9ae	0.05509346
145	0x3bcbaf46	0.0062159626
146	0xbd95d12f	-0.07315289
147	0xbd414b6d	-0.047191072
148	0x3d50c269	0.050966654
149	0x3d986909	0.07441909
150	0xbd702b8e	-0.058635287
151	0x3d874575	0.06605045
152	0x3c02fa6a	0.007994274
153	0x3da2e95a	0.079546645
154	0x3db3ec8a	0.087853506
155	0x3d69a939	0.05704615
156	0x3d8bf6c3	0.068341754
157	0x3b88bcc4	0.0041728932
158	0x3d1d3b35	0.038386542
159	0xbd6917a6	-0.05690732
160	0x3da862ba	0.082219556
161	0xbda8d2cc	-0.08243331
162	0x3d0c0c51	0.034191433
163	0x3d8e8782	0.0695944
164	0x3ca881be	0.020569678
165	0xbd8c5369	-0.06851847
166	0x3d8a738f	0.06760322
167	0x3da7c40e	0.08191691
168	0x3ba96b66	0.0051702736
169	0xbcb722b3	-0.022355413
170	0x3d79e4b1	0.061009113
171	0x3d32a194	0.043611124
172	0xbd32ac86	-0.043621562
173	0xbd3e5b1d	-0.04647361
174	0x3befc896	0.007317613
175	0x3d4af5f4	0.049550965
176	0x3b474308	0.0030404944
177	0x3d5b73d2	0.05357725
178	0x3d015045	0.03157069
179	0x3d4bc75d	0.049750675
180	0x3e072bfd	0.13200374
181	0x3da93583	0.0826216
182	0xbce934d5	-0.028467575
183	0xbc1c4720	-0.009538442
184	0x3cd35c26	0.025800776
185	0x3cb9b0aa	0.022667248
186	0xbd3d1b84	-0.04616882
187	0x3c947696	0.018122952
188	0x3dc31d55	0.09527079
189	0x3d43d9bd	0.047815073
190	0x3da0324d	0.07822094
191	0xbc8234c2	-0.015894298
192	0xbd87ff3b	-0.06640478
193	0xbc6774a6	-0.014126932
194	0xbc54a3cb	-0.012978504
195	0x3d3a56fb	0.045493107
196	0x3d837b03	0.06419947
197	0xbbb64424	-0.005562322
198	0x3d8c8e6c	0.06863102
199	0xbdac1f5d	-0.084044196
200	0xbc0b85c2	-0.008515777
201	0x3da580e0	0.080812216
202	0xba799b16	-0.0009521706
203	0x3d0feb6f	0.035136636
204	0x3ccaf39f	0.02477437
205	0xbd4cfead	-0.050047565
206	0x3c815060	0.015785396
207	0x3d1eff2c	0.03881757
208	0x3d8dbaa0	0.069203615
209	0xbcfd95d9	-0.030955242
210	0x3c59d9ca	0.013296554
211	0x3cd491aa	0.025948364
212	0xbc9060e7	-0.017624332
213	0xbbfa3f9e	-0.0076369783
214	0xbbfe13c8	-0.007753823
215	0xbc1b16d1	-0.009465889
216	0xbcec3c7e	-0.028837439
217	0xbd4168b1	-0.047218982
218	0xbd2022a8	-0.03909555
219	0x3cf04ea7	0.02933438
220	0x3d998f3f	0.07498025
221	0xbdaf8a5b	-0.08571311
222	0x3d8ff821	0.07029749
223	0x3c37d76c	0.011220794
224	0x3d934b0d	0.07192049
225	0x3d45ff3b	0.04833911
226	0x3d0129d5	0.031534035
227	0x3dab5ea7	0.08367663
228	0x3cd3c38b	0.025850078
229	0xbdc13e9e	-0.094357714
230	0x3cbaf19e	0.02282029
231	0xbd88c575	-0.06678287
232	0xbd2ed560	-0.04268396
233	0xbcc8ed0d	-0.024527097
234	0x3d6a11b4	0.05714579
235	0xbd4503e4	-0.048099414
236	0x3df79c21	0.12090326
237	0x3dbd4aaf	0.092427604
238	0xbc3a06b7	-0.01135414
239	0x3cfe0db0	0.031012386
240	0x3ca4f8b9	0.020138131
241	0x3d0e5a09	0.034753833
242	0xbd3b149a	-0.045673944
243	0x3d6a39b3	0.057183933
244	0xbcec7d33	-0.028868293
245	0x3da97576	0.08274357
246	0x3d2fed7f	0.042951103
247	0x3cdf636f	0.027269093
248	0x3cc9f78d	0.024654174
249	0x3d10d889	0.035362754
250	0x3d30595f	0.04305398
251	0xbd3520da	-0.044220783
252	0xbd0d2270	-0.03445667
253	0x3cfb5df6	0.030684453
254	0x3d0e0099	0.03466854
255	0x3daf70cb	0.085664354

fc.weight f4 [24, 128]
0	0x3d329e70	0.04360813
1	0x3d271575	0.040791947
2	0xbee6e599	-0.45097044
3	0x3d0b4adf	0.03400695
4	0xbc5e94af	-0.013585254
5	0x3c54be1f	0.0129847815
6	0x3d396f1d	0.04527198
7	0xbf134dcd	-0.5754059
8	0x3d8477a0	0.06468129
9	0x3e9c2162	0.3049422
10	0x3f063316	0.524217
11	0x3e5372f7	0.20649324
12	0x3d2b0178	0.041749448
13	0x3c257829	0.010099449
14	0xbd174ae2	-0.03693665
15	0x3ed42f4f	0.41442344
16	0x3d9961b9	0.07489342
17	0xbef2d805	-0.47430435
18	0xbeb1d598	-0.34733272
19	0x3d3aee2e	0.045637302
20	0x3eb1ba51	0.3471246
21	0xbdc78db1	-0.09743822
22	0xbce3605c	-0.027755909
23	0x3f20017a	0.62502253
24	0x3f15e430	0.5855131
25	0xbd2ad05f	-0.041702624
26	0x3db33729	0.08750755
27	0xbe362de0	-0.17790937
28	0xbd03028c	-0.03198485
29	0xbee5fdf1	-0.44920304
30	0x3d88b8b4	0.06675854
31	0xbda7125f	-0.08157801
32	0xbc471d45	-0.0121529745
33	0xbd211fe2	-0.039337046
34	0x3e3d8145	0.18506344
35	0x3ea26078	0.31714225
36	0xbd1e2fa9	-0.03861967
37	0xbe1a95ad	-0.1509616
38	0xbe12be14	-0.14330322
39	0x3f053fa2	0.5205022
40	0xbcff9069	-0.03119679
41	0x3c0d417e	0.008621572
42	0x3eae10e9	0.33997276
43	0xbe9a72f1	-0.30165818
44	0xbbe0ebaa	-0.006864031
45	0x3e59a222	0.21253255
46	0x3db14ab2	0.08656825
47	0x3d38a655	0.0450805
48	0x3ed47a1a	0.41499406
49	0x3d275276	0.040850125
50	0x3a2748f3	0.0006381415
51	0xbd9f9ed1	-0.07793964
52	0x3df55b91	0.119803555
53	0x3d2d39bb	0.042291384
54	0xbe24f810	-0.16110253
55	0x3bb3019e	0.0054628393
56	0x3d464af3	0.04841132
57	0xbd886c75	-0.066613115
58	0x3dd2ce0a	0.10293205
59	0x3c404f2a	0.011737624
60	0xbf0ca3bc	-0.5493734
61	0xbe51cd36	-0.20488438
62	0xbd8164ef	-0.0631808
63	0xbd40dbc1	-0.047084574
64	0x3d942989	0.07234485
65	0xbd9c9124	-0.07644871
66	0x3e26a8da	0.1627535
67	0x3cd2325a	0.025658775
68	0xbd9e0e32	-0.07717551
69	0xbecb5fb6	-0.3972146
70	0xbd4b8e07	-0.049695995
71	0xbee81823	-0.45330915
72	0xbee63ca5	-0.44968143
73	0xbe84e992	-0.2595945
74	0xbd3941d4	-0.045228794
75	0x3d492cf7	0.049115147
76	0xbd1b174b	-0.03786401
77	0xbd731667	-0.059347536
78	0xbd59076d	-0.052985597
79	0x3e7a3047	0.24432479
80	0x3bebf850	0.007201232
81	0xbbdac673	-0.006676489
82	0x3d9be2c8	0.076116145
83	0x3eb02db6	0.34409875
84	0x3eb29fce	0.34887546
85	0xbd05916d	-0.032609392
86	0x3cd81214	0.026375808
87	0xbf067438	-0.52521086
88	0x3f0d2a69	0.5514284
89	0xbdb57aef	-0.08861338
90	0xbf323488	-0.69611406
91	0x3c11fe0f	0.00891067
92	0xbd23fb08	-0.040034324
93	0x3ed75fef	0.4206538
94	0x3e738408	0.23780835
95	0x3f2c0be7	0.6720566
96	0xbd37a867	-0.044838335
97	0xbee44c76	-0.44589585
98	0xbb7ab75c	-0.0038256263
99	0xbecd0744	-0.40044606
100	0x3ef30710	0.47466326
101	0x3c915fbb	0.017745843
102	0x3d921290	0.07132447
103	0xbcd3d5f9	-0.025858866
104	0x3d8984fe	0.06714819
105	0x3d8e3582	0.069437996
106	0xbd5d2578	-0.05399081
107	0x3cddc58b	0.027071735
108	0xbd9373a4	-0.07199791
109	0xbe98b2f7	-0.2982404
110	0x3d97bfe7	0.07409649
111	0x3d80eab5	0.06294767
112	0x3e86bd32	0.2631622
113	0x3e791b82	0.243269
114	0xbd9f737f	-0.07785701
115	0xbee7af21	-0.452508
116	0xbd4a66d4	-0.04941447
117	0xbd1e2042	-0.038604982
118	0x3d32fef5	0.043700177
119	0xbdb38465	-0.08765487
120	0xbb65654d	-0.0035003007
121	0x3dbbded4	0.091733605
122	0x3c15aa31	0.009134815
123	0xbbab5c92	-0.005229541
124	0xbd27b402	-0.040943153
125	0xbdcafe09	-0.099117346
126	0xbf5110bc	-0.8166616
127	0xbc105362	-0.0088089425
128	0x3b7f8661	0.0038990008
129	0x3e5ae52a	0.21376482
130	0xbebf754f	-0.37394187
131	0xbd65b114	-0.056077078
132	0x3d692780	0.056922436
133	0x3a24e17b	0.0006289703
134	0xbd81d517	-0.06339472
135	0xbebe39fa	-0.37153608
136	0x3cb9427a	0.022614706
137	0xbf13cdd1	-0.57735926
138	0xbee0830d	-0.43849984
139	0x3e86ea92	0.26350838
140	0x3d84dc65	0.064873494
141	0xbc8b958f	-0.017039089
142	0x3d43bb9e	0.047786348
143	0xbea349bb	-0.3189219
144	0x3cffe7b3	0.031238412
145	0xbede9cba	-0.43478948
146	0xbee3e151	-0.4450784
147	0x3dc05aeb	0.09392341
148	0xbf03abd0	-0.5143404
149	0xbe6c811c	-0.23096126
150	0x3cdc5615	0.026896516
151	0x3e8ef973	0.2792469
152	0xbf101c10	-0.5629282
153	0x3dc3f5a1	0.09568334
154	0xbcaad1cc	-0.020851992
155	0xbf31ba33	-0.6942474
156	0xbd9544a7	-0.07288485
157	0x3ee526da	0.44756204
158	0x3dedca0e	0.116108045
159	0xbd7767d4	-0.060401753
160	0xbdd1f579	-0.10251898
161	0xbcf64a09	-0.0300646
162	0xbe5ee566	-0.21767196
163	0x3edba8ab	0.4290212
164	0x3d9c8851	0.07643188
165	0x3e1fab16	0.15592608
166	0x3ea2aa8a	0.31770736
167	0xbec37a8a	-0.38179427
168	0x3d8d28f1	0.068925746
169	0x3d9503c8	0.07276112
170	0x3eddb8d5	0.43305078
171	0x3ead67e9	0.3386834
172	0xbda6cc38	-0.081444204
173	0x3e4dcbde	0.200973
174	0xbd498578	-0.04919955
175	0x3d1cc4ef	0.038273748
176	0x3ee8c82a	0.45465213
177	0xbd49b641	-0.049246076
178	0xbca12b12	-0.019673858
179	0xbd51adaf	-0.05119103
180	0x3ed32db8	0.41245818
181	0xbd53a128	-0.051667362
182	0x3ec183cc	0.37795866
183	0x3c17adc6	0.009257739
184	0xbbbab0d5	-0.0056973496
185	0xbd794ca5	-0.06086411
186	0x3dbe3949	0.0928827
187	0x3d07a75e	0.0331186
188	0xbec7502a	-0.38928348
189	0xbe63847f	-0.22218512
190	0xbd36dc1f	-0.044643518
191	0xbd6003c2	-0.054691084
192	0xbce552b8	-0.027993545
193	0x3cde6047	0.027145518
194	0x3ec5c6c0	0.38628197
195	0x3d8971b6	0.06711142
196	0xbceb6292	-0.028733525
197	0x3e7de950	0.24796033
198	0xbde5eb56	-0.112265274
199	0x3ed08f33	0.40734252
200	0xbf01fa63	-0.50772685
201	0xbebbba91	-0.36665776
202	0xbced80da	-0.028992105
203	0x3d8d649c	0.06903955
204	0xbc965530	-0.018351167
205	0x3e173208	0.14765179
206	0x3c8b05df	0.016970573
207	0x3ea5001a	0.3222664
208	0xbd38a244	-0.045076624
209	0xbdba7fcd	-0.09106407
210	0x3b8cc476	0.004295881
211	0x3ef84311	0.48488668
212	0x3e772cf1	0.24138238
213	0x3d2a486b	0.04157297
214	0x3de51118	0.11184901
215	0x3ee00d32	0.43760067
216	0x3ee11762	0.43963152
217	0x3d04a137	0.03238031
218	0xbd75e0ab	-0.060028713
219	0x3b023565	0.0019868251
220	0xbdabac2c	-0.083824486
221	0xbef64dea	-0.4810632
222	0xbe9d1c57	-0.30685684
223	0x3f29eaf7	0.6637415
224	0x3d8e6d8b	0.069544874
225	0x3ed0739c	0.40713203
226	0xbd4c54c4	-0.049885526
227	0xbe96f664	-0.29484856
228	0xbee29389	-0.44253185
229	0xbc24f9a0	-0.010069281
230	0x3f24c4ab	0.6436259
231	0x3da662d1	0.081243165
232	0x3d45fce5	0.048336882
233	0xbcdc9b22	-0.026929442
234	0xbd8a7656	-0.06760852
235	0xbccb69a7	-0.024830652
236	0xbe5ca0f4	-0.21545774
237	0xbc522cbf	-0.012828051
238	0xbd5ab22d	-0.053392578
239	0xbe241cfa	-0.16026679
240	0x3e2d157b	0.16902725
241	0xbdaee137	-0.0853905
242	0xbd9c7cd3	-0.07640996
243	0x3f122e88	0.5710225
244	0xbdec62ec	-0.11542305
245	0x3c81488c	0.015781663
246	0xbd9a0fd8	-0.07522553
247	0xbd8b1056	-0.06790225
248	0x3a1843f6	0.0005808467
249	0x3d326c76	0.043560468
250	0xbd435839	-0.047691558
251	0x3dacecdd	0.084436156
252	0xbc89d6c1	-0.016826035
253	0xbe1e43c2	-0.15455535
254	0xbf1497e7	-0.58044285
255	0xbe12a3bb	-0.1432027

fc.bias f4 [24]
0	0xbca01de9	-0.019545512
1	0xbc369c7b	-0.011145706
2	0x3ddae0b5	0.10687391
3	0x3e0fe8dd	0.14053674
4	0xbd915814	-0.07096878
5	0x3c9c7617	0.019099278
6	0x3dec4220	0.1153605
7	0x3d3f2b51	0.04667217
8	0xbd5bb1d1	-0.053636376
9	0xbc8957a5	-0.016765425
10	0xbd158d61	-0.036511783
11	0xbda02fea	-0.07821639
12	0x3d06cd72	0.03291077
13	0x3d460cd4	0.048352078
14	0xbd9c9f92	-0.07647623
15	0xbdc87ccb	-0.09789427
16	0xbd99fd6b	-0.07519039
17	0xbd266068	-0.040619284
18	0xbdea7913	-0.11448874
19	0x3d8c6f70	0.068571925
20	0x3df45663	0.119305395
21	0xbd6b5301	-0.057452206
22	0xbcf833ce	-0.03029814
23	0xbd91b899	-0.07115287
