results/models/normal/normal_multi_tcn_checkpoint.pt (torch_old, 847827 bytes, 78 tensors)

audio_TCN.network.0.conv.bias f4 [32]
000000 2c f1 4b 3d 7a 33 bc bd 58 a6 0a bc 54 4b b3 3d
       0.049790546 -0.09189506 -0.008462511 0.08754602
000010 7e 3d d9 3c 2b b1 92 3d 84 77 81 bc 57 09 a9 bd
       0.02651858 0.07162698 -0.01580406 -0.082537346
000020 b8 61 e7 3c 42 13 c8 bd a6 3f ae bd 0b 7f ef 3d
       0.028244838 -0.09769298 -0.08508234 0.116941534
000030 c4 e0 01 3d 30 ba d4 3c 51 25 d7 3c 62 74 78 bd
       0.031708494 0.025967687 0.026262911 -0.060657866
000040 88 de 44 3d ce 89 da 3b 9e d2 93 bd 11 2e b3 3d
       0.048063785 0.0066692596 -0.072179064 0.08749021
000050 f3 6c a0 bd 30 62 53 3d ee 54 81 3c 32 72 36 bd
       -0.078332804 0.05160731 0.015787568 -0.0445425
000060 cc 6a 31 3c b4 d0 8e bd 62 de 87 bc 4f 7b 91 bd
       0.010828685 -0.06973401 -0.016585533 -0.071035974
000070 11 89 e1 bd a0 55 12 3e ad fe a5 3c 11 b4 1a 3d
       -0.110124715 0.14290476 0.02026304 0.03776938

audio_TCN.network.0.conv.weight_g f4 [32, 1, 1]
000000 f5 65 17 3f 79 ce f4 3e 8c bd 08 3f 33 c9 10 3f
       0.5913995 0.47813776 0.53414226 0.56557006
000010 71 1b 34 3f fd 54 10 3f ed ea 10 3f 3e 26 0d 3f
       0.7035437 0.5637968 0.5660847 0.5513648
000020 d2 4e 16 3f 8b 3a 1b 3f 17 b1 04 3f 5c 90 44 3f
       0.5871402 0.60636204 0.5183272 0.76782775
000030 ac 54 16 3f 24 08 17 3f 9b 77 0c 3f 9e ef 1a 3f
       0.5872295 0.58996797 0.54870003 0.60521877
000040 80 92 0b 3f 39 ab 1c 3f 63 ef 02 3f 33 d8 0a 3f
       0.54520416 0.61198765 0.51146525 0.54236144
000050 1e 36 31 3f 91 cb 0b 3f 4c 80 17 3f 02 69 35 3f
       0.692232 0.5460749 0.5918014 0.70863354
000060 97 3f 12 3f 22 78 16 3f 42 9a 06 3f 81 c7 0a 3f
       0.5712828 0.5877706 0.5257913 0.5421067
000070 b5 04 34 3f f6 a9 3d 3f 59 79 0f 3f 6e b5 15 3f
       0.7031968 0.74087465 0.56044537 0.58479965

audio_TCN.network.0.conv.weight_v f4 [32, 32, 3]
000000 26 d9 aa 3d 4c 14 9d bd d4 0e 55 bd 18 b9 41 3c
       0.08342199 -0.07669887 -0.052016094 0.011823915
000010 80 23 12 bb a0 7b 28 bc b0 bf c4 3d 30 a1 5e bc
       -0.0022298992 -0.010283381 0.09606874 -0.013588235
000020 34 6c aa bd c1 72 93 bd e4 6e 1b 3d c0 57 b6 bd
       -0.08321419 -0.07199622 0.03794755 -0.08903456
000030 8a 9f 14 bd 28 1d c5 3c e8 f2 98 3d f8 ae c9 3d
       -0.03628496 0.024061754 0.07468206 0.09847826
000040 12 3c 66 bd a4 d8 74 3d c0 2b d0 bd 30 5d 1c 3d
       -0.05620963 0.059776917 -0.10164595 0.038174808
000050 74 db 56 3d 81 d3 90 bd 20 cd 78 3c d8 fb 41 3c
       0.05245538 -0.07071591 0.015185624 0.011839829
000060 58 7f 61 3c 1b c7 94 bd e0 fa 67 bb 08 ce 4f 3d
       0.013763271 -0.07264539 -0.0035397336 0.050733596
000070 80 0c e6 bc a0 79 58 3d de 77 b8 bd a8 26 39 3c
       -0.028082132 0.052850366 -0.09007238 0.01130072
000080 ce 30 ad 3d 88 ee 17 bd 0c 65 3e bd 2f 5f b5 bd
       0.084565744 -0.037092716 -0.046483085 -0.088560455
000090 a4 0a c9 bd 7d f8 cd bd 10 c6 9c bd c4 65 c1 3d
       -0.09816483 -0.10057161 -0.07654965 0.094432384
0000a0 78 21 f7 3c f8 53 05 bc 90 78 65 3d da 4f 8c 3d
       0.030167326 -0.0081376955 0.05602318 0.06851168
0000b0 00 84 38 3d 4a 0c 5e bd 60 4e c4 3c 98 60 ab 3d
       0.04504776 -0.05421094 0.023963153 0.08368033
0000c0 0c ba 9d 3c 60 1d 60 bc 10 36 74 bd ec 3c 8d 3c
       0.019253753 -0.013678879 -0.05962187 0.017240964
0000d0 ce a7 bc bd e6 8f 39 bd f0 b4 f1 3c 90 fe a8 bd
       -0.09211694 -0.045303248 0.029505223 -0.08251679
0000e0 e0 9a 3f 3d b2 c0 8d 3d 10 69 b0 3d 5a 49 8f bd
       0.04677856 0.06921519 0.08613789 -0.069964126
0000f0 d4 df 0b bd 58 1b 83 3d b6 75 ab 3d f8 88 0c bc
       -0.034149006 0.064017 0.08372061 -0.008577578
000100 28 ad 9c 3d 90 e8 0d 3d b4 6c b7 bd db bb 9a bd
       0.076502144 0.034645617 -0.0895628 -0.07555362
000110 d4 89 bd bd d4 8e 22 3d 18 18 e4 3c 44 eb 91 3d
       -0.09254804 0.039686993 0.02784352 0.071249515
000120 14 90 c2 bc e8 5e 5a bc 38 31 c2 bc a8 98 05 3d
       -0.023750342 -0.0133282915 -0.02370511 0.032616287
000130 10 38 db 3c f2 bc bd bd d9 d7 2e bd e8 23 d1 3c
       0.026760131 -0.09264554 -0.042686317 0.025529817
000140 8a 7b aa 3d 70 4b cb 3c af 9b 36 bd d0 c1 4a bd
       0.083243445 0.024816245 -0.044582065 -0.04950124
000150 d6 9b 91 3d 98 9a 9a 3c f2 76 3e bd 18 5f cf 3d
       0.071098015 0.018872544 -0.046500154 0.101255596
000160 e8 51 17 bd c0 7f ca ba 3c 7d bd 3d 40 ac 95 ba
       -0.036943346 -0.001544945 0.09252402 -0.0011419132
000170 38 8a b5 3d 01 69 a4 bd fc a4 9a bd b0 a5 c4 bb
       0.08864254 -0.080278404 -0.075509995 -0.006001197
000180 ff 0d 89 bd 43 b0 63 bd e1 36 2e 3d 0a e6 d5 3d
       -0.06692123 -0.05558802 0.042532805 0.10444267
000190 ff 92 96 bd db 4e b6 3c a3 ea 56 bd fc e4 8e 3d
       -0.07352256 0.022254398 -0.05246986 0.06977269
0001a0 73 6e df bd 4b 6d ce 3d a8 a4 b0 bd 8b 81 b6 3d
       -0.109097384 0.1007944 -0.08625156 0.08911427
0001b0 1b 39 dd bd 78 6b 19 bd e2 15 f4 3c 65 1c ea 3c
       -0.10801908 -0.037456006 0.02979559 0.028577993
0001c0 21 1f 99 bd 65 5c 75 3c 32 f0 8f 3d e1 32 84 bd
       -0.074766405 0.014975642 0.070282355 -0.06455017
0001d0 0b 5f 5f 3d c4 29 8c 3d e1 f2 e0 bd 4b 24 5d 3c
       0.054534 0.06843904 -0.109838255 0.013497422
0001e0 b9 40 91 3d 77 4b 86 bd 0a a6 8d 3d 9d 8c a2 3c
       0.07092423 -0.065573625 0.06916435 0.01984244
0001f0 c3 e8 e3 3d 0c 3a 6a 3d 69 46 66 bd c6 80 90 3d
       0.1112838 0.057184264 -0.056219492 0.070558116
000200 ad 5a 5d bd 2f d6 5b 3d 3a 91 d0 bd 21 38 b5 3d
       -0.054041553 0.05367106 -0.1018395 0.08848596
000210 5f ba 28 3d 16 22 f8 bd 45 7c 2a bd 42 ea ac bd
       0.041193362 -0.121158764 -0.04162242 -0.08443119
000220 31 66 84 bd 4c 56 f5 3d 55 9e c0 bc 23 24 e2 3d
       -0.06464804 0.119793504 -0.023512999 0.11042049
000230 aa 61 d0 bd 66 29 8e bd b0 dc ea bd 3a a6 29 3d
       -0.10174878 -0.0694149 -0.11467874 0.04141829
000240 3a 0d 31 bd d7 50 79 bd 85 94 98 3d ed cb 28 bd
       -0.043225504 -0.06086811 0.07450203 -0.041210104
000250 a8 be 49 bd 4d 36 4e bd 1b 77 9d bd 6d 89 2e bd
       -0.04925409 -0.050344754 -0.07688733 -0.04261153
000260 2b 55 30 bd 62 54 b3 bd 05 ee 36 bd 37 a2 3c bd
       -0.043049973 -0.08756329 -0.044660587 -0.046053138
000270 eb db ff bc 7d 1e af bc e2 93 85 bd 41 08 86 bd
       -0.031232795 -0.021376843 -0.06522347 -0.06544543
000280 b3 23 82 3d 48 d4 d7 3d 0a c4 cb 3d cf d2 57 bd
       0.06354465 0.10538536 0.09949501 -0.052691277
000290 df 8f 95 3d 5e dd f3 3d da 2a 8d 3d 79 66 94 bd
       0.07302832 0.11907457 0.06892939 -0.072461076
0002a0 48 db 4d 3d 68 e3 75 3d 73 fe dd 3d 4a bd a4 bd
       0.05025795 0.060031325 0.10839548 -0.080439165
0002b0 7c 1d 80 bd 1b ca 4b bd ab 19 dc 3d 2b be 8a 3d
       -0.06255624 -0.04975329 0.10747083 0.06774553
0002c0 29 c0 b0 bd d9 11 98 3d ed a9 d2 bd d7 32 56 3d
       -0.08630402 0.07425279 -0.10286317 0.05229458
0002d0 e5 a3 a6 3d a7 00 dc 3d 9e 81 98 3d dc 4a 41 3d
       0.08136729 0.10742312 0.074465975 0.047190532
0002e0 6a 2c 31 3d 42 09 38 3d 2f f1 7a bd 50 de 6a bd
       0.043255247 0.044930704 -0.061265167 -0.05734092
0002f0 35 a9 d0 bc f1 ad a9 3d 47 3e 29 3d de 8f 2a 3d
       -0.02547131 0.0828513 0.041319158 0.04164111
000300 21 44 15 3d b8 31 bd 3c 31 f3 a3 bc 6c c3 51 3d
       0.036441926 0.023094997 -0.020013424 0.05121176
000310 c3 5e 03 bc 0a 52 d2 3c 21 e4 bb bd 5f 5a 74 bd
       -0.008018198 0.025673885 -0.091743715 -0.059656497
000320 e6 d1 17 bd 2f aa 13 3d d9 74 49 3c ae 82 a4 bd
       -0.03706541 0.03605097 0.012295925 -0.08032738
000330 8a 47 4d 3c 0a ba c5 bb 4a 83 b7 bd b8 bd b1 3d
       0.012529263 -0.0060341405 -0.08960588 0.08678764
000340 de 7b a5 bd 71 42 3b bd e5 f1 7a 3d 2e 4a 99 3d
       -0.080802664 -0.04571766 0.061265845 0.07484852
000350 ce bf c6 bc 50 8c 03 3d d3 04 04 bc 87 59 e2 bc
       -0.024261381 0.032116234 -0.008057791 -0.02763058
000360 af cd bc 3b 4f 40 eb bc a2 c1 9a 3d 61 21 e2 bd
       0.005761824 -0.028717188 0.07556464 -0.11041523
000370 3c 93 bb 3a cd 22 99 3d ff b6 92 bb 98 a2 0c bd
       0.0014310847 0.07477341 -0.0044773812 -0.03433475
000380 8a af 30 bd 40 ad a4 3d da 40 04 bd d2 c6 b8 3d
       -0.043136157 0.08040857 -0.03228841 0.09022297
000390 24 01 ac 3c c1 5c 32 3d 1b b7 12 3d 2e 90 9c bd
       0.020996638 0.04354549 0.035819154 -0.076446876
0003a0 fe 5c d0 3b ae 61 b5 3d 0d b4 8b bd 8b c4 cd 3c
       0.006358742 0.088565215 -0.06821451 0.025118133
0003b0 2b 46 a6 bd 1a b6 c4 3c ef 6e 22 bd d1 02 e8 3c
       -0.08118852 0.024012614 -0.039656576 0.028321655
0003c0 74 c0 88 3d 3d 9f 8d bd b2 dc 96 3d 20 4b 49 3d
       0.066773325 -0.06915138 0.07366313 0.04914391
0003d0 19 1d 65 3c 7d 57 64 3d 44 73 89 3d 44 41 2a 3b
       0.013983988 0.055747498 0.06711438 0.0025978843
0003e0 f1 f1 d2 bc f3 41 39 bd c8 ef 20 bd c3 31 ce 3d
       -0.025750132 -0.04522891 -0.039291173 0.10068085
0003f0 ad 5f 2d bd 96 43 ef bc 7d 44 a3 bd 29 49 92 bd
       -0.04232757 -0.029207032 -0.079720475 -0.071428604

audio_TCN.network.0.net.0.bias f4 [32]
000000 2c f1 4b 3d 7a 33 bc bd 58 a6 0a bc 54 4b b3 3d
       0.049790546 -0.09189506 -0.008462511 0.08754602
000010 7e 3d d9 3c 2b b1 92 3d 84 77 81 bc 57 09 a9 bd
       0.02651858 0.07162698 -0.01580406 -0.082537346
000020 b8 61 e7 3c 42 13 c8 bd a6 3f ae bd 0b 7f ef 3d
       0.028244838 -0.09769298 -0.08508234 0.116941534
000030 c4 e0 01 3d 30 ba d4 3c 51 25 d7 3c 62 74 78 bd
       0.031708494 0.025967687 0.026262911 -0.060657866
000040 88 de 44 3d ce 89 da 3b 9e d2 93 bd 11 2e b3 3d
       0.048063785 0.0066692596 -0.072179064 0.08749021
000050 f3 6c a0 bd 30 62 53 3d ee 54 81 3c 32 72 36 bd
       -0.078332804 0.05160731 0.015787568 -0.0445425
000060 cc 6a 31 3c b4 d0 8e bd 62 de 87 bc 4f 7b 91 bd
       0.010828685 -0.06973401 -0.016585533 -0.071035974
000070 11 89 e1 bd a0 55 12 3e ad fe a5 3c 11 b4 1a 3d
       -0.110124715 0.14290476 0.02026304 0.03776938

audio_TCN.network.0.net.0.weight_g f4 [32, 1, 1]
000000 f5 65 17 3f 79 ce f4 3e 8c bd 08 3f 33 c9 10 3f
       0.5913995 0.47813776 0.53414226 0.56557006
000010 71 1b 34 3f fd 54 10 3f ed ea 10 3f 3e 26 0d 3f
       0.7035437 0.5637968 0.5660847 0.5513648
000020 d2 4e 16 3f 8b 3a 1b 3f 17 b1 04 3f 5c 90 44 3f
       0.5871402 0.60636204 0.5183272 0.76782775
000030 ac 54 16 3f 24 08 17 3f 9b 77 0c 3f 9e ef 1a 3f
       0.5872295 0.58996797 0.54870003 0.60521877
000040 80 92 0b 3f 39 ab 1c 3f 63 ef 02 3f 33 d8 0a 3f
       0.54520416 0.61198765 0.51146525 0.54236144
000050 1e 36 31 3f 91 cb 0b 3f 4c 80 17 3f 02 69 35 3f
       0.692232 0.5460749 0.5918014 0.70863354
000060 97 3f 12 3f 22 78 16 3f 42 9a 06 3f 81 c7 0a 3f
       0.5712828 0.5877706 0.5257913 0.5421067
000070 b5 04 34 3f f6 a9 3d 3f 59 79 0f 3f 6e b5 15 3f
       0.7031968 0.74087465 0.56044537 0.58479965

audio_TCN.network.0.net.0.weight_v f4 [32, 32, 3]
000000 26 d9 aa 3d 4c 14 9d bd d4 0e 55 bd 18 b9 41 3c
       0.08342199 -0.07669887 -0.052016094 0.011823915
000010 80 23 12 bb a0 7b 28 bc b0 bf c4 3d 30 a1 5e bc
       -0.0022298992 -0.010283381 0.09606874 -0.013588235
000020 34 6c aa bd c1 72 93 bd e4 6e 1b 3d c0 57 b6 bd
       -0.08321419 -0.07199622 0.03794755 -0.08903456
000030 8a 9f 14 bd 28 1d c5 3c e8 f2 98 3d f8 ae c9 3d
       -0.03628496 0.024061754 0.07468206 0.09847826
000040 12 3c 66 bd a4 d8 74 3d c0 2b d0 bd 30 5d 1c 3d
       -0.05620963 0.059776917 -0.10164595 0.038174808
000050 74 db 56 3d 81 d3 90 bd 20 cd 78 3c d8 fb 41 3c
       0.05245538 -0.07071591 0.015185624 0.011839829
000060 58 7f 61 3c 1b c7 94 bd e0 fa 67 bb 08 ce 4f 3d
       0.013763271 -0.07264539 -0.0035397336 0.050733596
000070 80 0c e6 bc a0 79 58 3d de 77 b8 bd a8 26 39 3c
       -0.028082132 0.052850366 -0.09007238 0.01130072
000080 ce 30 ad 3d 88 ee 17 bd 0c 65 3e bd 2f 5f b5 bd
       0.084565744 -0.037092716 -0.046483085 -0.088560455
000090 a4 0a c9 bd 7d f8 cd bd 10 c6 9c bd c4 65 c1 3d
       -0.09816483 -0.10057161 -0.07654965 0.094432384
0000a0 78 21 f7 3c f8 53 05 bc 90 78 65 3d da 4f 8c 3d
       0.030167326 -0.0081376955 0.05602318 0.06851168
0000b0 00 84 38 3d 4a 0c 5e bd 60 4e c4 3c 98 60 ab 3d
       0.04504776 -0.05421094 0.023963153 0.08368033
0000c0 0c ba 9d 3c 60 1d 60 bc 10 36 74 bd ec 3c 8d 3c
       0.019253753 -0.013678879 -0.05962187 0.017240964
0000d0 ce a7 bc bd e6 8f 39 bd f0 b4 f1 3c 90 fe a8 bd
       -0.09211694 -0.045303248 0.029505223 -0.08251679
0000e0 e0 9a 3f 3d b2 c0 8d 3d 10 69 b0 3d 5a 49 8f bd
       0.04677856 0.06921519 0.08613789 -0.069964126
0000f0 d4 df 0b bd 58 1b 83 3d b6 75 ab 3d f8 88 0c bc
       -0.034149006 0.064017 0.08372061 -0.008577578
000100 28 ad 9c 3d 90 e8 0d 3d b4 6c b7 bd db bb 9a bd
       0.076502144 0.034645617 -0.0895628 -0.07555362
000110 d4 89 bd bd d4 8e 22 3d 18 18 e4 3c 44 eb 91 3d
       -0.09254804 0.039686993 0.02784352 0.071249515
000120 14 90 c2 bc e8 5e 5a bc 38 31 c2 bc a8 98 05 3d
       -0.023750342 -0.0133282915 -0.02370511 0.032616287
000130 10 38 db 3c f2 bc bd bd d9 d7 2e bd e8 23 d1 3c
       0.026760131 -0.09264554 -0.042686317 0.025529817
000140 8a 7b aa 3d 70 4b cb 3c af 9b 36 bd d0 c1 4a bd
       0.083243445 0.024816245 -0.044582065 -0.04950124
000150 d6 9b 91 3d 98 9a 9a 3c f2 76 3e bd 18 5f cf 3d
       0.071098015 0.018872544 -0.046500154 0.101255596
000160 e8 51 17 bd c0 7f ca ba 3c 7d bd 3d 40 ac 95 ba
       -0.036943346 -0.001544945 0.09252402 -0.0011419132
000170 38 8a b5 3d 01 69 a4 bd fc a4 9a bd b0 a5 c4 bb
       0.08864254 -0.080278404 -0.075509995 -0.006001197
000180 ff 0d 89 bd 43 b0 63 bd e1 36 2e 3d 0a e6 d5 3d
       -0.06692123 -0.05558802 0.042532805 0.10444267
000190 ff 92 96 bd db 4e b6 3c a3 ea 56 bd fc e4 8e 3d
       -0.07352256 0.022254398 -0.05246986 0.06977269
0001a0 73 6e df bd 4b 6d ce 3d a8 a4 b0 bd 8b 81 b6 3d
       -0.109097384 0.1007944 -0.08625156 0.08911427
0001b0 1b 39 dd bd 78 6b 19 bd e2 15 f4 3c 65 1c ea 3c
       -0.10801908 -0.037456006 0.02979559 0.028577993
0001c0 21 1f 99 bd 65 5c 75 3c 32 f0 8f 3d e1 32 84 bd
       -0.074766405 0.014975642 0.070282355 -0.06455017
0001d0 0b 5f 5f 3d c4 29 8c 3d e1 f2 e0 bd 4b 24 5d 3c
       0.054534 0.06843904 -0.109838255 0.013497422
0001e0 b9 40 91 3d 77 4b 86 bd 0a a6 8d 3d 9d 8c a2 3c
       0.07092423 -0.065573625 0.06916435 0.01984244
0001f0 c3 e8 e3 3d 0c 3a 6a 3d 69 46 66 bd c6 80 90 3d
       0.1112838 0.057184264 -0.056219492 0.070558116
000200 ad 5a 5d bd 2f d6 5b 3d 3a 91 d0 bd 21 38 b5 3d
       -0.054041553 0.05367106 -0.1018395 0.08848596
000210 5f ba 28 3d 16 22 f8 bd 45 7c 2a bd 42 ea ac bd
       0.041193362 -0.121158764 -0.04162242 -0.08443119
000220 31 66 84 bd 4c 56 f5 3d 55 9e c0 bc 23 24 e2 3d
       -0.06464804 0.119793504 -0.023512999 0.11042049
000230 aa 61 d0 bd 66 29 8e bd b0 dc ea bd 3a a6 29 3d
       -0.10174878 -0.0694149 -0.11467874 0.04141829
000240 3a 0d 31 bd d7 50 79 bd 85 94 98 3d ed cb 28 bd
       -0.043225504 -0.06086811 0.07450203 -0.041210104
000250 a8 be 49 bd 4d 36 4e bd 1b 77 9d bd 6d 89 2e bd
       -0.04925409 -0.050344754 -0.07688733 -0.04261153
000260 2b 55 30 bd 62 54 b3 bd 05 ee 36 bd 37 a2 3c bd
       -0.043049973 -0.08756329 -0.044660587 -0.046053138
000270 eb db ff bc 7d 1e af bc e2 93 85 bd 41 08 86 bd
       -0.031232795 -0.021376843 -0.06522347 -0.06544543
000280 b3 23 82 3d 48 d4 d7 3d 0a c4 cb 3d cf d2 57 bd
       0.06354465 0.10538536 0.09949501 -0.052691277
000290 df 8f 95 3d 5e dd f3 3d da 2a 8d 3d 79 66 94 bd
       0.07302832 0.11907457 0.06892939 -0.072461076
0002a0 48 db 4d 3d 68 e3 75 3d 73 fe dd 3d 4a bd a4 bd
       0.05025795 0.060031325 0.10839548 -0.080439165
0002b0 7c 1d 80 bd 1b ca 4b bd ab 19 dc 3d 2b be 8a 3d
       -0.06255624 -0.04975329 0.10747083 0.06774553
0002c0 29 c0 b0 bd d9 11 98 3d ed a9 d2 bd d7 32 56 3d
       -0.08630402 0.07425279 -0.10286317 0.05229458
0002d0 e5 a3 a6 3d a7 00 dc 3d 9e 81 98 3d dc 4a 41 3d
       0.08136729 0.10742312 0.074465975 0.047190532
0002e0 6a 2c 31 3d 42 09 38 3d 2f f1 7a bd 50 de 6a bd
       0.043255247 0.044930704 -0.061265167 -0.05734092
0002f0 35 a9 d0 bc f1 ad a9 3d 47 3e 29 3d de 8f 2a 3d
       -0.02547131 0.0828513 0.041319158 0.04164111
000300 21 44 15 3d b8 31 bd 3c 31 f3 a3 bc 6c c3 51 3d
       0.036441926 0.023094997 -0.020013424 0.05121176
000310 c3 5e 03 bc 0a 52 d2 3c 21 e4 bb bd 5f 5a 74 bd
       -0.008018198 0.025673885 -0.091743715 -0.059656497
000320 e6 d1 17 bd 2f aa 13 3d d9 74 49 3c ae 82 a4 bd
       -0.03706541 0.03605097 0.012295925 -0.08032738
000330 8a 47 4d 3c 0a ba c5 bb 4a 83 b7 bd b8 bd b1 3d
       0.012529263 -0.0060341405 -0.08960588 0.08678764
000340 de 7b a5 bd 71 42 3b bd e5 f1 7a 3d 2e 4a 99 3d
       -0.080802664 -0.04571766 0.061265845 0.07484852
000350 ce bf c6 bc 50 8c 03 3d d3 04 04 bc 87 59 e2 bc
       -0.024261381 0.032116234 -0.008057791 -0.02763058
000360 af cd bc 3b 4f 40 eb bc a2 c1 9a 3d 61 21 e2 bd
       0.005761824 -0.028717188 0.07556464 -0.11041523
000370 3c 93 bb 3a cd 22 99 3d ff b6 92 bb 98 a2 0c bd
       0.0014310847 0.07477341 -0.0044773812 -0.03433475
000380 8a af 30 bd 40 ad a4 3d da 40 04 bd d2 c6 b8 3d
       -0.043136157 0.08040857 -0.03228841 0.09022297
000390 24 01 ac 3c c1 5c 32 3d 1b b7 12 3d 2e 90 9c bd
       0.020996638 0.04354549 0.035819154 -0.076446876
0003a0 fe 5c d0 3b ae 61 b5 3d 0d b4 8b bd 8b c4 cd 3c
       0.006358742 0.088565215 -0.06821451 0.025118133
0003b0 2b 46 a6 bd 1a b6 c4 3c ef 6e 22 bd d1 02 e8 3c
       -0.08118852 0.024012614 -0.039656576 0.028321655
0003c0 74 c0 88 3d 3d 9f 8d bd b2 dc 96 3d 20 4b 49 3d
       0.066773325 -0.06915138 0.07366313 0.04914391
0003d0 19 1d 65 3c 7d 57 64 3d 44 73 89 3d 44 41 2a 3b
       0.013983988 0.055747498 0.06711438 0.0025978843
0003e0 f1 f1 d2 bc f3 41 39 bd c8 ef 20 bd c3 31 ce 3d
       -0.025750132 -0.04522891 -0.039291173 0.10068085
0003f0 ad 5f 2d bd 96 43 ef bc 7d 44 a3 bd 29 49 92 bd
       -0.04232757 -0.029207032 -0.079720475 -0.071428604

audio_TCN.network.1.conv.bias f4 [32]
000000 e5 b2 6a bd 2c f0 63 3d 0d d0 00 3d e6 67 d0 bd
       -0.057299513 0.055648968 0.031448413 -0.10176067
000010 5f bf 6b bd 79 f6 1d bd 75 91 8b bd 74 9c 0f bd
       -0.057555553 -0.038565133 -0.06814853 -0.035061315
000020 f2 60 e5 bd dc 3a bc bd 0c 80 52 3d 70 70 2d 3b
       -0.112001315 -0.09190914 0.051391646 0.0026464723
000030 2b c9 9c bd 0b f9 96 bc 12 ef 81 bd 68 3f 9a bd
       -0.07655557 -0.0184293 -0.06344427 -0.07531625
000040 b9 cf 61 3b 4c a7 bd 3d 98 68 79 3d 68 ec 1e 3d
       0.0034456088 0.09260425 0.060890764 0.038799673
000050 ff e3 ec 3d 95 04 8b 3d 59 ca cd 3c 1e 54 af 3d
       0.11566924 0.06787983 0.025120901 0.08560966
000060 78 9f 55 bc f0 3a ed bd 96 35 1e 3d 58 0b cf bd
       -0.013038509 -0.11583507 0.038625322 -0.101095855
000070 c3 5b 6b bc d2 08 ef bc f7 08 67 3d 90 05 90 bd
       -0.014365139 -0.02917901 0.056405034 -0.07032311

audio_TCN.network.1.conv.weight_g f4 [32, 1, 1]
000000 9b 7d 18 3f 77 0c 0a 3f f8 f7 15 3f fb fb 13 3f
       0.5956666 0.5392527 0.58581495 0.57806367
000010 85 51 14 3f 9f 4e 07 3f 17 2c 18 3f 3c 3e 1c 3f
       0.5793689 0.5285434 0.59442276 0.6103246
000020 de b9 20 3f 90 a8 23 3f 62 57 19 3f ea 9f 16 3f
       0.6278361 0.6392908 0.5989896 0.5883776
000030 b6 e2 11 3f cb 72 31 3f 23 47 09 3f e2 18 15 3f
       0.5698656 0.69315785 0.5362417 0.58241093
000040 1d 03 12 3f 44 3d 15 3f db 61 17 3f 10 f0 17 3f
       0.57036 0.5829661 0.5913369 0.5935068
000050 2a 2a 17 3f 97 45 06 3f 70 16 09 3f 4f a1 2a 3f
       0.5904871 0.52449936 0.5354986 0.6665239
000060 26 d7 11 3f d2 92 1e 3f 79 34 06 3f 55 03 0f 3f
       0.56968915 0.6194278 0.52423817 0.5586446
000070 85 6b 16 3f d4 5f 15 3f aa 75 13 3f d8 fd 1f 3f
       0.5875781 0.5834935 0.57601416 0.6249671

audio_TCN.network.1.conv.weight_v f4 [32, 32, 3]
000000 98 7b 80 bd 01 03 9f 3d 24 a7 88 b7 d8 e1 9e bd
       -0.06273574 0.07764245 -1.6290294e-05 -0.0775792
000010 72 cd b6 bd 1b 1a b4 bd e4 5b bf 3d d0 6f 22 bd
       -0.08925904 -0.08794042 0.093436986 -0.039657414
000020 7b 21 c8 bd 57 2d 98 bd b6 ca 4b 3c 74 0e f7 bb
       -0.09772011 -0.07430523 0.012438467 -0.0075395647
000030 ed 94 ec 3d 4c 40 84 3d 32 1e 10 bd 47 54 69 bd
       0.11551843 0.06457576 -0.035185046 -0.05696514
000040 5f 19 a7 3d 22 fc 72 bd 16 44 1a 3d 89 51 8c 3d
       0.08159136 -0.059322484 0.037662588 0.06851489
000050 17 b1 70 3d 77 93 c9 bd 9a 22 58 bb c3 5c b5 bd
       0.058762636 -0.0984258 -0.0032979609 -0.088555835
000060 e6 30 d0 bc 3d 79 d0 3d 61 7d ba 3d a3 a3 b2 bc
       -0.025413942 0.10179374 0.091059454 -0.021806544
000070 f1 48 48 3d 27 1d 3e bd d0 ff dc 3c 52 16 c5 bd
       0.048897687 -0.04641452 0.02697745 -0.09623398
000080 23 ee 35 3b 7f 71 6a bd f7 17 82 3d dd 80 53 ba
       0.0027760349 -0.057237145 0.06352227 -0.00080682134
000090 59 a0 43 bd 73 bc a6 bd 37 11 1a bd 13 db b1 bd
       -0.04776034 -0.081414126 -0.037614074 -0.08684363
0000a0 a5 61 1f 3d a5 e7 d2 3d 36 a4 e5 3c 34 9c 8c bd
       0.03891148 0.10298089 0.028032403 -0.06865731
0000b0 b8 fa 0e 3d a1 0b a8 3c e8 04 5c bd 2f da c6 bd
       0.034907073 0.020513358 -0.053715616 -0.09709584
0000c0 de 44 90 3d 8c 85 a3 3d f6 2f 49 bd 53 8f 0f bd
       0.070443854 0.079844564 -0.049118005 -0.035048794
0000d0 7f 9e 5b bd 6e 8e 5f 3d b2 ff 82 bd d4 6e a4 bd
       -0.05361795 0.05457919 -0.06396426 -0.08028951
0000e0 1b de 28 3c 21 2d 36 3d cd f6 9a 3d 94 fe a7 3d
       0.01030686 0.044476632 0.07566605 0.08202854
0000f0 6f 3e 4e 3d 63 6e 81 3d 1f 65 c2 3d 58 72 c0 3d
       0.05035251 0.06319883 0.094919436 0.09396809
000100 2b af 3d bd 7a b4 bb 3c 8b df 91 3c d5 eb dd bc
       -0.04630963 0.022913206 0.017806789 -0.027089993
000110 21 8f a2 3c 10 7f 28 3e 16 5b 8e 3d d9 ed 6f 3d
       0.01984364 0.1645472 0.06950967 0.05857644
000120 ea bf cd 3d 24 a3 08 b7 d6 25 14 bd e5 95 34 bd
       0.1004637 -8.144216e-06 -0.036168896 -0.044088263
000130 eb ac af 3c bc ed 24 3d a1 b9 c3 3c 87 e1 f7 3b
       0.021444758 0.040265784 0.023892226 0.0075647268
000140 cc 98 2d bd 79 d9 b0 bd 39 ee c1 bd 81 6e 2b bd
       -0.042382047 -0.086352296 -0.094692655 -0.04185343
000150 54 1b 4d 3b eb 64 03 3d be a9 96 3c e5 92 fe 3d
       0.0031296806 0.032078665 0.018391486 0.12430362
000160 35 73 ea 3d 92 49 c9 bd 02 9f 11 bd 65 9b 30 3d
       0.11447755 -0.098284855 -0.035552032 0.043116946
000170 e1 fd a7 3d 2e 3c 4f 3d 4e 00 74 bd 0c b5 0f 3d
       0.082027204 0.0505945 -0.059570603 0.03508477
000180 7b 46 90 3d b6 22 b1 bd 38 7f d1 bd c1 77 f5 bc
       0.07044693 -0.08649199 -0.10229343 -0.02996433
000190 37 9a a1 bd 61 c3 93 bc 6b 3f 83 bd 63 d8 db 3c
       -0.07890742 -0.0180375 -0.064085804 0.02683658
0001a0 e9 16 a1 bd a2 26 71 3b b9 dc fc 3c b9 fa 60 3d
       -0.07865698 0.0036796709 0.030866968 0.054926608
0001b0 72 d8 8f 3d f6 44 a1 3d ea 55 ec bd de 9f 05 3d
       0.070237055 0.078744814 -0.11539824 0.032623164
0001c0 db 6e 15 bd 20 fc e1 bd 00 e7 ee bc 9d d4 9a bd
       -0.036482673 -0.11034417 -0.029162884 -0.07560084
0001d0 e6 c5 7c bd a4 00 a6 3c c4 18 5f bd 36 3a c8 bd
       -0.06171217 0.020263977 -0.054466978 -0.09776728
0001e0 9d 3f 93 3c 46 1f a5 3c 74 9e c0 bc b0 e5 15 bd
       0.01797467 0.020156514 -0.023513056 -0.036596
0001f0 0c 0e 83 3d 09 64 03 bd 7c 07 c3 3c d6 d6 64 3d
       0.063991636 -0.032077823 0.02380728 0.055868946
000200 b9 fb 2d bd a8 18 16 3d 5a 56 e0 bd bf 5b ea bd
       -0.04247639 0.036644608 -0.1095397 -0.114432804
000210 26 ab f6 3c 02 38 cb bd 09 df 4d 3d 2f 68 97 3d
       0.030110907 -0.09922792 0.05026153 0.07392918
000220 6d 71 86 bd 08 62 8e 3d 3e 19 8a 3d fc 8c ad 3d
       -0.06564603 0.06952292 0.06743096 0.08474156
000230 2e 59 77 bd d1 96 6e bd d1 0d ac 3d 2e 4e 85 bd
       -0.060387783 -0.0582493 0.08401073 -0.06509052
000240 5f cc 68 bd a0 56 5f 3d e4 fe c9 3c 5b 9a a1 3d
       -0.05683553 0.05452597 0.024657674 0.07890769
000250 0b 09 db bd 68 16 9e 3d e5 bf ce bd d6 af cb bd
       -0.10695084 0.077191174 -0.10095195 -0.099456474
000260 f4 42 49 3d 26 56 67 bd ac a6 82 bd 09 eb 68 3d
       0.049136117 -0.056478642 -0.063794464 0.056864772
000270 10 66 84 3d fd c1 d5 3c 24 01 7e bd 4d 92 d0 3c
       0.064647794 0.026093477 -0.062012807 0.025460387
000280 eb 4c b0 bd b2 30 47 3d 23 03 8c bd ee 8c 72 bd
       -0.08608421 0.048630424 -0.06836536 -0.059216432
000290 ee 73 18 bd 09 73 3d bd c7 86 ea 3d 4b cd 27 bd
       -0.037219934 -0.046252284 0.11451488 -0.040967267
0002a0 33 d0 b3 bd 0d 88 5b 3c c4 1b 68 3c 5e fa 9d bd
       -0.08779945 0.013399136 0.014166776 -0.077137694
0002b0 72 19 30 3d 2a c1 b2 3d bf 62 27 3d 39 45 53 bd
       0.042993017 0.08728249 0.040865656 -0.051579688
0002c0 ec c9 66 3d 7f d8 15 3d 19 34 cc bd 86 4a 30 3d
       0.05634491 0.03658342 -0.09970874 0.04303982
0002d0 88 40 b0 3d 7a dd 2d bd 43 8a 90 3d f9 d6 e2 bd
       0.08606058 -0.042447545 0.07057621 -0.11076159
0002e0 65 4e 57 3d 5d 0b 82 bd 7b e8 9a bd 40 38 b2 bc
       0.052564997 -0.063498236 -0.075638734 -0.021755338
0002f0 54 f4 f3 3c 73 d4 6d bd ef 15 ed bc 5b a5 20 bc
       0.02977959 -0.058063935 -0.028941123 -0.009805049
000300 a6 4b c0 bd 78 60 d5 bd be 01 64 3d 12 0d a7 3c
       -0.09389429 -0.104187906 0.055665724 0.020391975
000310 e7 af 3c 3d 37 57 18 3d f6 2d 0d 3e 0d cd 12 3e
       0.04606619 0.03719255 0.13787064 0.14336033
000320 a6 19 0c 3e 1b 30 c3 3d 9f 80 80 bd 4d ee b3 3d
       0.13681659 0.0953066 -0.062745325 0.08785687
000330 f6 9b 09 3e cf 77 e6 3d 10 b0 2b bd c7 30 6f bd
       0.134384 0.112533204 -0.041915953 -0.058396127
000340 0e 5a f8 3b 60 2c 72 bc 45 1a 9c bd 0d 2e b4 3d
       0.0075790947 -0.014781088 -0.07622198 0.08797846
000350 ff 65 e2 3d d4 32 be bd 7c 5e 64 3c 0f f0 bf 3c
       0.110546105 -0.092870384 0.013938542 0.023429899
000360 47 91 d4 bd ac f1 41 bd 40 cd 98 3d ed d1 da bb
       -0.10379272 -0.047349617 0.07461023 -0.006677857
000370 75 a9 56 bd 40 e9 d7 3d d8 8b c9 bc fb 13 9d 3d
       -0.0524077 0.10542536 -0.024602816 0.076698266
000380 1a 3d 21 3d d7 1f aa bd a2 9b c1 bd 9e 6f b1 bd
       0.03936491 -0.08306854 -0.09453513 -0.086638674
000390 db 2a 50 bd e7 e4 b5 bd 64 24 d2 3d ef e7 87 3c
       -0.05082212 -0.0888155 0.10260847 0.016590087
0003a0 1d 0e 07 3c 4a d9 a0 3c ea 5b 72 3c f2 5d 98 bd
       0.008243111 0.019634861 0.014792422 -0.07439794
0003b0 82 bf 3f bc d6 52 6f bd 4e 61 a4 3d c5 ba 05 bd
       -0.011703374 -0.058428608 0.08026372 -0.03264882
0003c0 23 12 ac 3d 3e d9 1a 3c b0 6b df 3c 65 48 86 bd
       0.08401897 0.009451209 0.02727303 -0.06556777
0003d0 e3 82 a0 bd cc aa 12 3d 4a 19 ae 3d 57 7e f9 bc
       -0.07837465 0.035807416 0.08500917 -0.030455751
0003e0 50 10 b3 3d 3c d2 bb 3d cb e3 58 bd 2a 5f a6 bd
       0.08743346 0.091709584 -0.052951615 -0.0812362
0003f0 76 8c a8 3d e2 22 14 3d 57 09 46 3d c8 3c c2 bd
       0.08229916 0.03616608 0.04834875 -0.09484249

audio_TCN.network.1.net.0.bias f4 [32]
000000 e5 b2 6a bd 2c f0 63 3d 0d d0 00 3d e6 67 d0 bd
       -0.057299513 0.055648968 0.031448413 -0.10176067
000010 5f bf 6b bd 79 f6 1d bd 75 91 8b bd 74 9c 0f bd
       -0.057555553 -0.038565133 -0.06814853 -0.035061315
000020 f2 60 e5 bd dc 3a bc bd 0c 80 52 3d 70 70 2d 3b
       -0.112001315 -0.09190914 0.051391646 0.0026464723
000030 2b c9 9c bd 0b f9 96 bc 12 ef 81 bd 68 3f 9a bd
       -0.07655557 -0.0184293 -0.06344427 -0.07531625
000040 b9 cf 61 3b 4c a7 bd 3d 98 68 79 3d 68 ec 1e 3d
       0.0034456088 0.09260425 0.060890764 0.038799673
000050 ff e3 ec 3d 95 04 8b 3d 59 ca cd 3c 1e 54 af 3d
       0.11566924 0.06787983 0.025120901 0.08560966
000060 78 9f 55 bc f0 3a ed bd 96 35 1e 3d 58 0b cf bd
       -0.013038509 -0.11583507 0.038625322 -0.101095855
000070 c3 5b 6b bc d2 08 ef bc f7 08 67 3d 90 05 90 bd
       -0.014365139 -0.02917901 0.056405034 -0.07032311

audio_TCN.network.1.net.0.weight_g f4 [32, 1, 1]
000000 9b 7d 18 3f 77 0c 0a 3f f8 f7 15 3f fb fb 13 3f
       0.5956666 0.5392527 0.58581495 0.57806367
000010 85 51 14 3f 9f 4e 07 3f 17 2c 18 3f 3c 3e 1c 3f
       0.5793689 0.5285434 0.59442276 0.6103246
000020 de b9 20 3f 90 a8 23 3f 62 57 19 3f ea 9f 16 3f
       0.6278361 0.6392908 0.5989896 0.5883776
000030 b6 e2 11 3f cb 72 31 3f 23 47 09 3f e2 18 15 3f
       0.5698656 0.69315785 0.5362417 0.58241093
000040 1d 03 12 3f 44 3d 15 3f db 61 17 3f 10 f0 17 3f
       0.57036 0.5829661 0.5913369 0.5935068
000050 2a 2a 17 3f 97 45 06 3f 70 16 09 3f 4f a1 2a 3f
       0.5904871 0.52449936 0.5354986 0.6665239
000060 26 d7 11 3f d2 92 1e 3f 79 34 06 3f 55 03 0f 3f
       0.56968915 0.6194278 0.52423817 0.5586446
000070 85 6b 16 3f d4 5f 15 3f aa 75 13 3f d8 fd 1f 3f
       0.5875781 0.5834935 0.57601416 0.6249671

audio_TCN.network.1.net.0.weight_v f4 [32, 32, 3]
000000 98 7b 80 bd 01 03 9f 3d 24 a7 88 b7 d8 e1 9e bd
       -0.06273574 0.07764245 -1.6290294e-05 -0.0775792
000010 72 cd b6 bd 1b 1a b4 bd e4 5b bf 3d d0 6f 22 bd
       -0.08925904 -0.08794042 0.093436986 -0.039657414
000020 7b 21 c8 bd 57 2d 98 bd b6 ca 4b 3c 74 0e f7 bb
       -0.09772011 -0.07430523 0.012438467 -0.0075395647
000030 ed 94 ec 3d 4c 40 84 3d 32 1e 10 bd 47 54 69 bd
       0.11551843 0.06457576 -0.035185046 -0.05696514
000040 5f 19 a7 3d 22 fc 72 bd 16 44 1a 3d 89 51 8c 3d
       0.08159136 -0.059322484 0.037662588 0.06851489
000050 17 b1 70 3d 77 93 c9 bd 9a 22 58 bb c3 5c b5 bd
       0.058762636 -0.0984258 -0.0032979609 -0.088555835
000060 e6 30 d0 bc 3d 79 d0 3d 61 7d ba 3d a3 a3 b2 bc
       -0.025413942 0.10179374 0.091059454 -0.021806544
000070 f1 48 48 3d 27 1d 3e bd d0 ff dc 3c 52 16 c5 bd
       0.048897687 -0.04641452 0.02697745 -0.09623398
000080 23 ee 35 3b 7f 71 6a bd f7 17 82 3d dd 80 53 ba
       0.0027760349 -0.057237145 0.06352227 -0.00080682134
000090 59 a0 43 bd 73 bc a6 bd 37 11 1a bd 13 db b1 bd
       -0.04776034 -0.081414126 -0.037614074 -0.08684363
0000a0 a5 61 1f 3d a5 e7 d2 3d 36 a4 e5 3c 34 9c 8c bd
       0.03891148 0.10298089 0.028032403 -0.06865731
0000b0 b8 fa 0e 3d a1 0b a8 3c e8 04 5c bd 2f da c6 bd
       0.034907073 0.020513358 -0.053715616 -0.09709584
0000c0 de 44 90 3d 8c 85 a3 3d f6 2f 49 bd 53 8f 0f bd
       0.070443854 0.079844564 -0.049118005 -0.035048794
0000d0 7f 9e 5b bd 6e 8e 5f 3d b2 ff 82 bd d4 6e a4 bd
       -0.05361795 0.05457919 -0.06396426 -0.08028951
0000e0 1b de 28 3c 21 2d 36 3d cd f6 9a 3d 94 fe a7 3d
       0.01030686 0.044476632 0.07566605 0.08202854
0000f0 6f 3e 4e 3d 63 6e 81 3d 1f 65 c2 3d 58 72 c0 3d
       0.05035251 0.06319883 0.094919436 0.09396809
000100 2b af 3d bd 7a b4 bb 3c 8b df 91 3c d5 eb dd bc
       -0.04630963 0.022913206 0.017806789 -0.027089993
000110 21 8f a2 3c 10 7f 28 3e 16 5b 8e 3d d9 ed 6f 3d
       0.01984364 0.1645472 0.06950967 0.05857644
000120 ea bf cd 3d 24 a3 08 b7 d6 25 14 bd e5 95 34 bd
       0.1004637 -8.144216e-06 -0.036168896 -0.044088263
000130 eb ac af 3c bc ed 24 3d a1 b9 c3 3c 87 e1 f7 3b
       0.021444758 0.040265784 0.023892226 0.0075647268
000140 cc 98 2d bd 79 d9 b0 bd 39 ee c1 bd 81 6e 2b bd
       -0.042382047 -0.086352296 -0.094692655 -0.04185343
000150 54 1b 4d 3b eb 64 03 3d be a9 96 3c e5 92 fe 3d
       0.0031296806 0.032078665 0.018391486 0.12430362
000160 35 73 ea 3d 92 49 c9 bd 02 9f 11 bd 65 9b 30 3d
       0.11447755 -0.098284855 -0.035552032 0.043116946
000170 e1 fd a7 3d 2e 3c 4f 3d 4e 00 74 bd 0c b5 0f 3d
       0.082027204 0.0505945 -0.059570603 0.03508477
000180 7b 46 90 3d b6 22 b1 bd 38 7f d1 bd c1 77 f5 bc
       0.07044693 -0.08649199 -0.10229343 -0.02996433
000190 37 9a a1 bd 61 c3 93 bc 6b 3f 83 bd 63 d8 db 3c
       -0.07890742 -0.0180375 -0.064085804 0.02683658
0001a0 e9 16 a1 bd a2 26 71 3b b9 dc fc 3c b9 fa 60 3d
       -0.07865698 0.0036796709 0.030866968 0.054926608
0001b0 72 d8 8f 3d f6 44 a1 3d ea 55 ec bd de 9f 05 3d
       0.070237055 0.078744814 -0.11539824 0.032623164
0001c0 db 6e 15 bd 20 fc e1 bd 00 e7 ee bc 9d d4 9a bd
       -0.036482673 -0.11034417 -0.029162884 -0.07560084
0001d0 e6 c5 7c bd a4 00 a6 3c c4 18 5f bd 36 3a c8 bd
       -0.06171217 0.020263977 -0.054466978 -0.09776728
0001e0 9d 3f 93 3c 46 1f a5 3c 74 9e c0 bc b0 e5 15 bd
       0.01797467 0.020156514 -0.023513056 -0.036596
0001f0 0c 0e 83 3d 09 64 03 bd 7c 07 c3 3c d6 d6 64 3d
       0.063991636 -0.032077823 0.02380728 0.055868946
000200 b9 fb 2d bd a8 18 16 3d 5a 56 e0 bd bf 5b ea bd
       -0.04247639 0.036644608 -0.1095397 -0.114432804
000210 26 ab f6 3c 02 38 cb bd 09 df 4d 3d 2f 68 97 3d
       0.030110907 -0.09922792 0.05026153 0.07392918
000220 6d 71 86 bd 08 62 8e 3d 3e 19 8a 3d fc 8c ad 3d
       -0.06564603 0.06952292 0.06743096 0.08474156
000230 2e 59 77 bd d1 96 6e bd d1 0d ac 3d 2e 4e 85 bd
       -0.060387783 -0.0582493 0.08401073 -0.06509052
000240 5f cc 68 bd a0 56 5f 3d e4 fe c9 3c 5b 9a a1 3d
       -0.05683553 0.05452597 0.024657674 0.07890769
000250 0b 09 db bd 68 16 9e 3d e5 bf ce bd d6 af cb bd
       -0.10695084 0.077191174 -0.10095195 -0.099456474
000260 f4 42 49 3d 26 56 67 bd ac a6 82 bd 09 eb 68 3d
       0.049136117 -0.056478642 -0.063794464 0.056864772
000270 10 66 84 3d fd c1 d5 3c 24 01 7e bd 4d 92 d0 3c
       0.064647794 0.026093477 -0.062012807 0.025460387
000280 eb 4c b0 bd b2 30 47 3d 23 03 8c bd ee 8c 72 bd
       -0.08608421 0.048630424 -0.06836536 -0.059216432
000290 ee 73 18 bd 09 73 3d bd c7 86 ea 3d 4b cd 27 bd
       -0.037219934 -0.046252284 0.11451488 -0.040967267
0002a0 33 d0 b3 bd 0d 88 5b 3c c4 1b 68 3c 5e fa 9d bd
       -0.08779945 0.013399136 0.014166776 -0.077137694
0002b0 72 19 30 3d 2a c1 b2 3d bf 62 27 3d 39 45 53 bd
       0.042993017 0.08728249 0.040865656 -0.051579688
0002c0 ec c9 66 3d 7f d8 15 3d 19 34 cc bd 86 4a 30 3d
       0.05634491 0.03658342 -0.09970874 0.04303982
0002d0 88 40 b0 3d 7a dd 2d bd 43 8a 90 3d f9 d6 e2 bd
       0.08606058 -0.042447545 0.07057621 -0.11076159
0002e0 65 4e 57 3d 5d 0b 82 bd 7b e8 9a bd 40 38 b2 bc
       0.052564997 -0.063498236 -0.075638734 -0.021755338
0002f0 54 f4 f3 3c 73 d4 6d bd ef 15 ed bc 5b a5 20 bc
       0.02977959 -0.058063935 -0.028941123 -0.009805049
000300 a6 4b c0 bd 78 60 d5 bd be 01 64 3d 12 0d a7 3c
       -0.09389429 -0.104187906 0.055665724 0.020391975
000310 e7 af 3c 3d 37 57 18 3d f6 2d 0d 3e 0d cd 12 3e
       0.04606619 0.03719255 0.13787064 0.14336033
000320 a6 19 0c 3e 1b 30 c3 3d 9f 80 80 bd 4d ee b3 3d
       0.13681659 0.0953066 -0.062745325 0.08785687
000330 f6 9b 09 3e cf 77 e6 3d 10 b0 2b bd c7 30 6f bd
       0.134384 0.112533204 -0.041915953 -0.058396127
000340 0e 5a f8 3b 60 2c 72 bc 45 1a 9c bd 0d 2e b4 3d
       0.0075790947 -0.014781088 -0.07622198 0.08797846
000350 ff 65 e2 3d d4 32 be bd 7c 5e 64 3c 0f f0 bf 3c
       0.110546105 -0.092870384 0.013938542 0.023429899
000360 47 91 d4 bd ac f1 41 bd 40 cd 98 3d ed d1 da bb
       -0.10379272 -0.047349617 0.07461023 -0.006677857
000370 75 a9 56 bd 40 e9 d7 3d d8 8b c9 bc fb 13 9d 3d
       -0.0524077 0.10542536 -0.024602816 0.076698266
000380 1a 3d 21 3d d7 1f aa bd a2 9b c1 bd 9e 6f b1 bd
       0.03936491 -0.08306854 -0.09453513 -0.086638674
000390 db 2a 50 bd e7 e4 b5 bd 64 24 d2 3d ef e7 87 3c
       -0.05082212 -0.0888155 0.10260847 0.016590087
0003a0 1d 0e 07 3c 4a d9 a0 3c ea 5b 72 3c f2 5d 98 bd
       0.008243111 0.019634861 0.014792422 -0.07439794
0003b0 82 bf 3f bc d6 52 6f bd 4e 61 a4 3d c5 ba 05 bd
       -0.011703374 -0.058428608 0.08026372 -0.03264882
0003c0 23 12 ac 3d 3e d9 1a 3c b0 6b df 3c 65 48 86 bd
       0.08401897 0.009451209 0.02727303 -0.06556777
0003d0 e3 82 a0 bd cc aa 12 3d 4a 19 ae 3d 57 7e f9 bc
       -0.07837465 0.035807416 0.08500917 -0.030455751
0003e0 50 10 b3 3d 3c d2 bb 3d cb e3 58 bd 2a 5f a6 bd
       0.08743346 0.091709584 -0.052951615 -0.0812362
0003f0 76 8c a8 3d e2 22 14 3d 57 09 46 3d c8 3c c2 bd
       0.08229916 0.03616608 0.04834875 -0.09484249

audio_TCN.network.2.conv.bias f4 [32]
000000 23 92 92 3b 9d 91 59 bd 17 39 79 3b d3 5e 0f bc
       0.0044729873 -0.053117383 0.0038028413 -0.008750635
000010 09 e9 f4 bd 38 2c 8b 3d ab 39 5d 3d d1 a1 68 bc
       -0.119585104 0.067955434 0.054010075 -0.014198736
000020 28 64 92 3d 7a e2 ec b9 34 f2 de bb 52 b2 ac 3b
       0.071480095 -0.00045182166 -0.006803775 0.005270281
000030 ea f5 13 bc 72 ed f0 3b a0 b6 0e bd 13 1e fc 3c
       -0.009030798 0.0073525244 -0.034842134 0.03077606
000040 ba 82 5f 3d f6 c3 af bd 7e 6d bb bd 47 c7 34 bd
       0.05456803 -0.085822985 -0.09151743 -0.04413536
000050 9d f1 90 bb fa a9 e5 bd 0a 12 13 3d 92 9c 04 bd
       -0.004423334 -0.11214061 0.035905875 -0.03237588
000060 f1 68 ed bb 36 eb 55 3d 66 ab 8a bc 09 34 80 bd
       -0.007245176 0.052226268 -0.016927432 -0.06259925
000070 35 7d b3 3d 30 5b e9 bb 3c 78 a7 3c 78 6b 31 bc
       0.08764116 -0.007121466 0.020443074 -0.010828845

audio_TCN.network.2.conv.weight_g f4 [32, 1, 1]
000000 93 26 0a 3f 31 f2 1f 3f 33 ac 10 3f 7e fb 0d 3f
       0.5396511 0.6247893 0.56512755 0.5546187
000010 2d ad 24 3f 2e 1f 11 3f bb 16 22 3f d3 c6 0c 3f
       0.64326745 0.566882 0.63315934 0.5499088
000020 9e b6 2e 3f 98 a2 0e 3f 25 f4 0e 3f db 28 1b 3f
       0.682474 0.5571685 0.55841285 0.60609215
000030 f1 c9 0e 3f ba bd 07 3f 17 92 06 3f b2 31 12 3f
       0.5577689 0.53023875 0.52566665 0.5710708
000040 1d 4c 14 3f b0 36 12 3f d6 2f 1e 3f d6 37 24 3f
       0.5792864 0.57114697 0.6179174 0.641477
000050 a4 c9 18 3f 39 31 08 3f 4f 7c 1c 3f 47 f9 1c 3f
       0.5968268 0.5320011 0.6112718 0.6131787
000060 38 ce 11 3f 6d dc 09 3f 21 62 15 3f e8 6d 15 3f
       0.5695529 0.5385197 0.5835286 0.5837083
000070 0c 23 1a 3f 3f 7f 08 3f 62 12 12 3f 44 ff 0d 3f
       0.6020973 0.5331916 0.570593 0.5546763

audio_TCN.network.2.conv.weight_v f4 [32, 32, 3]
000000 71 fb a6 3d 9f 9c ab 3d 84 29 cf bd 6a 33 ad 3d
       0.081534274 0.083794825 -0.1011534 0.08457072
000010 1f b6 64 3d dd fe d1 bb 62 34 9f bb d6 22 51 3d
       0.055837747 -0.006408556 -0.0048585394 0.051058613
000020 b2 39 04 bd 43 04 2c bc 49 7b 8a 3d b3 4e 94 bd
       -0.032281585 -0.010499063 0.06761796 -0.07241573
000030 6e be 37 bd 7a 67 94 bd c3 55 bd bd 93 83 a8 bd
       -0.044859342 -0.07246299 -0.092448734 -0.08228221
000040 22 20 91 bd a3 67 64 bd db 16 b3 bd 1c fc 3d bd
       -0.07086207 -0.0557629 -0.08744594 -0.04638301
000050 c3 cd 44 3d 98 1d 88 3c 59 e2 db bd 62 40 45 3c
       0.048047792 0.016615674 -0.10736532 0.012039276
000060 cd 26 a4 bc 3c f3 43 3d 9a 33 23 bd 31 c5 f1 bd
       -0.020038033 0.04783939 -0.039844133 -0.118051894
000070 d1 00 95 bd ab ab 99 bd a4 5f 9a 3d 16 30 20 bc
       -0.07275546 -0.07503446 0.07537773 -0.00977709
000080 15 eb 3f 3d 66 ee e5 3d 4f bc 54 bd 48 b7 1d 3b
       0.04685505 0.112271115 -0.051937398 0.0024065543
000090 f9 ae ef bb 75 22 18 bd 2a 53 6d 3d f6 2e 06 bc
       -0.0073145595 -0.037142236 0.05794064 -0.008189907
0000a0 dd 97 82 3d cd 4b 94 3d 5f f5 88 3d e0 e2 96 3d
       0.06376622 0.0724102 0.06687426 0.07367492
0000b0 6c be c5 bd 94 a2 98 3d fa 52 ca bd e0 4f b7 3b
       -0.09655461 0.07452884 -0.09879108 0.0055942386
0000c0 28 9b 2e bd 22 64 92 bc e2 24 79 bc 79 2f 1c 3d
       -0.042628437 -0.017870013 -0.015206547 0.03813121
0000d0 50 e5 26 bd 07 18 b6 bd ab d5 87 bc 16 32 56 3c
       -0.040746033 -0.088913016 -0.016581377 0.013073465
0000e0 95 5c 64 bd 1b 0b 87 3c 2a 50 1f 3d 67 eb c5 3b
       -0.055752356 0.016484788 0.03889481 0.006040025
0000f0 72 e7 c9 3d af cd b6 bd 9f c3 b4 3d 37 0a 4e bb
       0.09858598 -0.0892595 0.08826374 -0.0031439194
000100 49 c8 b8 3d 3a 5c 98 ba 48 87 91 bc ee 77 a0 bd
       0.09022576 -0.0011624165 -0.017764702 -0.07835375
000110 61 b1 42 3c 1b fb 20 bd f3 72 15 3d 0a ae 78 3d
       0.011883111 -0.039301973 0.036486577 0.06071285
000120 e0 9e 89 3d 9f f6 ba 3d 0b 6c 4f bd d3 f8 00 bd
       0.06719756 0.091290705 -0.050640147 -0.031487297
000130 3b b1 86 bd c6 b1 10 bc f2 a7 98 3d 95 ff 89 bd
       -0.06576773 -0.008831447 0.07453908 -0.067382015
000140 02 78 62 bd 4f 61 9c 3d 02 5b 5a bd 53 e8 d8 bd
       -0.05529023 0.07635748 -0.053309448 -0.10591187
000150 82 c2 8c 3d 2a 15 ac bc 21 79 fd bd 19 56 cf 3c
       0.06873037 -0.021006186 -0.12376619 0.02530961
000160 89 f4 1e bd 8f c0 67 3d ef 1d 28 3d 51 3f db 3c
       -0.038807426 0.056580123 0.041044172 0.02676359
000170 55 8b 0d 3d 8e bc 07 b8 28 43 ad bd d0 2e 86 3d
       0.034556706 -3.2362113e-05 -0.08460075 0.065518975
000180 27 c0 12 3b 49 4c 71 bb 11 1f b6 3b 21 17 a9 3d
       0.0022392364 -0.003681915 0.0055579026 0.082563646
000190 fa ed a8 bc 77 45 c8 bd fc 7e 52 bd af fd 26 bc
       -0.020621289 -0.09778874 -0.051390633 -0.010192319
0001a0 3d b7 df bb 4a e6 06 3e 0d a1 f0 3d 7a 30 b8 3b
       -0.0068272636 0.13173786 0.11749468 0.005621013
0001b0 c4 7d 8a 3c b9 2b 4a bb 48 ba 35 bd 4d 27 bc bd
       0.016905673 -0.0030848815 -0.044367105 -0.091871835
0001c0 8d af a0 bd 09 bc 98 bd 3e 15 be bb 49 d8 aa bd
       -0.07845984 -0.0745774 -0.005800872 -0.08342034
0001d0 27 35 04 bd c6 68 7b bd 48 d5 d5 bd e2 47 a2 bc
       -0.032277253 -0.061379217 -0.10441071 -0.019809667
0001e0 b7 bc 4e 3d e1 53 9b bd 09 95 91 3d 9d b6 94 bd
       0.05047294 -0.07584358 0.07108504 -0.07261393
0001f0 6a 71 10 3d 61 58 4d 3d 76 c6 9b 3c c0 18 da bb
       0.03526441 0.050133113 0.019015532 -0.0066557825
000200 97 7b 76 3d cb bb b7 3a 6c df eb 3d d9 bf 23 3d
       0.06017646 0.0014017759 0.11517224 0.039977882
000210 e3 47 67 3d 8b d5 d7 bb d5 d0 16 bc f7 b4 4a 3d
       0.05646504 -0.0065867356 -0.009205063 0.049488988
000220 84 11 d7 bd 03 a6 61 3c 45 b0 3c bd 09 0e f5 bb
       -0.10501388 0.01377249 -0.04606654 -0.0074784798
000230 96 4a 95 bc 78 0d 8f bd c1 9b 58 3c e3 a5 0c bc
       -0.018224042 -0.06984991 0.013220728 -0.008584472
000240 8c 7d 90 3c e6 0a cb 3c db 32 77 3d fb 87 7c 3d
       0.01763799 0.02478547 0.060351234 0.06165312
000250 02 05 87 bd 9e 53 9f bb f9 55 34 3d 69 70 c5 bd
       -0.06592752 -0.004862263 0.044027302 -0.09640581
000260 6c 8b c1 bd 97 b2 c8 3d d8 50 ff 3d 4f ff 9b 3a
       -0.09450421 0.09799688 0.124665916 0.0011901649
000270 62 8c f1 3c dc af 3f 3c 5e 12 bb bc 1b 77 2b 3c
       0.029485885 0.011699643 -0.022835907 0.010465409
000280 0b 23 92 3d c4 4f 6d 3d 49 0d 82 bc 60 d9 7c bc
       0.0713559 0.0579374 -0.015875475 -0.015432686
000290 57 e3 90 bd 67 a8 02 3e c1 27 24 3e a9 6c de 3d
       -0.07074612 0.12759553 0.1603079 0.10860569
0002a0 b5 3d 0c 3c 20 8d 2c bd e4 f5 3e 3d 6a 38 2d bd
       0.008559634 -0.042126775 0.04662122 -0.04229013
0002b0 71 20 00 bd 50 f2 51 bc 26 b6 22 bc a0 17 77 3d
       -0.03128094 -0.012814119 -0.009931123 0.060325265
0002c0 2d 65 63 3d a4 62 5e bd 7c d5 60 3c 25 64 ce 3b
       0.05551641 -0.05429329 0.013722774 0.0062985593
0002d0 d0 30 e9 3d 63 aa 16 ba a6 e4 d9 3c 89 4f f0 bc
       0.11386263 -0.00057474355 0.026598286 -0.0293348
0002e0 8b cf 09 bd 9d 33 a7 3d f4 bd 1b 3c b7 87 d5 bd
       -0.033645194 0.08164141 0.009505738 -0.10426276
0002f0 52 16 b8 bc c6 b7 5f bd 42 56 76 3d 50 9b 5e bd
       -0.02247158 -0.05461862 0.060140856 -0.054347336
000300 34 3a 15 bc 50 a3 c5 bc 2e 62 a3 3d 13 e4 76 3d
       -0.009108115 -0.024125725 0.07977711 0.060276102
000310 61 d8 47 3d fd cc b2 bc 61 6c 0e 3d 64 40 c1 3b
       0.04879034 -0.021826262 0.034771327 0.0058975685
000320 9b 7d a0 3d c1 b7 87 3d 8c fa a9 bd 7d d8 53 3d
       0.07836457 0.06626845 -0.08299741 0.05172013
000330 be 30 10 3e cb c4 94 bd a7 a0 b4 3d 41 6a 2a bd
       0.14081094 -0.07264098 0.088197045 -0.041605238
000340 40 9e 93 3d c8 78 31 3b 62 a3 f6 3c 30 cc b8 bd
       0.07207918 0.0027080048 0.030107204 -0.09023321
000350 7f 21 41 3d f5 54 c0 3c 77 97 81 bd f3 f4 85 3d
       0.047151085 0.02347801 -0.06327718 0.06540861
000360 c1 a6 f2 3c b0 2b c1 3d 3e d7 e1 bd 9d 8e 07 3e
       0.02962053 0.09432161 -0.11027382 0.13237996
000370 80 3f 94 bd 2e 6e 5f 3d d4 1e 9b 3c cb 14 1f bd
       -0.07238674 0.054548435 0.018935598 -0.03883819
000380 66 cc 01 3c f0 07 41 3d c2 e6 a8 bd 49 3f 79 3c
       0.007922268 0.04712671 -0.082471386 0.015212842
000390 72 6f 12 3d 6a 9a 66 bd d7 46 86 3d bd c0 ae bd
       0.035750814 -0.056299604 0.065564804 -0.08532856
0003a0 ff d8 3d 36 9c f4 00 3b 7a 6b f8 bc 18 9e d0 bd
       2.8289503e-06 0.0019677049 -0.030324686 -0.10186404
0003b0 60 04 84 3d 81 c3 01 3d 90 ac be bd f8 a6 03 bb
       0.06446147 0.031680588 -0.093102574 -0.0020088535
0003c0 9f 85 8c bd 87 3e 90 3c 29 b6 b3 bc e4 8d 45 3d
       -0.06861424 0.01760794 -0.021937447 0.04823102
0003d0 a9 ca 49 bd c7 06 1e bb a6 24 8f 3d dd a9 6e bd
       -0.049265537 -0.0024112926 0.06989412 -0.058267463
0003e0 e5 46 ff 3b 9b 52 df bd 4a 37 a2 bd 82 6c 15 bd
       0.0077904337 -0.109044276 -0.07920702 -0.036480434
0003f0 7b 37 0e bd 13 42 a4 bc aa 08 37 bd c1 e8 32 3d
       -0.03472088 -0.020051038 -0.044685997 0.043679003

audio_TCN.network.2.net.0.bias f4 [32]
000000 23 92 92 3b 9d 91 59 bd 17 39 79 3b d3 5e 0f bc
       0.0044729873 -0.053117383 0.0038028413 -0.008750635
000010 09 e9 f4 bd 38 2c 8b 3d ab 39 5d 3d d1 a1 68 bc
       -0.119585104 0.067955434 0.054010075 -0.014198736
000020 28 64 92 3d 7a e2 ec b9 34 f2 de bb 52 b2 ac 3b
       0.071480095 -0.00045182166 -0.006803775 0.005270281
000030 ea f5 13 bc 72 ed f0 3b a0 b6 0e bd 13 1e fc 3c
       -0.009030798 0.0073525244 -0.034842134 0.03077606
000040 ba 82 5f 3d f6 c3 af bd 7e 6d bb bd 47 c7 34 bd
       0.05456803 -0.085822985 -0.09151743 -0.04413536
000050 9d f1 90 bb fa a9 e5 bd 0a 12 13 3d 92 9c 04 bd
       -0.004423334 -0.11214061 0.035905875 -0.03237588
000060 f1 68 ed bb 36 eb 55 3d 66 ab 8a bc 09 34 80 bd
       -0.007245176 0.052226268 -0.016927432 -0.06259925
000070 35 7d b3 3d 30 5b e9 bb 3c 78 a7 3c 78 6b 31 bc
       0.08764116 -0.007121466 0.020443074 -0.010828845

audio_TCN.network.2.net.0.weight_g f4 [32, 1, 1]
000000 93 26 0a 3f 31 f2 1f 3f 33 ac 10 3f 7e fb 0d 3f
       0.5396511 0.6247893 0.56512755 0.5546187
000010 2d ad 24 3f 2e 1f 11 3f bb 16 22 3f d3 c6 0c 3f
       0.64326745 0.566882 0.63315934 0.5499088
000020 9e b6 2e 3f 98 a2 0e 3f 25 f4 0e 3f db 28 1b 3f
       0.682474 0.5571685 0.55841285 0.60609215
000030 f1 c9 0e 3f ba bd 07 3f 17 92 06 3f b2 31 12 3f
       0.5577689 0.53023875 0.52566665 0.5710708
000040 1d 4c 14 3f b0 36 12 3f d6 2f 1e 3f d6 37 24 3f
       0.5792864 0.57114697 0.6179174 0.641477
000050 a4 c9 18 3f 39 31 08 3f 4f 7c 1c 3f 47 f9 1c 3f
       0.5968268 0.5320011 0.6112718 0.6131787
000060 38 ce 11 3f 6d dc 09 3f 21 62 15 3f e8 6d 15 3f
       0.5695529 0.5385197 0.5835286 0.5837083
000070 0c 23 1a 3f 3f 7f 08 3f 62 12 12 3f 44 ff 0d 3f
       0.6020973 0.5331916 0.570593 0.5546763
