results/models/normal/normal_multi_cnn-lstm_0_checkpoint.pt (torch_old, 450682 bytes, 10 tensors)

audio_layers.0.weight f4 [32, 32, 8]
00000000: ce7c 5abc 924b 783d 23c2 b6bb 78ba 023d
00000010: 8cee dabc bdcd 13bd 85ea a63b 87d4 5c3d
00000020: 5228 c03a a677 53bd c8c3 74bd 1834 1b3d
00000030: 286d 123d 4fd2 313c ccf7 1dbd b2c4 7cbd
00000040: 6ed5 463d 1101 b73a da3c 2a3d 9700 1abc
00000050: bb97 0fbd f3d0 d23c 4731 adbc 4ba8 163d
00000060: d05e 3dbb 6546 22bd d490 7fbd 846a 603d
00000070: d975 403c 405c 09bd 214c 54bc 5ad5 8f3c
00000080: ecaf abba daf7 31bd a402 553c 418d e73c
00000090: 18aa c6bc 80e8 d33c d895 17bd 9d6f 2dbd
000000a0: 4da9 c6bc 4de5 71bd 76f9 d3bc b003 83bd
000000b0: e54e 113d 7cce 123d fa76 39bd 7d05 1d3d
000000c0: 4d2a 50bd 1d62 853d eff0 10bd 9010 d1bc
000000d0: 8d1a eebc bb5a 61bc cb90 4fbd e1eb e0bb
000000e0: f955 413a 40c7 ffbc ca14 003d 7e47 33bd
000000f0: 42a3 43bd aa00 e83c e7fa 5c3d b42a a9bc
00000100: 3484 c93b 5e24 14bd 716a a73c 405b 3b3d
00000110: df3b 2f3d b799 643d f41f dc3c 6966 e3bc
00000120: 8d15 333d 0ccf 81bb ecc5 363d eab2 82bd
00000130: dfaf 66bd ce15 75bd 401c 71bd 5eb7 f03c
00000140: 1cd2 a3bc b597 2f3c 788b 673c 1f6a 0bbc
00000150: 9265 5cbd 6357 95bc 61cd 78b9 cec5 dcbc
00000160: c60d 4dbd a58f 5fbd 8cea 5e3d 2eed 20ba
00000170: e41f 5abd 68b6 8f3b cd16 5b3d 6a2c 65bd
00000180: e6ce 353d c984 1abd da1d 5bbb 7d4b fa3c
00000190: c530 403c 15e7 23bd d73a 0ebd 174b 46bd
000001a0: 7c7d f5bb 0ad6 663a 28de e13b 0ad5 df3c
000001b0: 3e3b 253d 6eae 67bc 38d0 663d 00db 72bd
000001c0: 8938 ba3c d2e2 4fbd 7672 1e3d 19b3 4a3d
000001d0: 1297 3c3d cf35 5fbc 2569 cfbc 5ec6 0b3d
000001e0: 6be6 61bd d536 cb3c 0756 dabc 9608 07bd
000001f0: d6ca 353d e30e 07bd 7a5a 57bd c5a9 11ba
00000200: c2ab c4bc a433 3bbd 394c 173d 8494 be3c
00000210: 6c6c 6e3d 06a9 31bd 8071 743d 68e0 a0bc
00000220: 84c3 75bd 71cf 003d 3581 44bd a178 873d
00000230: 691a 1fbd b848 8bbc 2f11 563d b3c7 71bc
00000240: 55e4 153d 73a4 dbbc e244 f23c a937 cc3c
00000250: 22c7 9c3b 2127 613d 37c2 873d 8dca 52bd
00000260: cf72 2fbd f9d2 043d 971b 283d e46a cbbc
00000270: ef27 62bc a586 a13c 2fd5 483d eabb 38bd
00000280: 4d6d 20bd a909 7d3d bc84 16bd 1048 e8bb
00000290: 031c 6b3d 6f18 f6bc dd6c 463d aa60 343d
000002a0: 95eb 4d3d 5332 8d3c ba52 abbc db8c 1fbd
000002b0: 0f8a 53bd a5c7 193d 7358 393d 1a3a 8e3c
000002c0: 47ed a8bc e163 e83c a058 033d a8fe 643d
000002d0: ca99 683d e150 853c b31c 263d 3515 653d
000002e0: 5bc0 5cbb e10e 283d 7fb6 87bd 2df3 0fbd
000002f0: 8d7c 8cbc 2670 293d ed1e 2d3d 64c3 513d
00000300: 2585 443d 6c5b b4ba f57a 0ebd 9e2f 283d
00000310: f95f 343d f7eb 33bd 447d 633d 78a6 83bd
00000320: 3621 6ebd 9529 53bd 25fc f43a 4f2e cf3c
00000330: 0bef fc3c 5f2a 77bb 1a0d e6bc 2998 413d
00000340: ad6d 21bd e325 823c c6c7 cdbc e28e 6e3c
00000350: 53e9 85bd 14df b63c c980 b6bb de2e 073d
00000360: c025 11bc 171b 12bd ae11 623c d6be 92bc
00000370: a1f6 f43c 75dc ee3c 3503 a93c 02fd 40bc
00000380: b672 e63c fde7 bd3c efef 493d 74e4 55bd
00000390: 6bdf 38bd 7a25 5fbd 9c13 0fbd c339 9d3c
000003a0: 55ba abbc b505 273d cfa4 243d a193 02bd
000003b0: 06df 7ebb c172 b23c 8004 b0bb 893f febc
000003c0: faff b1bc e3d9 6c3d 5550 95bc 60cc dcbb
000003d0: 5a0f 173c 4a11 63bd 2237 62bc be98 e8bc
000003e0: 9d98 623d aaa1 443b 5073 093c 625a 0d3b
000003f0: 4900 013d 5737 ad3c d16a 5d3d 631e b9bc
-0.01333542 0.060618944 -0.005577342 0.03191611 -0.026725076 -0.03608488 0.005093875 0.05391362
0.0014660454 -0.051627778 -0.059757024 0.037891477 0.03574863 0.010853364 -0.038566396 -0.06171102
0.048543386 0.001396211 0.04156194 -0.009399555 -0.03505681 0.0257344 -0.021141661 0.03678159
-0.0028895624 -0.039617915 -0.06239398 0.05478908 0.011746847 -0.033535242 -0.012957604 0.017557789
-0.0013098693 -0.04344926 0.013001118 0.028265597 -0.024251029 0.0258677 -0.037008137 -0.04234277
-0.02425065 -0.05905657 -0.025875788 -0.06397188 0.03547563 0.03584145 -0.04527948 0.038335312
-0.05082159 0.06512854 -0.035386022 -0.025520593 -0.029065395 -0.013754542 -0.050675195 -0.0068640565
0.00073751766 -0.03122294 0.031269826 -0.043769352 -0.047763117 0.02832063 0.053950217 -0.020650245
0.006149793 -0.036167495 0.020436497 0.04574132 0.042781707 0.055810656 0.026870705 -0.027758794
0.043721724 -0.0039614495 0.044622347 -0.063817814 -0.056320067 -0.059835248 -0.058864832 0.029384311
-0.019997649 0.010717322 0.014132373 -0.008509188 -0.053807802 -0.018230146 -0.00023727633 -0.02694979
-0.050061963 -0.05458035 0.0544229 -0.0006138858 -0.05325307 0.004385758 0.05348854 -0.05595056
0.044386767 -0.03772429 -0.003343454 0.030553574 0.011730378 -0.0400153 -0.034724083 -0.048411455
-0.0074917655 0.0008805698 0.006892938 0.027323265 0.0403397 -0.014140708 0.056350917 -0.059290886
0.022732036 -0.050753422 0.038683377 0.049487207 0.04604251 -0.013623669 -0.025318692 0.034124725
-0.055151384 0.02480642 -0.02665235 -0.032967173 0.044382893 -0.03297318 -0.05257652 -0.00055566087
-0.024007682 -0.045703545 0.036937926 0.023264177 0.058208868 -0.043374084 0.059678555 -0.019638255
-0.06000091 0.03144783 -0.047974784 0.06614805 -0.038843546 -0.017002448 0.05226248 -0.014757085
0.036594708 -0.026811814 0.029573862 0.024928885 0.0047844807 0.054968957 0.066288404 -0.0514627
-0.0428341 0.03242776 0.041041937 -0.024831243 -0.013803466 0.019717524 0.049031433 -0.045101084
-0.039166737 0.06177679 -0.03674768 -0.0070886686 0.05739976 -0.030040948 0.048443664 0.0440375
0.050273497 0.01723591 -0.02091347 -0.03895269 -0.051645335 0.03754391 0.045250367 0.01736169
-0.020620955 0.028367938 0.03206694 0.05590692 0.05678729 0.016273918 0.040554713 0.055928428
-0.0033683989 0.041029815 -0.06626605 -0.03514402 -0.017149234 0.04136672 0.04226582 0.05121173
0.04797854 -0.0013760156 -0.03478523 0.041061036 0.04403684 -0.043926205 0.055539384 -0.06428236
-0.05813714 -0.051553328 0.0018690868 0.025290636 0.030875703 -0.0037714464 -0.02808242 0.04726425
-0.039411236 0.015887206 -0.025119673 0.014560433 -0.06538644 0.022323169 -0.0055695516 0.03300368
-0.008859098 -0.035670366 0.0137981605 -0.017913263 0.029902758 0.029157856 0.020631412 -0.011779072
0.02813087 0.02318191 0.049301084 -0.052219823 -0.045134943 -0.0544791 -0.03493081 0.019192582
-0.020962873 0.040776927 0.040196236 -0.03187907 -0.0038890257 0.021783235 -0.00537163 -0.031036155
-0.021728504 0.05782498 -0.018226782 -0.0067382306 0.009219969 -0.05543641 -0.01380709 -0.028393146
0.055321325 0.0030003586 0.008389309 0.0021568765 0.031494413 0.021144552 0.054056946 -0.022597497

audio_layers.0.bias f4 [32]
00000000: 4d71 293d 96bb 9ebd 5556 a83b a25b 7ebc
00000010: 795c cdbc 70bb aabb 6185 98bc 5386 573d
00000020: 56b9 c7bb 49c1 61bc 95bc be3c 0627 ec3a
00000030: 8587 2abd c1af 23bd 2075 403d 2053 8a3c
00000040: 2af2 e4bc 7657 c9bc 014d 213d 22b7 393c
00000050: aaa3 6bbd 4024 4cbb 403e 6f3c 9c16 59bc
00000060: 5038 ac3b 87cb 6fbd 309f 19bc 4f7c ec3c
00000070: 543d 19bd 5194 133d 865c 26bd e985 e53a
0.041367818 -0.07750623 0.0051372447 -0.015524777 -0.025068508 -0.0052103326 -0.018618288 0.052618336
-0.006095092 -0.013778993 0.023283282 0.0018017001 -0.041633148 -0.039962534 0.0469867 0.01688534
-0.027947504 -0.024577837 0.039380077 0.011335166 -0.05752913 -0.0031149536 0.014602244 -0.013250019
0.0052557364 -0.05854371 -0.009376332 0.028867869 -0.037412003 0.036030117 -0.04061558 0.0017511222

acce_gyro_layers.0.weight f4 [32, 6, 8]
00000000: 2550 463c fbab 2ebe f3ad 14bd dce5 8e3d
00000010: 6317 16bd 9745 c2bd f1e8 22be ed62 d8bc
00000020: 1f1f 183d b008 0f3e 8f55 543d 5628 e9bd
00000030: bd0a 2d3d 5879 adba 9da3 cebd 2e2d fdbc
00000040: c5c1 c0bd 53c8 dabd 15c4 323c 3e3a ba3c
00000050: e730 4ebe 94f5 49be 7d40 96bd d8f4 afbd
00000060: 4bbf 22be 14f8 bfbd b6bf 72be a239 7fbe
00000070: 7289 23bd 0cb8 68be 4c4e 44bd 19e6 d8bd
00000080: 804b c7bd ebfa b0bd 848b 19bd a178 48be
00000090: 0073 12be 11ef 43be 0d3a 21be 5edb cc3a
000000a0: 87e6 07be 7d1c 8cbd 0b94 f9bd efb0 58bd
000000b0: 126e debd 202b 1cbe 61ba 0dbd 2825 033e
000000c0: 7e4f a13b 8a2d 2cbe 1ad6 21be d136 10be
000000d0: 0e4c 1b3d cde2 d7bd 89ce 57be 95bc e0bd
000000e0: 1ece d93c 79da 203e 0b46 213d 4570 b33b
000000f0: 3b18 8bbd c196 1f3e 0f5b 163e e14e 2f3e
00000100: b182 cdbd 8143 9bbd 002d d8bc bfec 47be
00000110: e6f7 4abe 23a3 5cbe e70b 36bc 48bb 67be
00000120: 4a4e 4abe 3533 57be 374b b3bd c826 9ebd
00000130: f7e1 83be 224f f0bd ab3d 4cbe 29ea 8abd
00000140: 5e6d 2c3c f886 4f3d e92d a2bb 20c5 ed3c
00000150: 3f5c 3e3d f5c6 8e3b 4d33 843d bf1b 293c
00000160: f772 bb3e 0395 533e 1856 d33e 228c d93e
00000170: 2258 6c3e bdb2 8c3e 7311 793e f367 8e3e
00000180: 97c4 253d 3b2d c53d c5ef c93d 4eaf 24be
00000190: db62 ad3d 998d d7bd 07c7 3f3d 613c 5bbd
000001a0: dc39 43bd 6c0d 22bd 1437 74bc 99c2 543d
000001b0: b0c1 263d 5729 413d 11cb 14bc edfe 6f3e
000001c0: 42ea 8fbc 98fc c2bd d406 49bd 0447 0ebe
000001d0: c2d4 863d 885a f33b 6e41 743d 70b5 f5bb
000001e0: fedb 583e ca64 ac3e c7df 303e 9cbf a03e
000001f0: 5ef0 b33e cce7 b63e c8d9 ea3d 2545 263e
00000200: 135c 7dbc cfb5 cbbd 2bcf 20be b944 94bd
00000210: 510b 293d 26e0 8fbd 4b4d 09be f7e3 77bd
00000220: 0b2a 343e d3d3 ac3e f59f 423e 049b a03e
00000230: 02f0 d43e 6c62 d43e 78cc 873e fe5f 9e3e
00000240: 6f44 033d d7c5 b93d 9c8e d03d b81d ddbd
00000250: a5ad f93d f429 04be b83c 7e3d c997 453d
00000260: d537 463e d437 56bb 8551 5abc ecf3 853d
00000270: 868d 373e 2151 60bd 8315 993d a70c d53d
00000280: 452a abbd 4f3c e93c a010 82bd 11fa 25be
00000290: f669 9bbd 5f21 7fbb 5e49 08be 6fa3 05be
000002a0: 7789 a93e d47f a43e 58cc 8b3e 18c0 a23d
000002b0: f981 9a3e a2c7 1a3e d32a 963e 6706 e03d
000002c0: 1395 a2bc 0cb6 643b b7e6 a23d 782a d2bd
000002d0: 71a9 c73c 4465 2c3d 0732 7e3d b7bf 27bd
000002e0: fdb9 933e 38f0 1e3e 85b0 b43d 5b8b 713e
000002f0: 0d80 7a3e 27fe 3b3d 52fd 8d3e 2f05 083e
00000300: 82df fcbd 7db1 b83d 9ade 2fbe 4f85 1bbe
00000310: 16c8 4cbc 625f a7bd ce12 803d 3960 473d
00000320: 589e 1b3e 78fd 383e d04a d53d c8c8 0e3d
00000330: 9698 e73d fc61 2b3d 55b1 e93d 5d53 80bd
00000340: c055 23bd 8a51 27be 66f9 e2bd ef2b 0cbe
00000350: 8b40 02be 81c5 e7bd b183 f2bd ef6c 62be
00000360: 98fa 7d3e 4d55 443e 575f 4b3e 93b7 ea3d
00000370: e57a a33e 83f7 243e a320 953e f0cf 483e
00000380: 78d6 b73d 9dfa 6f3d 8e71 15be f680 b7bd
00000390: 4de3 463d 2887 f5bd b742 47be 035a 7dbd
000003a0: 8c41 d9bd 559d 19be 4cf1 a1bd 1bea 4fbe
000003b0: 75fb 0abe c04e 093d 5119 1abd 8ce9 a2bd
000003c0: f79c 173e 54d2 a13d aaab 103e 84a2 273e
000003d0: 8cf0 9bbd def2 bc3d bf20 e93d 9e1d 71bd
000003e0: 170c ffbd d622 273d 22ff b3bc 4cb2 4f3d
000003f0: bb9e 09be bbd7 363c 91ac 24be dc2c 10be
0.012104069 -0.17057793 -0.036298703 0.06977436 -0.036643397 -0.094859295 -0.15909173 -0.026414359
0.037139054 0.13968158 0.051839408 -0.113846466 0.04224657 -0.0013235016 -0.100898005 -0.030905332
-0.094119586 -0.1068274 0.010911007 0.02273285 -0.20135842 -0.19722587 -0.07336519 -0.08591622
-0.15893285 -0.09373489 -0.23705944 -0.24924329 -0.039926 -0.22726458 -0.047926232 -0.10590763
-0.09731197 -0.08641609 -0.037486568 -0.19577266 -0.14301682 -0.19134165 -0.15744801 0.0015629341
-0.13271533 -0.06841371 -0.1218644 -0.052903112 -0.10860838 -0.15250826 -0.034601573 0.12807143
0.0049228063 -0.16814247 -0.1580433 -0.14083411 0.03791433 -0.10541306 -0.2107488 -0.10973469
0.026587542 0.1570834 0.03937344 0.00547603 -0.06791731 0.15584852 0.14683174 0.17119934
-0.10034693 -0.07581235 -0.026388645 -0.19523905 -0.19821128 -0.21546607 -0.011111236 -0.22630036
-0.19756427 -0.21015628 -0.087545805 -0.07722241 -0.25758335 -0.117338434 -0.199454 -0.06782944
0.010524122 0.050665826 -0.0049493206 0.02902466 0.04647469 0.0043572136 0.06455097 0.010321557
0.3661115 0.20662312 0.41276622 0.42489725 0.23080495 0.27480116 0.24323063 0.27813682
0.040470686 0.09627768 0.098601855 -0.16082498 0.08466121 -0.105250545 0.046820667 -0.05352438
-0.0476626 -0.03956358 -0.01490571 0.051943395 0.04071206 0.047158565 -0.009081618 0.2343709
-0.017567758 -0.09520835 -0.049078777 -0.13894278 0.06583549 0.0074265637 0.05963271 -0.0074984357
0.2117767 0.33670646 0.17272864 0.31396186 0.35144323 0.35723722 0.1146732 0.16237314
-0.015463847 -0.099467866 -0.15704028 -0.0723967 0.041270558 -0.07025175 -0.13408391 -0.06052014
0.17594163 0.3375536 0.19006331 0.31368268 0.4158936 0.4148134 0.26523185 0.3093261
0.032047685 0.09070938 0.101834506 -0.10796684 0.12191323 -0.12906629 0.062069625 0.048240457
0.19357236 -0.0032687085 -0.0133251 0.06540665 0.1792508 -0.05476487 0.07474806 0.10402804
-0.08357672 0.02847114 -0.06350827 -0.16208674 -0.0758857 -0.0038929803 -0.13309237 -0.13050626
0.3311269 0.32128775 0.2730434 0.07946795 0.30177286 0.15115216 0.29329547 0.10938721
-0.019846475 0.0034898547 0.079541616 -0.102620065 0.024372788 0.042088762 0.06205943 -0.040954318
0.28852835 0.15521324 0.08822731 0.23588316 0.2446291 0.045896675 0.2773233 0.13283227
-0.12347318 0.09018228 -0.1717476 -0.15187572 -0.012498876 -0.0817249 0.06253587 0.04867575
0.15197122 0.1806544 0.1041466 0.03485945 0.113084 0.041841492 0.114107765 -0.062659
-0.0398767 -0.16339698 -0.11082725 -0.13688634 -0.12719934 -0.11316968 -0.118415244 -0.22111867
0.24802625 0.19173165 0.19860588 0.11460795 0.319297 0.16110043 0.29126462 0.19610572
0.089764535 0.058588613 -0.14594099 -0.08960144 0.048556615 -0.1198867 -0.19459043 -0.06185342
-0.10608205 -0.15001424 -0.07907352 -0.20304148 -0.13572486 0.033522367 -0.0376218 -0.07954702
0.14805971 0.07901445 0.14127985 0.16370589 -0.0761424 0.09226011 0.11383199 -0.058866136
-0.12453478 0.040804707 -0.021972243 0.050707147 -0.13439457 0.011159833 -0.16081454 -0.14079612

acce_gyro_layers.0.bias f4 [32]
00000000: fc47 a4bd cd36 c33d d230 44bd ac2f f53d
00000010: 9f07 153e 615c a9bc 5e4e 023e 8f11 5d3d
00000020: 6138 4b3b 1311 0f3d 39ae 5b3e 4e0f 8c3d
00000030: a48b f33d dcf6 dfbd 66cc 08bc 81a6 e73d
00000040: 92fe b53d 4523 a73d 5e5c 753d 7973 d13d
00000050: e89e 3e3e dbf3 aabc e298 0c3e 68c0 06bd
00000060: ec06 2c3e 10f8 2e3d af36 d63d 9930 1f3e
00000070: c62d 163e 85ea 383e 646d 1b3e 2457 723d
-0.080215424 0.09531937 -0.04789812 0.11971983 0.14553688 -0.020673933 0.12725207 0.053971823
0.0031008946 0.034928393 0.2145318 0.06838857 0.11891869 -0.109357566 -0.008349514 0.11311055
0.08886446 0.08161024 0.05990254 0.10227103 0.18615305 -0.020868232 0.13730195 -0.032898337
0.16799515 0.04271704 0.10459649 0.15545882 0.14665899 0.18058212 0.15178448 0.059165135

lstm.weight_ih_l0 f4 [512, 64]
00000000: 727a 503c 9c29 643d dc64 aebd 0e9e 2c3d
00000010: a53b 84bd 87de a8bd c306 55bc b7b6 6f3d
00000020: ec1e 11bb 332b 6e3d adc5 a23c 2dc4 9ebc
00000030: da26 323c f8c9 053d 7005 363d 2b00 a2bc
00000040: bca2 cabd 7aa0 c23a 1707 83bd 27a6 01be
00000050: 9b19 cbbc 7b2a 59bc e04f bcbb 62ef d3bc
00000060: 416e ac3b 861b 1ebd 6719 c2bd 9864 4d3d
00000070: bd05 8e3c 46bb b33d 25a8 e5bd 86f5 e43d
00000080: abc1 873d 8c35 b53d 3dcb 20bc 29d8 7f3d
00000090: eba0 463d 609a 30bc e816 d93d 9f2e 903d
000000a0: 4358 cdbc 1a1f 363d 0c76 acbd 3e8a 2fbd
000000b0: 1833 b23d 7f9b 54bd 9268 613d af27 1e3d
000000c0: 656b b0bd 1506 babb 66ca c43c c8cd a63c
000000d0: 8416 25bd 00b4 c038 0a69 1c3d d15d d73d
000000e0: 8091 993c 07c9 aa3d 50cd cc3c 4630 82bd
000000f0: 42d0 5b3d 1011 943d 5e8d 963d e1d0 57bd
00000100: d7d7 f6bc d23f 3dbd b66d 693d 271d 3dbe
00000110: 0eba 103d c068 57be 0575 f8bd 3482 a23d
00000120: 41cf 0ebd 2452 aa3c ef41 cebd 8c7d 87bd
00000130: e33b 413e fb8d 243c 10ea 423d 6426 2ebe
00000140: e9ef 853e 046e e8bd a53f 9a3d 7d33 903d
00000150: b5b4 293e 65a7 7f3d f070 023e 72da a43c
00000160: 7dfc f4bc c082 6fbd 0cd3 e5bd 6f97 f83c
00000170: 01cd b33d 390a 933d 65d5 1b3e 4a76 883d
00000180: ea44 413b 3df9 44bd 0aeb acbd 7d0d a93d
00000190: 83f5 ea3d abeb ad3d 8d05 3bbd cf14 5b3c
000001a0: 74bb b4bc 59ec 3bbc 42f0 9b3c a11d b7bd
000001b0: 134e c23b 2bf8 c03d 5ae8 083d e3db 593d
000001c0: 0bb5 9abd b0ad f2bc f111 a8bb 25fe a33d
000001d0: d314 90bd 0a04 2d3d 0a2c 273d 4f76 7b3d
000001e0: 0214 1b3d 707d a7bd 6dbc a93d 753f a23d
000001f0: 7557 94bd 5e6e b33d 3390 90bd 4833 273d
00000200: 2806 173e 81c7 333d 94e0 cf3d d28d 1b3e
00000210: 5abf 113c 6704 ef3d 3583 f93c cdfc 573d
00000220: ce1a f73d 56f0 0f3e 5283 88bc 7d4c e43d
00000230: d41d 823d fb59 223e 9874 b43d 5ab3 093e
00000240: 7846 813e b34f a93c 6756 1a3e 0f65 6a3d
00000250: 600f 6d3d b449 4f3e a5ab 963d 32ed c83d
00000260: becb 3d3d 2b6a 4c3d 1f01 d83d ba72 003e
00000270: c668 1c3d cc5d 84bc a2fa a23d ae38 2d3e
00000280: 2336 0fbd aab7 01bd 3f29 873b f196 87bd
00000290: 69df 1cbc 783a 763c 3cc5 05bc 4122 2a3c
000002a0: 91ab 7f3c e5f8 8dbd 2720 cd3d ab35 0a3c
000002b0: e97b fe3c e6f8 9cbd 2198 54bd 6e90 c6bc
000002c0: f40e bf3d b744 963c d34e 5fbd 487d e7bb
000002d0: 0c0b 37bd 887f b73c 80e7 0abb b873 50bd
000002e0: 6084 babb 64e0 073d 1a65 243d 0a81 363d
000002f0: f0c3 02bc 06aa a83d 9c88 123e 48e4 db3c
00000300: db8c cd3d 697c 033d cbc0 973c 3129 f33b
00000310: 8c09 f43d 565d 8fbd 951b fa3b 0a0f 0abd
00000320: 4782 43bd cf89 d13c cb61 983a 7544 853c
00000330: c92e b13d 30dd 023e ca2d 713d d130 323e
00000340: f9ac 863d 120b b43c 80ef 7b3b d7f8 e63d
00000350: d70a e33d 6ecb 713d 11ab 113e 01e9 b5bc
00000360: ca37 26bb 75e0 aa3d c663 7f3d b701 a2bb
00000370: 3061 f03c 3534 d43d 631b 163c 7e0a 6d3d
00000380: 3d4d c3bc d91b d6bc 9100 08bd 6ef9 853c
00000390: fb37 9e3d 600c 07bb 5bfd 56bd f3a7 2c3d
000003a0: 441a 643d 4922 e3bc 2faa 51bc 755b fdbb
000003b0: 7979 f63c 2636 fd3b 0000 0f36 62fa c03d
000003c0: 8ef3 4dbb af50 08bc 8bd1 0dbd d4b3 703d
000003d0: 9977 adba eccd a5bd 94a0 c33c e951 e43d
000003e0: 7c42 85bd f244 883d dad9 193d 650a d8bb
000003f0: 6680 623d e01c 253d a12f 1e3e 9990 163e
0.012724506 0.055703744 -0.08515331 0.04214292 -0.06456689 -0.08245569 -0.0130021 0.05852386
-0.0022143675 0.058146667 0.01986965 -0.019380653 0.010873521 0.032663316 0.04443878 -0.01977547
-0.0989432 0.0014848851 -0.06397837 -0.12661038 -0.024792483 -0.013254757 -0.0057468265 -0.025870983
0.0052621667 -0.038600467 -0.09477501 0.05014476 0.01733672 0.08775954 -0.11213712 0.111796424
0.06628736 0.08848104 -0.009814081 0.062462006 0.048493307 -0.010778993 0.10600072 0.07040142
-0.0250665 0.044463255 -0.08420953 -0.042856447 0.087011516 -0.051906105 0.055031367 0.038612064
-0.08614234 -0.0056769946 0.024022292 0.020361796 -0.040304676 9.188801e-05 0.03818611 0.10515941
0.018746138 0.08339124 0.025000244 -0.06356864 0.053665407 0.07229817 0.073511824 -0.052689437
-0.030132217 -0.046203442 0.056989394 -0.18468152 0.035333686 -0.21036053 -0.12131695 0.079349905
-0.03486562 0.02079112 -0.100711696 -0.06615743 0.18870501 0.010043616 0.0475865 -0.17006832
0.261596 -0.11349109 0.075316705 0.070410706 0.1657284 0.0624155 0.12738395 0.020123694
-0.029905552 -0.058474302 -0.112218946 0.030345647 0.08779336 0.07179684 0.15218122 0.06663187
0.002949054 -0.048089255 -0.08443268 0.08254526 0.11472609 0.08492216 -0.04565959 0.01337166
-0.02206204 -0.011469924 0.019035462 -0.08941198 0.0059297173 0.09422334 0.033424713 0.053188216
-0.075540625 -0.029623836 -0.005129092 0.080074586 -0.07035222 0.04224018 0.040813483 0.061392125
0.037860878 -0.08178222 0.082878925 0.0792226 -0.072432436 0.08761285 -0.07058754 0.04082039
0.14748442 0.043891434 0.10150257 0.15190819 0.008895719 0.116707616 0.030458072 0.052731324
0.120656595 0.14056525 -0.01666418 0.111474015 0.063533455 0.15854637 0.08811301 0.13447323
0.25249076 0.020667886 0.15072022 0.057225283 0.05787599 0.2024296 0.07356957 0.098108664
0.04633688 0.049905937 0.10547089 0.12543765 0.038185857 -0.016158007 0.07957961 0.16916153
-0.03496374 -0.031669296 0.00412479 -0.06620587 -0.0095747495 0.0150285885 -0.0081647 0.010384143
0.015604869 -0.069322385 0.10015898 0.008435647 0.031064944 -0.07664661 -0.051902894 -0.024238791
0.09329024 0.018343313 -0.054518532 -0.0070644952 -0.04468827 0.022399679 -0.0021195114 -0.050891608
-0.00569205 0.03317298 0.04013548 0.044556655 -0.007981285 0.082355544 0.14309925 0.026842251
0.10036632 0.03210107 0.018524548 0.007420682 0.119158834 -0.07000224 0.0076326826 -0.03370575
-0.047731664 0.025578408 0.0011625824 0.016267994 0.08651502 0.12779689 0.05888156 0.17401434
0.06575961 0.021977935 0.0038442314 0.11277931 0.11086052 0.059031896 0.14225413 -0.022205831
-0.0025362843 0.08343593 0.06235101 -0.004944052 0.029343218 0.1036152 0.009161803 0.057871334
-0.023840541 -0.026136326 -0.033203665 0.016354289 0.07725521 -0.0020606741 -0.052487712 0.042152356
0.05568911 -0.02772631 -0.012796923 -0.00773185 0.03008722 0.0077274023 2.130866e-06 0.09422757
-0.0031425687 -0.008320018 -0.034623664 0.058765247 -0.0013234495 -0.08095917 0.02388028 0.111484356
-0.065068215 0.06653775 0.037561275 -0.006593036 0.05529823 0.04031074 0.15447856 0.14703597

lstm.weight_hh_l0 f4 [512, 128]
00000000: 02ed 68bd aa96 6d3c 49be 7f3d c433 c43d
00000010: c422 833c 25b5 6639 ff57 a3bd 09f9 07bd
00000020: cb51 4a3d 7f24 2a3d d401 42bd d217 1d3c
00000030: 16cc fe3c aa97 bbbc 1bde 7c3d ef99 9f3d
00000040: 7510 063e 3398 b5bc cf42 22bd d719 c8bd
00000050: 8479 99bd fbb7 b1bc 217f 05bd 9e83 b0bd
00000060: 89bd 5cbc 1413 d9bc 1f3f 4bbe 25b6 5dbd
00000070: c064 f13d 8c67 02bd fa71 7fbd a942 753d
00000080: 2dd3 f53c 981b 0dbe b6f5 f13d f053 3e3d
00000090: da86 b4bd 0c2b 353c ccac d43d 07ca c3bc
000000a0: 44ae c03d 36e8 b0bd dd0c 813c bd28 203d
000000b0: e217 8fbd e782 3a3e 27b3 1f3d 9eeb df3d
000000c0: a50f 1bbe 342b 19bd 5d84 043e 1847 fdbd
000000d0: 72d7 f73d 1fd9 d83d 730d 833d 32c4 293e
000000e0: 7e1a 9d3d 4440 97bd f82c 04be 7589 fa3d
000000f0: c5fe 6dbd a8f9 673c 8fb6 1abe 7151 cc3d
00000100: b31d da3d 9f83 f93c 535b 2abc ff87 23bd
00000110: eb7a a13d 4019 96bd 776f b13d 460f 19bd
00000120: 6dd4 d4bd b9a5 07bd 3cf9 763d fe16 043c
00000130: 3d65 b13b eedc c43c d2fe 053e 7417 263d
00000140: cae7 d2bd 4aa1 bfbd e11b 30bd 6c51 343c
00000150: 2564 bf3c ff52 28bb 5f90 3ebd 24a2 5f3d
00000160: 0a65 41bd 3897 36bd 3886 813c 5461 8dbd
00000170: b51b adbd a2bc 463c ca32 3e3d f929 40bd
00000180: 0612 51bd fb33 893d a79b dbbc 57ef 5cbe
00000190: e59d 6dbd a5d3 babd aadf f0bd a2af 29be
000001a0: 4a75 323d 5ee8 093c 5ba7 80bd c342 903d
000001b0: 028c ddbb a39a debc 9b5c f43d 9e28 f2bd
000001c0: 8f43 b33d 2a93 0ebc 3f3f f23d a36f 93bd
000001d0: 3120 97bc 66e6 e93b 562c 1b3e efbd b8bd
000001e0: 6a71 e7bb e42f 2dbe 0cc3 053b 3d85 31bd
000001f0: c273 0d3e 090e d7bb c61b ddbd a9d6 c8bd
00000200: 66fb 27be 1ce1 72be 4e24 2fbe be13 f63d
00000210: ff3a abbd 52a6 7cbd 5644 b5be 930f 94be
00000220: 72e8 a93d 4548 3c3e 51d0 68bd 7f9c c2bd
00000230: 349a 603d d48c 0fbd 86f3 7ebd 7481 86bc
00000240: 8eae 85bd f009 f43d c7d2 91bc af08 a1bd
00000250: 5765 87be cdcf 3ebe ea79 85be cb31 f4bd
00000260: 05f1 a63d 6c3b 3e3e 6ab1 27be 0232 89be
00000270: aa2c 513e 5018 fabd 23a7 8039 6b1a a9bd
00000280: f18a 603e 887c c9bd 832c 213b 47df 9e3d
00000290: 7517 51bd fdf2 0abb 245c 5c3d f238 28be
000002a0: 8c1b 2e3e 07af 7b3c 8746 c23c 92d0 12bd
000002b0: 3a3b 02be 117e bf3d 3345 59bd 9c41 f03d
000002c0: b4a2 723d b6a6 e53d 0b72 c53e 4266 efbd
000002d0: 3656 11bd 3434 d83d 06dc 223e 08bc d33e
000002e0: 1229 873e e104 14be e1bd c6be e1ae 023e
000002f0: f7a8 71bd 6169 143e 2414 fabd 1bd8 643e
00000300: 07dc 203d 1504 a23d 3704 6c3e 8b77 9ebc
00000310: bba6 4d3b 5c08 c5bb 6707 1d3e bb8b 41be
00000320: 9144 47bd 556b 153e eb5c 07bd 60c7 86be
00000330: 5c51 0fbc 22b9 44be 7b7e 9b3e 97fa a03e
00000340: 3ff2 40bc fc6f 0b3e 6294 a53d 3607 bf3c
00000350: 6bf8 1c3c d879 debc 12f4 7dbe b6b7 803e
00000360: f5f1 3b3c 7e0b 55bd cb6f 463e 3bfe 833c
00000370: d706 e13b 268f 77bd 0a7e 81bc d8e3 39bc
00000380: 8d8e 8d3d ad5c 9a3c ffb1 6cbe c84c 95bc
00000390: 3675 8abd 703e 823d 80fa 86be 30e4 dbbd
000003a0: a6b2 f73d 900c 663d 2472 dbbe 188f cf3d
000003b0: 6298 37be 6177 343d 3ab4 103e 519b 03be
000003c0: 44c3 1b3e b283 adbd 35ca c5bc bc63 373d
000003d0: a02a 973e 4f00 a23d e6d0 4f3d eb47 15bd
000003e0: e5fc 13bd bb06 dfbd a281 643d fab1 bebd
000003f0: ce57 613e 4ac9 89bd dff9 1fbe 5547 95bd
-0.056866653 0.014501253 0.06243733 0.09580186 0.016007788 0.00022001991 -0.07975768 -0.033196483
0.04939441 0.04153871 -0.047365025 0.009588199 0.031103175 -0.022899467 0.061735254 0.077930324
0.13092215 -0.0221673 -0.039614495 -0.097705536 -0.074938804 -0.021694174 -0.032591943 -0.08618854
-0.013472923 -0.026498355 -0.19848298 -0.054128785 0.11786795 -0.03183703 -0.062364556 0.059878025
0.030007923 -0.13780057 0.11814444 0.046466768 -0.088147834 0.011057626 0.10384521 -0.023900045
0.094082385 -0.08638041 0.015753204 0.03910135 -0.06986977 0.18213998 0.038989212 0.10933612
-0.15142687 -0.037394717 0.12941118 -0.12367076 0.1210164 0.105882876 0.063990496 0.16578749
0.076710686 -0.073853046 -0.12907779 0.12233249 -0.058104295 0.014158644 -0.15108703 0.09976471
0.10650196 0.03045827 -0.01039775 -0.039924618 0.07884773 -0.07329035 0.08663838 -0.03736808
-0.103920795 -0.03311703 0.060296282 0.008062122 0.00541368 0.024031129 0.13085487 0.04054971
-0.102981165 -0.09356935 -0.042995337 0.011005741 0.023363182 -0.0025684235 -0.0465244 0.05459799
-0.0472155 -0.044577807 0.01581107 -0.069033295 -0.0845255 0.0121299345 0.046435155 -0.04691503
-0.05104258 0.066993676 -0.02680762 -0.21575676 -0.058011908 -0.09122399 -0.117614105 -0.16570905
0.043568887 0.008417217 -0.062819205 0.07043984 -0.006761075 -0.027173346 0.119317256 -0.11824153
0.0875312 -0.008702079 0.118284695 -0.071990274 -0.018447967 0.0071380613 0.15153632 -0.09020602
-0.0070630806 -0.169128 0.0020410446 -0.043339957 0.1381369 -0.0065629524 -0.10796313 -0.09806568
-0.16404495 -0.23718685 -0.17103693 0.12015484 -0.08360862 -0.061682053 -0.354037 -0.28918132
0.082962885 0.18386944 -0.05683929 -0.095025055 0.05483456 -0.035046414 -0.06224396 -0.01641915
-0.06527434 0.11915958 -0.017800702 -0.078629844 -0.26444504 -0.18633957 -0.26069576 -0.1192356
0.081514396 0.18577355 -0.16376272 -0.26795965 0.20427194 -0.122116685 0.0002453859 -0.08256992
0.21928002 -0.098382056 0.0024593181 0.077574305 -0.05104776 -0.0021201961 0.05379881 -0.16427973
0.17002696 0.015361554 0.02371527 -0.03584344 -0.12717906 0.09350217 -0.05304451 0.11731264
0.059237197 0.11213438 0.3856357 -0.11689426 -0.035482608 0.10556832 0.15904245 0.41354394
0.26398522 -0.14454986 -0.3881674 0.12762024 -0.058999028 0.14493324 -0.12210873 0.22348063
0.039272334 0.07910935 0.23048483 -0.019344112 0.0031379897 -0.0060129594 0.15334855 -0.18900959
-0.048649374 0.14591725 -0.033047598 -0.26323986 -0.008747425 -0.19211248 0.30369934 0.31441185
-0.011776506 0.13616937 0.080849424 0.023318868 0.009580712 -0.027157709 -0.24800137 0.2514016
0.011471261 -0.052012913 0.19378583 0.016112437 0.0068672705 -0.06043925 -0.01580717 -0.011345826
0.06911955 0.01884302 -0.23114775 -0.018225089 -0.067606375 0.06359565 -0.2636299 -0.10736883
0.12094621 0.056164324 -0.4286052 0.10134715 -0.17929223 0.04405916 0.14131251 -0.12852217
0.15211207 -0.084723845 -0.024144271 0.04477285 0.29524708 0.07910215 0.05073633 -0.03644554
-0.03612985 -0.108899556 0.05578769 -0.0931129 0.22006151 -0.06727846 -0.15622662 -0.07288996

lstm.bias_ih_l0 f4 [512]
00000000: 2817 013d fefe d13d b75a 35bd b858 d23c
00000010: 04f9 39ba 1d34 813c 3ff2 0cbd d210 e43c
00000020: 31d4 8fbd e43c 5b3c 4c60 41bb 7022 503b
00000030: 3b42 513c d5b1 8d3c 1162 423c c704 8ebd
00000040: 56d8 043c e47d a7bc bd93 29bd de76 12bd
00000050: 33bb 8f3d ae2f 21bd d507 da3c 871b 913d
00000060: 9cc0 9d3c c788 f1bb b719 943d 6930 bebc
00000070: fcd1 203c b377 56bd 1dfd 01bd 9133 43bc
00000080: dec4 0ebd 37fc 513d 577d 07ba 1dbb 57bb
00000090: 82af c03d 5fdb 32bd ae49 0b3d b174 453d
000000a0: 8239 a63c d1ac 85bc 378a 863d 9464 2d3d
000000b0: 3d21 233c 6f38 033a 18a3 8e3c 3c2f 36bc
000000c0: a1b4 cbbc 0bb1 d0bd f3fa f4bb ddef 83bc
000000d0: 688f 003e 6718 2cbd 87c1 0c3a feb1 14bd
000000e0: 6e4f cabc cfd1 87bd e289 bcbc bbb6 84bd
000000f0: 62bd 943d a878 203d 1cd0 ce3c 7ff2 88bc
00000100: 6ebb 83bd 6123 c53d b180 0c3d 4bb7 3bbd
00000110: ddea b0bd 39a7 b7bd 5285 74bd 2e3b 1abb
00000120: 5da9 a2bd 7f71 c03c 379f 2bbd deb8 83bd
00000130: 2bf8 ccbb a2a4 673d 1f7a af3d dc16 433d
00000140: 1f38 83bb d8c9 393d d461 063d 7431 9c3d
00000150: 5230 a2bd 65f0 96bd 3d55 913d d07c 813d
00000160: 5dbc 27bd 7a23 e9bc 18b5 793d 5934 98bd
00000170: 241f 08bd b01c f53c 3710 673b c013 993c
00000180: 6561 e63b 78b0 073d 4183 6d3d 08cd 7b3c
00000190: 7562 3fbd 836a b0bc 26d9 bd3c f895 89bd
000001a0: 4edc 423d 7404 67bd 0caf b2bb 417d 913d
000001b0: 1d9f be3c 751e 3c3d 9ef7 ccbc c5b6 7bbd
000001c0: df53 ef3c 4059 9b3c 2ed5 853d c8ba 8bbd
000001d0: 0840 2e3d c70d 94bd 80aa 9c3d 2479 c23c
000001e0: f324 93bc 3575 1dbc 4ba0 3fbd c04e 57bd
000001f0: b113 97bd 1579 34bc be71 b23d 9270 3f3d
00000200: b56e 9d3d 5e7b 74bc 441c 543d 42d9 22bd
00000210: 9243 693d 1a7c 473d 91c5 ddbb e9a6 8f3c
00000220: 8d5f 653d d5d1 a5bd 2c27 9e3d 429b 75bc
00000230: 07bf ca3c c0b7 ab3b 87d6 95bc 1fdc 0f3d
00000240: d8da 65bc a7ac 9b3d 386a 8a3d 1129 8f3d
00000250: e279 f7bc a75b 573d 51f5 cc3d c656 dcbc
00000260: d889 d6bc 14fb 9ebd aae0 e23c 2807 df3b
00000270: 919e a73d 8322 4cbc 696d 78bc 564d 6b3d
00000280: 3326 55bd 2d61 a3bc 7d21 133d beab 933d
00000290: 8cdc 99bc 0086 433d 2bee 7f3d 36a9 a73c
000002a0: e705 ec3d 2143 e23b 6c55 47bd 8881 513d
000002b0: 240a 323d 7853 843d 4f1c dd3d 9cba 373c
000002c0: 6bce f9bc 7f6e e83c 3ed1 d93d 3a5a 9d3d
000002d0: 897f 9bbc 3790 443c e83a 303c d7fc 1fbd
000002e0: 9538 b93d 5136 533c 738e 863d 0964 943d
000002f0: 39b6 843b daf6 f03b e330 22bd a4ea a53c
00000300: 6e9b ed3c bb2d 2e3d 304d 0d3b e75e 133d
00000310: 5b0b 89bd 73f7 903d 520e 533d d196 b13d
00000320: 75aa 09bd 5769 033e 5590 60bd e5b5 ca3b
00000330: b21c 87bd e80b 843c 5b81 3fbd 1064 02bd
00000340: 7974 b43d 601c 03bc cd1a 173d 2f11 163c
00000350: a27c 4bbd 3b73 a3bc c790 423d 6429 b13d
00000360: bfbf 8ebd c6af 98bd c2ee fa3c 8ab5 5e3c
00000370: a5ae 39bc 22d1 ae3d 91d7 63bd 61dc 2e3c
00000380: 1c1f e43c 7520 b13c d287 d1bc 5ecf c23d
00000390: b735 143d dd68 8c3a 3aed 90bc 5f31 8f3d
000003a0: f85a 7fbd d533 91bd 4173 8b3d 1f24 cc3d
000003b0: 94b0 0f3d d236 b23d 03fd 9abd 035f a93c
000003c0: e030 543d 3ada 9a3c 1285 983d 96fd 823d
000003d0: 6c6b b83d ddbc b0bd a199 45bd 554a 9f3d
000003e0: 07ca 363d fc48 8fbd d9fa 5a3d 48fb 80bc
000003f0: 91ba 2fbd 23db 063b 44e2 c93d 7043 48bb
0.031516224 0.10253714 -0.044275966 0.02567707 -0.0007094296 0.01577192 -0.03441071 0.027840052
-0.07022894 0.013381217 -0.002950686 0.0031758808 0.012772138 0.017296711 0.011864201 -0.06934505
0.008108219 -0.020445772 -0.04140066 -0.03575789 0.07018127 -0.03935211 0.026615063 0.070853285
0.019256882 -0.0073710415 0.07231467 -0.023216443 0.009815689 -0.052360248 -0.03173553 -0.01191415
-0.034855716 0.05126592 -0.00051685184 -0.0032917925 0.094084755 -0.04366624 0.034005813 0.04820699
0.020291094 -0.016317757 0.06569331 0.042332247 0.009956655 0.00050056627 0.017411754 -0.01111966
-0.024866404 -0.10190018 -0.0074762045 -0.016105587 0.12554705 -0.04201546 0.0005369414 -0.03630256
-0.024696078 -0.06631815 -0.023014966 -0.064801656 0.072626844 0.039177567 0.025245719 -0.016717194
-0.06432234 0.096258886 0.034302417 -0.0458291 -0.086385466 -0.08967442 -0.059697457 -0.002353381
-0.0794246 0.02349162 -0.041899886 -0.06431745 -0.00625517 0.05655349 0.085682146 0.047629222
-0.004004493 0.04535851 0.03280814 0.0762662 -0.079193726 -0.0737007 0.07096336 0.06322634
-0.04095112 -0.0284593 0.06096372 -0.074318595 -0.033232823 0.029920906 0.0035257468 0.018686175
0.0070306533 0.033127278 0.0579865 0.0153687075 -0.046724755 -0.021535164 0.023174834 -0.067180574
0.04757338 -0.05640073 -0.005452996 0.071039684 0.02326923 0.045927484 -0.025020417 -0.0614536
0.029214798 0.018963456 0.065348014 -0.06822735 0.042541534 -0.0722919 0.07649708 0.023739405
-0.017961955 -0.009610464 -0.046783727 -0.052565336 -0.07376803 -0.011015196 0.08713101 0.046738215
0.07687131 -0.014921991 0.05178477 -0.039757974 0.056949206 0.048702337 -0.0067679365 0.017535644
0.055999327 -0.08096663 0.07722315 -0.01499063 0.024749292 0.0052404106 -0.018290771 0.035122033
-0.014029227 0.0760129 0.06758541 0.06990255 -0.030209485 0.05257764 0.10007728 -0.026896846
-0.026188776 -0.07762733 0.027695019 0.006806273 0.08184541 -0.0124594 -0.015162804 0.0574468
-0.052038383 -0.019943798 0.03592061 0.072104916 -0.018781923 0.047735214 0.062482994 0.020466428
0.11524563 0.006904975 -0.04866545 0.05114892 0.043466702 0.06461233 0.10796415 0.011213925
-0.030493936 0.028373001 0.10635613 0.07683225 -0.018981712 0.011997274 0.010756232 -0.039059486
0.09043995 0.012891368 0.06570139 0.07245643 0.004050043 0.0073536457 -0.039597403 0.020253487
0.029004779 0.04252408 0.00215609 0.035979178 -0.06691619 0.07078447 0.05152733 0.08671344
-0.033609826 0.12833153 -0.054825146 0.0061862343 -0.0659727 0.016118959 -0.046754222 -0.03183371
0.08811278 -0.008002371 0.036890794 0.00915937 -0.049679406 -0.019952407 0.04750135 0.08650473
-0.069701664 -0.07455401 0.030631427 0.013593087 -0.011333142 0.08535983 -0.055625502 0.01067266
0.027846865 0.021621922 -0.02557746 0.095122084 0.03618404 0.0010712404 -0.017691243 0.06991839
-0.062342614 -0.07089964 0.06809092 0.09967827 0.035080507 0.087018624 -0.075677894 0.020675188
0.051804423 0.018902887 0.07447256 0.06396024 0.09004864 -0.08629773 -0.048242215 0.077778496
0.044626262 -0.069963425 0.053461883 -0.01574482 -0.042902533 0.0020577393 0.0985761 -0.0030557774

lstm.bias_hh_l0 f4 [512]
00000000: 151b b33d 66ab 483d 4238 bb3c 68ad 8cbd
00000010: 2e65 463d 7ff3 be3d 90ed 363d db92 6a3d
00000020: 6e1c a1bd d7b0 2c3d 23ae 053c 78ee 7fbd
00000030: c8ed 543d ac95 113c e6d9 35bd c04b aabc
00000040: 302a 33bd e246 0dbd ae53 42bd 1707 a5bd
00000050: baac 663d eb9a 22bd 3434 c13a 8036 593d
00000060: e8cd 53bd 183c b73d bc55 c9bc f2a2 ac3d
00000070: 6a39 78bd 4f96 2b3d 6e0d 88bd 4d5e 10bd
00000080: ba9f ac3d 5c1a 903c 9d9e a13d f738 0c3d
00000090: 5e43 a23d 42fe b1bd bb44 913d 1b6c 26bc
000000a0: ff66 59bc b82a 293d d0c1 99bc 1687 07bd
000000b0: 9235 cc3c 3d22 50bd aea4 88bc 8f6c 893d
000000c0: 2542 31bd fba8 78bd 10fb c13d cd4c b53d
000000d0: bc1b 8a3b 555c 85bc 5a1b 8dbd 94ea 1fbc
000000e0: e542 603d 2781 8b3c b7bd 453d 4361 283d
000000f0: 8aee aabb 64f6 77bd 08ad f83c 1de4 273d
00000100: c317 83bd 4a22 9eba c561 4e3c 7013 1a3d
00000110: 7c98 afbd b73a b13c 74c9 aabd cd6e 87bd
00000120: 40ea e0bc b764 bcbc 7217 89bd 08aa a73c
00000130: 04e5 a43c 15e3 e23c 912c ffbc 0c6b 1e3c
00000140: f8e5 f6bd a8f8 8f3d e3b2 36bd 1e60 87bb
00000150: 0e7d b2bc 08d0 d23c 9086 3f3c e95d 05bc
00000160: ead2 dc3c 33c8 87bc 2195 dcbd 8e1f 943c
00000170: d827 003d 09fb ce3a 6393 4a3d 1f7a a53d
00000180: 5fa9 7ebc 46d1 9d3d c560 f83c 6e3c 913b
00000190: 9b8f 0cbd ae25 ce3c 8c94 e43d bc42 4d3d
000001a0: 4adf b03d 2af4 92bd 2e2b d3bb 25ce 913d
000001b0: efc6 4f3d acce a83d 3170 8fbd 8d18 323d
000001c0: 1e1a cc3c 0988 9a3d a1ac 443b 7809 803b
000001d0: cb2e 26bd 61c8 b33d 7eeb 523d 12ae 94bb
000001e0: 6b54 a73b 7a71 133e ff8c 40bd ef5c 9fbd
000001f0: 432c 4abc b4fe e3bc 5247 25bc eccb c9bb
00000200: d112 073e f635 4abc 71b9 c83d c2d7 653d
00000210: 9f65 433d e795 bc3d 72c6 92bd e5b5 ddbc
00000220: c8ac a53d b824 5f3d 3843 953d 5622 063c
00000230: 0832 943d 153e 7fbc 1ba7 083b daec 00bd
00000240: 22f3 933d be49 90bd 557a b83d 6ae1 a23d
00000250: e96b 4bbc 25a4 003c 7760 d83d fbca 3ebc
00000260: 01d8 05bd 9222 f33c 603b 833d 85e0 eebc
00000270: 1b97 823c ad84 d8bc 2af8 b13d 4825 113d
00000280: c433 f93c b5fb 71bd 5b7a 7cbd 08b1 763d
00000290: 9e04 c0bb 068c 36bd 0f9e 6a3d 6978 c0bd
000002a0: 9715 233d 7c0d b83c fa47 b0bd ec05 a33a
000002b0: 7978 d4bc c2a1 0d3c e687 043d 48b8 793b
000002c0: 9139 c33d 2cfd 00bd 98a6 c13d 337d ecbc
000002d0: c613 0bbc 8e02 efbc d465 de3c d62b 31bd
000002e0: 4a0c b63d 17b3 543d f7bb b93c 0894 083d
000002f0: b30b 213d 9e8f ae3d f271 3fbd 3294 fe3c
00000300: bab5 fd3c 457e 57bd 5f05 c33c a863 84bd
00000310: add3 f5bb c2e2 863c c3a7 33bd 0f75 8e3d
00000320: 4bc8 a13c e521 933d b52a a13c a1a8 8bbb
00000330: 5d82 92bc 2f73 e63c 614c 1e3b 29fa a23d
00000340: d94f 10bd 90e9 043e 468d d03d 0fec f7bc
00000350: c94f 963c 9ede a73d 55bd 0cbd 7b78 9cbd
00000360: 844f a33d 012d 4bbd fbe8 7ebc f2fb 6b3c
00000370: 8730 313d c8d1 d2bc 7c90 7c3c 4d8c 23bd
00000380: c5a9 dc3d 4969 933d 8633 3c3d 8b94 39bd
00000390: 0043 14bd d6f9 593b a86d 65bd 3665 8fbc
000003a0: d423 f83b 9b85 e4bb 46ab ee3c 3c3e 593b
000003b0: da83 2fbc f7e2 50bc d6b4 573c 4562 17bd
000003c0: 4a24 9d3c b933 003d 611f e9bc c04e 5c3c
000003d0: e3d1 2c3d ded6 243c d823 fa3c eeee e23c
000003e0: c041 52bd 1f75 a83d b2c6 843c 735d 8e3d
000003f0: 6ae5 1b3c dde6 08bd 1001 b5bc fa3c 0d3d
0.087454 0.048991583 0.022853974 -0.06869012 0.048436336 0.09323787 0.04466015 0.05726896
-0.07866751 0.042160835 0.008159193 -0.06248328 0.05198458 0.008885782 -0.044397257 -0.020788074
-0.043741405 -0.034491427 -0.047443084 -0.08057993 0.05631707 -0.039698523 0.0014740289 0.05303049
-0.05171004 0.08947009 -0.024577014 0.08429517 -0.06060163 0.041891392 -0.066431865 -0.035246182
0.08428903 0.017590694 0.07891581 0.034234013 0.079230055 -0.08691074 0.070931874 -0.01015761
-0.013269185 0.041300505 -0.018769175 -0.033087812 0.024927888 -0.050813902 -0.016680088 0.06710159
-0.04327597 -0.060708027 0.094717145 0.08852539 0.004214732 -0.016279379 -0.068899825 -0.009760518
0.054751296 0.017029358 0.04827663 0.04110838 -0.0052164244 -0.06053771 0.030355945 0.04098903
-0.064010166 -0.0012064662 0.012596552 0.037616193 -0.08574006 0.021634443 -0.083392054 -0.066129304
-0.02745545 -0.022997243 -0.06693925 0.02046682 0.020128734 0.027696172 -0.03114918 0.009669077
-0.12055582 0.07029849 -0.044604193 -0.004131331 -0.021788146 0.025733963 0.011689797 -0.008140066
0.02695604 -0.016574955 -0.107706316 0.018081453 0.031287998 0.0015791367 0.049456965 0.080799334
-0.015543311 0.07705931 0.03031958 0.0044322526 -0.03431664 0.025164451 0.111611456 0.05011247
0.08636339 -0.07175477 -0.0064443564 0.07119397 0.050726827 0.082425445 -0.07003821 0.043480445
0.024914797 0.07545478 0.0030010121 0.0039073788 -0.04057197 0.087784536 0.051494114 -0.0045373524
0.005106499 0.14398757 -0.047009464 -0.077813976 -0.012339654 -0.027831413 -0.010087805 -0.0061583426
0.13190772 -0.012341967 0.09800995 0.056113966 0.047704335 0.09208279 -0.07166757 -0.027064273
0.08089596 0.054478377 0.072882116 0.008186897 0.07236105 -0.015578766 0.0020851556 -0.03147588
0.07224108 -0.07045315 0.09007708 0.079531506 -0.0124158645 0.007851635 0.10565274 -0.011645074
-0.0326767 0.02967957 0.06407809 -0.029159794 0.015941193 -0.026430452 0.08689912 0.035435945
0.030420192 -0.059077937 -0.061640125 0.060227424 -0.0058599254 -0.04456713 0.057279643 -0.093979664
0.03981551 0.022467367 -0.086074784 0.0012437678 -0.025936352 0.008644523 0.032356165 0.0038104225
0.09532464 -0.031491444 0.09455603 -0.028868293 -0.008488601 -0.029176023 0.027148165 -0.043254696
0.08889063 0.051928606 0.022672636 0.0333443 0.039317798 0.085234866 -0.046739526 0.031076524
0.030970443 -0.052610654 0.023806272 -0.064643204 -0.0075020404 0.016465548 -0.043861162 0.06955921
0.019748827 0.07184199 0.019673685 -0.0042620455 -0.017884428 0.028131096 0.0024154412 0.079578705
-0.0352324 0.12979722 0.10183196 -0.030263929 0.018348591 0.08196758 -0.03436025 -0.07640167
0.07974151 -0.049603466 -0.015558477 0.01440333 0.04325917 -0.025734797 0.015415307 -0.039928723
0.107745685 0.07197816 0.045947574 -0.045307677 -0.03619671 0.0033260486 -0.05601278 -0.017504316
0.0075726304 -0.006973935 0.029134404 0.0033148667 -0.010712588 -0.012749425 0.013165673 -0.03695895
0.019182343 0.031299327 -0.028457345 0.01344651 0.04219235 0.010060994 0.03053467 0.027701821
-0.051332235 0.08225464 0.016208027 0.06951418 0.009515146 -0.033423293 -0.022095233 0.03448198

fc.weight f4 [24, 128]
00000000: 45f0 0d3f 4eac a2be 9ff3 2dbd 7ccc 603d
00000010: 3629 69be a3fc 193f 0540 e43e 996c 9b3e
00000020: ea94 dbbe eb16 cf3d b55d d33a 3fb6 3ebd
00000030: e580 323e 90c7 593b e4ec f8bd f0e0 723d
00000040: 9fc3 68be c8b7 663d 7cdf 04be d6a7 aabd
00000050: 98f5 153d fc26 283e cad5 133e a269 87bd
00000060: acf8 95bd 9f2f a83e b366 98be bcfe b1be
00000070: 1fa5 c13e 62ad 233d 53e6 a43e de6f 9bbe
00000080: b152 afbd c717 2f3d b417 1d3e 7163 c73d
00000090: 3280 5c3d ced2 743d 5157 9f3d 15f2 21bd
000000a0: f027 d23d 43fc ffbd f0db 09be d660 f73c
000000b0: b208 9f3c ebc7 ecbe f850 d2be b9ab 713d
000000c0: 44e0 523d 39f8 133e 34fb 8bbe 1509 04bc
000000d0: c51f 55bc 0569 d2bd d55d d7bc ffbf 0cbe
000000e0: 4a0a e2be 1b84 94bc 59c9 7b3e 66a7 a9be
000000f0: ebb0 723d 6df8 763e 0734 df3e f233 84bd
00000100: f41b adbe a103 10be afde 293e 5cdf 783d
00000110: 031b 773d 3283 a8bd 0fc1 edbd daad 3d3d
00000120: ea4e 993d 13f0 813d 3639 0e3c 118a ecbd
00000130: 080b 06be e0ce 6abe 68e3 a33e 686f 1fbf
00000140: 1b79 b4bd 09e6 86be b84b 1ebe 43d3 df3c
00000150: a5b0 a2be 9895 17bc 3502 b93e 312f 3d3e
00000160: 56ab 70bd f7d1 573d 9361 eebd 6238 eb3d
00000170: 3f86 61bd 231f 90bb f740 1c3e 8760 353b
00000180: f132 5abe 32f7 94bc 18c1 59bd c2a6 aa3e
00000190: 3983 b13e e48f 333e cc1d bcbe 0293 a53e
000001a0: 4375 913e 5d5a e23c d8ab debe 2ed2 773c
000001b0: 7bb6 663e ec10 9bbd 82fe 62bd 0dfc 2c3e
000001c0: 6bbb 203d 6672 6e3c 3ec3 aebd 860f 913d
000001d0: d1cb 81be b9b8 bc3e 5c4f 01bd 5089 46be
000001e0: 65cb 083e 8ba0 d03d 853f b23e 8db8 743e
000001f0: 406b 813e 7109 993d 5cef 2d3d 552f c73c
00000200: e67a 7b3e 7367 85be 4a33 663e a015 b4bd
00000210: 29ee 52be e440 493f 6c80 eb3a 5cd0 cb3e
00000220: 60ff 9d3c cc2f 2f3d 2392 22bd 8a40 51bd
00000230: 9bc2 9abe 6744 6a3c a85e e4bd 4a34 0abd
00000240: c053 79be 8d53 e6bd dcdb abbd 1f08 8e3c
00000250: db75 bb3d 6a9b 24be f47e 323e b796 bc3c
00000260: 30ed 893d b985 673e 5dac f23e 607b bb3e
00000270: 273c b23e f0c3 50bd cb78 04bf d7b1 333e
00000280: 2aca 76be f6cf 47bd 509d 893d b949 e23d
00000290: f3ca 813d f42a aebd 8ce6 493c 4023 94bc
000002a0: c860 b7be bd2f 18be 2b37 c93e c6a5 3d3b
000002b0: 440f cd3d d23f ca3e d348 c7be f689 f2bd
000002c0: f9c7 70bd 6fea 483e 3f87 66be 3b91 1f3c
000002d0: 2416 233d 0420 893d f59e be3c 0ea6 7ebe
000002e0: 4a6a b93e f6db 9dbd a8d9 383e aed4 d6be
000002f0: 02ff 423d beeb 8b3d dc5c febe 4872 713d
00000300: df88 9cbe d9df 39be 59d1 babe d002 03bd
00000310: 8ae9 4b3e 8c58 acbc d765 24be e8f9 a2bc
00000320: 789f 2ebd 81b8 c33c 030a 11bb 515f 9e3d
00000330: 6234 48be e219 76be 3d77 8abe 6297 253f
00000340: 84b7 513d 7138 74be d91d 9d3e 4eff 79bc
00000350: ed6e adbe 8235 4fbd a9ed f13e 8b03 213e
00000360: e5ed 9ebb dbbf 003e 730e 4ebe 322e 023e
00000370: 7de9 053e e533 f0bd 1d71 4e3d 88fd cdbd
00000380: aa73 9ebe 49db fdbd 7004 8b3d e71d d13e
00000390: c34f 9b3e 7dd5 943e dcd7 f23e 7c23 c43e
000003a0: f404 903e 448a 0bbe 97da 45be 603c 193c
000003b0: d5e5 bf3e 0fab 1b3e d802 09be 99d9 133e
000003c0: 74f2 9bbe 5803 38be ef08 a63d b1c7 c7bd
000003d0: aa01 6f3e 989a 933e b44d 8cbd 88fc 19be
000003e0: 1cb7 d0bd 830f 493e 1df8 aa3e 0aab 603e
000003f0: c2f2 b13e 7d0d c33d 6e11 b8bc 64d1 f2bc
0.5544475 -0.31772083 -0.042468663 0.05488251 -0.22769627 0.6015112 0.44580093 0.3035629
-0.4288705 0.10111793 0.0016125949 -0.046560522 0.17431982 0.003323052 -0.12154558 0.05929655
-0.22730874 0.05632761 -0.12975878 -0.083327934 0.03661117 0.16421121 0.14437023 -0.06611945
-0.07322821 0.32848832 -0.29765853 -0.3476466 0.3782129 0.039960273 0.32206973 -0.30358785
-0.08560694 0.042747285 0.15341073 0.09735764 0.053833194 0.05977135 0.07780326 -0.039537508
0.10261524 -0.12499287 -0.13462806 0.030197542 0.019413326 -0.46246275 -0.410774 0.059001658
0.051483408 0.14450158 -0.2734009 -0.008058806 -0.013008063 -0.10273937 -0.02628986 -0.13745116
-0.44148475 -0.018129399 0.24588527 -0.33135527 0.059250753 0.24118204 0.4359438 -0.0645522
-0.3381039 -0.14063884 0.16588853 0.060759887 0.060328495 -0.082281485 -0.11609089 0.046308376
0.07485755 0.06344619 0.008680632 -0.115497716 -0.13090146 -0.22930479 0.32009435 -0.6227937
-0.088121615 -0.26347378 -0.15458572 0.027322417 -0.31775394 -0.0092519745 0.36134496 0.18475033
-0.05875715 0.052690472 -0.116397046 0.114853635 -0.055059668 -0.004398243 0.15259157 0.0027675943
-0.21308495 -0.018184278 -0.053162664 0.3333035 0.34670427 0.17535359 -0.36741483 0.3233872
0.28409776 0.02763098 -0.4349048 0.015125794 0.22530548 -0.07571587 -0.0554185 0.16893025
0.039241236 0.014553642 -0.08533333 0.07083039 -0.25350812 0.36859682 -0.031569824 -0.19388318
0.13358839 0.10186871 0.34814087 0.23898526 0.25277138 0.07472504 0.0424646 0.024314562
0.24558601 -0.26055488 0.22480503 -0.08793187 -0.20598663 0.7861464 0.001796735 0.39807403
0.019286811 0.042770192 -0.039690148 -0.05108694 -0.30226597 0.014298535 -0.11150867 -0.033741273
-0.24348354 -0.11246405 -0.08391544 0.017337857 0.091533385 -0.16074911 0.17431241 0.023021085
0.06734693 0.22609605 0.47397128 0.36617565 0.34811518 -0.05096811 -0.51746815 0.1754831
-0.24100557 -0.04878231 0.06719458 0.11049218 0.063375376 -0.085042864 0.012323033 -0.018083215
-0.35816026 -0.1486196 0.39299902 0.002893792 0.10012677 0.39501816 -0.38922748 -0.1184272
-0.05878446 0.1962068 -0.2251253 0.0097392155 0.039816037 0.066955596 0.023269156 -0.24868032
0.36213905 -0.0770797 0.1805178 -0.41959137 0.047606476 0.06832074 -0.4968022 0.058946878
-0.30573174 -0.18151797 -0.36487845 -0.031985104 0.19913307 -0.021038316 -0.16054474 -0.019894555
-0.04263255 0.02389169 -0.0022131212 0.07733024 -0.19551232 -0.24033311 -0.27044097 0.64684117
0.051200405 -0.23849656 0.30686834 -0.015258623 -0.33873692 -0.05058814 0.47251633 0.15724008
-0.0048501366 0.12573187 -0.201227 0.12712935 0.1307735 -0.11728648 0.050400842 -0.10058123
-0.3094762 -0.12395341 0.06787956 0.40843126 0.3033429 0.2906913 0.47430313 0.38308322
0.2812878 -0.13626963 -0.19321667 0.009352773 0.37480035 0.15201972 -0.13379991 0.14438476
-0.30458415 -0.17970026 0.08107173 -0.09754885 0.23340479 0.28828883 -0.06850758 -0.1503774
-0.10191175 0.19634824 0.3339242 0.21940246 0.34755522 0.09524057 -0.022469249 -0.02964086

fc.bias f4 [24]
00000000: 8a83 cd3c f65c b13d f589 47bd 2a54 84bd
00000010: ed74 183c 3d88 6abd 0bb3 9cbb 7b0a 103d
00000020: 489e 31bd 79c6 cd3c 9c42 bf3d ad0d 5c3c
00000030: d14b 14bd fcb0 33be d318 a9ba daaa ecbc
00000040: 9c4d bb3d c1ef 153d f921 3cbd 6906 41bd
00000050: d558 d83c b778 19bb f2d4 5cbc 5971 29bd
0.025087137 0.08660309 -0.04871555 -0.064613655 0.009305221 -0.057258833 -0.004782086 0.035166245
-0.04336384 0.025119053 0.093388766 0.013430995 -0.036205117 -0.17547983 -0.0012901075 -0.028890062
0.09145662 0.0366056 -0.045930836 -0.047125254 0.026409546 -0.00234179 -0.0134785045 -0.041367862
